CCP-main/results/test003/WeightAgent_Training/WeightAgent_Training-176727.pt (torch, 926564 bytes, 33 tensors)

network_body._body_endoder.seq_layers.0.weight f4 [128, 163]
-0.013909836 -0.007941433 -0.044258025 -0.10617146 0.09005319 0.025600009 -0.08111673 0.043777846
0.05171503 0.092270054 0.016672581 -0.018300194 -0.057308674 -0.025471695 -0.09902874 -0.15958971
-0.087299384 -0.019387305 0.1265546 -0.0055540097 0.11441307 0.02973301 -0.024334852 -0.039611254
0.11892062 0.036856864 -0.08605435 0.11547486 0.021659125 -0.059219997 0.12231843 -0.09536331
0.05761606 -0.04236605 -0.07920983 -0.014080232 0.086505234 -0.09352651 0.0039639478 0.0070200204
0.13257235 0.11660843 -0.07745506 -0.010558329 0.09604102 -0.07789122 -0.071800664 -0.023201482
0.07629032 0.11811168 0.10267056 -0.008377769 0.028535258 -0.047116935 0.090921156 -0.04269738
0.034393404 -0.094031245 -0.00029597656 0.03764565 0.07480308 0.09086523 0.034523565 0.006610974
-0.073474936 0.015106965 0.1421863 0.10234635 0.030790152 -0.006620016 -0.1120434 0.106558435
-0.069666676 -0.09365029 0.03786128 -0.028384127 0.18821198 0.09132171 -0.113950394 -0.15127917
-0.07649203 0.016108757 0.05116724 -0.010110853 0.15987182 -0.0093078995 0.10791891 0.16758478
-0.064886674 0.13517228 0.11390657 0.059585955 -0.0076308246 -0.0097624 -0.0792509 -0.010674026
-0.1184021 -0.18250214 -0.21563704 0.1268772 0.0006678607 -0.12006302 -0.05448776 -0.07192813
-0.012315377 0.112839706 -0.07827395 0.007750239 0.03761542 0.03442686 0.13279667 0.044728458
0.0039189556 0.12029314 -0.034311377 0.06796695 0.121603586 -0.07785182 0.013258197 0.19185178
0.054156378 -0.14157672 -0.003692298 -0.059480872 -0.12602478 -0.07098758 0.027704073 -0.108369626
0.039976686 0.008076393 0.17401977 -0.122115895 -0.02133897 0.037044715 0.14466812 0.018983511
0.118343994 0.18554115 -0.056652136 0.110522285 0.092699885 0.044770334 0.07613011 0.04791483
0.04926571 0.032495134 0.0024514443 0.03796524 -0.09524398 -0.039370652 0.036580294 -0.1495647
0.15155317 -0.06849243 -0.005952449 -0.039797757 -0.005133158 -0.12259307 -0.007885579 0.026286056
0.03110124 -0.00093503715 -0.13948044 -0.23934697 0.15743713 -0.043123353 0.044247314 -0.066204794
0.10875768 -0.03258759 -0.021702101 -0.0058289575 0.029939499 0.037192773 0.011194545 0.11898059
0.13474634 0.0072144717 0.007502097 0.06831428 0.015503623 -0.0072466377 0.14561035 -0.008929385
0.1507443 0.01973191 0.0069917142 0.047522835 -0.1366612 0.023673456 -0.0055921157 0.024904093
-0.15643421 0.007642105 -0.032331403 -0.07360315 0.12453203 -0.12973824 -0.11552118 0.040537212
-0.01639759 -0.0736827 0.031956453 -0.09792983 0.002578008 -0.05216186 -0.3209954 0.046912078
-0.0064220917 -0.020107541 -0.10019278 -0.063977726 -0.05160385 0.039240275 0.055637706 -0.11046094
0.19390063 0.049151618 -0.096633516 0.040365916 -0.00603815 -0.0063507585 0.07959202 0.07114548
-0.061773356 0.16889167 -0.07006042 -0.05914236 -0.030984316 0.10853194 0.017800918 -0.15869726
-0.09296555 -0.0134774335 -0.05289861 0.027543198 -0.01116494 -0.16005957 -0.022536209 0.0047939103
0.047744825 0.07903326 -0.04237348 -0.03219165 0.0039331475 0.0023691289 -0.05532591 0.10432686
0.032862462 -0.066009134 0.11417708 0.00039086558 -0.011093819 0.05059194 0.006882477 0.01833973
00000000: 15e6 63bc c91c 02bc e747 35bd 6c70 d9bd
00000010: cf6d b83d 1cb7 d13c 8720 a6bd 6650 333d
00000020: 24d3 533d 15f8 bc3d f094 883c 4aea 95bc
00000030: 80bc 6abd 04aa d0bc 94cf cabd 7c6b 23be
00000040: 05ca b2bd 20d2 9ebc 8797 013e 69fe b5bb
00000050: 6651 ea3d a492 f33c e259 c7bc 693f 22bd
00000060: a78c f33d 39f7 163d 433d b0bd 157e ec3d
00000070: 7a6e b13c ab90 72bd 1682 fa3d d74d c3bd
00000080: d1fe 6b3d 0688 2dbd c338 a2bd c6b0 66bc
00000090: a829 b13d d48a bfbd 01e4 813b 3308 e63b
000000a0: 0cc1 073e 67d0 ee3d c2a0 9ebd d7fc 2cbc
000000b0: 27b1 c43d 6f85 9fbd 3a0c 93bd 0911 bebc
000000c0: 193e 9c3d 89e4 f13d f144 d23d e942 09bc
000000d0: c6c2 e93c b0fd 40bd df34 ba3d 73e3 2ebd
000000e0: 19e0 0c3d 7493 c0bd 4d2d 9bb9 5332 1a3d
000000f0: 5b32 993d 8d17 ba3d 9568 0d3d dfa0 d83b
00000100: 077a 96bd 3483 773c 4999 113e f79a d13d
00000110: a13b fc3c b8ec d8bb 0377 e5bd 4f3b da3d
00000120: 67ad 8ebd b9cb bfbd 6e14 1b3d d485 e8bc
00000130: a4ba 403e e006 bb3d d35e e9bd ede8 1abe
00000140: daa7 9cbd 83f6 833c bd94 513d fea7 25bc
00000150: 70b5 233e 2980 18bc 9704 dd3d 589b 2b3e
00000160: 4ee3 84bd 9a6a 0a3e d947 e93d 6710 743d
00000170: ff0b fabb 79f2 1fbc 4c4e a2bd 1ce2 2ebc
00000180: cd7c f2bd d7e1 3abe f5cf 5cbe 19ec 013e
00000190: 5f13 2f3a 9ae3 f5bd 8f2e 5fbd 0e4f 93bd
000001a0: 6fc6 49bc 8118 e73d 184e a0bd b8f5 fd3b
000001b0: a012 1a3d 2e03 0d3d dafb 073e 3035 373d
000001c0: 956a 803b 405c f63d 168a 0cbd 4232 8b3d
000001d0: 4d0b f93d c670 9fbd e938 593c cb74 443e
000001e0: 14d3 5d3d 7df9 10be 7bfa 71bb 37a2 73bd
000001f0: a40c 01be f061 91bd a7f3 e23c e5f0 ddbd
00000200: 98be 233d d952 043c 3d32 323e e617 fabd
00000210: 10cf aebc 33bc 173d e123 143e 4f83 9b3c
00000220: 565e f23d 80fe 3d3e 120c 68bd 8259 e23d
00000230: 70d9 bd3d 1961 373d 1aea 9b3d 5742 443d
00000240: d7ca 493d 9e19 053d 69a8 203b 7181 1b3d
00000250: 470f c3bd 1f43 21bd 38d5 153d 7d27 19be
00000260: c130 1b3e c245 8cbd c30c c3bb f902 23bd
00000270: 0d34 a8bb 1312 fbbd 8432 01bc db55 d73c
00000280: 07c8 fe3c 481d 75ba f6d3 0ebe 5f17 75be
00000290: 3337 213e 1da2 30bd ac3c 353d 6196 87bd
000002a0: 59bc de3d 917a 05bd 9bc8 b1bc d700 bfbb
000002b0: ae43 f53c 7357 183d 5369 373c 18ac f33d
000002c0: f2fa 093e 6067 ec3b 27d4 f53b 5be8 8b3d
000002d0: e802 7e3c 3475 edbb e11a 153e 8e4c 12bc
000002e0: b75c 1a3e d1a4 a13c c01a e53b 4ea7 423d
000002f0: eaf0 0bbe d6ee c13c 113e b7bb ab03 cc3c
00000300: 4a30 20be a06a fa3b ef6d 04bd 40bd 96bd
00000310: a60a ff3d 1ada 04be 5e96 ecbd 590a 263d
00000320: 3d54 86bc f5e6 96bd c5e4 023d 6f8f c8bd
00000330: ccf3 283b ada7 55bd 8259 a4be e126 403d
00000340: 6970 d2bb 92b8 a4bc df31 cdbd c106 83bd
00000350: 8f5e 53bd 69ba 203d 5de4 633d 5839 e2bd
00000360: e38d 463e 3553 493d cbe7 c5bd bb56 253d
00000370: acdb c5bb 061a d0bb 2401 a33d b9b4 913d
00000380: 0f06 7dbd f0f1 2c3e d67b 8fbd 423f 72bd
00000390: d2d2 fdbc fe45 de3d 3bd3 913c 8981 22be
000003a0: b964 bebd 74d0 5cbc 36ac 58bd 46a2 e13c
000003b0: 27ed 36bc a8e6 23be db9d b8bc 3c16 9d3b
000003c0: 1490 433d 31dc a13d d08f 2dbd 64db 03bd
000003d0: a2e1 803b 6343 1b3b 6c9d 62bd 52a9 d53d
000003e0: ca9a 063d cc2f 87bd acd5 e93d 17ed cc39
000003f0: d9c2 35bc 7e39 4f3d 6786 e13b 343d 963c

network_body._body_endoder.seq_layers.0.bias f4 [128]
0.0030364122 0.017258268 0.012046687 0.002816446 -0.0008383214 -0.012209782 0.0038416365 0.00102205
0.016300391 -0.008855984 -0.0016010884 0.016909463 -0.0049757413 0.0035678642 0.011692076 0.016889786
2.3923545e-05 -0.0015113174 0.011479771 0.010516366 0.009975209 0.029846162 0.012650556 0.034871485
0.00418428 -0.008669112 0.0013844913 0.005020942 0.008547448 -0.011763624 0.027090667 0.025770273
0.0066192616 0.028563445 0.0020064926 0.028126199 0.0021616763 -0.004152346 -0.0035357669 0.00510836
0.0038611752 0.017588696 0.0023384078 -0.018318694 -0.0014064782 -0.0028435758 0.02751656 0.00035435223
0.0048141656 -0.0034646222 0.014967821 0.010149908 0.00031634842 0.007371433 0.00020110508 0.01814161
0.007348321 0.012400747 -0.017599525 -0.0079587735 0.020718373 -0.01339193 -0.0032580143 0.014898205
0.022897948 -0.00033048732 0.0056093237 -0.008624993 -0.010115831 -0.0017966605 0.0047326614 0.0043929666
-0.004458698 -0.007932329 0.018630061 -0.011268357 0.021066656 0.008895089 -0.011810884 0.016411798
0.012609343 0.0093377605 -0.00095840276 0.0030799487 -0.007913099 0.0007380446 0.0022761433 -0.013696827
-0.0014878004 0.02287856 -0.0064974907 0.0067969696 0.0011898122 0.006976332 0.031516127 -0.012837437
-0.005930774 0.008869072 -0.012204778 0.008056285 0.006074704 -0.002912416 -0.006463464 -0.007293155
-0.024724314 -0.016396968 -0.0031624609 0.0063445307 -0.01602217 0.00720886 0.027387276 -0.015999038
-0.0021176462 -0.013349056 0.003997789 -0.00967733 -0.007308389 0.0077710105 0.0075702732 0.00013139966
0.027070586 0.022594504 0.0179991 0.022151053 0.011138107 -0.008261108 -0.0067030825 0.004185706
00000000: 8bfe 463b 3661 8d3c 785f 453c 1f94 383b
00000010: ccc2 5bba 8a0b 48bc f7c3 7b3b 4ff6 853a
00000020: 6688 853c b018 11bc 9ddb d1ba b785 8a3c
00000030: 8b0b a3bb d4d2 693b 1f90 3f3c 735c 8a3c
00000040: 6caf c837 6617 c6ba a615 3c3c d64c 2c3c
00000050: 0f6f 233c f07f f43c 4744 4f3c 67d5 0e3d
00000060: 491c 893b e408 0ebc d277 b53a b786 a43b
00000070: 980a 0c3c 37bc 40bc 3fed dd3c 2e1c d33c
00000080: 64e6 d83b e3fd e93c 5c7f 033b ea68 e63c
00000090: e9aa 0d3b 6710 88bb 53b8 67bb 0864 a73b
000000a0: c50b 7d3b 2b16 903c f93f 193b 1611 96bc
000000b0: 9459 b8ba 495b 3abb 696a e13c 5ac8 b939
000000c0: 26c0 9d3b b70e 63bb 973b 753c cd4b 263c
000000d0: 91db a539 108c f13b bcdf 5239 b79d 943c
000000e0: 2fca f03b 812c 4b3c e12c 90bc 8465 02bc
000000f0: 94b9 a93c d369 5bbc 6984 55bb 9a17 743c
00000100: 7a94 bb3c 4245 adb9 6bce b73b d84f 0dbc
00000110: dfbc 25bc ec7d ebba 7114 9b3b e0f2 8f3b
00000120: 451a 92bb 99f6 01bc 129e 983c ea9e 38bc
00000130: fb93 ac3c b5bc 113c 7082 41bc 0972 863c
00000140: 6b97 4e3c 68fd 183c 523d 7bba f7d8 493b
00000150: f1a5 01bc 5679 413a 592b 153b a868 60bc
00000160: 4c02 c3ba d16b bb3c e7e8 d4bb 1db9 de3b
00000170: 79f3 9b3a b799 e43b 0e17 013d 1d54 52bc
00000180: f056 c2bb 964f 113c 8df6 47bc 82fe 033c
00000190: 500e c73b 3bde 3ebb 77cb d3bb 6bfb eebb
000001a0: a58a cabc ef52 86bc 4a41 4fbb c8e5 cf3b
000001b0: ed40 83bc 4d38 ec3b 485b e03c 6a10 83bc
000001c0: 35c8 0abb 00b6 5abc e3ff 823b aa8d 1ebc
000001d0: 367b efbb f6a3 fe3b 0e10 f83b 54c8 0939
000001e0: 22c3 dd3c 1c18 b93c d972 933c 2076 b53c
000001f0: 9b7c 363c 9959 07bc 88a5 dbbb 3f28 893b

network_body._body_endoder.seq_layers.2.weight f4 [128, 128]
-0.02785915 0.09340243 -0.024195839 -0.047136255 -0.1610674 -0.043166433 0.007983119 -0.044247862
-0.051414516 0.15229145 -0.20103726 0.15812749 0.053111788 -0.019813128 -0.12947062 0.031198777
-0.13895345 0.067300625 0.040923085 -0.034476552 0.043313697 -0.05620416 0.037930343 -0.13259996
-0.0009297147 -0.06908565 -0.11863802 0.023537874 0.05839782 0.10294906 0.07538197 0.06063992
-0.053671036 -0.051826607 0.06407835 -0.1353942 -0.08525141 -0.13962546 -0.19374691 -0.03812657
0.10578187 0.19394657 -0.11456663 -0.021455752 0.05035124 0.045209404 0.0054950537 0.08380535
0.027745053 -0.007918795 -0.06801273 -0.04042962 -0.013059207 0.044567447 0.035101864 -0.019467581
0.13187963 -0.058307514 0.038815953 -0.065889336 0.0032787514 -0.061184175 0.050746024 -0.15843058
-0.025499085 -0.055498403 0.056567818 -0.117159456 -0.0063393256 0.16273886 0.07979521 0.08100655
0.003993542 0.0081288 -0.06670272 0.03921381 -0.032197554 -0.11212678 0.012302904 -0.09172638
-0.06240873 0.09771541 0.0051940056 -0.05365253 0.03208151 -0.0004958531 -0.049651735 0.20470136
-0.14435996 -0.07115356 -0.07210171 0.047960714 -0.058102377 0.12894404 -0.032352973 -0.004534821
-0.09525224 -0.03955852 -0.19283758 -0.16328906 -0.0870201 0.052659564 -0.07967448 0.0747639
0.06976107 0.094795756 0.20866929 0.08296479 -0.011125669 -0.09126291 0.104759224 0.030152924
0.051706634 -0.07561645 -0.10530786 0.035705373 -0.0020784575 0.026027024 -0.025116213 0.09486187
-0.065093376 -0.08009677 0.112251624 -0.011005334 -0.015691992 -0.010634919 -0.1290414 -0.091031715
0.05448079 -0.082803465 -0.00060348364 0.11950789 -0.09655473 0.07704526 0.066156924 -0.21738091
0.20463888 0.007599997 0.07927775 -0.0823668 0.19337372 -0.010608707 0.18692893 0.043366514
-0.11819379 0.06580005 -0.05335616 -0.10436969 0.111426055 0.07071218 -0.1250674 0.13654886
-0.03274507 0.011762453 -0.006546252 0.0234052 0.27340996 -0.0574504 -0.026919361 0.15297018
-0.042051118 -0.07623117 -0.03526534 -0.030283762 -0.14293587 0.13309838 -0.080981776 0.09804677
-0.031762745 -0.090317816 -0.1478776 -0.060285848 -0.03542122 -0.18420671 0.03445507 0.055624854
-0.04640676 -0.084233776 0.15988909 -0.0625574 -0.019623384 -0.036781777 0.114243165 -0.0065116063
0.010475316 0.069414355 -0.21419932 0.00662237 0.04001582 -0.088286884 -0.08714848 0.11930369
-0.117053196 -0.05742917 0.16594088 0.002243591 -0.1389287 0.04075726 -0.030708099 -0.01199198
0.016267428 -0.18077202 -0.066960104 0.058326393 0.0855271 -0.16686021 -0.16462778 -0.022209696
-0.09766731 0.037464414 -0.05691685 -0.10173437 -0.07130584 -0.04909847 0.004572025 -0.04230318
-0.017004713 0.023535633 -0.075100265 0.07370811 0.084178254 -0.071023874 -0.035250742 -0.10544453
-0.05720129 -0.10909293 -0.25962237 -0.016975015 -0.012894674 0.17510809 -0.07917095 -0.19536321
0.042901184 -0.04570688 -0.23986882 -0.101677835 -0.036017057 -0.20874956 0.24448135 -0.09070469
0.0069842334 -0.015741188 -0.04003723 -0.18528602 -0.005228172 -0.14522567 -0.02445787 0.06391064
0.094624795 0.051236566 0.15328836 0.08705112 -0.05574547 0.024324356 -0.051609993 0.034264676
00000000: df38 e4bc c649 bf3d 5a36 c6bc f211 41bd
00000010: daee 24be 49cf 30bd a1cb 023c 3f3d 35bd
00000020: 0798 52bd 4af2 1b3e b6dc 4dbe 2cec 213e
00000030: bf8b 593d 244f a2bc f293 04be 9494 ff3c
00000040: d049 0ebe e9d4 893d f79e 273d 4937 0dbd
00000050: b469 313d 5536 66bd d95c 1b3d 49c8 07be
00000060: 19b8 73ba c77c 8dbd 7df8 f2bd 80d2 c03c
00000070: 8d32 6f3d f5d6 d23d dd61 9a3d 9161 783d
00000080: 29d6 5bbd 2348 54bd 833b 833d c7a4 0abe
00000090: 4b98 aebd faf9 0ebe 9765 46be 9b2a 1cbd
000000a0: 2aa4 d83d ee99 463e e9a1 eabd f9c3 afbc
000000b0: 1a3d 4e3d 7f2d 393d da0f b43b 24a2 ab3d
000000c0: 9849 e33c d5bd 01bc 424a 8bbd 8799 25bd
000000d0: 49f6 55bc 5b8c 363d f9c6 0f3d 7a7a 9fbc
000000e0: 740b 073e dcd3 6ebd 7afd 1e3d fdf0 86bd
000000f0: 52e0 563b 429c 7abd 10db 4f3d a03b 22be
00000100: 75e3 d0bc 4b52 63bd a8b3 673d 4cf1 efbd
00000110: 1eba cfbb 04a5 263e ac6b a33d c3e6 a53d
00000120: 42dc 823b a92e 053c 709b 88bd a99e 203d
00000130: 95e1 03bd baa2 e5bd 1f92 493c 0adb bbbd
00000140: 4ca0 7fbd 041f c83d 7a32 aa3b c1c2 5bbd
00000150: e767 033d 23fc 01ba 9e5f 4bbd 3c9d 513e
00000160: 19d3 13be f5b8 91bd 10aa 93bd 7472 443d
00000170: c2fc 6dbd e809 043e 8d84 04bd d698 94bb
00000180: 9b13 c3bd 1d08 22bd 3777 45be 3f35 27be
00000190: 9837 b2bd 8eb1 573d 602c a3bd d11d 993d
000001a0: e4de 8e3d 4724 c23d 67ad 553e 72e9 a93d
000001b0: 7048 36bc 0ce8 babd 018c d63d 4403 f73c
000001c0: 56ca 533d ccdc 9abd a6ab d7bd cc3f 123d
000001d0: bb36 08bb a036 d53c 84c0 cdbc f146 c23d
000001e0: ad4f 85bd c609 a4bd 2ee4 e53d b74f 34bc
000001f0: 7e8c 80bc 153e 2ebc 6e23 04be d66e babd
00000200: 4027 5f3d dd94 a9bd 1a33 1eba 8dc0 f43d
00000210: 7cbe c5bd e8c9 9d3d 487d 873d 1a99 5ebe
00000220: db8c 513e 6509 f93b 5f5c a23d edaf a8bd
00000230: c303 463e 24d0 2dbc 4c6a 3f3e 16a1 313d
00000240: 960f f2bd 2dc2 863d fd8b 5abd c7bf d5bd
00000250: 5833 e43d 8cd1 903d ab11 00be 77d3 0b3e
00000260: b21f 06bd 4eb7 403c f181 d6bb 43bc bf3c
00000270: 64fc 8b3e 1c51 6bbd fe85 dcbc 37a4 1c3e
00000280: cb3d 2cbd 161f 9cbd 6472 10bd a715 f8bc
00000290: c85d 12be f14a 083e c6d9 a5bd bfcc c83d
000002a0: a719 02bd 8cf8 b8bd 3a6d 17be 4bee 76bd
000002b0: d715 11bd afa0 3cbe c220 0d3d e3d6 633d
000002c0: 0415 3ebd c282 acbd f7b9 233e 181e 80bd
000002d0: 38c1 a0bc 7da8 16bd 52f8 e93d 505f d5bb
000002e0: a9a0 2b3c 1d29 8e3d 1157 5bbe 7700 d93b
000002f0: a1e7 233d c1cf b4bd e77a b2bd 7e55 f43d
00000300: 96b9 efbd d93a 6bbd 68ec 293e 3609 133b
00000310: 5343 0ebe 16f1 263d 8d8f fbbc 027a 44bc
00000320: 4543 853c 4d1c 39be 6122 89bd a8e7 6e3d
00000330: d528 af3d 67dd 2abe 2f94 28be 1cf1 b5bc
00000340: cc05 c8bd 4974 193d a521 69bd 1c5a d0bd
00000350: cc08 92bd 7a1b 49bd edd0 953b 1946 2dbd
00000360: 784d 8bbc cdcd c03c 2bce 99bd 47f4 963d
00000370: a665 ac3d f774 91bd 1563 10bd 4df3 d7bd
00000380: e64b 6abd 1d6c dfbd 39ed 84be 300f 8bbc
00000390: 2f44 53bc 894f 333e 6124 a2bd 4b0d 48be
000003a0: 27b9 2f3d 2337 3bbd 2ca0 75be 783c d0bd
000003b0: 9f86 13bd 72c2 55be 5259 7a3e 61c3 b9bd
000003c0: ffdb e43b aaf3 80bc 14fe 23bd 9ebb 3dbe
000003d0: 1651 abbb 0ab6 14be df5b c8bc 95e3 823d
000003e0: a5ca c13d 6fdd 513d a0f7 1c3e dc47 b23d
000003f0: 5d55 64bd df43 c73c 0065 53bd 1e59 0c3d

network_body._body_endoder.seq_layers.2.bias f4 [128]
0.0019670625 0.031696424 0.00799052 0.015053993 -0.005665048 -0.009384963 -0.0013885554 -0.0044021094
0.013155754 -0.0031338912 0.008960765 -0.0070119104 0.003708818 -0.004293592 -0.00358192 0.012106904
-0.0028501442 0.00436087 0.0005690284 -0.0045143417 0.024459405 0.004481287 -0.010586794 0.00052429206
0.0007927277 0.0004530417 -0.0038723042 0.00066776876 9.821491e-05 0.0043928237 0.005041333 0.005478347
0.028168038 0.0061510415 -0.0066918554 0.00954783 -0.008276855 0.008133615 0.006569425 -0.016544055
-0.0016389112 0.031467978 -0.009000067 0.0032444617 0.0013853452 -0.0019361734 0.0039331075 -0.0012781435
0.0014238599 0.012004624 -0.0050423527 0.0036026372 -0.011206737 0.0033638037 0.0011875536 -0.0027757932
-0.0131555395 0.0040283776 0.017294832 -0.0031783246 -0.0018509481 0.00788883 0.0069351285 0.030246451
0.0033103938 -0.013527952 0.0008080708 -0.0022822963 -0.0010621657 -0.015777245 0.005649787 0.02882224
-0.015469934 -0.006373992 2.5010402e-05 -0.0006329198 -0.0136638 0.008775885 -0.0024351622 0.0037556584
-0.008443119 -0.00010143774 0.0009338034 0.030650187 0.007851996 0.003225454 0.0041594873 -0.011114292
0.011144808 0.0002697213 -0.0022498388 0.0015677888 0.0019683617 -0.0022465063 0.002364966 -0.01719389
0.027187848 0.004884623 0.00075014815 -0.016237004 0.006241277 0.0019711007 0.0044496995 -0.0047634244
-0.01291567 0.0074343854 0.00856099 0.011766361 0.006014152 -0.003938985 0.0031792894 0.010463162
-0.0033884502 -0.010453067 -0.0070801247 -0.0014874635 -0.00667473 0.00322825 -0.002690522 -0.0035212373
0.009237829 0.0023755156 -0.004660747 -0.007054115 -0.0083048735 0.0014691587 -0.014436939 0.0067076306
00000000: d5e9 003b 1cd4 013d acea 023c 06a5 763c
00000010: dea1 b9bb 63c3 19bc 3000 b6ba 923f 90bb
00000020: 3b8b 573c f861 4dbb 2cd0 123c 2bc4 e5bb
00000030: a40f 733b 43b1 8cbb a5be 6abb 095c 463c
00000040: 7cc9 3abb a1e5 8e3b d92a 153a 0bed 93bb
00000050: 175f c83c c3d7 923b 3b74 2dbc a570 093a
00000060: 0ecf 4f3a 3a86 ed39 7cc6 7dbb 340d 2f3a
00000070: baf8 cd38 adf1 8f3b c431 a53b b583 b33b
00000080: a8c0 e63c ad8e c93b 5a47 dbbb 806e 1c3c
00000090: a59b 07bc db42 053c 5544 d73b 6687 87bc
000000a0: bcd0 d6ba 91e4 003d 0475 13bc 09a1 543b
000000b0: 7994 b53a 33c7 fdba 4ce1 803b 6187 a7ba
000000c0: cfa0 ba3a 0baf 443c 523a a5bb 391a 6c3b
000000d0: 769c 37bc 4373 5c3b b0a7 9b3a 15ea 35bb
000000e0: 558a 57bc 7b00 843b e4ad 8d3c 704b 50bb
000000f0: 839b f2ba 2740 013c 1340 e33b 68c7 f73c
00000100: 31f3 583b 58a4 5dbc b7d4 533a 9492 15bb
00000110: 5e38 8bba 483f 81bc d921 b93b 9e1c ec3c
00000120: 9b75 7dbc ecdc d0bb 6ecd d137 87ea 25ba
00000130: 22de 5fbc bbc8 0f3c 3e97 1fbb 7e21 763b
00000140: 0255 0abc f9ba d4b8 7cca 743a 1a16 fb3c
00000150: a9a5 003c 2362 533b 4f4c 883b b818 36bc
00000160: b698 363c 6169 8d39 0872 13bb 437e cd3a
00000170: a1ff 003b 1f3a 13bb 8cfd 1a3b 33da 8cbc
00000180: 0db9 de3c 300f a03b 97a5 443a 7703 85bc
00000190: a083 cc3b 952d 013b c9ce 913b 8016 9cbb
000001a0: 3f9c 53bc 259c f33b 6543 0c3c b2c7 403c
000001b0: 5d12 c53b 9a12 81bb a05b 503b af6d 2b3c
000001c0: c310 5ebb 5743 2bbc 6400 e8bb fef6 c2ba
000001d0: b2b7 dabb 0c91 533b 7853 30bb 8fc4 66bb
000001e0: 435a 173c 8aae 1b3b 2eb9 98bb 3526 e7bb
000001f0: 2a11 08bc c990 c03a e988 6cbc afcb db3b

action_model._discrete_distribution.branches.0.weight f4 [7, 128]
-0.006393916 -0.002989555 -0.012385054 -0.00061552646 0.0056526354 -0.008450001 -0.0023094658 0.0051418887
-0.006238404 0.010133226 -0.0047474634 -0.012408272 -0.0058277887 0.0014672616 -0.010244702 0.008119479
0.020722486 -0.004280254 -0.006398671 -0.0077854744 -0.004227704 -0.0018794154 0.007976773 -0.009349312
-0.0040768087 0.0015370386 -0.008617644 0.0013191625 0.0017921622 0.021251017 0.0021231645 0.0053610937
-0.005908306 -0.010773046 -0.0026792749 -0.0017874163 0.002469102 -0.0020910972 -0.011374144 -0.009475417
-0.01743551 0.0027873463 -0.003068341 -0.016225591 0.0024583067 0.010842543 -0.012512913 0.0020448486
-0.0040001203 -0.0023266491 -0.017679704 -0.0058599273 -0.004680283 0.005056531 0.0006463588 -0.013391567
4.6531077e-05 0.0036190134 0.018664291 0.015561126 0.013246312 0.0007202526 -0.0006258892 0.0052802074
0.010318659 -0.0032561442 -0.011447849 -0.003140173 -0.013669267 -0.008980287 0.0008744092 0.004905128
0.0005715925 -9.92571e-05 0.00021422884 -0.022258243 -0.0075186016 -0.0047202595 -0.014965186 -0.007945366
0.008535187 0.0032858558 -0.010559262 0.0020551065 0.0028241866 0.010699226 -0.019320128 -0.00015099981
-0.0014018401 -0.0044073015 0.0022764998 0.013123205 0.01194964 -0.003282746 0.001979889 -0.019980578
0.00057472463 0.006802607 -0.0052189506 -0.0024242615 -0.00838719 0.0121958675 0.010809953 0.007885606
-0.006976197 -0.0083684465 -0.008818439 0.004737242 -0.014008613 0.0033970538 -0.015703073 -0.0015780844
-0.0030306072 0.005760986 0.004061674 -0.00330841 0.009010194 -0.0041176723 0.010277943 0.010489216
-0.008733501 0.006875322 -0.004886806 -0.0019908214 -0.0024537146 -0.007911635 -0.014397846 -0.0027261486
-0.02565446 0.03094063 0.016331954 0.022590708 0.0036374668 -0.03671854 -0.022749977 -0.017512139
0.035125226 -0.0004777812 -0.026062913 -0.042928573 -0.0023251593 -0.01631868 -0.007984175 0.013179542
-0.018587537 0.001587549 0.008101312 -0.004321601 0.02220356 -0.015572656 -0.010892564 -0.00047258192
-0.012532924 0.002689522 0.0042837756 0.011018022 0.011152119 0.002975255 0.009287521 0.016393295
0.021767877 0.003205273 -0.016597845 -0.0022614452 -0.020354923 0.024830716 -0.03199073 -0.024189036
-0.010532058 0.04181324 -0.03762923 0.004648168 0.00064368005 0.010270433 -0.04321893 0.0025236188
0.0018417486 -0.037020955 -0.03324953 0.007904231 -0.012456688 -0.0017162669 -0.023461562 -0.005733808
-0.018832149 0.007312963 0.018204315 -0.02548292 0.0058142715 -0.002952707 0.0076844636 0.028201582
-0.011357009 0.0031860357 -0.017534459 -0.020255325 -0.019505493 -0.019919323 -0.033825707 0.03030456
-0.023345152 -0.013489835 0.0061486945 -0.0035753679 -0.017804371 -0.0289731 -0.009385963 -0.034235943
-0.021112679 0.0028019662 -0.0057237763 0.029563997 0.015524159 -0.0042129783 -0.005165168 -0.0042956853
0.014344437 0.009114259 0.004488298 -0.0039065327 0.0014473468 -0.007155117 -0.006905577 -0.017882371
0.014349397 0.0009923839 -0.012602062 -0.019061517 1.1939688e-05 0.0007182318 -0.009474037 -0.00833834
-0.043395396 0.0003751022 0.003761761 0.021216337 0.0045291437 -0.0009477375 0.0026543117 0.02376163
0.010929759 -0.01149637 -0.014412983 -0.04465857 -0.011527772 0.0005838552 -0.0141824 0.0076075275
0.007344532 0.0025963474 -0.014229458 -0.0021258818 -0.033074085 0.008245068 -0.032392807 0.010946307
00000000: 0e84 d1bb 69ec 43bb aeea 4abc 485b 21ba
00000010: be39 b93b df71 0abc 685a 17bb 4a7d a83b
00000020: 876b ccbb d505 263c 9c90 9bbb 114c 4bbc
00000030: 09f7 bebb 2151 c03a 65d9 27bc 9007 053c
00000040: 34c2 a93c 5f41 8cbb f1ab d1bb 4b1d ffbb
00000050: 8d88 8abb b756 f6ba 03b1 023c db2d 19bc
00000060: c096 85bb 7576 c93a 0531 0dbc c0e7 ac3a
00000070: fce6 ea3a 9d16 ae3c ca24 0b3b 1dac af3b
00000080: 779a c1bb 6e81 30bc c696 2fbb bd47 eaba
00000090: a8d0 213b ca0a 09bb 9e5a 3abc c83e 1bbc
000000a0: ead4 8ebc e9ab 363b 3816 49bb 88eb 84bc
000000b0: 8b1b 213b eca4 313c f602 4dbc de02 063b
000000c0: 7113 83bb b27a 18bb 07d5 90bc a204 c0bb
000000d0: 0f5d 99bb 42b1 a53b 6870 293a 4e68 5bbc
000000e0: 5d2a 4338 f82c 6d3b dbe5 983c 18f4 7e3c
000000f0: 0f07 593c 55cf 3c3a b712 24ba 9705 ad3b
00000100: 980f 293c 0965 55bb c28f 3bbc 5ccb 4dbb
00000110: 10f5 5fbc 0e22 13bc 9c38 653a 32bb a03b
00000120: ecd6 153a 4028 d0b8 9ea2 6039 eb56 b6bc
00000130: 9a5e f6bb 68ac 9abb 8a30 75bc 482d 02bc
00000140: 2bd7 0b3c 8357 573b c100 2dbc f7ae 063b
00000150: fd15 393b ce4b 2f3c 3f45 9ebc b455 1eb9
00000160: f3bd b7ba 206b 90bb 5431 153b b602 573c
00000170: 6cc8 433c 5723 57bb 07c1 013b 4fae a3bc
00000180: 1ea9 163a 67e8 de3b bb03 abbb 5ce0 1ebb
00000190: 6d6a 09bc 2dd1 473c 3b1c 313c a132 013c
000001a0: 9598 e4bb cf1b 09bc 377b 10bc de3a 9b3b
000001b0: 6284 65bc 1ba1 5e3b bba3 80bc bad7 ceba
000001c0: 279d 46bb a7c6 bc3b ca17 853b e9d1 58bb
000001d0: 7e9f 133c 8aed 86bb d164 283c f6da 2b3c
000001e0: f516 0fbc 624a e13b 8021 a0bb 7178 02bb
000001f0: 80ce 20bb cd9f 01bc f1e4 6bbc 2fa9 32bb
00000200: 4d29 d2bc 3477 fd3c 97ca 853c 2610 b93c
00000210: 9162 6e3b 2e66 16bd 295e babc 9e75 8fbc
00000220: 78df 0f3d b57e fab9 e481 d5bc dfd5 2fbd
00000230: b361 18bb c1ae 85bc 0fd0 02bc 01ef 573c
00000240: e444 98bc 4e15 d03a 5ebb 043c 379c 8dbb
00000250: 3ee4 b53c 7424 7fbc ba76 32bc dfc4 f7b9
00000260: e556 4dbc b142 303b ea5e 8c3b ef84 343c
00000270: 61b7 363c 7ffc 423b b02a 183c 3b4b 863c
00000280: 8c52 b23c 8f0f 523b 34f8 87bc c134 14bb
00000290: 5ebf a6bc c969 cb3c b608 03bd 1628 c6bc
000002a0: a78e 2cbc 5c44 2b3d 1c21 1abd a94f 983b
000002b0: a3bc 283a 5145 283c 5506 31bd 4c63 253b
000002c0: d466 f13a 49a3 17bd a930 08bd bf80 013c
000002d0: 2317 4cbc 5cf4 e0ba 7632 c0bc abe2 bbbb
000002e0: e145 9abc 94a1 ef3b 3721 953c 8fc1 d0bc
000002f0: a585 be3b 3482 41bb f4cd fb3b 0107 e73c
00000300: c012 3abc cfcc 503b 6da4 8fbc 7fee a5bc
00000310: fcc9 9fbc d92d a3bc d38c 0abd 4541 f83c
00000320: 553e bfbc 7804 5dbc fd7a c93b b850 6abb
00000330: 79da 91bc ff58 edbc 95c7 19bc fd3a 0cbd
00000340: 7ff4 acbc 31a1 373b 848e bbbb 3230 f23c
00000350: 0b59 7e3c 060d 8abb 9240 a9bb d2c2 8cbb
00000360: ee04 6b3c f953 153c 9312 933b 5f02 80bb
00000370: e6b4 bd3a 7975 eabb 2e48 e2bb 0d7e 92bc
00000380: bc19 6b3c e112 823a e178 4ebc e626 9cbc
00000390: 9250 4837 b847 3c3a fe38 1bbc 889d 08bc
000003a0: 5fbf 31bd 5da9 c439 e087 763b e2cd ad3c
000003b0: 3669 943b 9671 78ba f6f3 2d3b c0a7 c23c
000003c0: bb12 333c 455b 3cbc 6f24 6cbc e8eb 36bd
000003d0: fbde 3cbc dc0d 193a 4c5d 68bc 9148 f93b
000003e0: 66aa f03b 7b27 2a3b ac22 69bc 6152 0bbb
000003f0: b178 07bd 5216 073c 52ae 04bd 2458 333c

action_model._discrete_distribution.branches.0.bias f4 [7]
0.0006280989 0.009643488 -0.0014131563 -0.007647547 -0.009714454 0.0021792448 0.008589314
00000000: 01a7 243a b8ff 1d3c a839 b9ba 4698 fabb
00000010: 6029 1fbc a9d1 0e3b 32ba 0c3c

exp_avg f4 [128, 163]
1.4386221e-05 -2.604932e-13 1.5151287e-06 -2.0844009e-05 -1.3838199e-05 8.392203e-06 -1.6772308e-13 1.5013546e-07
-1.3485007e-05 -9.479125e-06 1.4650074e-05 -4.0055473e-13 3.5776426e-07 -1.995049e-05 -1.4384424e-05 1.1354665e-05
9.763824e-15 6.700217e-07 -1.696734e-05 -1.193543e-05 9.356924e-06 -3.9108175e-13 -4.2368606e-07 -1.3875899e-05
-1.11858535e-05 3.5203993e-06 -9.475367e-15 8.174735e-07 -9.280537e-06 -6.7225665e-06 -7.560982e-07 -1.4477136e-13
-4.3483107e-07 -3.7517239e-06 -8.346733e-06 2.0833365e-06 -4.6371923e-14 -3.5537838e-07 -6.670636e-06 -2.6748676e-06
2.0848188e-06 -9.0835325e-14 -4.312296e-07 -6.596254e-06 -5.5683067e-06 7.3947615e-07 -1.9940878e-13 7.2531077e-07
-6.407441e-06 -2.0980024e-06 4.7249578e-06 -1.3003684e-13 -2.8444308e-07 -9.383177e-06 -4.839907e-06 -1.0784034e-05
-1.8668044e-13 1.5227339e-06 4.3186374e-06 5.7974466e-07 -7.71544e-06 1.1697731e-13 -6.065136e-08 2.8334362e-06
-2.193432e-06 -1.813928e-05 -1.965308e-13 3.475338e-06 9.72128e-06 6.7491655e-06 1.0942662e-05 1.5676317e-13
-1.0845306e-07 -1.5776866e-05 -1.1678418e-05 -1.4238007e-05 -1.6137258e-13 6.2264917e-07 8.672689e-06 7.382914e-06
4.574897e-06 1.481647e-13 -6.2987215e-07 -8.887688e-06 -8.956933e-06 -6.213808e-06 6.404154e-14 6.899561e-07
5.811835e-07 1.6649083e-06 -8.774027e-06 1.7627223e-13 1.1580986e-07 3.7155514e-06 -3.0262527e-06 -4.4652106e-06
-3.6652176e-14 9.989772e-07 -1.4764391e-06 -6.5509867e-06 -4.6328923e-06 3.126174e-13 9.694752e-07 -1.279237e-06
-3.7672162e-06 -9.643921e-06 -1.6655138e-14 -1.773841e-07 4.878646e-06 -6.000664e-06 2.255597e-06 1.5056944e-13
1.6421061e-06 -8.840385e-06 -6.757564e-06 7.7262675e-06 5.1634125e-15 3.6290032e-08 -1.2705219e-05 -5.959442e-06
1.8392848e-06 3.1173412e-13 2.5360612e-06 -9.318009e-06 -7.0354454e-06 8.912883e-06 -2.0482152e-13 1.5184377e-06
-1.5373987e-05 -1.1728371e-05 5.693959e-06 1.8921197e-13 1.1643998e-06 -1.180101e-05 -4.555488e-06 8.273296e-06
-6.885643e-14 1.3273192e-06 -1.4543271e-05 -1.1292097e-05 -5.6076965e-07 1.257857e-13 7.9933625e-07 -5.1812203e-06
-4.997826e-06 -5.42446e-06 1.5939894e-13 1.9773597e-06 -1.4955513e-06 -6.8470326e-06 -5.42446e-06 1.5939894e-13
1.9773597e-06 -1.4955513e-06 -6.847027e-06 2.9541832e-07 2.0295218e-05 3.3073488e-06 0.000119298755 -2.4713318e-06
-1.5824153e-05 4.954965e-06 1.3213237e-05 3.3208175e-06 -7.383057e-17 3.46602e-07 -2.4261886e-05 -2.2627728e-05
9.720536e-07 -2.3181032e-17 7.1090784e-07 -2.2277429e-05 -2.198775e-05 1.3971311e-06 -3.1386253e-16 3.1562064e-07
-2.230722e-05 -2.1730582e-05 3.0880642e-08 3.0868306e-17 7.05116e-07 -2.1330465e-05 -2.1748008e-05 -1.7899748e-06
-4.9260916e-16 3.9861174e-08 -1.8844356e-05 -2.0983978e-05 -1.6221222e-06 1.1681819e-17 4.5022045e-07 -1.9422565e-05
-2.0032021e-05 6.2072354e-07 -2.0894929e-16 5.9598926e-09 -2.1221147e-05 -2.1459055e-05 -6.921828e-06 -2.3447032e-17
-5.5166777e-07 -1.31209745e-05 -1.6400789e-05 -1.7274618e-07 1.493092e-16 -3.566545e-08 -2.038606e-05 -2.1013748e-05
-8.978041e-06 -6.0755397e-16 -3.9365804e-07 -1.122277e-05 -1.6557517e-05 -2.618534e-07 -3.4043144e-16 -8.8776986e-08
-2.0243837e-05 -2.0698624e-05 -5.667432e-07 -6.0315734e-16 -5.628732e-08 -1.997144e-05 -1.8749326e-05 -2.4976307e-06
6.8105896e-15 -8.3976325e-08 -1.8012859e-05 -1.9775789e-05 -6.0722787e-06 -8.4862304e-16 -2.239754e-06 -1.2282437e-05
-1.411631e-05 -5.474685e-07 7.418872e-15 -7.851177e-08 -1.9968487e-05 -2.0633996e-05 -6.353892e-06 -6.144737e-16
-2.1646706e-06 -1.2075907e-05 -1.3757913e-05 1.1068382e-06 1.0976978e-14 -2.1974468e-08 -2.1679332e-05 -2.1429527e-05
-7.2959597e-06 2.4984825e-15 -1.5004088e-06 -1.1798102e-05 -1.6133015e-05 2.5109155e-06 3.539786e-14 5.5844104e-08
00000000: 595c 7137 07a5 92aa 6d5b cb35 2bda aeb7
00000010: 9d2a 68b7 3dcc 0c37 e3d6 3caa ec34 2134
00000020: aa3d 62b7 8808 1fb7 97c9 7537 057e e1aa
00000030: bf12 c034 5a5b a7b7 a154 71b7 ea7f 3e37
00000040: b1e3 2f28 8adb 3335 1655 8eb7 483e 48b7
00000050: affb 1c37 d228 dcaa f876 e3b4 88cc 68b7
00000060: e0aa 3bb7 0040 6c36 6bb1 2aa8 5a70 5b35
00000070: 9ab3 1bb7 6892 e1b6 acf6 4ab5 81ff 22aa
00000080: ba72 e9b4 20c6 7bb6 f208 0cb7 73cf 0b36
00000090: 30d7 50a9 d5ca beb4 54d4 dfb6 e081 33b6
000000a0: eae8 0b36 008b cca9 bf83 e7b4 6455 ddb6
000000b0: 64d7 bab6 6a80 4635 ab83 60aa fab2 4235
000000c0: 80ff d6b6 68cb 0cb6 148b 9e36 9168 12aa
000000d0: 8fb5 98b4 706c 1db7 7c66 a2b6 13ed 34b7
000000e0: f92e 52aa bd60 cc35 d0e8 9036 c09f 1b35
000000f0: 9071 01b7 6ab4 032a 703f 82b3 1026 3e36
00000100: e032 13b6 cf29 98b7 2546 5daa da39 6936
00000110: 9418 2337 e476 e236 6096 3737 e87f 302a
00000120: b3e6 e8b3 9058 84b7 6cee 43b7 c6df 6eb7
00000130: 7bb0 35aa 2024 2735 ea80 1137 c0ba f736
00000140: 1182 9936 91d1 262a 7c14 29b5 541c 15b7
00000150: bc45 16b7 3480 d0b6 6f35 9029 6c35 3935
00000160: a002 1c35 d075 df35 2934 13b7 0377 462a
00000170: 25b3 f833 b058 7936 a016 4bb6 ded3 95b6
00000180: 1511 25a9 9814 8635 102a c6b5 8cd0 dbb6
00000190: 3e74 9bb6 eafc af2a ea1e 8235 40b2 abb5
000001a0: 48d0 7cb6 53cc 21b7 2204 96a8 f876 3eb4
000001b0: 40b3 a336 5059 c9b6 dd5e 1736 b086 292a
000001c0: 5666 dc35 2a51 14b7 08bf e2b6 11a0 0137
000001d0: 1308 ba27 50dd 1b33 8028 55b7 38f7 c7b6
000001e0: 58dd f635 9f7d af2a 3331 2a36 8b54 1cb7
000001f0: 0412 ecb6 8a88 1537 c99b 66aa 1fcd cb35
00000200: 63f7 80b7 f8c4 44b7 bc0e bf36 a308 552a
00000210: 7948 9c35 f4fc 45b7 58db 98b6 89cd 0a37
00000220: 080d 9ba9 5726 b235 e0fe 73b7 3073 3db7
00000230: cc87 16b5 429f 0d2a f891 5635 58da adb6
00000240: 00b3 a7b6 c203 b6b6 9e77 332a c8b2 0436
00000250: c0ba c8b5 90bf e5b6 c203 b6b6 9e77 332a
00000260: c8b2 0436 c0ba c8b5 84bf e5b6 fc99 9e34
00000270: a63f aa37 d2f3 5d36 0830 fa38 28d9 25b6
00000280: 1cbe 84b7 d342 a636 6cae 5d37 36db 5e36
00000290: e03d aaa4 9e14 ba34 0186 cbb7 add0 bdb7
000002a0: 8277 8235 aace d5a3 37d5 3e35 6ae0 bab7
000002b0: 5572 b8b7 0f85 bb35 efed b4a5 9272 a934
000002c0: 6420 bbb7 124a b6b7 a0a1 0433 dd5a 0e24
000002d0: 3447 3d35 d3ee b2b7 7e6f b6b7 113f f0b5
000002e0: 24fc 0da6 d333 2b33 f213 9eb7 c006 b0b7
000002f0: b2b7 d9b5 d57d 5723 d4b5 f134 a4ed a2b7
00000300: 700a a8b7 cc9f 2635 f2e6 70a5 c5c7 cc31
00000310: 1104 b2b7 f802 b4b7 0d42 e8b6 bd42 d8a3
00000320: 5216 14b5 2822 5cb7 6d94 89b7 1c7c 39b4
00000330: 4c24 2c25 942e 19b3 bb02 abb7 ae46 b0b7
00000340: 64a0 16b7 921d 2fa6 f357 d3b4 6e49 3cb7
00000350: ffe4 8ab7 db94 8cb4 d03e c4a5 aaa5 beb3
00000360: 4fd1 a9b7 f5a1 adb7 4c22 18b5 28d9 2da6
00000370: 90c0 71b3 5788 a7b7 df47 9db7 f89c 27b6
00000380: 9a60 f527 7956 b4b3 521a 97b7 2fe4 a5b7
00000390: 7ac0 cbb6 5499 74a6 ae4e 16b6 aa10 4eb7
000003a0: 17d5 6cb7 c0f5 12b5 82a5 0528 4d9a a8b3
000003b0: 0082 a7b7 2b17 adb7 8433 d5b6 281c 31a6
000003c0: c244 11b6 a099 4ab7 c9d1 66b7 ac8e 9435
000003d0: 60be 4528 5ec2 bcb2 03dc b5b7 8fc3 b3b7
000003e0: d1cf f4b6 de08 3427 a761 c9b5 76f0 45b7
000003f0: 6355 87b7 3381 2836 f46a 1f29 3ed9 6f33

exp_avg_sq f4 [128, 163]
5.722164e-10 3.8545625e-12 2.4769956e-10 4.500262e-09 4.8204134e-09 5.240502e-10 2.1935047e-12 2.2676817e-10
4.6990674e-09 4.9244857e-09 6.3408706e-10 7.899513e-12 1.8108058e-10 4.5874744e-09 4.8959548e-09 3.5938e-10
1.8762405e-12 2.4693492e-10 4.6977013e-09 5.0131037e-09 6.7305234e-10 1.0247738e-11 1.625974e-10 4.3146438e-09
4.849298e-09 4.848801e-10 1.5691131e-12 2.3491561e-10 4.4180077e-09 4.9387103e-09 7.0731043e-10 1.005651e-11
1.3865176e-10 4.687464e-09 4.90237e-09 4.2699133e-10 8.193716e-13 2.0063766e-10 4.7481734e-09 5.0766134e-09
6.339738e-10 1.0694872e-11 1.1252798e-10 4.291382e-09 4.7725885e-09 4.227031e-10 2.6601145e-12 2.394704e-10
4.6478004e-09 4.969113e-09 6.8603306e-10 9.392363e-12 1.1941886e-10 4.375505e-09 4.785942e-09 5.2835286e-10
3.116654e-12 2.458131e-10 4.5279984e-09 4.924341e-09 5.900641e-10 7.816978e-12 1.1217032e-10 4.421705e-09
4.799871e-09 6.898672e-10 3.7603306e-12 2.4835223e-10 4.176489e-09 4.8108846e-09 4.8672694e-10 1.0548882e-11
1.1544831e-10 4.519005e-09 4.8657864e-09 7.084991e-10 5.166821e-12 2.4109692e-10 3.9054404e-09 4.640536e-09
5.4424354e-10 8.104061e-12 8.674477e-11 4.26937e-09 4.748704e-09 5.6779065e-10 5.2393432e-12 1.6761828e-10
4.3007495e-09 4.79067e-09 8.3506696e-10 6.7478696e-12 7.15354e-11 4.0458947e-09 4.49642e-09 5.734982e-10
6.0765277e-12 9.8940835e-11 4.2556407e-09 4.8740083e-09 6.740234e-10 4.9896784e-12 5.0931922e-11 4.2337702e-09
4.6265924e-09 4.997565e-10 2.910253e-12 1.06913756e-10 4.327899e-09 4.905624e-09 6.353909e-10 3.2118134e-12
5.983415e-11 4.264423e-09 4.6908086e-09 4.6243306e-10 2.8797923e-12 9.4888326e-11 4.5784168e-09 4.9931437e-09
7.457379e-10 2.3014292e-12 4.994782e-11 3.8645815e-09 4.4396193e-09 6.102115e-10 3.4733093e-12 8.5858314e-11
4.5043342e-09 4.922648e-09 7.4335416e-10 2.6920053e-12 4.735513e-11 4.176771e-09 4.6860946e-09 5.2358196e-10
5.1001304e-12 8.4846144e-11 4.638864e-09 4.995068e-09 5.845593e-10 3.3291499e-12 7.076791e-11 4.3949395e-09
4.831608e-09 6.448963e-10 3.363506e-12 7.7539405e-11 4.356248e-09 4.837268e-09 6.448963e-10 3.363506e-12
7.7539405e-11 4.356248e-09 4.8372684e-09 2.507825e-11 7.307375e-10 1.5804865e-09 4.4016168e-05 1.4093291e-09
4.1660577e-09 1.797014e-10 1.2757114e-09 1.1192989e-11 4.4645413e-20 1.1431451e-11 1.7213449e-10 1.7307941e-10
1.43529945e-11 1.7155467e-20 1.5999178e-11 1.502552e-10 1.5826353e-10 1.5034413e-11 6.8799615e-19 8.693125e-12
1.722447e-10 1.6968828e-10 1.3509221e-11 5.171552e-20 1.773255e-11 1.4600579e-10 1.5518933e-10 2.0679273e-11
1.8784047e-18 7.950417e-12 1.5610041e-10 1.6535061e-10 1.4810535e-11 1.0967491e-19 2.1653061e-11 1.2933662e-10
1.416491e-10 1.579486e-11 1.4885739e-17 6.4516266e-12 1.4702159e-10 1.5604129e-10 1.5523804e-11 2.046914e-19
2.4941039e-11 1.2419465e-10 1.3798909e-10 2.6370019e-11 2.441108e-17 6.2135835e-12 1.3637824e-10 1.5353402e-10
1.8905722e-11 3.89177e-17 1.7841758e-11 1.2738932e-10 1.4415533e-10 2.2772402e-11 3.2055386e-17 5.540638e-12
1.5005204e-10 1.599121e-10 2.3196446e-11 4.360934e-17 1.7247233e-11 1.238051e-10 1.4013936e-10 2.795251e-11
9.166147e-16 5.859217e-12 1.4155761e-10 1.5328794e-10 4.3945687e-11 2.9433148e-16 1.8273253e-11 1.1260344e-10
1.3113627e-10 2.8680702e-11 1.4477996e-15 5.068997e-12 1.406028e-10 1.539013e-10 3.3290322e-11 5.7604445e-16
1.8382457e-11 1.1090932e-10 1.308802e-10 2.6437715e-11 1.5857492e-15 3.897697e-12 1.4436134e-10 1.5708153e-10
2.3662787e-11 8.3290004e-16 1.7011422e-11 1.2271215e-10 1.4270697e-10 2.791971e-11 1.1837704e-14 3.2928046e-12
00000000: 264a 1d30 d09e 872c 9d2c 882f b9a0 9a31
00000010: cea0 a531 c10c 1030 ab5a 1a2c 9155 792f
00000020: 6f75 a131 3c34 a931 e94b 2e30 3ef8 0a2d
00000030: a719 472f da9f 9d31 4639 a831 3d92 c52f
00000040: 5807 042c 00c1 872f 6b69 a131 ba3f ac31
00000050: d901 3930 b647 342d 19c7 322f 0240 9431
00000060: e09e a631 6748 0530 42d5 dc2b 6f25 812f
00000070: 35cd 9731 5bb1 a931 8c6c 4230 7fea 302d
00000080: 0073 182f 5f0f a131 b471 a831 b0bd ea2f
00000090: f2a1 662b 7b9a 5c2f 6025 a331 5d6e ae31
000000a0: f143 2e30 6c25 3c2d 9f73 f72e 6573 9331
000000b0: 22fc a331 2c62 e82f 5d30 3b2c 76a6 832f
000000c0: 7cb2 9f31 c8bc aa31 4993 3c30 713b 252d
000000d0: 6c4d 032f 5957 9631 9771 a431 873b 1130
000000e0: a650 5b2c 1e23 872f b294 9b31 f632 a931
000000f0: 1232 2230 8a84 092d 47aa f62e baed 9731
00000100: 1dec a431 17a1 3d30 0c4e 842c 7888 882f
00000110: c980 8f31 fd4c a531 5dca 0530 f193 392d
00000120: 9fdf fd2e 9745 9b31 e92f a731 31c0 4230
00000130: 96ca b52c 608b 842f 9e30 8631 9672 9f31
00000140: bc99 1530 7291 0e2d f7c0 be2e c7b1 9231
00000150: 0b2a a331 b712 1c30 cf57 b82c 5a4c 382f
00000160: cbc5 9331 2e9b a431 9d8a 6530 686b ed2c
00000170: da4e 9d2e 1104 8b31 ee7e 9a31 59a4 1d30
00000180: 7fcc d52c bd92 d92e 0339 9231 3b78 a731
00000190: 2e46 3930 078f af2c 3f00 602e a378 9131
000001a0: f0f7 9e31 3d5f 0930 75ca 4c2c 181b eb2e
000001b0: 9ab4 9431 538e a831 a9a7 2e30 e302 622c
000001c0: a293 832e 4386 9231 ca2c a131 ab39 fe2f
000001d0: baa5 4a2c 61a9 d02e 2e50 9d31 2890 ab31
000001e0: a4fc 4c30 ddf2 212c 3fac 5b2e 38c9 8431
000001f0: 4e8b 9831 d1bb 2730 9469 742c efcd bc2e
00000200: 8bc4 9a31 1224 a931 e654 4c30 db6e 3d2c
00000210: 2345 502e 4483 8f31 5303 a131 ceeb 0f30
00000220: e471 b32c 2294 ba2e e163 9f31 15a1 ab31
00000230: b4ae 2030 a244 6a2c cb9e 9b2e 4c02 9731
00000240: 4603 a631 8b44 3130 8aaf 6c2c ce82 aa2e
00000250: f6ad 9531 0f35 a631 8b44 3130 8aaf 6c2c
00000260: ce82 aa2e f6ad 9531 1035 a631 3397 dc2d
00000270: 15dd 4830 6d38 d930 009e 3838 5cb2 c130
00000280: 0825 8f31 7395 452f 1b55 af30 bee8 442d
00000290: fed4 521f ae1a 492d 8d43 3d2f 864d 3e2f
000002a0: 2480 7c2d 6007 a21e f2ba 8c2d 1435 252f
000002b0: 3903 2e2f 7d3e 842d 850f 4b21 5bee 182d
000002c0: 9362 3d2f 0193 3a2f 1fa8 6d2d 3a38 741f
000002d0: 27fa 9b2d fa88 202f eaa1 2a2f 95e5 b52d
000002e0: 109a 0a22 7fdd 0b2d 5ca2 2b2f 0fce 352f
000002f0: 5c46 822d 357b 0120 5c76 be2d 0635 0e2f
00000300: adbe 1b2f ddee 8a2d f54b 8923 16ff e22c
00000310: e6a6 212f b891 2b2f 808c 882d 2ea8 7120
00000320: 3a62 db2d b08d 082f 7ab8 172f 01f4 e72d
00000330: 0827 e123 fc9e da2c 10f3 152f fccf 282f
00000340: e74b a62d e979 3324 11f0 9c2d e810 0c2f
00000350: 1e80 1e2f e44e c82d 52d4 1324 a1f1 c22c
00000360: e5fb 242f 41d3 2f2f c109 cc2d d21c 4924
00000370: 51b5 972d 0a20 082f b915 1a2f 75df f52d
00000380: 1d19 8426 2327 ce2c eda4 1b2f b88a 282f
00000390: 7246 412e a9ab a925 b5bb a02d 1a9e f72e
000003a0: 942f 102f 3347 fc2d 61a6 d026 7759 b22c
000003b0: 2b98 1a2f 5d37 292f 9269 122e 9408 2626
000003c0: 9db1 a12d 66e4 f32e 80e7 0f2f 718c e82d
000003d0: d287 e426 5523 892c 1bba 1e2f 85b6 2c2f
000003e0: dc23 d02d 2d11 7026 51a2 952d 66ec 062f
000003f0: 71e8 1c2f 9995 f52d c63f 5528 e5b5 672c

exp_avg f4 [128]
-4.9426617e-06 -2.0594467e-05 1.0674254e-05 -9.975156e-08 -4.2551055e-06 -2.9325117e-06 -4.268033e-06 -9.350759e-06
-8.496598e-06 5.7786333e-06 2.6182173e-05 -2.3883236e-05 -1.6194552e-05 -3.193898e-06 7.484505e-08 -1.1853528e-05
2.1115775e-05 -1.6177352e-06 -1.7867133e-05 -1.817678e-05 -1.0833346e-05 2.046226e-05 -1.3471859e-05 1.3412326e-05
4.454372e-06 -2.9695148e-06 3.4007917e-06 -6.4232554e-06 -8.8594203e-07 -1.0825261e-07 -1.15610455e-05 4.0085884e-05
-4.0448276e-06 -2.4346504e-05 4.49899e-06 1.7298007e-06 -1.02851955e-05 -4.2111596e-06 -1.1433036e-05 1.5747926e-05
-1.997434e-05 3.8859387e-05 -2.8305018e-07 4.0517138e-05 1.6559223e-05 3.1921438e-05 -1.1577387e-05 -1.4498144e-05
1.4148202e-05 -2.2454358e-06 2.583836e-05 -2.276789e-05 -3.1808504e-06 -3.9880924e-06 1.4436173e-05 -1.1123572e-05
7.560229e-07 -1.5851238e-05 -5.7559505e-06 3.7524598e-05 -3.884014e-05 -2.7845454e-06 -4.789132e-06 1.7666498e-05
-1.4063264e-05 1.21273215e-05 1.1083101e-05 -1.388185e-05 -9.926789e-06 -6.052362e-06 -1.2569234e-05 -2.908838e-05
5.2228534e-06 -2.953581e-06 4.8653164e-05 5.3974123e-05 -5.8921532e-06 -1.5122105e-05 -5.135934e-06 -5.996011e-06
4.5791883e-05 7.439174e-06 -9.008294e-06 -3.173941e-06 -2.3444888e-06 -3.3440963e-06 -2.6472512e-06 -5.6311337e-06
6.9430826e-08 2.1851081e-05 -1.27551475e-05 2.522807e-05 -5.1786164e-06 1.3092556e-05 1.7682149e-05 -8.867025e-06
8.502156e-06 -1.997538e-05 1.125618e-06 2.5168752e-05 -2.5507388e-05 -1.7694105e-05 1.9684177e-05 1.4042914e-05
2.2805748e-06 2.87085e-05 1.784568e-05 9.979245e-06 -9.835073e-07 -1.5956733e-05 -7.167877e-06 2.2143604e-06
-3.0714404e-05 1.5262549e-05 -1.42019635e-05 -5.680918e-06 3.0561e-05 4.8762286e-05 -2.073008e-05 -2.8891618e-06
-1.330833e-05 -2.7787573e-06 -1.1113583e-05 1.6714203e-05 -1.0066287e-05 3.512399e-05 3.4508445e-05 -1.26497525e-05
00000000: 24d9 a5b6 48c2 acb7 9215 3337 0037 d6b3
00000010: 14c7 8eb6 2bcc 44b6 2036 8fb6 34e1 1cb7
00000020: 9c8c 0eb7 15e6 c136 caa1 db37 dc58 c8b7
00000030: 89d9 87b7 c056 56b6 80ba a033 84de 46b7
00000040: c821 b137 f520 d9b5 60e1 95b7 567a 98b7
00000050: dec0 35b7 5ea6 ab37 3205 62b7 8005 6137
00000060: c476 9536 e047 47b6 2839 6436 5887 d7b6
00000070: 79d1 6db5 8078 e8b3 50f6 41b7 e421 2838
00000080: ceb8 87b6 b83b ccb7 08f6 9636 802b e835
00000090: 948e 2cb7 964d 8db6 84d0 3fb7 6a1a 8437
000000a0: 928e a7b7 f3fc 2238 1ff6 97b4 f2f0 2938
000000b0: a9e8 8a37 62e3 0538 803c 42b7 0e3d 73b7
000000c0: 115e 6d37 4bb0 16b6 75bf d837 acfd beb7
000000d0: 9876 55b6 74d1 85b6 e432 7237 619f 3ab7
000000e0: 80f1 4a35 46f8 84b7 3d23 c1b6 bb63 1d38
000000f0: 48e8 22b8 20de 3ab6 55b2 a0b6 8432 9437
00000100: 42f1 6bb7 7376 4b37 8ef1 3937 17e6 68b7
00000110: 3c8b 26b7 6515 cbb6 73e0 52b7 d202 f4b7
00000120: f83f af36 2336 46b6 f010 4c38 4662 6238
00000130: 36b5 c5b6 f2b4 7db7 5655 acb6 5831 c9b6
00000140: a910 4038 059e f936 5422 17b7 e4ff 54b6
00000150: 0356 1db6 236b 60b6 6ea7 31b6 12f3 bcb6
00000160: 001a 9533 d74c b737 f1fe 55b7 dea0 d337
00000170: fac3 adb6 1aa8 5b37 2054 9437 95c3 14b7
00000180: 7ba4 0e37 cd90 a7b7 f113 9735 7c21 d337
00000190: b3f8 d5b7 cd6d 94b7 731f a537 db99 6b37
000001a0: fa0b 1936 09d3 f037 4eb3 9537 886c 2737
000001b0: 0e01 84b5 d3da 85b7 9883 f0b6 6c9a 1436
000001c0: 57d3 00b8 1308 8037 f844 6eb7 b79e beb6
000001d0: a02e 0038 1b86 4c38 82e5 adb7 6ce3 41b6
000001e0: d846 5fb7 b07a 3ab6 7a74 3ab7 7a35 8c37
000001f0: 60e2 28b7 1952 1338 29bd 1038 463a 54b7

exp_avg_sq f4 [128]
5.6285963e-09 1.7758112e-10 5.046741e-09 6.8522628e-09 3.339781e-11 6.288006e-11 1.3700813e-08 1.7372927e-10
2.3909653e-08 8.354709e-09 2.2898563e-09 2.4876845e-10 2.7034938e-10 1.0992162e-08 1.586608e-08 4.3375277e-08
5.518989e-09 4.2862383e-10 2.3786786e-08 6.3855654e-10 5.5555405e-10 1.6466897e-08 1.6583042e-08 3.533102e-08
2.7833158e-09 1.1250575e-08 2.9350442e-09 1.2176034e-10 1.7657034e-11 2.3454433e-10 2.817797e-08 9.894687e-09
1.06285665e-08 4.3509027e-10 4.5136965e-09 1.3650375e-08 1.6154757e-10 6.6248216e-09 2.1175065e-08 1.0536715e-08
3.9816386e-09 1.1617575e-08 1.9419504e-10 5.3291602e-09 5.3824506e-10 1.8833505e-08 4.507272e-08 1.804111e-10
3.8366545e-09 2.3371652e-10 5.7104826e-10 1.4969248e-10 6.0315295e-09 7.128902e-09 9.344828e-09 8.588083e-09
2.3197935e-09 9.270027e-09 2.1456155e-10 1.5776923e-08 2.4716014e-08 1.6765524e-10 1.14175294e-10 2.426231e-08
5.2736715e-10 4.1519823e-09 8.074381e-09 3.5332423e-10 1.0690855e-10 9.414157e-11 1.2774062e-10 8.859807e-09
5.3666183e-09 1.4546088e-10 3.7843932e-08 2.6474224e-08 5.2337263e-11 2.4376062e-10 8.838174e-11 3.847752e-11
3.590336e-09 3.3217964e-09 3.262001e-10 4.3040957e-09 3.752316e-10 3.6344328e-10 1.20615455e-08 9.2601586e-11
1.2354104e-08 1.7554136e-08 2.9298994e-10 1.1638895e-09 3.8576538e-09 9.1931723e-10 4.8178716e-08 1.6633499e-10
1.8051178e-09 3.67935e-10 6.138314e-11 1.4603773e-08 3.2116365e-10 1.1859795e-09 1.6943982e-08 4.9873243e-09
7.6919526e-11 6.5200325e-09 1.6221401e-08 2.2105372e-08 5.040202e-11 1.5444805e-10 1.6797538e-08 1.0434179e-09
9.854915e-10 1.030877e-08 4.390391e-09 1.089281e-10 5.3329323e-09 2.2787512e-09 6.398121e-10 2.7697398e-09
8.458344e-08 6.9611663e-09 6.2965353e-09 1.691252e-08 1.3794296e-10 9.631205e-09 7.577363e-09 2.2564615e-09
00000000: a865 c131 a440 432f 9a67 ad31 2471 eb31
00000010: 97e2 122e 5446 8a2e d060 6b32 7104 3f2f
00000020: e261 cd32 6688 0f32 945b 1d31 0cc3 882f
00000030: 4ba0 942f 0ad8 3c32 e149 8832 9f4b 3a33
00000040: 8aa1 bd31 71a3 eb2f b253 cc32 6c86 2f30
00000050: a4b5 1830 1773 8d32 7f72 8e32 debe 1733
00000060: 9c44 3f31 8d48 4132 d8b1 4931 7de0 052f
00000070: 1b50 9b2d 2ef1 802f 030c f232 4bfd 2932
00000080: ee98 3632 8331 ef2f e516 9b31 fc82 6a32
00000090: 999f 312f 8ca0 e331 76e4 b532 f604 3532
000000a0: ddce 8831 a396 4732 0b85 552f ca1b b731
000000b0: a1f3 1330 51c7 a132 fb95 4133 365d 462f
000000c0: 92d3 8331 ad7c 802f f3f7 1c30 b096 242f
000000d0: e53d cf31 7cf2 f431 fd8a 2032 ca8a 1332
000000e0: 3d6a 1f31 0342 1f32 b5e9 6b2f d285 8732
000000f0: 174f d432 c156 382f fa12 fb2e 6269 d032
00000100: 2af6 1030 39a9 8e31 81b7 0a32 f73d c22f
00000110: 2a18 eb2e fe04 cf2e ca73 0c2f d835 1832
00000120: 4665 b831 99ef 1f2f d889 2233 6f69 e332
00000130: 852e 662e 4202 862f 7f5a c22e d639 292e
00000140: dcb9 7631 a945 6431 9554 b32f 3ae3 9331
00000150: 2749 ce2f 18ce c72f 3d37 4f32 0fa2 cb2e
00000160: ed3d 5432 f4c9 9632 ab12 a12f b9f6 9f30
00000170: 488c 8431 33b3 7c30 0fed 4e33 23e3 362f
00000180: f017 f830 3f46 ca2f a3fb 862e 13e4 7a32
00000190: c48f b02f f2ff a230 368c 9132 f85c ab31
000001a0: d825 a92e d006 e031 3d57 8b32 3ae2 bd32
000001b0: a1ab 5d2e 43d1 292f 2d4a 9032 0168 8f30
000001c0: e671 8730 731a 3132 4ada 9631 1289 ef2e
000001d0: f83c b731 3798 1c31 c6de 2f30 c755 3e31
000001e0: 3da4 b533 112f ef31 e958 d831 0647 9132
000001f0: 7eab 172f 7d76 2532 982d 0232 1710 1b31
