CCP-main/results/WeightAgent_Training/WeightAgent_Training/WeightAgent_Training-10999965.pt (torch, 929636 bytes, 33 tensors)

network_body._body_endoder.seq_layers.0.weight f4 [128, 164]
00000000: 89ad 19bd 7448 93bd 487c ccbd 5890 bd3d
00000010: e273 053e 9d50 6abd 15e8 87bd b742 41be
00000020: 6617 f63d 0aa0 543a efe7 f9bc 1d5e c4bd
00000030: 3905 54bd 275c 743c 3f31 df3d d8c6 f2bc
00000040: 2775 a1bd 7f77 9dbd 558b 2ebc 0932 6d3e
00000050: a460 c9bd ec4e 6dbb 22c1 c23d f644 5b3e
00000060: cb55 c83d b507 0f3e cd8c f3bd 29e7 9cbd
00000070: 6731 c73d 6e7a 8c3e fd2e 6fbe 0232 213e
00000080: 0142 db3d d43a 43bd 65bf 33bd f70b 273d
00000090: faf4 aebd e8fd 42bd 3004 803d adc1 443e
000000a0: 0339 f53d b17b 5cbb 4b2d 243e fd31 ab3a
000000b0: 13ba f6bd a13e e93d b84b 4bbd 2a80 a3bd
000000c0: d841 313d fe03 c23d bae7 923d 2ade ba3d
000000d0: 0954 f23d 56be cfbd 462d adbd 32e2 b33c
000000e0: 03e5 973c f7e8 123e bdc7 663d e48b 80bd
000000f0: c3bc 3d3e d97c 263e b839 103c d5d9 5cbe
00000100: 9053 c1bc c46c 743e 3b27 283d c5d4 613e
00000110: ae10 13be 3ffb 963d c00e 193e c215 453e
00000120: 2c9e 443d 0cb4 47bd a98a 2fbd 1104 823d
00000130: e05c b7bd dc78 383c ff36 3f3d b1d9 edbc
00000140: d9e7 4a3e 0b70 043e d660 a2bc f10c 293e
00000150: 5f53 96bb 8e71 303e 8349 b2bd c6df 143d
00000160: b7ce 863d 57a8 9abc 5a82 143e a759 143e
00000170: 74a7 06bd dc07 533d c2e4 84bd 544d 1a3e
00000180: a1e3 d7bc 6b07 a53d a99a cabd 6a0b 593d
00000190: 5d99 dd3c 0973 0a3d 6b33 3cbd e323 1dbd
000001a0: 26a4 72bd b3dd 5b3e 34b8 cabd 7ae4 27bd
000001b0: 87a5 e0bd ab03 8bbc 27ca 593e 1952 993c
000001c0: c93a febd b22e c4bd 75f8 fe3d df90 813e
000001d0: 024e 35bd dc05 c33d a3b9 803d 9a82 e13c
000001e0: 591a 423e a015 d03d c702 febb 44b8 e2bd
000001f0: b567 db3c f1cb 933d 1de5 27be 11b8 713e
00000200: 0440 993d 11fa 393a 4035 a93c 79b5 08be
00000210: ba24 373d 1389 4d3a 0a80 aa3c bb66 d33c
00000220: 0980 cdbd a49a 423e 962c 2f3e d721 983d
00000230: dc56 183e eef4 9c3b 31d2 ac3c 3833 a13d
00000240: aca8 cebd afa3 023e f0e5 f9bd 0b9e 0e3d
00000250: 7a82 3e3d b2e3 993d c85f 1f3e 92b1 c8bd
00000260: 714d 17bd 610f 413e b718 da3c cb6a 563e
00000270: 3e79 113d e091 023d 093d a4bc 3c8f 183e
00000280: 65c8 ad3d aaf3 d23d 8604 ff3d 4384 4c3d
00000290: e278 5e3e 5ddc 4ebe bbe3 b03d fe48 7ebd
000002a0: 3110 713c 0688 a93d 1858 d63d 3f63 523d
000002b0: 6a57 3abd 9987 153e 22bf f43d bd01 c53c
000002c0: 5549 813c 5510 37be bd66 dcbc 7ac7 87bd
000002d0: 425e 643c 44cf 78bd c7df 86bd 0300 e13d
000002e0: 6700 173e 7f58 fb3c 9014 843b 4c12 a3bc
000002f0: ddf2 5c3d 8267 1f3c 6438 193e b760 b4bd
00000300: d94b 1c3e d115 b33d 4a50 86bd 69f6 5e3c
00000310: 4fa5 7a3c 112d 423c 98a2 d4bc edea d83d
00000320: 4264 5dbd 2d4e 0ebe d01c b3bd eb2e 403e
00000330: 066a 3ebe 4363 3ebe df19 fdbd 67e7 17bc
00000340: b253 f8bd ffde 43bd df1f 4a3e 244c bebd
00000350: 7ccb bfbc 5dbb a1bc 13ac 273c 9d43 14bd
00000360: 1c35 4c3d 71a4 193d 7fb8 d13c 1942 c43c
00000370: cb3c 613e 9f79 65be c051 3ebb 49c3 fabd
00000380: 8a66 23bd 1e97 0ebe 3003 42be 0311 413e
00000390: 3c8a 123e 854d 113c b071 0e3d 1a1d bcbd
000003a0: c884 273d 465b 043d 9e0f fcbb 147b bbbc
000003b0: 6e18 8a3d 1202 083e 1701 703d 8391 f8bd
000003c0: e6cd 0a3e cda0 a63d b2e7 f5ba 6946 4b3d
000003d0: 9d8f 173e c025 f1bd c188 7d3d 2497 7a3d
000003e0: 5488 91bd dd41 82bd 305d 033d f09c c0ba
000003f0: 9439 40bd e2b3 10bc 4abb fcbc 04ef 0bbd
-0.03751901 -0.07191554 -0.09984642 0.09256047 0.13032487 -0.057205785 -0.06636063 -0.18873106
0.12016182 0.0008111006 -0.030506102 -0.09588263 -0.051762793 0.014914549 0.10898065 -0.029635832
-0.07883673 -0.07688808 -0.0106533365 0.23163618 -0.09832886 -0.0036210371 0.095094934 0.21413025
0.09781989 0.13967784 -0.1189209 -0.07661278 0.097262196 0.27437156 -0.23357768 0.15741733
0.107059486 -0.047663525 -0.0438837 0.040782895 -0.08542819 -0.047605425 0.06250799 0.19214506
0.11973765 -0.0033643062 0.16032903 0.0013061162 -0.120472096 0.11388899 -0.049632758 -0.0798343
0.043275684 0.09473418 0.071731046 0.09124406 0.11832435 -0.101437256 -0.08455901 0.021958444
0.018541818 0.14346682 0.05634283 -0.06276682 0.18529038 0.16258563 0.008802824 -0.21567471
-0.023599416 0.23869616 0.041053038 0.22053821 -0.14361832 0.0737214 0.14947033 0.19246581
0.048002407 -0.04875569 -0.042856846 0.06348432 -0.089532614 0.011259284 0.046683308 -0.029034467
0.19815005 0.12933366 -0.019821566 0.16508843 -0.0045875753 0.17230818 -0.087054275 0.03634622
0.065823965 -0.018879099 0.1450285 0.14487325 -0.03287454 0.051521167 -0.064889446 0.15068561
-0.02635366 0.080580555 -0.0989278 0.0529894 0.027050668 0.033801112 -0.045947473 -0.038364302
-0.059238575 0.2147129 -0.09898415 -0.040989377 -0.10969072 -0.016969522 0.21268521 0.018715905
-0.12413556 -0.09579219 0.12449733 0.2530584 -0.044263847 0.09522602 0.062854074 0.027528096
0.18955363 0.10160375 -0.007751796 -0.11070302 0.02678285 0.07216633 -0.16395994 0.23605372
0.07482913 0.0007094453 0.020655274 -0.13350476 0.04471276 0.0007840555 0.020813007 0.025805822
-0.100341864 0.19004303 0.17106852 0.074283294 0.14876884 0.00478994 0.02109632 0.07871097
-0.10090765 0.12757753 -0.1220206 0.03481869 0.04651115 0.075141326 0.15563881 -0.09799494
-0.03693909 0.18853523 0.026623113 0.20939176 0.035516016 0.0318774 -0.020048635 0.1489839
0.08485488 0.103003815 0.12452035 0.049930822 0.217258 -0.2020125 0.08637186 -0.06208133
0.014713333 0.082778975 0.10466021 0.05136418 -0.04549352 0.14602508 0.11950518 0.02404868
0.015782038 -0.17877324 -0.026904458 -0.06629844 0.013938488 -0.06074454 -0.06585651 0.1098633
0.14746247 0.030681847 0.0040307716 -0.019906186 0.05394255 0.009729268 0.14962918 -0.088075094
0.15263309 0.087443955 -0.06558283 0.013608553 0.015298202 0.011851565 -0.025956437 0.105916835
-0.05405069 -0.13897009 -0.0874573 0.18767898 -0.18595132 -0.18592553 -0.1235845 -0.009271479
-0.121253386 -0.047820088 0.1973872 -0.092918664 -0.023412459 -0.019742662 0.010233897 -0.036197294
0.049855337 0.03751034 0.02560067 0.023957299 0.21995847 -0.22409676 -0.0029040426 -0.12244279
-0.03989271 -0.13924834 -0.18946528 0.18854146 0.14310545 0.00886858 0.03477639 -0.09185238
0.040898114 0.032313608 -0.0076922914 -0.022885837 0.06742941 0.1328204 0.05859479 -0.12137129
0.13555107 0.08136139 -0.0018761067 0.049627695 0.14800878 -0.11774778 0.061897997 0.061179295
-0.07106081 -0.06360219 0.032071292 -0.0014695209 -0.04692991 -0.00883195 -0.030851025 -0.03416349

network_body._body_endoder.seq_layers.0.bias f4 [128]
00000000: 3626 6b3d 1fa1 a33b e9fd 2f3d a08d 403c
00000010: 17ee f33c 575e 1a3d 6c72 e5bc 4b54 113d
00000020: f651 47bd 4cbf db3c b561 3d3c 4906 f83c
00000030: 2431 6e3c 0455 423c 9ccb 683d 99d0 a43c
00000040: 355a 1e3d 9b56 86bc 1662 fcbc 7c28 cd3c
00000050: 81b5 723c 7939 183d 30ec 893c 9f98 da3c
00000060: 86a7 4a3d fbdc 073d 1c01 303d 9c0d d03c
00000070: d3c5 0f3d f4ec d13c 3fc9 29bc 3cfa a63c
00000080: 43b7 913b f3dd c5bb b08e 8c3c 10da 6d3c
00000090: 4105 eb3c be00 903c 352f 123d c11d 823c
000000a0: 8111 043c e590 2b3c b018 3bbd 4055 013d
000000b0: a166 a3bc faaa 08bd 3312 d6ba d339 3abd
000000c0: 60c5 6dbc 5b9c af3b 4c86 6bbb 6243 183d
000000d0: e713 4a3d 2308 a4bc 9107 0e3d 4e8c 2f3c
000000e0: 72c7 a23c 9936 7f3c d4ed 9837 78f7 8b3b
000000f0: 5392 063c 08b6 a6bc 3f2a 913c 30ce 0cbc
00000100: a340 cabb 6d26 273d 1d5c 0c3c e919 0d3c
00000110: a887 b43b df0a 4e3d a0a0 b63c 4880 51bb
00000120: 453f 8d3b 76c1 913c c2a1 2e3d 1a4b 323d
00000130: 434a 4b3d e681 7b3b 3cdb 433d 1f30 e7bc
00000140: 5ab8 1a3d 69e5 7a3c e31a 0d3c 613c 4dbb
00000150: 63ad cbbb 6fd7 e03c cfeb 073d 4917 6a3c
00000160: b06d 1a3d 47d6 393c a2dc 7f3c fb2b 05bc
00000170: 4182 02bd 7e6d 093c 6046 7e3c fc5f 313d
00000180: e781 5c3b f333 343c d2b8 db3c 49f7 6a3c
00000190: 7c8f c63b 92d7 cd3c 1723 513c b1f9 3fbb
000001a0: 57a8 3a3d a350 143d 7b9d 7e3c 13c9 113d
000001b0: c33d db3c 72f0 b63c cca0 bb3c e44e 113d
000001c0: 2c6e e93c 6f2a ab3b a358 2c3c b671 b6bc
000001d0: 1220 ba3c 2bec ec3c 21e6 213d 68f6 623c
000001e0: e18d 3d3d a80f cd3c dc08 50bb 8fdc 513b
000001f0: 073b 403d 8dcc 873c d75f 27bc 37ca 333c
0.057409488 0.0049935724 0.042966757 0.011752516 0.029776616 0.037687626 -0.028008662 0.03548078
-0.04866215 0.026824616 0.01155894 0.030276434 0.014538083 0.01186109 0.056834802 0.020118998
0.038660247 -0.016398719 -0.03080849 0.025043719 0.014813782 0.037164185 0.016836256 0.026684104
0.04947617 0.033169728 0.042969808 0.025397114 0.03510077 0.025625683 -0.010362922 0.020382993
0.0044468953 -0.0060384213 0.017157882 0.014517322 0.028689029 0.017578479 0.03568955 0.015883328
0.008060814 0.010471557 -0.04567784 0.03157544 -0.019946398 -0.03336618 -0.0016332328 -0.0454653
-0.01451239 0.005359215 -0.0035938201 0.037173636 0.049335387 -0.020023411 0.034675185 0.010714604
0.019870494 0.015576982 1.823056e-05 0.004271444 0.008213597 -0.020350471 0.01772034 -0.008594081
-0.006172256 0.04080813 0.008566883 0.0086121345 0.0055093355 0.050303336 0.022293389 -0.003196733
0.004310521 0.017792445 0.042634733 0.043528654 0.04963137 0.0038376986 0.0478165 -0.028221188
0.037773468 0.015313485 0.008612367 -0.0031316506 -0.0062157377 0.027446477 0.03318387 0.014287778
0.037702262 0.011342592 0.015616568 -0.008128162 -0.0318625 0.008387921 0.015519708 0.04330443
0.0033646764 0.010998714 0.026821528 0.014341184 0.006059585 0.025127206 0.012764714 -0.0029293115
0.045570698 0.036209714 0.015540476 0.03559215 0.026762849 0.02233145 0.022903822 0.035475627
0.028494917 0.0052235643 0.0105191795 -0.022271018 0.02272037 0.028921207 0.03952611 0.013852693
0.046277884 0.02503188 -0.0031743562 0.0032022332 0.046931293 0.01657703 -0.010215721 0.010973505

network_body._body_endoder.seq_layers.2.weight f4 [128, 128]
00000000: af88 483d 1546 9cbd 625a 2c3e 5c71 0bbe
00000010: 5e28 ee3a f244 01bd a933 2f3e 7852 7fbd
00000020: 47b2 39be 2d36 89be bb27 2bbd 0553 62bd
00000030: 9b45 403d 74c1 85bd f616 863e 8042 103e
00000040: 5690 bc3d 626f adbe 0aae 603d 5e89 ef3d
00000050: 3841 54bd 0fc0 a23d b937 d53c 18ad c93d
00000060: 009b 1e3c c5dd b73d 24cd 403d 9533 843d
00000070: 28f2 af3d a7ea 463d e15d 943c b04e 733a
00000080: 5377 82be 72b3 76bd a33b cdbd e8d0 b2bd
00000090: a4e4 e6bd 1885 dc3c f551 43be 5474 59be
000000a0: 70aa 11be e6b8 213e 3a06 a3bd 8a46 313e
000000b0: 4799 64be a9eb d53c c792 95be 9604 96bd
000000c0: 356c 0c3e 6bac 76bd 9c2a 44be 2bb7 05be
000000d0: 50d9 6a3d d09f babd 302f c83d 3d67 54be
000000e0: a9fc 9fbe 2cf0 1fbe 1fcb 8cbc f091 3fbd
000000f0: c17e 3cbc 97da 11be c810 b73d 154f 283c
00000100: 6601 3dbc f882 4e3b 804c bebd 10b9 e93c
00000110: 9e64 c93d 5c9e a53c f035 28be e74f a2bd
00000120: 2b70 063e 1bf9 553e c5ac fc3d d567 cb3d
00000130: 92b4 35be 5bc8 a43d 8527 ac3d afcb 5ebe
00000140: 39da 0a3d be14 bd3d de87 3cbd 124c d1bd
00000150: f102 2fbe 93b5 113e 2bb9 673d 203c 393e
00000160: f59a 0c3e f155 733e a5ca d3bd 1d7b 8d3d
00000170: de62 01be 42b3 2abe 32e6 3bbc b1aa 933d
00000180: 64d3 973d 8d5b 18bd b81f c0bc 6ca4 303d
00000190: 3dbc 043e df2b 6c3d e1e9 203c cc3b 093e
000001a0: 73d1 a53c bb12 a9bd 57ae 77bd 01ef 4cba
000001b0: 23f9 d53c 6451 9e3d 759b c7bd 567e 383d
000001c0: acdd f9bd 35ab abbd e122 e93c 94d2 25be
000001d0: af72 a9bc c59d 4fbd 0f27 a43d d4a1 9d3e
000001e0: be89 103e 44c3 e7bc f7f4 d5bc 9dcd 1cbe
000001f0: ee11 273d ca5d 06be f3d5 65bd 4f0b 75be
00000200: 8f82 83bd 3b0c 20be e70a 1e3d 4d34 4b3e
00000210: 758c cd3d 722f bbbd 60cb c3bd c67b 743c
00000220: 0deb 1cbe 5c67 7d3d 4dba 893e 8b2d 553d
00000230: 90be 88bd f993 5f3d 0fc0 b93c ed6c 3a3e
00000240: 7a74 c93d 81d9 463d d705 96bd 47bf d0bc
00000250: 29aa 73be 1ac5 cb3c 591b 113d c0b5 673d
00000260: 09ed f03d 7525 52be 4d6e af3d 7663 7a3d
00000270: c932 923c aebd 313d c2e2 7d3d 6586 f43c
00000280: 3f59 843e 8a79 173e 2c16 c4bd eec3 023d
00000290: 2e6c 6c3d 88b3 973d f00d 83bd 4b8b e9bd
000002a0: 95fc 553e 1d16 63bc 042a d2bd 2f14 153d
000002b0: 1179 a8bc 0ad2 2cbd afb7 0bbe fe94 2cbe
000002c0: 331b 3e3e 4953 0fbe a958 b5bc a1b2 3e3c
000002d0: ae97 ee3b d39e a0bd 3ace 853c 66a3 6dbe
000002e0: f19b dcbd 8351 033d c043 b2bd b672 fc3d
000002f0: 5f17 e3bd 3ead 6abd 1505 cc3b 51c8 113d
00000300: eb32 84bd 7764 f53d 3a46 f43d 3e63 b53b
00000310: b6a5 803b 3e55 f83c 61eb af3d b199 093e
00000320: 9e4f 3d3c 9b57 d5bd 6295 b5bd ff5c ee3d
00000330: 0eba 863e bde3 d8bc c46c f8b9 29ac 36be
00000340: 7373 be3d fd6b 123e 1d7f 963c b0c1 433d
00000350: 05f4 b0bd 757f 673d 5b15 143e a2b2 92bd
00000360: 1bc2 d2bd 45a7 1f3e 14bc 87bd 6183 e23b
00000370: 85f0 08be 25c7 b2bd cd4b a93d 51cb 4ebd
00000380: 56aa 80bd aabc 4abc dad4 9abe 8520 5abd
00000390: 414b 4fbd 7d25 75bd 3a70 6f3d 2d22 5dbd
000003a0: 6a2e 55bd da5a 883d 2eb4 cd3c 915d 3e3c
000003b0: 8816 133e e9fb 343d 054b b2bd 2b29 333e
000003c0: b527 073e 9501 febc 1270 afbd 769c 7f3c
000003d0: 9f64 3ebe 3e3f d93a 4628 bfbc 8f62 413e
000003e0: 1a57 5f3d 4c1b 61bd 1d62 f53c 1765 a1bc
000003f0: d479 3d3e 80b8 de3d 07ef 07bd 2c00 213e
0.048958477 -0.076305546 0.16831353 -0.13617462 0.0018169989 -0.031559892 0.1710955 -0.062334508
-0.18134414 -0.26799145 -0.041785937 -0.055254955 0.04694138 -0.06531039 0.26189393 0.14087868
0.092072174 -0.3387404 0.054853477 0.116961226 -0.05182001 0.079467885 0.026027547 0.09847468
0.00968051 0.08977846 0.047070637 0.06455151 0.085911095 0.048563626 0.018111171 0.00092814397
-0.25481662 -0.060229726 -0.100211404 -0.08731252 -0.112740785 0.026918933 -0.19074233 -0.21235782
-0.14225173 0.1579319 -0.07960172 0.17312065 -0.22324096 0.026113348 -0.29213545 -0.073250934
0.13713153 -0.060223024 -0.19156879 -0.13058154 0.05733615 -0.09112513 0.09774625 -0.20742507
-0.31247452 -0.15618962 -0.0171867 -0.046770036 -0.01150483 -0.14243542 0.08938748 0.010272761
-0.011535978 0.003151117 -0.09291935 0.028530627 0.09833644 0.020217113 -0.16426826 -0.079253964
0.13128726 0.20895807 0.12337641 0.09931914 -0.17744663 0.08046027 0.08405975 -0.21757387
0.03389952 0.09232472 -0.04602801 -0.102195874 -0.17090966 0.14229421 0.056573074 0.18089342
0.13730986 0.23763253 -0.10341386 0.069082476 -0.12635371 -0.16669944 -0.011468457 0.07210291
0.074133664 -0.037196685 -0.023452625 0.043125555 0.12962432 0.057659026 0.009821386 0.13401717
0.020241475 -0.08255526 -0.060468998 -0.0007817597 0.026119774 0.07730368 -0.09746448 0.04504236
-0.12200484 -0.083822645 0.028459014 -0.1619361 -0.020684568 -0.05068757 0.08015262 0.30787528
0.14115044 -0.028291352 -0.026117785 -0.1531281 0.040788583 -0.13121715 -0.05611224 -0.23930095
-0.064213865 -0.15629666 0.038584616 0.1984417 0.10036556 -0.09139909 -0.09560275 0.014922088
-0.1532404 0.06186615 0.2689995 0.052045386 -0.06676972 0.054584477 0.022674588 0.18205614
0.09836669 0.04854727 -0.073253326 -0.025481833 -0.2379538 0.024874259 0.03542647 0.056569815
0.11763961 -0.20522101 0.0856596 0.06113001 0.017846482 0.043393783 0.06198383 0.02984924
0.2584934 0.14792457 -0.095745414 0.031925134 0.057720356 0.0740729 -0.06399143 -0.11403521
0.20897134 -0.013860253 -0.1026192 0.0363962 -0.020565541 -0.042192496 -0.13644288 -0.16853711
0.18565063 -0.13996615 -0.022137003 0.011639268 0.007281265 -0.07842793 0.016333688 -0.23206863
-0.10771931 0.032060158 -0.087043285 0.12326567 -0.11088442 -0.057294123 0.0062261918 0.035591427
-0.06455024 0.11982053 0.11927457 0.005535512 0.0039260043 0.030314084 0.08589817 0.13437535
0.011554627 -0.104171 -0.08866383 0.11638831 0.26313823 -0.026475782 -0.00047383283 -0.17839111
0.09299364 0.14299007 0.01837116 0.047792137 -0.08640293 0.056518037 0.14461271 -0.07162978
-0.10290929 0.15591152 -0.0662767 0.0069126342 -0.13373001 -0.0872939 0.08266411 -0.050486866
-0.06282489 -0.012374083 -0.30240518 -0.05325367 -0.050608877 -0.059850205 0.058456637 -0.05398767
-0.052046217 0.066579536 0.02511033 0.011618988 0.14364064 0.044185553 -0.08705715 0.17496173
0.13198741 -0.031006614 -0.085662976 0.015601268 -0.18593071 0.0016574634 -0.023334634 0.18885253
0.054526426 -0.054957673 0.02995401 -0.019701524 0.18503505 0.10875034 -0.03318694 0.15722722

network_body._body_endoder.seq_layers.2.bias f4 [128]
00000000: 9bf5 5f3d 2915 a63d 22c2 84bd 60b7 51bc
00000010: 2108 8fbc 4183 e7bc 8483 143d 6108 c6bc
00000020: cae5 123d 0458 213d 1b36 283d 51dc 3fbc
00000030: 67e4 bf3b a4e1 1b3c bcfc 5a3d e462 153d
00000040: e905 b0bc c6be 2e3d 075f 813d b266 763c
00000050: 93d3 183b 5425 783c 4b5e 60bc a92b d63c
00000060: 0790 3dbd 2fed 18bc c984 09bc d379 e9bc
00000070: 2aca b5bc c06c 953c b8ff 54bb a487 013d
00000080: c166 533d ee25 18bc 318f e03c a2e2 d43c
00000090: 1584 78bc ce83 01bd fd36 883c 6f35 18bc
000000a0: a003 493d f3fa 263d 0fda e63c 2606 9dbb
000000b0: a592 8b3c fefd 9d3c d8b8 84bc 64c1 aa3b
000000c0: e094 dfbc 83de b1bc 4897 b3bb 7c5b ca3c
000000d0: b2ac 783c fa65 303d f32d 3bbd ac0d 81bb
000000e0: fd17 983c 6a0c c63b cf98 6a3d 09f5 f0bc
000000f0: 8a4a 2abd 0b68 9ebd 03b7 0d3d 167d 69bc
00000100: 7b6b b73c 0437 b0bb 43d6 863d a6d7 803d
00000110: 1e13 88bd c015 38bc e9c1 7a3c 6fe9 b3bc
00000120: d6b5 cb3a 6963 62bc 252f ddbc 3955 1f3c
00000130: 08ba 8dbc 5f73 4abc 50c8 d43b fa14 26bc
00000140: 0797 683d 9d10 743c 2354 2abc 6084 4a3d
00000150: d7dc 7abb d188 2e3b a49b 853c 5f1b 7e3c
00000160: 0d87 b6b9 c14f 063c f47a e93c 556a b7bb
00000170: fbd5 963c dbff c03c 4cd4 cc3c eced 353d
00000180: e0c5 163d cbb7 87bd 0b1e 0e3d 8c5d 06bd
00000190: 6555 3e3d 100e 39bd ba2c b4bc 1b3e 6bbd
000001a0: 2bf1 a63c a42d d83b 7269 c83c b545 163c
000001b0: 2413 673c 9d6e a6bc 78a5 053c 60ba 063d
000001c0: 7658 5dba e883 cb3c 4908 75bb 9c62 8e3c
000001d0: 2637 923c 6b64 8a3c 601e 3a3d 2e64 46bc
000001e0: daec 063d 6135 2e3d a45c 1f3d be3b e53c
000001f0: be66 e13c a3d6 f93c facb a03b 76ca f7bc
0.054677587 0.08109505 -0.064823404 -0.012800068 -0.01745993 -0.028260829 0.036258236 -0.024173917
0.035863675 0.03939058 0.041067224 -0.011710242 0.005856085 0.009514246 0.053463683 0.036471263
-0.021487193 0.042662404 0.06316953 0.015039133 0.0023319467 0.0151456185 -0.013694356 0.026143866
-0.046279933 -0.009333893 -0.008393475 -0.028500473 -0.022191126 0.018240333 -0.0032501053 0.031623498
0.051611666 -0.009286387 0.027412029 0.025986973 -0.01516821 -0.03161984 0.016627783 -0.009290083
0.049075723 0.040766668 0.02818015 -0.0047919927 0.017037699 0.019286152 -0.016201422 0.0052110422
-0.027292669 -0.021712547 -0.0054806806 0.024701826 0.0151778925 0.043066002 -0.045698117 -0.0039383974
0.018566126 0.0060439603 0.057274636 -0.029413717 -0.041574992 -0.07734688 0.03459836 -0.014251014
0.022390118 -0.005377652 0.06583836 0.06291132 -0.06644271 -0.011235654 0.015305021 -0.021961896
0.0015541862 -0.013817647 -0.02700002 0.0097249085 -0.01730062 -0.012356608 0.0064936057 -0.010136837
0.056784656 0.014896539 -0.010396036 0.04944265 -0.0038278603 0.0026631842 0.016309567 0.015509455
-0.00034814366 0.008197726 0.028501011 -0.0055973926 0.01841258 0.023559501 0.025003575 0.044416353
0.036809802 -0.066268526 0.03469662 -0.032804057 0.046468157 -0.045179427 -0.021993984 -0.057432275
0.02037867 0.0065972377 0.024464343 0.009171893 0.014103685 -0.020316416 0.008157127 0.032892585
-0.00084436627 0.024843171 -0.0037388972 0.017381005 0.017848562 0.016893586 0.045439124 -0.012108846
0.032940723 0.042531375 0.03890671 0.027982589 0.027514812 0.030497855 0.0049071284 -0.030247908

action_model._discrete_distribution.branches.0.weight f4 [7, 128]
00000000: 497f 1f3d e9aa c5ba 9c23 e53b 0859 9e3a
00000010: 7cf9 1c3c 36bd 6e3a 9224 bbbc 65dd 693c
00000020: 2e61 44bd 75d0 4d3d ebf1 543d 0299 503b
00000030: 439e 78ba d933 89bd 5aae 833d a8a3 1bbd
00000040: 1cdd 4c3b 8779 983d 2dad cfbd 1753 cc3c
00000050: 2848 10ba 2cfc 1b3c 30a9 60bd ea70 0fbc
00000060: 5751 c23c 1938 e1bd 63d4 773c a64c 28bd
00000070: 94ce d0bc b07e 2d3d 53fd 3c3c bb74 aebc
00000080: 0716 5b3d 955c 023c 8a26 373d 2889 4bbd
00000090: 47ae 7bbc 6251 25bc f7a0 4fbd f48e e73c
000000a0: 46e9 0e3c 1da6 66bd ea97 1a3d d4a9 17bd
000000b0: 1dba 1f3d ac8b 493d 7b6b 34bc 3028 c13a
000000c0: 9b66 debc a83a 87ba 75d5 da3c 3e6b a9bc
000000d0: cc78 adbd 5879 063d 2a66 163c 00eb a73b
000000e0: 822a 11bb 384e 66bd 84d5 773d a43d 08bd
000000f0: e7b5 aabc 56b0 753b a398 8cbd d4f3 1a3d
00000100: d3e7 663c f660 96bd 30f8 153d 0a83 1b3d
00000110: 5eac b13c 5ca6 dc3c 2312 d4bb f217 78bd
00000120: faed 123d 052f e0bc 8194 7a3d 5011 b03a
00000130: 5562 103a c39f 033d 617e 03bc cf2e ec3b
00000140: aca3 233d 0693 8cbd 175f 59bc e6e3 463d
00000150: a922 9cbb a9f7 99bc fadc 003d 66f3 433b
00000160: 1a99 9ebd 410f 38bd 3433 2bbc a640 1a3c
00000170: 91bc c3bc 163e 1f3d 93f5 1e3d f8f2 513d
00000180: 1dca 513d 6aac a0bc 2ad1 013d bb90 363c
00000190: e98e b7bb e58c 61bc 7b5e 16bd 2c90 6b3c
000001a0: 8316 963d 8a7b 1a3c 3438 8dbc a246 a7bd
000001b0: e899 493d 118b 93bb 7a90 033c 82b5 383c
000001c0: 2c1d ac3c 0785 443b 7c8e eeba 338d 2d3d
000001d0: 109e 8ebd 8a59 623d 240e 043d 56f2 aabc
000001e0: 772e 273d 018a 223d 9cf9 dc3c 2014 e43c
000001f0: 4816 a9bc fe81 65bd e16d d9bc 794b 33bc
00000200: d913 a6bd 285a 013b baca 253c ae0b 66bd
00000210: 1981 7a3d d27e e4bc b80b 83bd c04a 773d
00000220: c78c 823b fe68 c03c 1409 2b3d 1df9 593d
00000230: cb02 de3c a1ad 83bd 74e7 4fbd c04f ebbd
00000240: c737 303d 2fd2 8cbd b7e4 9ebd 4b85 bbbd
00000250: 8d6f 203d bb66 c6bd 023f 703d 7a88 87bc
00000260: 7674 e63c 6f9c 1d3d a25d e2bc 3c99 8f3d
00000270: 74df a73c 2744 633d 3722 92bd 40b0 85bd
00000280: db43 42bd 944f 43bd 6991 193d 5541 9c3d
00000290: 151c 83bc 5203 c83c 793c 413d d3ae fdbc
000002a0: ea1d 3abd 79ad 49bd 2249 d13c c16f ceba
000002b0: cdec 83bc 09c3 763c 2f84 7d3b 0f5e 00bd
000002c0: 2da6 b63d 3035 8dbc ba74 833d 66bf 893d
000002d0: d13e 1a3d a37f 15be 294d 33bc df4b e83c
000002e0: 4c54 acbb 042c 363d 335f 36bd 9e46 853d
000002f0: 2b0b edbc 9fdc bf3b d65c a83d a733 21bc
00000300: 5186 91bd 1a59 653d 3fcb c4bc 4e8f 10bc
00000310: 1c71 8f3c f843 db3c 4180 3d3d c4dd 2c3d
00000320: d879 503d 8dfa debc 65ed 133d 8862 fc3c
00000330: e5e7 863d 8545 c33c 829d 2f3d 152e 093d
00000340: 8a13 c43c 5729 273c 5453 523b 4fd1 1cbc
00000350: 0d6d ecbd 8dd3 fcbb 721a a23d 045e ce3d
00000360: d6a9 373d ffad cfbc 0300 46bd 11c5 debd
00000370: 0049 163e 9964 9ebc 2c85 b0bd 01b1 853c
00000380: b384 45bd e915 793c 7ad2 fc3b fe82 683d
00000390: 304e 503d 4631 023d 3cdd a83d 8450 1cbc
000003a0: 9074 313c 65c1 a1bd 076c 58bd b7e7 debc
000003b0: 4843 bd3c 6691 673a a10d eebd 37af ecbd
000003c0: 02f5 7b3c 9e12 f7bc a022 57bc 228f 80bd
000003d0: 3849 853d 33b6 b03c 0161 a8bd 5ac9 113d
000003e0: c624 273d 20b5 50bc aeb8 06be 39c7 753c
000003f0: 0ab7 1abd bdb7 5b3b 5072 df3d f566 a33c
0.038939748 -0.0015080842 0.0069927704 0.0012080977 0.009580966 0.0009107174 -0.022844587 0.014273976
-0.04794424 0.05024763 0.051988523 0.003182948 -0.0009484032 -0.06699342 0.06429739 -0.03799787
0.003125972 0.074450545 -0.101404525 0.024941964 -0.0005503916 0.009520572 -0.05484885 -0.008754948
0.023720426 -0.10997028 0.0151263205 -0.041088723 -0.02548913 0.042357147 0.011535007 -0.021295896
0.053487804 0.007956644 0.044714488 -0.04969135 -0.015361375 -0.010090204 -0.050690617 0.028266408
0.008722609 -0.05631076 0.037742533 -0.037027195 0.03899585 0.049205467 -0.011011953 0.0014736708
-0.027148535 -0.0010317164 0.026713112 -0.02068102 -0.08470306 0.032830566 0.009179631 0.0051244497
-0.002215058 -0.05622694 0.06050636 -0.03326191 -0.02083869 0.0037489138 -0.06865051 0.03783019
0.014093357 -0.073427126 0.036613643 0.037966765 0.021688636 0.026934795 -0.0064718886 -0.06056971
0.035871483 -0.02736617 0.06117678 0.0013432894 0.00055078167 0.032134783 -0.008025737 0.0072077285
0.03995101 -0.0686398 -0.0132673 0.048557185 -0.004764874 -0.018794851 0.03146074 0.0029899715
-0.077440456 -0.044936422 -0.0104492195 0.009414827 -0.023893626 0.03887757 0.038808417 0.051257104
0.05121814 -0.019613463 0.031693615 0.011142905 -0.005601753 -0.013766502 -0.036711197 0.014377635
0.073285125 0.009428868 -0.017238714 -0.08167769 0.049219042 -0.004502662 0.008030051 0.011273744
0.021010004 0.0029986517 -0.0018200423 0.042370986 -0.06963742 0.055261172 0.032240048 -0.020867508
0.040815797 0.039682392 0.026974492 0.027841628 -0.020640507 -0.056032173 -0.026541652 -0.010943287
-0.081092544 0.0019737575 0.010119135 -0.056163482 0.061158273 -0.027892504 -0.063987195 0.06037402
0.003984067 0.023487564 0.041756704 0.05321609 0.027100941 -0.064296015 -0.05075784 -0.114898205
0.043021943 -0.06876027 -0.07758468 -0.09156283 0.039168883 -0.09687563 0.05865384 -0.01654457
0.028131705 0.038479265 -0.027632538 0.07011649 0.020492293 0.055484917 -0.07135432 -0.06527758
-0.047427993 -0.047683313 0.03749219 0.076296486 -0.016004601 0.024415646 0.04717681 -0.030967152
-0.045438685 -0.049237702 0.025547568 -0.0015749858 -0.016104126 0.015061148 0.0038683524 -0.0313397
0.08918414 -0.017237276 0.06418748 0.067259595 0.037657563 -0.14599471 -0.010943689 0.02835649
-0.0052590724 0.04447557 -0.044524383 0.0650761 -0.02893599 0.0058551575 0.08220832 -0.009838975
-0.07105697 0.055993177 -0.024022697 -0.008823229 0.01750999 0.026765808 0.04626489 0.04220368
0.05089745 -0.027219081 0.03611507 0.030808702 0.06587199 0.02383686 0.04287482 0.033491213
0.023935098 0.010202727 0.0032093124 -0.009571387 -0.11544237 -0.0077156485 0.079152 0.10076526
0.044839703 -0.025351522 -0.048339855 -0.10877431 0.14676285 -0.019335078 -0.086191505 0.016319754
-0.048222255 0.015202978 0.0077155204 0.05676555 0.050855815 0.031785272 0.08245322 -0.009540681
0.010831013 -0.07898215 -0.052837398 -0.0272101 0.023103371 0.0008833617 -0.11623693 -0.11556857
0.015378239 -0.030160245 -0.013130814 -0.062773004 0.06508106 0.021571254 -0.08221627 0.035592414
0.040806554 -0.012738496 -0.13156387 0.015001112 -0.037772216 0.0033526265 0.10910475 0.019946555

action_model._discrete_distribution.branches.0.bias f4 [7]
00000000: c8d2 a4bb ec56 6cbc 3031 7abc 84c2 84bd
00000010: 64b3 33bc 49ad 673c ac56 e43c
-0.00503001 -0.014425021 -0.015270516 -0.064824134 -0.010968063 0.0141404355 0.02787336

exp_avg f4 [128, 164]
00000000: 4450 2ab6 f49e 8fb5 dd3a a6b8 f3f3 0539
00000010: 1aa9 f838 1a1c e936 2073 bdb3 ccf7 8837
00000020: d8ee b537 884a a037 39d5 a1b6 67c4 afb6
00000030: ba37 3d38 73ce 2437 d830 3138 b46b a537
00000040: 1b3e 2336 041e 8c35 f0da b537 6044 c937
00000050: 773a 16b7 21d9 c3b5 e02d 5cb6 6ba8 7538
00000060: 7693 7038 07f0 2c38 2467 2f35 3fcf 25b5
00000070: 801a 7236 3871 3737 3418 66b6 dccd 17b6
00000080: 0039 8834 1806 5338 3443 6e38 8c47 f537
00000090: 4372 0834 e61e e135 e80b 6837 a09b 4137
000000a0: 8753 2f37 6400 f0b5 aa1d 28b8 7b00 a038
000000b0: ab42 9238 f106 1137 5466 1f34 669b ecb5
000000c0: e6bb 1e38 307a f937 4fa2 ae37 a24c e033
000000d0: fec7 48b8 689f 9638 ae22 8738 b509 8736
000000e0: 9653 32b4 3a8f ecb5 b86d 3338 ca38 2c38
000000f0: f0fb be37 632c 5bb5 d824 68b8 dc25 a438
00000100: 11d0 8d38 665a 8cb6 9c85 48b5 fffc 6ab0
00000110: 76e6 5038 5a0d 5038 b067 ed36 6db5 8434
00000120: 10b5 a2b7 4ddc 6e38 6a12 6438 e0f9 2e36
00000130: 3f88 61b5 125a d82f 3ace 3438 d8ee 4238
00000140: 8242 f138 d0a0 eeb2 a1db 8836 40a5 9bb8
00000150: 1aef 0138 fc34 0eb8 8da6 3eb5 dcf5 c62f
00000160: acb3 a638 8ee3 8f38 3ce0 eeb7 c6e8 8a35
00000170: ed77 2235 8c63 9638 06dd 7738 d4af 14b5
00000180: 6067 82b5 f855 2aaf 449e 4238 1eac 4e38
00000190: 0672 8237 2079 96b0 eba9 9433 d86b f537
000001a0: 26fe 2d38 3642 d336 bd39 5f35 5841 10ac
000001b0: f452 1e38 023a 4238 a0e5 9bb7 4637 0135
000001c0: 92b4 9135 3ccc 8138 636d 7f38 ec7c 19b8
000001d0: 0f48 c9b3 d06e 4932 8806 ab38 b463 9838
000001e0: d121 19b8 6288 7a36 8d2d d135 fb93 9f38
000001f0: 5a0d 7838 8de1 d2b7 c6e3 e334 d177 4932
00000200: 46ea 9138 9ab6 6b38 4ce8 1136 58a9 c235
00000210: 5c1f 3135 ce3f 2a38 16bf 3b38 1d05 df37
00000220: ea22 2734 e8eb 8733 f894 9737 c4ed c337
00000230: 8f81 1938 687d d134 af8a 97b5 a03f 1737
00000240: 7425 9437 77e8 94b8 01f5 25b6 823c e133
00000250: e4fb f738 1ec6 2338 77e8 94b8 01f5 25b6
00000260: 823c e133 e4fb f738 1cc6 2338 c00a 2a37
00000270: 62a2 5338 1e78 d737 34cd 723a 1838 3c38
00000280: aae9 9c36 8025 ae36 4a03 3838 fc37 3c38
00000290: 76d2 87b7 c05f 87b2 91d5 a538 b1ea 50b8
000002a0: f85c 0db8 2ab9 2bb8 4033 a333 2de4 3938
000002b0: b026 2137 3055 0b38 fabd a0b7 d57f 3935
000002c0: 228f 1138 50fe 54b6 4eee 52b7 cbff 5138
000002d0: 52eb d933 42a8 8137 967a 5cb8 022b a3b7
000002e0: 2fd2 deb7 7c8e b1b5 5471 5f38 22d6 4eb7
000002f0: 0888 27b6 3b00 4038 8320 0f34 0442 b1b6
00000300: a641 e7b7 1832 14b7 27b5 0cb8 d8e9 d235
00000310: d8be 8838 2133 a9b7 bd71 3837 7264 6038
00000320: 6eb9 a232 e66c 89b6 df84 18b8 30e6 d136
00000330: 571d f2b7 720a f535 e0ba 8bb7 180a 6e38
00000340: f320 5d38 52ea d1b7 9ebf f1b0 62e9 c0b3
00000350: d01d 2038 06f1 2038 d894 b6b7 cfa9 3db5
00000360: 541a 99b7 8694 6138 8afc 4a38 0c95 fbb7
00000370: cf59 0a31 5ae7 c0b3 1aef 3438 ccc5 2038
00000380: 71a6 90b7 6c5a 9c32 1896 3837 d4c0 a137
00000390: 4009 a637 9aef ddb6 ba16 9b30 b6aa f529
000003a0: fc05 a537 0c63 9f37 062d 1837 479a 05b3
000003b0: db2b b437 0473 92b7 34f7 2cb7 4a36 a136
000003c0: 502c a2af a01d 91a7 707f 0a37 4886 1f37
000003d0: a2f0 7db8 5bce a431 7276 8a34 68ce 9938
000003e0: 80c4 a137 7a54 7b37 d6eb 8c30 4942 57a8
000003f0: 60ff 00b6 408a f635 a5f3 3937 c981 25b2
-2.5378695e-06 -1.0700592e-06 -7.926461e-05 0.00012774747 0.00011857059 6.9472126e-06 -8.8219394e-08 1.6327853e-05
2.1688102e-05 1.9108193e-05 -4.8229963e-06 -5.2382707e-06 4.511301e-05 9.823229e-06 4.2245578e-05 1.9719686e-05
2.4325043e-06 1.0439549e-06 2.1678832e-05 2.3992907e-05 -8.954309e-06 -1.4591825e-06 -3.2809257e-06 5.8569403e-05
5.7357793e-05 4.123154e-05 6.534267e-07 -6.176887e-07 3.6076235e-06 1.0934011e-05 -3.4286759e-06 -2.262058e-06
2.5373447e-07 5.0311995e-05 5.680621e-05 2.9239593e-05 1.2707555e-07 1.6772799e-06 1.383105e-05 1.1539931e-05
1.0450261e-05 -1.7881507e-06 -4.0081948e-05 7.629484e-05 6.9742404e-05 8.64429e-06 1.4845256e-07 -1.7628597e-06
3.784513e-05 2.9740011e-05 2.0817997e-05 1.0444752e-07 -4.7869973e-05 7.182249e-05 6.443761e-05 4.0244436e-06
-1.660795e-07 -1.7625055e-06 4.277911e-05 4.1060885e-05 2.2767083e-05 -8.164845e-07 -5.5347424e-05 7.827181e-05
6.762159e-05 -4.182849e-06 -7.4700233e-07 -8.5488233e-10 4.9805698e-05 4.96035e-05 7.075221e-06 2.471892e-07
-1.9396219e-05 5.6948793e-05 5.4376585e-05 2.6073467e-06 -8.4017296e-07 3.935417e-10 4.3107408e-05 4.6475645e-05
0.000115041636 -2.7779976e-08 4.078684e-06 -7.421756e-05 3.0978677e-05 -3.3904784e-05 -7.102288e-07 3.6190684e-10
7.948963e-05 6.861157e-05 -2.8476228e-05 1.0349547e-06 6.052422e-07 7.1710994e-05 5.9095233e-05 -5.539016e-07
-9.715841e-07 -1.5491952e-10 4.64006e-05 4.9274524e-05 1.5550304e-05 -1.0948362e-09 6.922695e-08 2.9256495e-05
4.148311e-05 6.295998e-06 8.3157994e-07 -2.0499904e-12 3.774739e-05 4.630723e-05 -1.8584367e-05 4.813668e-07
1.0855895e-06 6.189241e-05 6.0898612e-05 -3.6594385e-05 -9.372899e-08 1.1724936e-08 8.155132e-05 7.266496e-05
-3.6509537e-05 3.7332288e-06 1.558497e-06 7.609274e-05 5.9140242e-05 -2.5138981e-05 4.2447772e-07 1.1726983e-08
6.9577756e-05 5.6198427e-05 2.1741898e-06 1.4503412e-06 6.598327e-07 4.059058e-05 4.4762237e-05 2.6586053e-05
1.5565789e-07 6.3293385e-08 1.8069972e-05 2.335653e-05 3.6598703e-05 3.902053e-07 -1.1290739e-06 9.015115e-06
1.7660415e-05 -7.10049e-05 -2.4729527e-06 1.0488385e-07 0.00011824796 3.904674e-05 -7.10049e-05 -2.4729527e-06
1.0488385e-07 0.00011824796 3.9046732e-05 1.01352925e-05 5.045755e-05 2.5685931e-05 0.0009262145 4.4874934e-05
4.6763644e-06 5.1899697e-06 4.387208e-05 4.4874832e-05 -1.6191258e-05 -1.575961e-08 7.907593e-05 -4.9809638e-05
-3.3703604e-05 -4.0942024e-05 7.599601e-08 4.4319942e-05 9.605355e-06 3.321952e-05 -1.9161951e-05 6.910389e-07
3.4703997e-05 -3.173849e-06 -1.257246e-05 5.006771e-05 1.01476545e-07 1.545635e-05 -5.2566254e-05 -1.9451141e-05
-2.6562337e-05 -1.3228996e-06 5.3272888e-05 -1.23284135e-05 -2.496412e-06 4.5776582e-05 1.332974e-07 -5.2826963e-06
-2.7567916e-05 -8.833151e-06 -3.3547312e-05 1.5714277e-06 6.520533e-05 -2.0170179e-05 1.0993736e-05 5.349931e-05
1.8943606e-08 -4.0955956e-06 -3.636337e-05 6.2554827e-06 -2.886231e-05 1.8256962e-06 -1.6657112e-05 5.6753022e-05
5.2721192e-05 -2.5023855e-05 -1.7589519e-09 -8.983149e-08 3.8174738e-05 3.8371443e-05 -2.1765401e-05 -7.065509e-07
-1.8251281e-05 5.3782504e-05 4.839575e-05 -2.9990937e-05 2.0132693e-09 -8.982779e-08 4.3138025e-05 3.8331185e-05
-1.7243643e-05 1.820191e-08 1.1002201e-05 1.9282488e-05 1.979305e-05 -6.6142065e-06 1.1284194e-09 1.0909799e-13
1.967232e-05 1.90004e-05 9.070389e-06 -3.110679e-08 2.1478094e-05 -1.7458115e-05 -1.0309555e-05 4.804494e-06
-2.9499114e-10 -4.0277704e-15 8.255112e-06 9.508403e-06 -6.0544007e-05 4.796488e-09 2.5790683e-07 7.334055e-05
1.9284198e-05 1.4980435e-05 1.0253369e-09 -1.1949271e-14 -1.9222134e-06 1.8368664e-06 1.1083587e-05 -9.633774e-09

exp_avg_sq f4 [128, 164]
00000000: 4c63 9134 8f7b eb30 da3c 1834 9369 c935
00000010: a161 cd35 8d0a 9934 ab1f 5730 a38f 8d33
00000020: 014c d235 c55b d735 79d3 7f34 6572 3431
00000030: 2dbd 6b34 c1c3 bf35 108e c535 e53b 9434
00000040: d904 d42f b56d ff32 13f9 d935 00b8 de35
00000050: 34e1 5d34 2147 c231 e843 9334 25ae b735
00000060: d298 c035 e584 9234 ff57 d82f cb16 ca32
00000070: f56e d935 36ac df35 46a4 5e34 9f5a 0b32
00000080: 6d29 9d34 97a3 b135 a561 bc35 7e8a 8a34
00000090: 2b91 cc2f 80cd a032 4ada dc35 335d e335
000000a0: 8b26 7c34 e8f4 fc31 0fd7 9334 2c21 ad35
000000b0: a3cb b935 175f 7b34 953c 3030 36e8 6232
000000c0: 210c e135 5cb2 e835 a9af 7134 4ee3 ab31
000000d0: 3162 8c34 1bbc b335 e43f c235 59b7 7a34
000000e0: 200a 982f 5f4b 9130 007c e035 47d5 e835
000000f0: 6997 7134 332a 4831 f865 1034 cd79 ce35
00000100: dfca d935 3ca6 9a34 e840 222f 8e3a 0a30
00000110: 234e d235 607b e235 b469 8034 f8cc e32f
00000120: e1c6 6232 8708 e035 788b f035 f653 8934
00000130: f8e3 1f2f bd48 152f 534a dd35 ac49 e735
00000140: b2ad 3a34 ca64 622f 4b77 3f31 05fb ea35
00000150: 64ba f535 1a7c 8234 128a 982f 59d4 4b2e
00000160: bf3d db35 ed97 e635 2ffe 2834 7d28 372f
00000170: e5e5 9f30 35eb f035 b03c f735 8375 8934
00000180: d1ca e82f 9865 6b2d 93fe d935 ac32 e235
00000190: 0f9f 5534 75bd b72f 6c0d dd2f 14f9 e435
000001a0: 2f8a ef35 65f2 8434 3c46 1f30 eaa5 1b2d
000001b0: 1523 db35 ff27 e535 6e10 6934 af76 4030
000001c0: cfb1 302f c315 e135 476a ed35 0743 5d34
000001d0: add2 7430 0faf e12c 918d e535 7657 ea35
000001e0: 73e2 5134 81f2 8430 01ab cb2e 4609 e835
000001f0: 34a0 ee35 c5f3 4b34 98d6 8a30 b2dd c82c
00000200: 0e2d e835 3e63 ec35 610d 4b34 5378 a830
00000210: 702b 092e 5a7e e435 0e08 ec35 8423 3c34
00000220: afa3 e030 49c9 162d 671f e735 98e9 eb35
00000230: fa13 6034 e6b8 b730 ee81 8a2d 66f7 e135
00000240: f56f e835 d09f 4934 f07c 0331 6c63 1a2d
00000250: 6080 e535 6173 eb35 d09f 4934 f07c 0331
00000260: 6c63 1a2d 6080 e535 6373 eb35 9835 e731
00000270: 7ea9 0e35 704f 4435 f53f 8038 ab1c ee35
00000280: d3a0 d333 bf3f 7234 4de8 0336 22be e035
00000290: 5e7c 3d34 def7 0630 dc14 9133 cf59 7a35
000002a0: b0ba 7f35 18c3 4434 62ce 8f2f 5e04 0b33
000002b0: a198 8035 8c69 8435 68a4 2f34 4263 a030
000002c0: a285 e733 5b56 6f35 4224 7735 8c9d 3b34
000002d0: 6ac1 4e2f d383 6832 0548 8635 f1dc 8835
000002e0: 4af8 1834 fbcc 0231 18ce 1034 f212 6b35
000002f0: b6d4 7435 f299 3134 715d 352f 64a6 4732
00000300: e4c3 8535 d1ff 8935 31e6 0d34 ff10 4331
00000310: 659c 1c34 f06d 6a35 687a 7535 f4e9 2534
00000320: 5692 512f f7c2 1832 5a8e 8835 ca65 8d35
00000330: 56cb 0c34 8044 4c31 b838 1734 be5c 6a35
00000340: fdc0 7635 98bf 1134 4cc5 a230 eb18 1432
00000350: 7a20 8b35 24c2 9035 db06 f033 2cb1 1a31
00000360: 912c 1534 0d4a 7335 bf72 8135 812b 0e34
00000370: a3fa 402e 8586 a02f fe8f 8c35 70c8 9235
00000380: a00c cb33 c1c4 7f30 c079 8233 1266 8935
00000390: 5e8b 8f35 28d8 1a34 2fe2 9e2d e331 3f2f
000003a0: 8f86 8835 c0ec 9135 8a33 cd33 0d6b 242e
000003b0: 7659 a731 3af8 9235 53cf 9b35 9427 0334
000003c0: ab2b 4e2d 0a6f 8e2e 20ee 8f35 ec5f 9635
000003d0: 533d 9e33 0318 a82c 2082 0c30 6fb9 9735
000003e0: 5131 9e35 99db 0334 b35b 2f2d 9a0b c82d
000003f0: 0e00 8c35 d4f9 9335 e7f5 7a33 458c 8f2b
2.7080603e-07 1.7133618e-09 1.4178241e-07 1.5006393e-06 1.5302104e-06 2.8506147e-07 7.826155e-10 6.5919515e-08
1.5668339e-06 1.6045457e-06 2.3825659e-07 2.6258473e-09 2.1954902e-07 1.4287581e-06 1.4718989e-06 2.7610727e-07
3.856602e-10 2.9735796e-08 1.624025e-06 1.659384e-06 2.0664157e-07 5.6542295e-09 2.7430292e-07 1.3685245e-06
1.4349591e-06 2.7291313e-07 3.9352696e-10 2.352626e-08 1.6200053e-06 1.6664915e-06 2.0735123e-07 8.11147e-09
2.927367e-07 1.3235139e-06 1.403551e-06 2.580527e-07 3.7210532e-10 1.8719902e-08 1.6454808e-06 1.6939942e-06
2.3483351e-07 7.362008e-09 2.753736e-07 1.2899159e-06 1.384284e-06 2.341079e-07 6.411452e-10 1.320773e-08
1.6767336e-06 1.7337256e-06 2.2508779e-07 5.0025966e-09 2.6148476e-07 1.3391285e-06 1.4472721e-06 2.3349766e-07
2.7655833e-10 1.057156e-09 1.6725389e-06 1.7347419e-06 2.2499957e-07 2.9127818e-09 1.3448141e-07 1.5383645e-06
1.6226803e-06 2.8805687e-07 1.4756874e-10 5.028732e-10 1.566896e-06 1.6874219e-06 2.3918767e-07 4.1436699e-10
1.3200151e-08 1.6691782e-06 1.7921984e-06 2.5579328e-07 1.4541957e-10 1.3577313e-10 1.6487414e-06 1.7232283e-06
1.738579e-07 2.0590388e-10 2.7861968e-09 1.7507415e-06 1.8308169e-06 2.4304683e-07 2.7746744e-10 4.634546e-11
1.6334742e-06 1.7180552e-06 1.573869e-07 1.6658137e-10 1.1634113e-09 1.7949848e-06 1.8420596e-06 2.560374e-07
4.2344664e-10 1.3380762e-11 1.6241851e-06 1.685306e-06 1.9895036e-07 3.3422123e-10 4.0209203e-10 1.7059815e-06
1.7847104e-06 2.476328e-07 5.794367e-10 8.84757e-12 1.6326982e-06 1.707347e-06 2.1705793e-07 7.001785e-10
1.6070277e-10 1.677014e-06 1.7688807e-06 2.0606613e-07 8.906607e-10 6.41432e-12 1.7103031e-06 1.7459813e-06
1.9547024e-07 9.673188e-10 9.2617476e-11 1.7288046e-06 1.7779007e-06 1.8994531e-07 1.0101813e-09 5.708955e-12
1.729846e-06 1.7612253e-06 1.8910715e-07 1.2257807e-09 3.1188774e-11 1.7024097e-06 1.7585714e-06 1.7521785e-07
1.6344667e-09 8.571207e-12 1.721998e-06 1.7576849e-06 2.0868893e-07 1.3367554e-09 1.5746484e-11 1.6835809e-06
1.7317931e-06 1.8777723e-07 1.9134028e-09 8.775963e-12 1.7099192e-06 1.7542444e-06 1.8777723e-07 1.9134028e-09
8.775963e-12 1.7099192e-06 1.7542446e-06 6.7290777e-09 5.3145766e-07 7.3131287e-07 6.1154286e-05 1.7740725e-06
9.854707e-08 2.2561197e-07 1.9655738e-06 1.6744636e-06 1.7647241e-07 4.9101156e-10 6.755883e-08 9.3262946e-07
9.526657e-07 1.8324897e-07 2.6158192e-10 3.236743e-08 9.581164e-07 9.865485e-07 1.6357956e-07 1.1669743e-09
1.07810834e-07 8.91601e-07 9.206743e-07 1.7473047e-07 1.8804305e-10 1.3534151e-08 1.0004738e-06 1.0197092e-06
1.424643e-07 1.9034008e-09 1.3486022e-07 8.757189e-07 9.120662e-07 1.6540415e-07 1.6495051e-10 1.1621157e-08
9.966284e-07 1.0281748e-06 1.3215391e-07 2.8385896e-09 1.4585528e-07 8.7331773e-07 9.1447737e-07 1.5451934e-07
1.9060428e-10 8.891894e-09 1.0174219e-06 1.0534943e-06 1.3112489e-07 2.9724845e-09 1.4083605e-07 8.730675e-07
9.1922976e-07 1.3573879e-07 1.1843126e-09 8.6203995e-09 1.0365759e-06 1.0785338e-06 1.1177118e-07 2.251066e-09
1.389292e-07 9.063231e-07 9.644644e-07 1.3240607e-07 4.3878356e-11 2.9199412e-10 1.047272e-06 1.0936183e-06
9.4552206e-08 9.3048064e-10 6.075743e-08 1.0237002e-06 1.0694891e-06 1.4421005e-07 1.8062966e-11 1.7389072e-10
1.0171951e-06 1.0872245e-06 9.555431e-08 3.7384363e-11 4.87051e-09 1.0950091e-06 1.1608739e-06 1.2214724e-07
1.17194405e-11 6.477137e-11 1.0723634e-06 1.1203788e-06 7.368603e-08 4.777513e-12 5.111662e-10 1.1304345e-06
1.178627e-06 1.2280215e-07 9.96796e-12 2.274252e-11 1.0430829e-06 1.1025063e-06 5.8431308e-08 1.0199694e-12

exp_avg f4 [128]
00000000: 2438 3c38 f818 5b37 b08c 6fb6 063b 82b8
00000010: 3ca2 0cb9 eb81 8037 000c ceb4 ac46 76b7
00000020: fba1 34b7 906c b5b8 5a12 06b9 c24b 1fb7
00000030: c73e 5238 e0db 3337 05f7 da38 2fab bb38
00000040: 625a 90b7 1c33 f4b7 a5a7 7637 b132 9739
00000050: dab9 3d39 ac68 aeb8 6e91 ceb7 5729 8438
00000060: 007b 06b7 1b68 2739 9445 93b8 f5e2 4eb8
00000070: 006e 7436 7001 8fb8 db0b ef37 884d ab37
00000080: 3489 d3b8 3a75 2eb8 98fb 5738 a55d a838
00000090: 6cb3 1a39 6e6a 44b9 af5b 6437 2c24 d937
000000a0: 1843 c6b7 c753 9438 b9a3 76b8 f243 0c38
000000b0: 0c86 9cb7 de70 6637 a962 89b7 7414 5bb6
000000c0: aa12 84b8 09b3 2e38 1834 aab8 7ecd c6b8
000000d0: 2eb8 8a38 a837 22b7 edb1 bb38 e581 6138
000000e0: 2234 ad37 a90c 51b8 f8a2 4f38 b19d 26b8
000000f0: 59f7 3b39 d817 4bb8 adb9 0539 dc26 1437
00000100: c2ca b3b6 3692 55b9 9cb7 9538 c836 9037
00000110: 018a 8138 0d98 d1b6 80eb 90b7 adbe e8b8
00000120: 148a a138 d558 2739 4433 7c38 01a3 93b8
00000130: 1d3a 56b9 08cb 2e37 4735 0539 38e8 d5b7
00000140: 6539 d3b8 7356 0439 ca9f 6238 d0ef 80b5
00000150: b9c1 22b8 7b4d 1339 d1d2 22b9 4ead 0639
00000160: 30a8 1c38 265a d6b8 d82c 31b8 201c 9d37
00000170: d7bd 2db8 db66 54b8 f452 52b7 04d1 0e38
00000180: 80eb df35 4899 3d38 0865 b637 6d46 2438
00000190: 5202 7238 459a 56b9 172b 8038 a0e1 2b38
000001a0: 72ab f538 2b5a 9a38 3ae5 3eb9 044d 7bb8
000001b0: 10c6 d335 ed84 0cb9 e631 59b9 0ad4 07b8
000001c0: 5864 3138 acdd 7eb8 14f0 1c37 efd7 09b7
000001d0: 6929 c738 435b b5b8 e6ae 7f39 eb53 dbb8
000001e0: 3a80 f238 204b 5f36 9135 0bb7 bd5f a338
000001f0: 68a1 d7b8 385e abb7 358f 1cb7 3213 05b9
4.4874978e-05 1.3059231e-05 -3.5695666e-06 -6.209877e-05 -0.00013411877 1.5319287e-05 -3.837922e-07 -1.4679197e-05
-1.076655e-05 -8.650974e-05 -0.00012786072 -9.494777e-06 5.0126368e-05 1.0720425e-05 0.00010441061 8.94874e-05
-1.7208225e-05 -2.9110866e-05 1.4701775e-05 0.00028838732 0.0001809368 -8.316463e-05 -2.4624835e-05 6.3019506e-05
-8.015661e-06 0.00015965143 -7.022466e-05 -4.9325598e-05 3.6422862e-06 -6.819039e-05 2.849654e-05 2.0420892e-05
-0.0001008682 -4.159401e-05 5.149431e-05 8.028307e-05 0.00014753424 -0.00018731665 1.3611206e-05 2.588526e-05
-2.3634682e-05 7.072795e-05 -5.880345e-05 3.344188e-05 -1.865907e-05 1.3735347e-05 -1.6377615e-05 -3.2645448e-06
-6.297727e-05 4.1651572e-05 -8.115935e-05 -9.4796516e-05 6.614659e-05 -9.668911e-06 8.949996e-05 5.3765154e-05
2.0647483e-05 -4.9841274e-05 4.9504422e-05 -3.9724346e-05 0.00017925854 -4.8421178e-05 0.00012753038 8.830535e-06
-5.35822e-06 -0.00020367731 7.1390736e-05 1.7191647e-05 6.1769046e-05 -6.2463864e-06 -1.7275801e-05 -0.00011098138
7.702797e-05 0.00015959454 6.0129227e-05 -7.039868e-05 -0.00020430279 1.041848e-05 0.00012703716 -2.5499714e-05
-0.000100719546 0.00012620706 5.4031414e-05 -9.606538e-07 -3.8804228e-05 0.00014047876 -0.00015528059 0.00012843797
3.7349935e-05 -0.00010221107 -4.2241852e-05 1.8728955e-05 -4.1423216e-05 -5.064053e-05 -1.2536289e-05 3.40501e-05
1.6683334e-06 4.5203866e-05 2.1743137e-05 3.9166236e-05 5.7699457e-05 -0.000204661 6.111542e-05 4.0979707e-05
0.000117144446 7.360087e-05 -0.00018205206 -5.991479e-05 1.5778369e-06 -0.00013400959 -0.00020713321 -3.2383985e-05
4.229354e-05 -6.0764767e-05 9.354222e-06 -8.216112e-06 9.496773e-05 -8.6477514e-05 0.0002438385 -0.00010458365
0.00011563343 3.3273318e-06 -8.2975175e-06 7.790278e-05 -0.00010282063 -2.0428663e-05 -9.331668e-06 -0.00012691019

exp_avg_sq f4 [128]
00000000: 409c 0936 742d ac35 f28b 2635 33ed 7b35
00000010: a2b7 b935 5b44 9035 968f 4034 2816 b135
00000020: 6fa7 2b33 b3b6 b336 11d5 4936 a577 bc34
00000030: cf9f d234 71b5 7c35 a89c c935 44ee 7035
00000040: 641c ee35 b592 3134 08f9 ad33 6c9a 2835
00000050: 06ad 4f36 5370 9635 3b1b 1c35 f320 2f35
00000060: febb 8135 4931 e635 6d6d eb35 ab44 dc33
00000070: bb5f 2a36 5d81 d634 3400 0d35 aeea 3336
00000080: bffe 1035 8db7 e034 7df5 2d36 f729 1c34
00000090: d3c6 6735 467b 6235 70cd c935 501f 1d36
000000a0: 8212 bf35 1690 2f35 15ca 4634 1242 9835
000000b0: 82d2 2d34 ff10 9332 3583 7934 43d8 4233
000000c0: 0e65 8e32 e321 ad35 3313 c835 3c91 7235
000000d0: 525c 5835 6997 ff33 8997 cd35 dd1c 4d36
000000e0: ce6b 0e37 a6a4 1735 15f3 0a34 ec8c 9d34
000000f0: 694d 2e35 3843 1735 7f37 f634 2727 c134
00000100: 1cd8 6533 9bd5 1135 1fbb e234 5a53 3033
00000110: e206 0835 319f 2036 9148 9836 8c72 5434
00000120: ffda 2b34 5e4c 9a35 352a 0d36 1b76 6535
00000130: c169 9236 a08b a034 4049 3f34 4257 c734
00000140: eaa4 c135 3d80 f334 157c 4234 e280 0534
00000150: 6b80 0634 cba8 b134 5931 2636 a39f 3b35
00000160: 8242 b335 38d1 8534 0249 3f36 20e9 8933
00000170: bcf3 7b33 f15a 9a35 8930 8b34 0fd4 ab35
00000180: 26d5 5534 8afc 8635 016f a735 0800 7734
00000190: ab04 8535 476b 4035 989d 0e35 4bc9 5d34
000001a0: d8d6 4b36 1a2b 0135 abd2 f434 3c96 6535
000001b0: 40c9 0f35 84bc 9d35 0449 2e36 deb4 8e35
000001c0: d9f9 ed36 a780 0335 050b 1635 27a2 ee33
000001d0: e822 9235 1983 8735 69dd d435 1bdf b335
000001e0: dc4e d435 bb38 ac35 e7b4 4e33 2fdd 5a34
000001f0: ebac f535 9bf5 c334 3a11 5333 1937 9335
2.050554e-06 1.2828227e-06 6.2043466e-07 9.3849957e-07 1.3837018e-06 1.074873e-06 1.793363e-07 1.3193976e-06
3.996632e-08 5.3558847e-06 3.0075355e-06 3.5104782e-07 3.9231824e-07 9.414135e-07 1.502126e-06 8.975369e-07
1.7740645e-06 1.6537781e-07 8.101239e-08 6.280959e-07 3.0946117e-06 1.1208562e-06 5.8154154e-07 6.524053e-07
9.665962e-07 1.7150679e-06 1.7540711e-06 1.0257039e-07 2.5387696e-06 3.995473e-07 5.252689e-07 2.680968e-06
5.4014885e-07 4.1856802e-07 2.5921902e-06 1.4543899e-07 8.6343533e-07 8.437095e-07 1.5035457e-06 2.341305e-06
1.4235995e-06 6.5402253e-07 1.8513704e-07 1.1344111e-06 1.6188463e-07 1.7120781e-08 2.3237665e-07 4.5365834e-08
1.657693e-08 1.2899367e-06 1.4906749e-06 9.036337e-07 8.0600614e-07 1.1901904e-07 1.5317793e-06 3.056418e-06
8.48896e-06 5.649148e-07 1.2940684e-07 2.9346063e-07 6.49327e-07 5.63497e-07 4.586145e-07 3.5977538e-07
5.3514768e-08 5.4327546e-07 4.223193e-07 4.1054e-08 5.0673964e-07 2.393452e-06 4.538401e-06 1.978571e-07
1.6005286e-07 1.149612e-06 2.1035205e-06 8.5481014e-07 4.3634504e-06 2.9903913e-07 1.781491e-07 3.7130127e-07
1.4427617e-06 4.5355583e-07 1.8112799e-07 1.2433478e-07 1.252644e-07 3.3091632e-07 2.4764652e-06 6.989523e-07
1.3355896e-06 2.4925407e-07 2.8503714e-06 6.421965e-08 5.8662167e-08 1.1500362e-06 2.5926082e-07 1.280221e-06
1.9914714e-07 1.0057277e-06 1.2474776e-06 2.3003679e-07 9.910631e-07 7.168168e-07 5.312845e-07 2.0655459e-07
3.0374413e-06 4.8118966e-07 4.5601823e-07 8.552777e-07 5.356451e-07 1.1752277e-06 2.5970521e-06 1.0632464e-06
7.0922365e-06 4.8988517e-07 5.589539e-07 1.1112234e-07 1.0888007e-06 1.0096438e-06 1.585967e-06 1.3401472e-06
1.5818182e-06 1.2831509e-06 4.8127642e-08 2.0383298e-07 1.8304248e-06 3.6500282e-07 4.9142933e-08 1.0968389e-06
