CCP-main/results/WeightAgent_Training/WeightAgent_Training/WeightAgent_Training-999980.onnx (onnx, 172208 bytes, 6 tensors)

network_body._body_endoder.seq_layers.0.weight f4 [128, 195]
00000000: 6232 073e 6dae cabd 6936 fe3d 702d 90bd
00000010: 5307 3dbe 3775 ec3c 8e15 3a3d 4e20 163e
00000020: 7d90 92bd 3c6c 8f3c 3c57 f1bc bc5d cbbd
00000030: 28f8 1a3e 6dab d4bd 63ab 613d ac3f 2c3c
00000040: 00ff af3d 2b14 84bd b74d 3bbd 416e b9bd
00000050: 0ec7 e6bd 27dd 97bd c693 e3bb 657a 5bbc
00000060: 7152 123e 811f 2abd 6821 8ebb 4024 fb3c
00000070: fa08 a53c 9bdf 64bd af8f e2bd 81c0 e13c
00000080: 0254 e8bc 02bf 273c 8090 8a3d a692 043e
00000090: 673c 853c af5f a5bd 63ed 453d 6565 513d
000000a0: 1a10 ecbd f77e 203e 027f d03d 8008 20bd
000000b0: 9888 563d ff65 b43c 18b4 3a3e 0cff 0f3d
000000c0: 6153 febc 92a8 ef3d c97c 093d 365d 503d
000000d0: b6a3 0bbd b217 50bd 77c1 b3bc de4a 53bd
000000e0: 52a5 dcba bf61 20bd fb24 c53d d1ce 253d
000000f0: 8a17 223c d487 013c 6051 0e3e 41ba 2bbd
00000100: 8abd 65bc 4ec0 31bd 763f 02bd 6046 f7bc
00000110: de5d a93d 923c f03d 1e7b ef3c 3484 ee3c
00000120: b779 03bd c476 283e 803c 8a3d 4b04 18be
00000130: b09b bdbc 006b 963d 5d63 22ba c64f d63c
00000140: 3dcb 52bc 789c 2f3d eb57 db39 a438 403d
00000150: f862 cf3c 5845 8ebc b42a ef3c 2063 24bd
00000160: 558b 3e3d 2358 03bd c929 c3bd 2b00 66bd
00000170: 71cb 24bc c7c6 9c3d d5fd a5bb 7a7f aa3d
00000180: 2116 a2bd 4964 c23d fd27 083d 5864 733d
00000190: e51e b4bd 1f93 84bd ed82 56bd 11a8 48bd
000001a0: f6c5 eabd d418 a2bb fe11 893c 273d db3a
000001b0: 8a1a 23be d618 d83d b7c2 46bc 0df9 7b3b
000001c0: 9c2d f73d 6c8f 89bb 2471 933c 0fcf 333c
000001d0: 5db7 f63d 94be 1c3d d50f 6f3c ab28 293e
000001e0: d4ee ff3c 5d44 043d 75af edbc e965 f43c
000001f0: c0f3 21be 334d e03c 6c44 dc3b 05a3 46bd
00000200: 56fd 3b3e 1a49 dfbc 6a70 5f3d 4a3e a1bd
00000210: 0af8 9f3d d4f6 88bb cb5f ccbd 6f45 adbd
00000220: c87f ca3c 06d2 71bd 6212 c63c c552 07be
00000230: ccc7 2c3d 84f1 73bd 7d36 0a3d 43bd 87bd
00000240: d1fb 93bc 7e29 40bc 3dc7 bebd 1314 1dbc
00000250: 91be 61bc 66db acbc 2b7a 17bd 7a5d 7b3d
00000260: f35d 593e b7f3 953d cd45 14be 57fc e1bb
00000270: 88b9 393e 55bf ab3d 50cc 90bc a5a6 16bd
00000280: a104 57bd a12d 24be 0258 a6bd 160d 72bd
00000290: 3c04 bb3d 8429 463d 3bcc 1fbe af08 423c
000002a0: 290c a53d 989c 013e 65e6 94bb 8dd9 efbd
000002b0: 879c c93d d372 81bc 97cc 90bd e647 453b
000002c0: ad42 debc 07dd 24bd 509f 2b3c e5ed 943c
000002d0: 5738 3c3d fb13 c73d 58a5 63bd b7cf 97bc
000002e0: b299 7cbd ed1e 0ebb 486a 0dbe b92f 1f3d
000002f0: edfe 183e ef46 3f3e 877d 82bd 86a4 68bd
00000300: 744d 883d 8fa2 91bd f042 c73d dedb 183d
00000310: 2956 943d a74c d0bd f699 193d 3b7f f5bb
00000320: ffd3 c1bd 5d84 c23d 09fe 50bd 2124 f6bc
00000330: 0619 ef3d ee1c f63c 1b02 913d 839e 92bb
00000340: 2c21 953c cce4 7fbe d6ae 133b e083 32be
00000350: f5a6 76bd 72e4 6d3c c946 1b3c 0b10 e53b
00000360: f8b2 c93b 4efe 173e 8cfe c9bb fb01 9c3d
00000370: 9c58 7c3b 9d6a 21be b2d5 05be b330 613d
00000380: dcc4 31bc 3d74 96ba cc44 c63d 18a3 94bb
00000390: 417c 623c 8e5f aabc 15f6 d13c 7711 6ebc
000003a0: 3f69 653d 9ede a6bd 0d84 9abd 4c1b 713d
000003b0: 0e71 b93c 0ea9 44bd fa0c d7bc be2d 3a3d
000003c0: 6d3a e0bc fd64 de3c 0a35 153d 5c49 cabd
000003d0: 3158 a63b 254d ed3d c2ad 1c3c 6331 1c3e
000003e0: e88b 203d c912 143b e52f af3c b70d 033c
000003f0: b7a2 723d f5fc efbd 9926 a43d 71cb ab3c
0.13202813 -0.0989655 0.12412722 -0.070399165 -0.18459825 0.028864486 0.045430712 0.14660761
-0.07156465 0.017507665 -0.029460542 -0.09929988 0.15133727 -0.103842594 0.055095088 0.010513227
0.08593559 -0.06449159 -0.04572841 -0.090542324 -0.112684354 -0.07415228 -0.006945106 -0.01339588
0.14289261 -0.04153395 -0.0043374784 0.030656934 0.020145882 -0.05587731 -0.11062562 0.027557613
-0.02836037 0.010238411 0.067658424 0.12946567 0.016264154 -0.08074891 0.048322093 0.051122088
-0.11526509 0.15673433 0.10180475 -0.039070606 0.05237636 0.022021292 0.18232763 0.03515534
-0.031045618 0.11702074 0.03356627 0.050870143 -0.034091674 -0.050803848 -0.021942837 -0.05158507
-0.0016833937 -0.039155718 0.09626194 0.04048044 0.009893307 0.007905919 0.1389823 -0.041925672
-0.01402224 -0.043396287 -0.031798802 -0.030184925 0.08269857 0.11730303 0.029233512 0.029115774
-0.0320985 0.16451555 0.06749821 -0.14845388 -0.023145527 0.073446274 -0.0006194616 0.026161086
-0.012865839 0.04287383 0.0004183644 0.046929017 0.025315747 -0.01736705 0.029195167 -0.040133595
0.046519596 -0.032066476 -0.09529454 -0.056152504 -0.01005827 0.07655101 -0.0050656595 0.083250955
-0.07914377 0.09491784 0.03324126 0.059421867 -0.08794955 -0.064733736 -0.052370954 -0.048988406
-0.11463539 -0.0049468074 0.016732212 0.0016726599 -0.15928093 0.10551612 -0.012131385 0.0038448006
0.12069246 -0.0041980054 0.017998286 0.01097466 0.120466925 0.038267687 0.014591177 0.1651942
0.031241812 0.03229176 -0.029014328 0.02983375 -0.1581564 0.027380561 0.0067220237 -0.04849531
0.18358359 -0.027256537 0.054550566 -0.07873209 0.078109816 -0.004179815 -0.099792086 -0.08460509
0.024719134 -0.059038185 0.024178687 -0.13215168 0.04218273 -0.0595565 0.03374337 -0.06627896
-0.018064411 -0.0117286425 -0.093153454 -0.009587306 -0.013778345 -0.021100711 -0.036981743 0.061368443
0.21227245 0.073218755 -0.14479752 -0.0068965363 0.18137181 0.08386103 -0.017675549 -0.03678002
-0.05249465 -0.16033031 -0.08122255 -0.05909451 0.09131667 0.048379436 -0.15605251 0.011842891
0.0805896 0.12657392 -0.0045440667 -0.117114164 0.09844308 -0.015801823 -0.070702724 0.003010267
-0.027131403 -0.04024985 0.010474995 0.018179843 0.045952167 0.09720608 -0.055577606 -0.018531663
-0.061670013 -0.0021685914 -0.13810074 0.03886387 0.14940996 0.18679403 -0.06371599 -0.056797527
0.06655398 -0.07111084 0.09729564 0.037319057 0.07242996 -0.1017087 0.037500344 -0.0074919737
-0.09464263 0.094979025 -0.051023517 -0.030046524 0.11674695 0.030043092 0.0708048 -0.0044744625
0.018204294 -0.24989623 0.002253463 -0.17433119 -0.060217816 0.014519798 0.009477326 0.006990438
0.006155368 0.14843103 -0.0061643776 0.07617565 0.0038504964 -0.15763326 -0.130698 0.054978084
-0.010850158 -0.0011478734 0.09681091 -0.004536044 0.01382357 -0.020797517 0.025630036 -0.014530531
0.056008574 -0.081479296 -0.07544718 0.058863923 0.022636916 -0.048012786 -0.026251305 0.04545378
-0.02737161 0.027147764 0.036427535 -0.098772734 0.005076431 0.1158698 0.0095629115 0.15253215
0.039195925 0.0022594205 0.021385143 0.007998875 0.05923721 -0.117181696 0.080151744 0.020971032

network_body._body_endoder.seq_layers.0.bias f4 [128]
00000000: aa77 393c 9feb 913c 4720 32bc 422c ee3c
00000010: 6c70 03bb c03c c7bb 56bc 37bb f14f 873c
00000020: 0578 263c 3d50 f7bc f55d a9bb 3fa7 cdbb
00000030: 9ddf a33c 773b aa3b fd2f ea3c 8b02 bcbb
00000040: e558 0fbd 3519 873c 63a7 a53c 23dc 03bc
00000050: ea65 b53a d7c7 c33c a40d 9439 a836 eb3c
00000060: 75cf 5b3b f8ea 943c 6cea 8bbc c472 173d
00000070: 25f9 c13b 0d4d 913c 5151 2bbd f0b9 76bb
00000080: c6d7 ad3c 12aa 9f3b 945b ee3c 3ae3 083c
00000090: 4a16 be3b abe2 fcbb 2ac0 453d 331a a53c
000000a0: 9f37 0abd 718c 38bb e06b 22bd 4390 b4bb
000000b0: f1bb ecb9 92b1 febc 8ccd 3b3c d3d1 133d
000000c0: f5fe 883c 2fc8 f43b 85cd 8b3c 1969 643b
000000d0: e352 153d 5353 68bb 4d81 be3c 91eb 28ba
000000e0: b9f2 153c d4a5 7f3b 6ee5 5a3c 4a4b 39bd
000000f0: aa9c be3b 72b3 023d c023 24bd c2b0 99bc
00000100: ebd7 2e3d b147 d33c e0c6 c3bb a267 82ba
00000110: 512f 6c3c f770 7dbb acc2 913a 33c8 c43c
00000120: 6e75 6d3d f0f2 493c 514e 0bbc 18b6 0abd
00000130: efe6 a13b e419 abba 8f06 293c b649 f03c
00000140: 6a25 6f3c 4212 b2bc 2d54 cc3c 3e46 87bc
00000150: c6ec e2bc a41b 84bb ee70 bc3a 4578 163c
00000160: 7994 67bc 6dbd 91bc 9e16 a83c 5632 f13b
00000170: b4ff 15bc 295e 703b 8ba2 fa3b 8724 c63b
00000180: e77e 0bbc e6c9 36bc 364d 0b3d 54c8 1ebd
00000190: 573a 32bb 857c 213d c176 d23c 36df ca3b
000001a0: 77cd aa3b a479 f43b 4066 b13c 1337 e63b
000001b0: 5086 033c e232 a2bb a575 3d3c efe1 2dbc
000001c0: 6224 3b3b fc98 9d3c 538d 933b 921e 583c
000001d0: 70db 193c a356 013c 2c72 943c 448f 673d
000001e0: def4 633c 6195 67bc 740a 3b3c c212 4b3b
000001f0: b5ad 39bc 2644 b4bc d15e acbc 9550 733c
0.011320034 0.017812548 -0.010871953 0.029073838 -0.0020056022 -0.00608024 -0.002803584 0.016517611
0.010160451 -0.030189628 -0.0051686713 -0.006276041 0.020004088 0.005195077 0.028587336 -0.005737608
-0.034996886 0.016491512 0.020221418 -0.00804809 0.0013839577 0.023899002 0.00028238923 0.028712586
0.0033540402 0.018178448 -0.017079554 0.036974683 0.005919593 0.017736936 -0.041825596 -0.0037647448
0.021221053 0.004872569 0.029096402 0.008354956 0.005800997 -0.0077174506 0.048278965 0.020154094
-0.03374445 -0.0028159881 -0.03965366 -0.0055103614 -0.00045153455 -0.031090531 0.01146258 0.036088776
0.016723135 0.007470153 0.017065773 0.0034852682 0.036456 -0.0035450056 0.023255015 -0.00064437935
0.009152108 0.0039008753 0.013360364 -0.045237817 0.0058170157 0.031909414 -0.040073156 -0.018761043
0.042686384 0.025791021 -0.0059746355 -0.0009949098 0.014415578 -0.0038672069 0.0011120639 0.024021244
0.057973318 0.012325987 -0.008502559 -0.033865064 0.0049408595 -0.0013053981 0.010316505 0.029332023
0.014596323 -0.021737222 0.024942482 -0.016512986 -0.027700793 -0.0040316153 0.0014376917 0.009183948
-0.01413452 -0.01779052 0.020518597 0.007360737 -0.009155203 0.0036677218 0.007648771 0.006046835
-0.008514143 -0.011156535 0.03400918 -0.038765267 -0.0027195418 0.03942539 0.025691392 0.0061911596
0.0052124816 0.0074607898 0.021655202 0.0070256083 0.008027628 -0.0049499134 0.011563693 -0.010612949
0.0028555621 0.019237988 0.004502931 0.013190882 0.009390697 0.007894191 0.018120848 0.056533113
0.013913361 -0.014134736 0.011416066 0.0030986522 -0.011332919 -0.022005152 -0.021041306 0.014850755

network_body._body_endoder.seq_layers.2.weight f4 [128, 128]
00000000: eef9 203d f46f 45bc ad31 13be aadf ce39
00000010: 17fc 38bd 9101 30bd e81a babd f42c 97bc
00000020: 6d60 9abd 0444 69bd 76a8 773d 7535 193d
00000030: 07d9 2b3e 69d3 073d c2b1 ac3d 0826 b0bd
00000040: 53e9 43bd 15ab b33d ab1c 783d 2629 87bd
00000050: 1d67 23bd d6b0 71bd 19c4 46be 7c88 803d
00000060: 0229 08be 89fb ab3d d186 05bd d23c 013e
00000070: 6855 0b3d da64 78bd 979f a0be 9613 8dbd
00000080: 12d8 783d 4442 19bc 976a dd3d fc9b 04be
00000090: a29d 3ebd 6f1c 4bbd a5d8 afbb c28c 29bd
000000a0: a4f7 8c3c 7895 9b3d d05a 26be e4e0 26bd
000000b0: 1ba2 fdbd 85ad 993d e155 86bd 3e7a a3bd
000000c0: abfe 33be 1174 80bc 9677 babd 20b9 833d
000000d0: 5248 d23d 1a00 7bbd b6c8 3dbd 5e71 253e
000000e0: d230 9f3d 8204 38bd 9123 84bd 463a a4bd
000000f0: ed1b b13c b972 8ebd e488 2e3b de69 63bd
00000100: f973 9cbb 5d1d d63d 0c93 96bd 33a9 65bd
00000110: f2b2 09bc 10b3 39be 16ab 2c3e dfa7 9f3d
00000120: 1ee5 893d d28b 14bd 51fd 193d ad02 33bd
00000130: 7012 99bd 04fa 273c e2c4 a1bd cca4 1d3d
00000140: b310 f03d 7852 e3bd e344 263e ceb3 0f3e
00000150: d0aa c5bd 5b67 44bd 9753 7bbc 02f0 083e
00000160: 3ab8 793a 0ab2 76ba 1c70 abbd e6e2 82bd
00000170: 552a 52bc aed0 4a3c 6ff3 cb3d 3e50 733e
00000180: 90ca 3d3e 03c9 a13c f835 50be 5860 923d
00000190: 3af1 2cbe a64e f83d fd28 623c 6eb8 2dbe
000001a0: 83e1 bebd d529 523c 3359 a93c 678e 30bd
000001b0: 18b5 cd3d da57 e0bd daeb 883c 3fdd 1b3d
000001c0: a6c7 1abe 09b4 1b3e c278 673d 3989 2ebe
000001d0: eb2d c7bb 3368 01be a170 153c bf2c 53bd
000001e0: 762c 7bbd 2ae1 3bbd aeec 313d f6b9 7bbb
000001f0: ac6d c13c 5f3c f6bc aadc 5a3e 98d7 763c
00000200: 6a40 b2bb 23aa 863d ede5 113e 003a bf3d
00000210: b7d2 9a3d dcf4 813d 3d2b 05bd 0fc9 48bd
00000220: 5cf9 18be ae9c 01bd 3896 023d c165 f23d
00000230: d8f6 273d a39b f03b 552c 8d3d 1634 323d
00000240: dd5a f7bc dab6 ddbc b1d6 2e3d 6425 57bd
00000250: fdf7 02be 8ad5 fbbd 5e19 29be 097e 763b
00000260: cdef 22bd 5ff6 193c cb86 5b3d 5afd ba3d
00000270: 1eaf 393d 6f73 46bd 660d d5bb eb62 b0bc
00000280: 7128 50bd 6839 b33d 6243 a53d c95a 37be
00000290: ca45 80bd cd86 91bd 175a c03d 2d7e 5b3d
000002a0: 158f e1bc 6665 f9bd ea9e e6bd 90ee c73d
000002b0: 0406 cabd 321d 99bd 364c ad3d 0f47 103e
000002c0: f832 913d 4044 78be 301b d13c af96 2fbd
000002d0: 0dfc f3bd 7ea1 16bd 66d7 073e 3844 9ebc
000002e0: 047e c13c 4987 5b3e 35e0 583d 9c27 b03d
000002f0: 90a2 3e3c 9aa9 9a3c 3c58 0dbe c54a 26bd
00000300: 0730 bcbb aab4 b9bd 3fec ac3d 408d 9abd
00000310: 28e0 d0bd 66e7 b0bc 4cbf bb3d baf7 c53c
00000320: 941f c8bd c8cc 31bd b8be 25be e2c1 9e3d
00000330: dca9 40be abba 5d3d f94c b4bd 2ab1 063e
00000340: 6059 423b 8534 afbc 48d7 503d c318 bb3d
00000350: 0f9c 4f3d fe07 74bd d635 94bd 0af7 89bd
00000360: 1a2a c7bd 2627 a7bc 7eec f9bd 5028 25be
00000370: 98f2 aabd aaa7 babd 472f a13d 594d edbd
00000380: e3aa 163e 0579 c0bd 7064 64bd 6831 49bd
00000390: a213 223e 0f5f 97bc 869b 2ebd 09ba 00be
000003a0: e18b 93bd 7248 2f3d 9199 8a3c 5d8d 373e
000003b0: 4e9c d13b 48e6 64bb db2c 093c 9592 1f3e
000003c0: 3d7d f8bc 6078 9fbc e584 cebb a8cb 08be
000003d0: af43 75bc fe00 8fba a9bd c8bd 8371 883d
000003e0: 4e0a a4bc 1740 a4bd 7467 b23b f1e8 6abc
000003f0: d9d6 9ebd 88e5 2a3b 6848 c13d 785f 263b
0.03930085 -0.0120506175 -0.14374419 0.00039458025 -0.045162287 -0.042970244 -0.09087163 -0.018454053
-0.07537923 -0.05694963 0.06046339 0.037404496 0.16782008 0.0331606 0.08432342 -0.08601004
-0.047829937 0.08772866 0.060574215 -0.06599645 -0.03989326 -0.059006535 -0.19410743 0.06276032
-0.13296893 0.08397586 -0.032599274 0.12620857 0.034016997 -0.060643055 -0.31371757 -0.06888501
0.060752936 -0.009354178 0.10811346 -0.12950128 -0.04653705 -0.049587663 -0.005366402 -0.041394003
0.017207928 0.07596868 -0.1624558 -0.040741816 -0.12384435 0.07503799 -0.06559349 -0.079823
-0.17577617 -0.015680345 -0.091048405 0.06431794 0.102677 -0.061279394 -0.04633399 0.16156527
0.077729836 -0.044926174 -0.06452096 -0.08018927 0.021619761 -0.06955475 0.0026631886 -0.055520885
-0.004774567 0.10454819 -0.07352266 -0.056069564 -0.00840448 -0.18134713 0.16862139 0.07795691
0.06733154 -0.036266156 0.037595097 -0.043703724 -0.0747422 0.010252479 -0.078988805 0.03848724
0.11721935 -0.11099714 0.16237216 0.14033434 -0.096517205 -0.04795013 -0.015339754 0.13372806
0.0009526048 -0.0009410685 -0.083709925 -0.06390934 -0.012827476 0.012378855 0.09958541 0.23761079
0.18534303 0.01974917 -0.20333087 0.07147282 -0.16888896 0.12124376 0.013803718 -0.16964886
-0.09320357 0.012827356 0.020672416 -0.043104555 0.100443065 -0.10954256 0.016714025 0.038052794
-0.15115222 0.15205397 0.056511648 -0.17044534 -0.006078472 -0.12637405 0.009121091 -0.051556345
-0.061321698 -0.04586903 0.043438606 -0.0038410402 0.023611866 -0.030058084 0.21373239 0.01506605
-0.0054398077 0.0657542 0.14247866 0.093372345 0.07559722 0.06345531 -0.03251194 -0.04901987
-0.14938873 -0.031643562 0.03188154 0.11835814 0.041006893 0.007342772 0.06893221 0.043506704
-0.030194694 -0.02706473 0.042685214 -0.052525893 -0.12789913 -0.12296589 -0.16513583 0.0037611744
-0.039779473 0.009397118 0.053595345 0.09130354 0.04533302 -0.04844993 -0.0065018414 -0.021531543
-0.050819818 0.08751184 0.08069493 -0.17905726 -0.06263311 -0.07105789 0.09392183 0.053587127
-0.027534047 -0.12177543 -0.11260779 0.09762299 -0.09864429 -0.07476272 0.08461802 0.14089607
0.070898 -0.24244785 0.02552566 -0.042868312 -0.11913309 -0.036775105 0.13265762 -0.019319639
0.02361966 0.21438326 0.052948195 0.08601305 0.011635438 0.0188797 -0.1380319 -0.04059865
-0.00574303 -0.09067662 0.08443498 -0.075464725 -0.101990044 -0.021594714 0.09167346 0.024165977
-0.09771648 -0.043408185 -0.16186035 0.07751824 -0.18814796 0.0541331 -0.08803744 0.1315352
0.0029655322 -0.021387348 0.05098656 0.09135582 0.05068594 -0.059577934 -0.07236831 -0.06736572
-0.09724827 -0.02040441 -0.122033104 -0.16128659 -0.08347052 -0.09114011 0.078703456 -0.115870185
0.14713626 -0.09398083 -0.055759847 -0.049119383 0.15827802 -0.018477945 -0.042628787 -0.12570967
-0.07204414 0.0427937 0.01691893 0.1792502 0.006396807 -0.0034927297 0.008372511 0.1558326
-0.030333156 -0.019466579 -0.0063024634 -0.13358939 -0.01496975 -0.001091033 -0.098018 0.06662276
-0.020024445 -0.08020037 0.0054444615 -0.014337764 -0.07755823 0.0026076753 0.094376385 0.0025386494

network_body._body_endoder.seq_layers.2.bias f4 [128]
00000000: 232e debb 2e21 96bb be30 673c 3eaf 02bb
00000010: 7380 c9bb 62aa 18bd 51b2 0b3c 0c36 76bc
00000020: 429c c8bc 94d1 69bb 587b 8f3b 81de 5fbc
00000030: 2fcf 153c a392 913c 9328 4ebb f380 833c
00000040: d84f 723c e617 1e3c 8a0e 22bd ad96 593c
00000050: 0d76 32ba 7534 e7bc 512b af3c 30f2 fab7
00000060: 2231 363b 4bfc 97bb 8fe9 fcba 987a acbc
00000070: 7134 983c a682 63bc bf8e 943a b9e7 f93a
00000080: 097d 303b df67 c23b 5edb e23a aedc 1abd
00000090: 8cde 2cbc c135 a53a 8887 213b 5ea8 473c
000000a0: 8525 99bc 7b90 4e3c 4696 91bc edfa 743c
000000b0: 193e adbc 20d7 bfbc f8de 0e3c c77d 10bd
000000c0: 1b8c 603c 3123 fa3c 8467 f9bb f671 a9bc
000000d0: 7bf6 5c3c 8362 3c3c 939b e23c 3615 6c3c
000000e0: eb9a f53b 5c9c 01bd 799b a1bc 9cf5 63bc
000000f0: e7d1 0abd cebc 3e3b b9ec 143c c2c3 143c
00000100: d72d 31bc 316f 35bc b7cb 273c 1d5e 1aba
00000110: 4149 0c3c f5d9 d538 33dd dcb9 e4ad ccbc
00000120: 4dbf 213c 1970 8dbc da57 1b3b 95ad 05bd
00000130: 45a1 26ba 3afe cd3c 2782 083d 9c89 dfbc
00000140: 53ae e53c b28a d73b 3671 963c e970 583c
00000150: 1879 333b 2221 013c 5653 823c 2841 773b
00000160: ce9f 863c a63d 72ba fa43 b43c 239e b4bc
00000170: 8498 ed3c dd5e 053b e2c9 693c fe04 c1bc
00000180: c5c3 7e3a dc9e 3a3c 3046 923c 8d82 7e3b
00000190: ac6d 44b9 150e 02bb 3b71 e3bc e0ac ac3b
000001a0: c849 463b 24c5 98bc 7c55 ebbc 9dec 273b
000001b0: dcbd 883c 9113 ae3c acbc 443c 5a00 52bc
000001c0: 58ba b83c a1a7 d63c af90 a4bb c5eb beba
000001d0: 6c22 ba3b d29e 0abd 6e7f b23b 3314 89bb
000001e0: 21d6 863c 62c1 653b edf5 a5bb 6f51 f5bc
000001f0: 63f9 60bb b074 6a3b de8f 393c 86f4 17bc
-0.0067804023 -0.004581592 0.014110742 -0.0019940878 -0.0061493455 -0.037271865 0.008526401 -0.015027534
-0.024488572 -0.0035677897 0.0043787174 -0.013663889 0.009143635 0.017770117 -0.003145729 0.016052699
0.014789544 0.0096492525 -0.039564647 0.013280553 -0.0006807752 -0.028223256 0.02138296 -2.99151e-05
0.0027800282 -0.00463823 -0.001929568 -0.021054551 0.018579694 -0.0138861295 0.0011334046 0.0019066251
0.0026929996 0.0059327926 0.0017307808 -0.037808113 -0.010551106 0.0012604521 0.0024647433 0.012186138
-0.018694649 0.012607689 -0.017771851 0.0149524035 -0.021147775 -0.02341801 0.008720152 -0.0352762
0.013705279 0.030534359 -0.007611217 -0.020684224 0.0134865 0.011498096 0.027662074 0.014409354
0.0074952743 -0.031643257 -0.019727455 -0.013913538 -0.033891585 0.0029104236 0.009089642 0.009079875
-0.010814152 -0.011073873 0.0102414405 -0.0005888658 0.008562387 0.00010197229 -0.00042126476 -0.024985261
0.00987227 -0.017265366 0.0023703487 -0.032636244 -0.00063564285 0.025145639 0.033327248 -0.027287297
0.028037226 0.006577813 0.01836453 0.013210514 0.002738541 0.007881435 0.015908878 0.0037728045
0.016433623 -0.0009240754 0.02200507 -0.022048062 0.02900339 0.0020350732 0.014269324 -0.02356195
0.0009718503 0.011390414 0.017855734 0.0038835139 -0.00018732873 -0.001984482 -0.027763953 0.0052696317
0.003025638 -0.018648691 -0.028727286 0.002562321 0.016692095 0.021249564 0.0120078735 -0.012817467
0.022549793 0.026202979 -0.0050221304 -0.0014566114 0.005680373 -0.03384287 0.0054473197 -0.004183316
0.016459526 0.0035057892 -0.005064717 -0.029946057 -0.0034328334 0.0035775118 0.0113258045 -0.0092746075

action_model._discrete_distribution.branches.0.weight f4 [7, 128]
00000000: e0a9 a4bb f7af a3bc ec41 c0ba 7414 bfbc
00000010: 6a93 36bb 0f01 f4bb 2520 31bb 74fc 24bc
00000020: e560 64bb 1cb7 c83b de89 323c 0a87 efbb
00000030: e5d6 6cbc 7142 743b 5f63 9fba ecd5 e03b
00000040: c89b 27bc 2d46 af3c 7b46 68bc 0df4 0b3d
00000050: 4a2c 50bc 2b8e 1cbc 5105 903b c8c5 97bc
00000060: da35 bc3b 28aa 49bc 5106 8abc 5cec 843a
00000070: 632e 913b 059c cdbc af32 e43b 77b3 843b
00000080: aa95 28bc 48cf 163c 1cf1 acbb c249 f5bc
00000090: 2f36 f1bb a578 a53c 83b6 433c ee58 c5bb
000000a0: 6631 253b 31b4 b53c 57d6 23bb 41d6 953b
000000b0: bd00 8dbc 7170 e5bc db07 1abc 1d0e 92bc
000000c0: fdba 483c 13b9 cb3c 844d 82ba e8c2 83bc
000000d0: 9674 c33b 0421 b43b 2a40 813c 25c6 e33c
000000e0: 38cd 043c 9b37 22bb 4c4c 233c 18a6 46bc
000000f0: a7a3 373a 931c 1ebc 57d3 dd3a df71 d0bc
00000100: 654f 02bc 7eff 67bc 5960 14bc 14d7 08bc
00000110: 7f91 8c3c 158f 9dbb 532a 42bb 565e 453b
00000120: b59a bdbc 90f3 98bc 5f49 89bb 3c14 4fbc
00000130: 710a fd3b 89f9 da3b d2ca b73c 79d8 59bc
00000140: 6c27 553c 55aa a5bb 0047 d6bb 2727 dfba
00000150: b812 8d3c d295 84ba f16f 99bc f539 2e3c
00000160: 978c a23c 8b58 9b3b e44a 263c b042 e1bc
00000170: 4bc3 173d fc0e 47bb d084 953c d94d a2bc
00000180: 05d4 25bc a2f0 8cbc a805 ec39 ce4e 913c
00000190: 212b ddbb b760 87ba 2d31 39bc 72b2 0d3c
000001a0: 37fe 573c a14d ffbc 032c d2b9 7329 4b3b
000001b0: 9945 513c 959b 7a3b 96e3 bd3c 787f 71bb
000001c0: bccd e8bb 9873 eaba d37f 8ebb d178 c3bb
000001d0: b95c 3e3c 9505 bc3b de11 ab3c 4580 9d3c
000001e0: 2dba db3c 93b9 92bc 0ab7 7ebb d6cf e0ba
000001f0: 44f6 a93c 79c1 1a3c a01e 45bc 6a51 99bc
00000200: b769 eabb 4e4b a03c 2d6d dbbc 4872 1f3d
00000210: 1651 e93b b0b6 ce3c f6f1 90bc 6fc0 c83c
00000220: 18c3 013d 6a53 6cbc 6886 c2b9 a25b ce3c
00000230: 0df0 843c 1ef8 65bd 7a1c b4bb 96e4 2abd
00000240: 7233 88bc 5b22 f3bc 1da2 5b3b f987 aabb
00000250: c61d 6dbc 93d8 3f3c dae0 c5bc 4869 113d
00000260: 20f8 52bc 367b 043d b522 783d f717 833c
00000270: 8663 e6bc e676 be3c fda0 dfbc a57f dbbb
00000280: 5546 c53c f72c 84bc bf66 4ebb c7c2 f13c
00000290: aeec 9f3c d8d9 9b3c 8347 e63b 76d3 81bc
000002a0: 78eb 813b 8dad e23c ee51 1d3c 1732 0abd
000002b0: be66 4d3d b900 623d a2f8 76bc 2470 883c
000002c0: 8197 653d 9ea9 d7bc 8c8b 2fbc 49fe 8d3c
000002d0: 2281 75bc 75d7 f8bc 0808 083d 7b3e 4cbc
000002e0: 374e 303c 44e5 093d d3bb 173d 106d bb3c
000002f0: 34c2 283d 3ad2 0a3d fd0d 8a3d ac93 3a3b
00000300: d8d2 7f3c c2a2 c43c 9533 87bc b892 a3bc
00000310: a6f2 963c 70df 463c 3c35 c0bb 4e88 c43c
00000320: ae68 0d3d 3120 043d 0d97 ec3a 8b03 993c
00000330: 894e bdbc 1186 04bd d7bf 50bd 44ba 8f3c
00000340: d279 8a3c 7dcb 0b3d 5f73 243d f30d b1bc
00000350: ebb8 40bc 4955 50ba 0b90 ad3c 4b6d 32bc
00000360: 6c84 5fbd ae21 b53b 1c94 00bd 5b90 063d
00000370: 1e82 ecbc 2c07 99bb 1611 263d 2e85 cf3c
00000380: 4219 7a3c a421 7ebc ed2f 65bc edb2 dfbb
00000390: c69f 5cbc c3e9 80bb e5e6 f03c ec02 e73a
000003a0: f2e3 34bc bef8 633c 0931 313d 7585 6abc
000003b0: e834 c3bc 2741 25bd 8371 ebbc 9494 1b3c
000003c0: 8d30 45bb e4f6 22bd 7873 55bb 4465 e33c
000003d0: f701 bdbc 3081 ca3c bcc7 953c 4e8a 40bc
000003e0: 8c38 8c3d fbc0 1e3d 254d 18bc a4fc 063d
000003f0: da17 16bb b8ad 72ba 7542 593d 97fa 0a3d
-0.0050251335 -0.019981368 -0.0014668084 -0.023325182 -0.0027858862 -0.0074464153 -0.0027027216 -0.010069955
-0.0034847793 0.006125344 0.010897128 -0.007309799 -0.014455532 0.0037271047 -0.0012160352 0.006861439
-0.010230012 0.021395767 -0.01417696 0.03416829 -0.012705872 -0.00955538 0.004395165 -0.018526927
0.0057437243 -0.012308635 -0.016848715 0.0010141241 0.0044305786 -0.02509881 0.00696405 0.004049714
-0.010289589 0.009204693 -0.005277766 -0.029942397 -0.0073611955 0.02019913 0.01194537 -0.006022564
0.0025206446 0.022180649 -0.0024999583 0.00457266 -0.017212266 -0.028007718 -0.009401287 -0.017828995
0.012251613 0.024868524 -0.0009941314 -0.01608415 0.005964826 0.0054971 0.015777666 0.027804444
0.008105569 -0.0024752382 0.009966921 -0.012124561 0.0007005282 -0.009650367 0.0016923946 -0.025444923
-0.007953499 -0.014160035 -0.009056174 -0.00835206 0.017159222 -0.0048083165 -0.0029627278 0.0030116043
-0.02314506 -0.018670827 -0.0041896547 -0.012639102 0.007722192 0.006682579 0.02243558 -0.01329624
0.013009887 -0.0050557056 -0.0065392256 -0.0017025218 0.01722084 -0.0010115451 -0.018730136 0.010633935
0.01984243 0.0047407798 0.010149691 -0.02749762 0.03705148 -0.0030373922 0.018251806 -0.019812511
-0.01012135 -0.017204586 0.00045017642 0.017737772 -0.006749526 -0.0010328506 -0.011303228 0.008648502
0.013183168 -0.031164946 -0.00040087113 0.0031000047 0.012772941 0.0038239707 0.02317981 -0.003684966
-0.0071046036 -0.0017887233 -0.004348734 -0.00596533 0.0116187865 0.00573797 0.020882543 0.019226203
0.026822174 -0.017910754 -0.0038866424 -0.0017151784 0.020747311 0.009445542 -0.012031227 -0.018715579
-0.0071537155 0.019567158 -0.026785458 0.038927346 0.007120262 0.025233597 -0.017693501 0.024505822
0.031680197 -0.014424184 -0.00037102704 0.025190178 0.016227746 -0.056144826 -0.0054965587 -0.041721903
-0.016626094 -0.029679468 0.0033513375 -0.0052041975 -0.014472431 0.01170935 -0.02415507 0.035500795
-0.01287654 0.032344066 0.060579974 0.016002638 -0.028123628 0.023250055 -0.027298445 -0.006698566
0.024081388 -0.016134722 -0.0031494347 0.029511822 0.019522037 0.019024774 0.007027568 -0.015847903
0.0039648376 0.027670646 0.009602053 -0.033739176 0.05014681 0.05517647 -0.015073927 0.016655035
0.05605269 -0.026325997 -0.010714423 0.017333167 -0.014984401 -0.030376175 0.033210784 -0.012466068
0.010760835 0.03366591 0.037044358 0.022879153 0.04120083 0.033891894 0.06740949 0.0028469367
0.015614234 0.02400339 -0.016504088 -0.019967422 0.01842625 0.012138233 -0.005865721 0.023990776
0.03452366 0.032257263 0.0018050388 0.018678447 -0.023108738 -0.03235442 -0.050964203 0.017544873
0.016903792 0.03412961 0.04014909 -0.021613097 -0.011762838 -0.0007947279 0.02118685 -0.010890315
-0.054569647 0.0055276966 -0.031391248 0.03285251 -0.028870638 -0.0046700444 0.04054364 0.02533206
0.015264811 -0.01551095 -0.013988477 -0.0068267495 -0.013465827 -0.0039341166 0.029406974 0.0017624772
-0.0110406745 0.013914285 0.043259654 -0.014314045 -0.023828939 -0.040345337 -0.02874065 0.009495873
-0.0030088753 -0.039786234 -0.0032570045 0.027758248 -0.023072226 0.024719805 0.018283717 -0.011751724
0.06846723 0.03875826 -0.009295736 0.03295578 -0.00229024 -0.00092574535 0.053041894 0.033930387

action_model._discrete_distribution.branches.0.bias f4 [7]
00000000: 61f7 0d3c 64bc 06bd 2824 ca39 2eff 0f3c
00000010: 0dc5 c23b 96ca 073c f38e 3abc
0.008664937 -0.032894507 0.0003855538 0.008788867 0.0059439004 0.008288046 -0.011386621
