CCP-main/results/WeightAgent_Training/WeightAgent_Training/WeightAgent_Training-8499981.onnx (onnx, 156336 bytes, 6 tensors)

network_body._body_endoder.seq_layers.0.weight f4 [128, 164]
000000 50 2d 2f bd eb c1 c3 bd 40 a2 ba bd 87 d5 bf 3d
       -0.042767823 -0.09558471 -0.09112978 0.09366899
000010 56 35 0c 3e cb 74 9e bd a0 2f c3 bd e5 fe 17 be
       0.13692221 -0.0773712 -0.09530568 -0.14843328
000020 f0 3c ef 3d c8 6a 15 3c 09 3f 96 bc fd 4f b7 bd
       0.11681545 0.009119697 -0.018340604 -0.089508034
000030 c2 0a 7e bd 72 57 7c 3c 05 5e eb 3d f6 78 56 bd
       -0.06202198 0.015401708 0.11492542 -0.05236145
000040 75 e2 b8 bd 4b e9 0c bd 85 26 b3 3a b8 d9 80 3e
       -0.09027568 -0.034402173 0.0013668096 0.25166106
000050 b3 4a a9 bd dc e1 af bc 9c d1 a8 3d be d7 65 3e
       -0.08266201 -0.021470003 0.08243105 0.2244558
000060 00 56 dd 3d c6 e0 e7 3d a9 1e 1e be 64 53 e0 bc
       0.10807419 0.11322169 -0.15441383 -0.027383514
000070 c4 48 e8 3d 85 d7 96 3e e9 ef 69 be 88 89 10 3e
       0.11342004 0.29461303 -0.22845425 0.14114964
000080 99 d8 d6 3d d8 00 11 bd 3e be f2 bc 13 2b d4 3c
       0.104905315 -0.035401195 -0.02963173 0.025899446
000090 3f 8a e1 bd 46 11 fd bc 9c fd a2 3d 8d bf 5c 3e
       -0.110126965 -0.030892026 0.079585284 0.21557446
0000a0 75 0e e9 3d d5 8b 97 bc bc 5f 1e 3e ec db f0 3c
       0.113797106 -0.018499294 0.15466207 0.029401742
0000b0 e2 8c ca bd d2 ab dd 3d e2 21 1f bd 0f 40 e6 bd
       -0.098901525 0.10823788 -0.038850673 -0.11242687
0000c0 40 0b 6f 3d 85 cc e5 3d 14 0e 9f 3d 3e 84 d6 3d
       0.05836034 0.1122065 0.07766357 0.10474442
0000d0 9f 8e d4 3d bf 2f ac bd 01 91 8f bd 70 c5 6f 3c
       0.10378765 -0.08407544 -0.07010079 0.014634475
0000e0 98 9d a1 3c 5d 8f e8 3d bc 72 8e 3d 12 f1 57 bd
       0.019728467 0.113554694 0.069554776 -0.052720137
0000f0 ac 6c 41 3e d6 7c 1f 3e 0c be e4 bb 34 7a 4a be
       0.18889111 0.15574965 -0.006980663 -0.1977318
000100 c6 6a 22 bc 5c 97 64 3e 1c 78 3c 3d c2 00 56 3e
       -0.009913152 0.22323364 0.046012983 0.20898727
000110 21 a5 02 be 23 24 b4 3d 9b 5b 21 3e a2 d7 20 3e
       -0.12758304 0.08795955 0.15757601 0.15707257
000120 65 c9 20 3d 77 18 3c bd 28 09 19 bd 8e b5 44 3d
       0.039254565 -0.04592177 -0.037362248 0.048024707
000130 b1 8c 93 bd 27 bd d7 3c 11 27 7e 3d bf f9 86 bc
       -0.07204569 0.026335312 0.062048975 -0.01647651
000140 c1 34 6e 3e 38 09 07 3e 9d 14 75 bb 06 d3 1d 3e
       0.23262312 0.1318711 -0.003739632 0.1541253
000150 a6 63 64 bc 7c 1f 1c 3e db 16 d2 bd c4 f6 57 3d
       -0.013939774 0.15246385 -0.102582656 0.05272557
000160 13 7d a3 3d 16 25 b8 bb db e7 31 3e 02 de d8 3d
       0.079828404 -0.0056196554 0.17373602 0.1058922
000170 34 78 4f bc fd 3a 3a 3d 97 0b 8e bd b6 55 1c 3e
       -0.012662936 0.04546641 -0.06935804 0.15267071
000180 5a d7 4d bd 3a 61 b5 3d fe 1f c7 bd 58 23 6b 3d
       -0.050254203 0.08856435 -0.09722899 0.057406753
000190 14 86 2e 3d b2 ad 08 3b 8c 66 7d bc 0b d3 22 bd
       0.042608336 0.0020855484 -0.015466344 -0.039752048
0001a0 7d c4 80 bd 70 db 6b 3e a6 6b b7 bd fa 6f 15 bd
       -0.06287477 0.23032928 -0.08956079 -0.036483742
0001b0 02 25 e6 bd c9 24 89 bc 3e 34 6c 3e d4 76 fa ba
       -0.112375274 -0.016741173 0.23066804 -0.00191089
0001c0 29 54 cf bd 1e 66 c8 bd e9 34 f9 3d b8 51 89 3e
       -0.10123474 -0.09785102 0.12168295 0.2682016
0001d0 a2 7c 24 bd a6 8d b2 3d 4d d9 72 3d 84 4e d3 3c
       -0.04015792 0.087184235 0.059289265 0.025794275
0001e0 a1 d8 53 3e 20 52 9f 3d 8b df 3c 3d 86 a4 e3 bd
       0.20688106 0.07779336 0.046111625 -0.11115365
0001f0 a8 1c b1 3c c4 35 c4 3d 04 13 1a be eb c0 5d 3e
       0.02162011 0.095805675 -0.15046316 0.21655624
000200 ab 21 8d 3d 47 63 92 39 fb b2 24 3d 63 27 d7 bd
       0.06891187 0.00027921257 0.04020975 -0.10505559
000210 45 1d 8f 3d 23 be 83 ba 1c 76 90 3c 37 2a 5a 3d
       0.069880046 -0.0010051172 0.017634444 0.053262915
000220 90 7c be bd 65 7a 4a 3e cd 38 29 3e 86 1d 91 3d
       -0.09301102 0.19773252 0.16525574 0.07085709
000230 7a a9 47 3e 75 06 ea 3c af 6c 78 3d de ed 89 3d
       0.19498244 0.028567532 0.060650524 0.06734823
000240 b4 64 de bd c5 ab 2b 3e ed a2 bd bd ba f9 46 3d
       -0.10859051 0.16764744 -0.09259591 0.048578
000250 45 90 15 3d 93 19 8a 3d e2 67 48 3e 7a 6e 8c bd
       0.03651454 0.06743159 0.19570878 -0.06857009
000260 8e e3 bd bc dc d2 36 3e 0f f0 9a 3c 21 a9 84 3e
       -0.023179796 0.17853874 0.018913297 0.25910285
000270 55 69 b3 3d 5a b2 30 3d 5e 9c a6 bc f9 94 1e 3e
       0.08760325 0.04313884 -0.020338234 0.15486516
000280 29 77 cc 3d 28 20 de 3d d8 5c 04 3e df 83 55 3d
       0.099836655 0.10845977 0.12926042 0.052127715
000290 9a 5d 5e 3e 51 0d 37 be a0 76 d5 3d 0a 9c 74 bd
       0.21715394 -0.17876174 0.104230165 -0.059719123
0002a0 d6 a0 76 3c 4f 24 c3 3d 89 cc 03 3e a6 73 0a 3d
       0.015052995 0.0952841 0.12870993 0.033801697
0002b0 d6 f5 0e bd 6f f2 15 3e 2d 77 e3 3d 95 df 16 3d
       -0.034902416 0.14643262 0.11106715 0.03683432
0002c0 03 b3 1c 3d ec f7 30 be 87 2e da bc 3d f6 4a bd
       0.038256656 -0.17282075 -0.026633514 -0.049551237
0002d0 57 2d 29 3d d5 43 b3 bd a3 d2 8c bd 25 b4 cb 3d
       0.041303005 -0.08753172 -0.06876113 0.09946469
0002e0 6d 9f 0a 3e 6f a7 8c 3d 5f 91 a6 3c 8c 72 44 bc
       0.13537379 0.06867873 0.02033299 -0.011990201
0002f0 d0 1a 61 3d 46 68 fd 3c 5b c5 4a 3e 11 df cf bd
       0.05495721 0.03093351 0.19801848 -0.101499684
000300 c2 a1 11 3e 44 2c 9c 3d f1 ee 96 bd f3 33 37 3d
       0.14221862 0.076256305 -0.07369793 0.044727277
000310 c8 c8 bb 3c 60 69 c5 3c a3 7e c8 bc db ec eb 3d
       0.022922888 0.024098098 -0.024474448 0.11519786
000320 00 e7 c4 bc a8 9e 05 be 6c 0b c2 bd 0b 01 34 3e
       -0.02403593 -0.13048804 -0.09474835 0.17578523
000330 77 f7 38 be 74 83 16 be 14 9b f2 bd 60 80 12 bc
       -0.1806315 -0.14698583 -0.11845985 -0.00894174
000340 92 dd 01 be ea 93 41 bd 8e d5 36 3e dd f6 56 bd
       -0.12682179 -0.047260202 0.17854902 -0.05248152
000350 0b d3 c6 bc 02 a9 bd bc 9c 53 2d 3c 82 fb 7a bc
       -0.024270555 -0.023151878 0.010579016 -0.015318753
000360 1a 2e 8c 3d a6 df 01 3d df 3c 8b 3c 16 b4 ec 3c
       0.06844731 0.03170743 0.016996799 0.028894465
000370 27 f5 61 3e b8 bf 39 be 61 1c 8e bb 40 fc f8 bd
       0.22066174 -0.18139541 -0.004336879 -0.12157488
000380 e6 25 e1 bc ad 4f be bd 08 35 2f be 05 8a 32 3e
       -0.027483892 -0.09292541 -0.17110074 0.17435463
000390 09 dc 0a 3e d0 d4 c4 3c 48 31 08 3d 51 63 c8 bd
       0.13560499 0.024027258 0.033250123 -0.09784568
0003a0 c6 85 1a 3d 96 6a de 3c 34 7a 3d 3b 68 01 8f 3c
       0.037725233 0.027150434 0.002891195 0.017456725
0003b0 17 49 c6 3d 45 e9 03 3e 61 f8 5a 3d e1 9e c8 bd
       0.096819095 0.12881954 0.05345953 -0.09795929
0003c0 23 f9 00 3e 15 7c 8b 3d 6f fe 28 bc e4 ce 22 3d
       0.12595038 0.06810776 -0.010314568 0.039748088
0003d0 d2 0d 02 3e b2 e8 f5 bd ba e3 a0 3d b1 0b 96 3d
       0.12700585 -0.12007274 0.078559354 0.07326449
0003e0 51 92 78 bd f1 01 2b bd 1e fd cc 3c 05 ee 05 bc
       -0.060686413 -0.0417499 0.02502304 -0.008174424
0003f0 3f 97 4c bd ff aa 50 bc ab ff 51 bd d9 da 00 bd
       -0.049948927 -0.012736081 -0.051269215 -0.03145871

network_body._body_endoder.seq_layers.0.bias f4 [128]
000000 f3 14 7a 3d d1 3f 28 3c 27 f6 14 3d 3a 96 d8 3b
       0.061055135 0.010269121 0.03636756 0.0066097053
000010 78 54 ae 3c 50 09 3d 3d 3c d3 ea b9 fc aa 0f 3d
       0.021280512 0.04615146 -0.0004478934 0.035075173
000020 be 12 bf bc 5f f7 d2 3c 3e 03 0d 3c 06 be d8 3c
       -0.023324367 0.025752721 0.00860673 0.026457798
000030 c5 83 c1 3c ce 5c d8 3c 59 f6 6e 3d 1e 51 06 3c
       0.023622403 0.02641144 0.058340404 0.008198051
000040 3e 34 15 3d bd 79 28 bc 7e 80 ce bc 3f 1a f4 3c
       0.036426775 -0.010282931 -0.025207754 0.029797671
000050 1f 9b a1 3c 89 ca e3 3c 21 b0 90 3c 1e 3f f2 3c
       0.019727288 0.027806537 0.01766211 0.029571112
000060 4f ac 50 3d 7a 00 07 3d f8 31 0c 3d 48 a3 be 3c
       0.050945576 0.03295944 0.03422734 0.023271218
000070 d2 2a f3 3c db f8 b5 3b 02 7c d4 bb 0c 68 de 3c
       0.029683504 0.0055533475 -0.0064845094 0.027149223
000080 7b a1 fd 3a 6c 1d bd bb 2c fd d5 3c 26 f4 19 3d
       0.0019350493 -0.0057713296 0.026121698 0.037586354
000090 e3 f2 39 3d ed d1 2b 3c 55 4c 28 3d 7b c0 82 3c
       0.04539765 0.010487062 0.04108842 0.015960922
0000a0 16 96 4c 3c 84 55 9a 3c 22 69 00 bd 0a 44 21 3d
       0.012486955 0.018839605 -0.031350262 0.039371528
0000b0 65 41 03 bc 3b d7 55 bc 6d 58 fe 3b 20 f2 bd bc
       -0.008011197 -0.013051803 0.007762006 -0.023186743
0000c0 5f 3d c8 bc 81 1c c9 3b e4 1f 0d bc 07 93 24 3d
       -0.024443327 0.006137431 -0.00861356 0.04017928
0000d0 d4 4b 67 3d 4e 4b aa bb b5 e2 25 3d 35 5a 8f 3c
       0.0564688 -0.0051969653 0.040499408 0.017499069
0000e0 95 7f a7 3c 0a 00 e8 3a 86 c8 16 3d da b8 99 bb
       0.020446578 0.0017700207 0.036812328 -0.0046912255
0000f0 9d 31 89 3b f9 aa e0 ba 08 65 9f 3c 21 a2 8d 3b
       0.0041868226 -0.0017140798 0.019457355 0.004322306
000100 c7 5e 21 3c cf 20 1f 3d 1b 7d 9a 3c 7a a7 79 bc
       0.009849257 0.038849648 0.018858483 -0.015237683
000110 f4 95 a9 ba 0a 3a 60 3d bd 27 a7 3c e9 e3 ed bb
       -0.0012938366 0.05474285 0.02040469 -0.007259835
000120 54 3e 12 3c a8 42 0b 3d 4f e4 3a 3d 9e ee 28 3d
       0.008925993 0.033999115 0.04562789 0.041243188
000130 54 3b 46 3d e3 75 a7 3c ab 73 ad 3c 4c 54 68 bc
       0.048396423 0.020441955 0.021173319 -0.014180254
000140 96 c7 fb 3c e2 96 0b 3d 78 a3 8d 3c a5 58 51 ba
       0.030734818 0.03407944 0.017289862 -0.00079859263
000150 a9 7a 9d 3b 19 1d 83 3c b7 ee da 3c eb 70 ed 3c
       0.004805882 0.016005086 0.026725156 0.028984508
000160 22 16 37 3d 76 39 d1 3b 74 24 07 3c c5 c1 93 bc
       0.044698842 0.0063850237 0.008248437 -0.018036732
000170 aa 4a a0 bc 3a 9b 87 bc 13 cf 16 3d 15 a7 1e 3d
       -0.019566853 -0.01655351 0.036818575 0.03873356
000180 f9 b7 9c 3c 45 d9 91 3c 2a 77 aa 3c 09 fb 85 3b
       0.019130694 0.017803797 0.020808775 0.0040887636
000190 30 72 8a 3c 8d 4f 73 3c 56 ec c2 3c 11 08 1d 39
       0.016900152 0.014850509 0.023794334 0.00014975692
0001a0 15 79 3b 3d 55 0d 27 3d 0c 6f 76 3c 5d 32 fa 3c
       0.04576977 0.0407842 0.015041124 0.030541593
0001b0 c6 bc 1f 3d 6e be 7e 3c d8 15 57 3c de 87 bd 3c
       0.038998388 0.015548332 0.013127767 0.023136076
0001c0 8e 33 db 3c 72 ff c6 3b 9f 6f a5 3c 32 ce de bc
       0.026757982 0.006072932 0.020194827 -0.027197931
0001d0 3a 76 c9 3c 4d 85 9d 3c 2c 93 38 3d d9 20 ce bb
       0.024592508 0.019228602 0.04506223 -0.006290537
0001e0 d1 28 63 3d fc 91 e8 3c d1 c8 42 bc aa c2 86 3c
       0.055458847 0.028389923 -0.011888699 0.016450245
0001f0 e0 cd 1b 3d 56 8c 94 3c c1 2f 42 bc 24 fe 69 3c
       0.038038135 0.018133324 -0.011852206 0.014281783

network_body._body_endoder.seq_layers.2.weight f4 [128, 128]
000000 49 17 4d 3d ce 51 6e bd 8d a6 21 3e 19 ca 0c be
       0.050071035 -0.058183484 0.1578619 -0.13748969
000010 6b 32 19 bc 0d 39 2b bd 67 b7 29 3e 2b 76 7d bd
       -0.0093503995 -0.041802455 0.16573869 -0.061880272
000020 d7 5b 28 be 55 db 71 be b8 9b d0 bc 8f 6e b2 bd
       -0.16441284 -0.23618825 -0.025464877 -0.08712494
000030 47 7d 2d 3d e6 31 88 bd 85 88 86 3e 62 cb 06 3e
       0.042355802 -0.06650142 0.2627603 0.13163522
000040 de 75 aa 3d 8e ba a2 be f1 78 92 3d 0a 6b e4 3d
       0.08323263 -0.31782955 0.07151974 0.111532286
000050 ff b7 75 bd 5c b3 93 3d 95 81 ef 3c 83 fd c1 3d
       -0.059989925 0.072119445 0.029236594 0.09472182
000060 d5 e7 8c 3b 79 23 b7 3d 7d f4 26 3d c1 08 84 3d
       0.0043000975 0.08942313 0.040760506 0.06446982
000070 36 fe 8a 3d 82 e2 34 3d 6e 40 8e bb 84 56 18 3b
       0.06786768 0.044161327 -0.0043411767 0.0023244927
000080 13 85 6c be ed 00 a3 bd fb 4f ba bd 97 02 ae bd
       -0.23097639 -0.07959161 -0.09097286 -0.08496588
000090 42 4c db bd 17 1e ef 3c b5 96 33 be 82 b8 48 be
       -0.107079044 0.029189153 -0.17537959 -0.19601634
0000a0 d3 5b 01 be e6 66 1b 3e 7e 52 7f bd 17 1a 2c 3e
       -0.12632684 0.15175971 -0.06233453 0.16806827
0000b0 7c 94 7b be a9 4c 98 3c 64 25 9e be eb 24 a0 bd
       -0.24568361 0.018591242 -0.30887902 -0.078195415
0000c0 be 21 01 3e 43 fb 4e bd 85 e6 1a be 63 87 f3 bd
       0.12610528 -0.05053259 -0.15126999 -0.11891057
0000d0 6c 17 77 3d 2f c4 82 bd 7c 2f d4 3d 72 fe 4d be
       0.06032507 -0.06385075 0.103606194 -0.20116594
0000e0 55 b7 9a be 73 ee 39 be 31 26 0e bc 23 e7 85 bd
       -0.30217996 -0.18157367 -0.008676098 -0.065382265
0000f0 c5 07 ad bc 2a 82 0f be fc 28 a3 3d 30 ff a1 bc
       -0.021121869 -0.14014497 0.079668015 -0.019775003
000100 52 65 95 bc 4a 8a be 3a b1 b4 cf bd 3e b2 13 bc
       -0.01823679 0.0014537063 -0.10141886 -0.009014664
000110 b8 24 c0 3d e3 eb bd 3c cc 19 15 be ba b1 a4 bd
       0.093820035 0.023183769 -0.14560622 -0.08041711
000120 53 55 f8 3d 93 14 58 3e ea 38 f6 3d 78 59 c2 3d
       0.12125649 0.21101598 0.12022574 0.09489721
000130 6b 63 2a be 88 97 ba 3d 15 8e 89 3d e5 84 71 be
       -0.16639487 0.091109335 0.06716553 -0.23585851
000140 a4 78 8e 3c 36 c7 a9 3d 14 7b 3e bd bc b6 13 be
       0.01739151 0.082899496 -0.046504095 -0.14425176
000150 11 50 41 be d5 ce fe 3d 5e c6 35 3d e8 a8 44 3e
       -0.18878199 0.12441794 0.04437863 0.19205058
000160 d7 27 0c 3e d6 c1 6f 3e 8a 01 95 bd 97 68 f4 3c
       0.13687073 0.23413786 -0.07275684 0.029835029
000170 bc 7d f2 bd e7 c8 c7 bd c1 8f a8 bc 71 1f 89 3d
       -0.11840388 -0.09755116 -0.02057636 0.0669545
000180 74 de a0 3d 46 19 3e bd ae ab a3 bc 60 89 e6 3c
       0.078549296 -0.04641082 -0.019979324 0.028141677
000190 72 4e 06 3e 77 96 49 3d 4c fc 95 3b 31 03 dd 3d
       0.13115862 0.04921576 0.0045771953 0.10791624
0001a0 54 cc 63 3c 6b ed c3 bd 79 d0 26 bd c6 f2 d8 3a
       0.013903696 -0.09566768 -0.04072616 0.0016551844
0001b0 ac 7b cb 3c ec 73 84 3d 5a 84 98 bd 84 be f3 3c
       0.024839245 0.06467423 -0.07447119 0.02975393
0001c0 15 d5 b0 bd cc 2e c6 bd 04 44 bb 3c 0e cf 30 be
       -0.08634392 -0.096768945 0.02285958 -0.17266485
0001d0 6a b0 c0 bc cd 08 72 bd 85 8d ab 3d cf 73 93 3e
       -0.02352162 -0.059090424 0.08376602 0.28799292
0001e0 06 15 10 3e a9 26 f0 bc 46 21 1f bd 53 a8 2c be
       0.1407052 -0.02931531 -0.03885009 -0.16861086
0001f0 14 b2 04 3d 63 8c 0a be 54 48 62 bd 88 66 7b be
       0.03239639 -0.13530116 -0.05524476 -0.24550831
000200 0e 94 9e bd 65 1c 25 be 42 ed 06 3d 00 8a 34 3e
       -0.07743083 -0.16124113 0.03294111 0.17630768
000210 7b 07 bd 3d 1d 50 af bd d0 d4 94 bd c4 09 78 3c
       0.092299424 -0.08560202 -0.07267153 0.015139047
000220 42 4c 18 be 66 70 44 3d df 1d 7f 3e 00 cf 84 3d
       -0.1487284 0.047958754 0.24913739 0.064847946
000230 c6 39 89 bd 78 c5 36 3d 94 c8 93 3c 0b 86 58 3e
       -0.067004725 0.044621915 0.018039979 0.21144883
000240 a0 b2 b8 3d 23 04 6b 3d 7b a7 52 bd 33 99 ae bc
       0.09018445 0.057376992 -0.051429253 -0.021313285
000250 b3 17 6b be bc 27 05 bb 57 c3 05 3d 4a 29 6a 3d
       -0.2295826 -0.0020317873 0.032656994 0.057168283
000260 bc 79 ef 3d 8c b3 46 be 74 81 79 3d 47 14 cc 3c
       0.11693141 -0.19404429 0.06091447 0.024912013
000270 93 06 a2 3c 18 b4 e9 3c 59 fd 87 3d 6d de d7 3c
       0.019778525 0.028528258 0.06640119 0.026351178
000280 66 e0 6b 3e b8 47 1c 3e 76 06 d6 bd b9 20 da 3c
       0.2303482 0.15261734 -0.10450451 0.026626932
000290 f0 b7 68 3d f5 ae 6a 3d ee e4 8e bd ef 0c 03 be
       0.05681604 0.05729576 -0.069772586 -0.12797903
0002a0 b1 7a 4a 3e be bf 8b bc 1c ad cb bd bc 14 0a 3d
       0.19773366 -0.017059203 -0.09945127 0.03371118
0002b0 17 67 d0 bc 92 7b 97 bc b5 36 18 be 71 d8 2d be
       -0.025439782 -0.01849154 -0.14864619 -0.16977097
0002c0 e0 1e 2e 3e b4 6d 25 be 9b 04 10 bd 07 05 50 3b
       0.17003965 -0.1615513 -0.035160642 0.0031741278
0002d0 fa 45 63 3a 5d 6a d4 bd b3 c6 9f 3c d8 cf 7f be
       0.000866979 -0.1037185 0.019503927 -0.2498163
0002e0 84 95 f0 bd 07 97 18 3d 96 33 c2 bd ea fc f0 3d
       -0.11747268 0.037253406 -0.094824955 0.117669895
0002f0 5f c9 bc bd 79 9f 66 bd 25 2a 25 3c 21 ad 10 3d
       -0.09218096 -0.05630443 0.010080849 0.03532136
000300 44 65 8d bd a5 b2 dd 3d 63 c1 f6 3d c8 9e 91 3b
       -0.069040805 0.10825089 0.12048604 0.004443977
000310 1c 0a 0a bc 94 05 9a 3c 07 3b 9a 3d 6a 64 03 3e
       -0.008425262 0.018801488 0.0753079 0.12831274
000320 98 c3 07 3c 34 11 d9 bd 80 6e c7 bd 3f 4c c3 3d
       0.008286379 -0.10598984 -0.09737873 0.09536027
000330 dc 42 83 3e 7a 5c 5a bd bb 14 56 bc 12 60 32 be
       0.25636947 -0.05331085 -0.013066466 -0.1741946
000340 5b 68 bf 3d a0 18 19 3e 87 a2 5b 3c ca 03 4d 3d
       0.09346076 0.149508 0.013405449 0.05005244
000350 af 35 b2 bd 7d 4d 90 3d f1 46 0b 3e fc 55 a3 bd
       -0.087016456 0.0704603 0.13601281 -0.079753846
000360 d8 f1 de bd 06 0c 0f 3e 7d e5 a6 bd e1 70 8c 3c
       -0.10885972 0.1396943 -0.0814924 0.017143669
000370 05 7e 09 be 2c bb b3 bd c3 f9 9d 3d 8d c4 3c bd
       -0.13426979 -0.087759346 0.07713654 -0.046085883
000380 34 b2 9a bd 97 7e 10 bc 8c 4b 93 be b9 6d 31 bd
       -0.07553521 -0.008819244 -0.28768575 -0.04331753
000390 5b 6b 61 bd 55 f4 89 bd d5 bc 80 3d 58 25 73 bd
       -0.055034023 -0.06736056 0.06286017 -0.059361786
0003a0 9f 5a 4e bd 00 45 91 3d b8 58 f9 3b 2b c2 fd 3b
       -0.05037939 0.07093239 0.007609453 0.007744094
0003b0 66 1d 14 3e 6d 09 fa 3c a3 a7 d0 bd cf 42 30 3e
       0.1446434 0.030522073 -0.10188224 0.17212985
0003c0 dc d8 00 3e 39 d9 2f bd c3 8c 94 bd 79 4a 07 3d
       0.12582725 -0.04293177 -0.07253411 0.033030007
0003d0 d3 06 27 be 0c e2 fd bb 7c 68 a7 bc db c9 3f 3e
       -0.16311197 -0.007747894 -0.020435564 0.18729346
0003e0 e2 3d 50 3d 1c 5a 79 bd e4 f2 ee 3c 87 86 97 bc
       0.050840266 -0.06087695 0.029168554 -0.018496765
0003f0 b0 77 39 3e 45 75 d3 3d 49 83 10 bd 38 c9 15 3e
       0.18112063 0.10325102 -0.035281453 0.1462754

network_body._body_endoder.seq_layers.2.bias f4 [128]
000000 b9 ce 42 3d c2 d8 8e 3d 50 90 5b bd 0f a0 26 bb
       0.047560427 0.06974937 -0.053604424 -0.0025424992
000010 00 39 f3 bb e0 e5 74 bc eb 18 e9 3c bc fc 4c bc
       -0.0074225664 -0.014947385 0.028454265 -0.012511428
000020 7a 11 f5 3c 5e 46 4a 3d 0f 11 0d 3d 12 63 23 bc
       0.02991556 0.049383514 0.034440096 -0.009972351
000030 d1 71 05 3c 04 0c d2 3b 3e 06 69 3d e3 45 9b 3c
       0.008144812 0.006410124 0.05689072 0.018954223
000040 d9 8c 82 bc b4 0b 30 3d c6 2b d6 3c 9f 9d 58 3c
       -0.015936302 0.04297991 0.02614392 0.013221174
000050 56 a3 09 3c 27 b6 1d 3c 14 78 f3 b9 3d 96 af 3c
       0.008400759 0.009625948 -0.00046438037 0.021433944
000060 67 5a 5e bd a0 be f4 3b 8e 8a 20 3b 4b 8d 5e bc
       -0.054285433 0.0074690133 0.0024496648 -0.013583492
000070 81 2d b3 bc 23 0e e2 3b 47 16 29 3b 3b 38 db 3c
       -0.021872284 0.006898658 0.0025800632 0.026760211
000080 eb 44 40 3d ef 84 3e bb 0c 86 f3 3c d5 1f 50 3c
       0.046940725 -0.0029070934 0.029727004 0.012702902
000090 55 89 eb bc b5 37 e2 bc b5 25 94 3c 67 8a 3a 3b
       -0.028752008 -0.027614454 0.018084386 0.0028463842
0000a0 bd d7 e8 3c c5 10 40 3c 64 1c 15 3d ad 9a 3b bc
       0.028423185 0.011722748 0.03640403 -0.011450452
0000b0 fe 46 39 bc 2f 27 e2 3c 2d b9 c1 3b 0c b4 96 3c
       -0.01130843 0.027606575 0.0059119673 0.0183964
0000c0 03 4b 90 bb 29 a2 3e bc e9 ee 3b bc 12 57 25 bb
       -0.0044034733 -0.011635342 -0.011470535 -0.00252289
0000d0 17 9f 46 3c ef fc 25 3d 0f 3d d9 bc 02 c0 0a 3c
       0.012122891 0.04052442 -0.026518373 0.00846863
0000e0 a3 25 b6 3c 3a d5 9b 3c 3b 7c 8c 3d 70 55 a9 bc
       0.022234743 0.019022573 0.068596326 -0.020670623
0000f0 f2 ae 82 bc e2 25 8f bd 29 5e 16 3b 75 7c 98 3b
       -0.015952561 -0.069896474 0.0022944307 0.0046535083
000100 01 3e 69 3c 5e 7f 12 3b e9 6c 85 3d ea 8f 82 3d
       0.014235974 0.0022353749 0.065149136 0.06375106
000110 d1 01 6e bd fb f5 e1 bc 03 d2 01 3d f9 02 7b bc
       -0.0581072 -0.027583113 0.031694423 -0.015320533
000120 5a df 5c 3c 22 e3 c1 bc 3b b2 d3 3a 7c dc 5d 3c
       0.013480986 -0.023667876 0.0016151139 0.013541337
000130 80 c8 42 bc 7f c8 d0 bc 70 96 1e 3c cf 61 a3 3b
       -0.011888623 -0.025486229 0.009679422 0.004986025
000140 ef da 20 3d 7f d5 6e 3c cc 13 07 bd 74 40 67 3d
       0.03927129 0.014577269 -0.032977864 0.05645795
000150 20 55 e0 bc 37 e6 d5 3b 2f 47 be 3c b0 d7 98 3c
       -0.02738434 0.006527688 0.023227302 0.018657535
000160 34 eb 6a 3b 22 80 5e 3c 85 64 56 3c 82 bb 42 3c
       0.0035845758 0.013580354 0.013085489 0.011885526
000170 37 6b eb bb 88 fa e3 3c df 97 19 3b d9 e8 31 3d
       -0.007184412 0.027829424 0.002343647 0.04343495
000180 53 b0 01 3d 63 9d 23 bd 5c 77 18 3d 93 b5 ed 39
       0.031662297 -0.039945018 0.037223205 0.00045339446
000190 ef 81 32 3c e2 18 35 bd ac 26 c3 bc 7e 2b 4f bd
       0.010895236 -0.044213183 -0.023822151 -0.050578587
0001a0 40 60 63 3c dc b6 7c 3a 76 11 ca 3c 01 3f b9 3c
       0.013877928 0.0009640285 0.02466653 0.02261305
0001b0 99 53 73 3c 45 95 13 bb 41 74 c0 3b e1 33 f8 3c
       0.014851474 -0.0022519391 0.0058732335 0.030298175
0001c0 be f5 5c bc 40 9f f4 3c 7a a0 c0 3c e3 3a 85 3c
       -0.013486324 0.029861093 0.023514021 0.016263431
0001d0 1a a4 5d ba a2 fe 87 3c 48 1a 1c 3d 2a b0 14 bc
       -0.0008454934 0.01660091 0.038111 -0.009075204
0001e0 05 60 ef 3c dd be 13 3d d4 61 d1 3c 00 4b b4 3c
       0.02922059 0.036070693 0.025559343 0.022008419
0001f0 25 3e 0b 3d 29 d2 26 3d ac 4d 02 3c 33 7b 02 bd
       0.033994813 0.040727768 0.007953089 -0.031855773

action_model._discrete_distribution.branches.0.weight f4 [7, 128]
000000 e1 71 18 3d 06 eb c9 39 70 45 63 3c 40 54 23 3b
       0.03721798 0.00038512814 0.013871536 0.0024922043
000010 c6 df b9 3a 15 8d 35 bc 5a 8e 12 bc 69 c4 16 bc
       0.001418107 -0.011081 -0.008945072 -0.009202101
000020 6a dd 2d bd 36 9e 50 3d df a7 2a 3d 93 60 b4 bb
       -0.042447485 0.05093213 0.041664 -0.0055046766
000030 76 e2 45 3b 2b 00 34 bd 40 a4 93 3d 14 b5 05 bd
       0.0030194796 -0.043945473 0.072090626 -0.032643393
000040 df e1 a2 3b 47 fe 8d 3d f9 8d bf bc 6a e7 8a 3c
       0.0049707736 0.06933265 -0.023383128 0.01695605
000050 87 f5 03 bc 7c fa c9 3c 33 3e 83 bd 90 f7 cb bb
       -0.008054144 0.024655573 -0.06408348 -0.00622458
000060 0b 75 99 3c cd 4e db bd 76 fc 77 3c c4 7d 17 bd
       0.018732568 -0.107083894 0.015135875 -0.036985174
000070 5b 19 fb bc 01 52 1b 3c 45 cc 4e 3c 1b 38 51 bc
       -0.030651739 0.0094800005 0.012621944 -0.012769724
000080 bc ff 6d 3d 42 ac 3f bb 27 55 23 3d 2a f5 3c bd
       0.058105215 -0.002924696 0.03987613 -0.046132244
000090 67 e2 fb bc c8 af f5 bc ab 0f 92 bd 95 cb f4 3c
       -0.030747605 -0.029991046 -0.07131895 0.029882232
0000a0 d5 78 0d 3d 0e f5 05 bd b9 c5 cb 3c 7f 83 1e bc
       0.034539063 -0.032704405 0.024874555 -0.009674906
0000b0 4c 5b 2d 3d 73 a1 67 3d ea 16 7b bc a5 bc 56 ba
       0.042323396 0.056550454 -0.015325287 -0.00081915624
0000c0 2f d1 f6 bc bc 05 81 bc 67 2e 16 3c c5 25 0b bd
       -0.030129043 -0.015749805 0.009166337 -0.033971567
0000d0 cc 60 b7 bd bd 50 de 3c 8e b2 fd 3b 99 5d 9a 3c
       -0.089540094 0.027138108 0.0077422326 0.018843459
0000e0 d6 a7 24 bc ad e1 7d bd 59 3d 60 3d dd 17 29 bd
       -0.010049781 -0.0619828 0.054746006 -0.041282523
0000f0 88 0e 42 38 6f d9 47 bb f7 b5 96 bc cf 85 40 3d
       4.6266738e-05 -0.003049459 -0.018397314 0.04700261
000100 d0 51 fa bb bc f6 a5 bd 32 4a 0a 3d 25 ea 2c 3d
       -0.0076391473 -0.081037015 0.033762164 0.042215485
000110 5b e3 38 3c e7 03 26 3d 6c ad c5 39 f5 d1 96 bd
       0.0112846745 0.040531065 0.00037703977 -0.07364265
000120 f6 fb d9 3c 6e 34 1d bd d6 f2 43 3d 9a a1 65 bb
       0.026609402 -0.03838008 0.04783901 -0.003503895
000130 de 2f 77 bc 15 f6 73 3b 79 2d a7 3c 5d 25 f8 ba
       -0.015087096 0.0037225534 0.020407425 -0.0018932034
000140 6b 89 11 3d 13 66 52 bd 9b 85 21 bb 67 ac 33 3d
       0.035531443 -0.051366877 -0.0024646285 0.043865588
000150 f5 c9 4b bc 40 ab b5 bc 3a 8d 34 3d 5c a7 47 3c
       -0.012438287 -0.022176385 0.044079997 0.012185898
000160 79 de ab bd c9 2c 06 bd 6b 1d d3 3b 64 cd c7 ba
       -0.08392043 -0.032757554 0.006442716 -0.0015243706
000170 0d dd 1d bd e7 63 13 3d a9 86 29 3d 0e db 4d 3d
       -0.03854089 0.035983946 0.041388188 0.050257735
000180 ec 9c 47 3d 63 b0 f7 bc ff c3 d6 3c df c1 2c bb
       0.048733637 -0.030235475 0.026216505 -0.0026360673
000190 36 27 88 3b ef 0b 87 bc a2 cd 2f bd 61 01 9a 3b
       0.004155065 -0.016485183 -0.042920716 0.0046998714
0001a0 e7 af 8b 3d 2c 0f a1 3c 2e 51 b5 bc 4c 78 91 bd
       0.0682066 0.019660555 -0.022133436 -0.07103023
0001b0 f9 26 65 3d ed 6e 34 3c 67 bf 82 3b 4b 95 75 3c
       0.05594537 0.011012775 0.003990102 0.0149892075
0001c0 49 ca fb 3c 51 1d a8 3a 64 8d 1d bb 62 94 35 3d
       0.030736106 0.001282612 -0.0024040574 0.044330962
0001d0 e5 e9 02 bd fc 97 52 3d 94 d8 0e 3d bc ca ac bc
       -0.03196134 0.051414475 0.034874514 -0.021092765
0001e0 19 fb 0f 3d d9 d0 14 3d c1 e9 e3 3c 3c c8 10 3d
       0.035151575 0.036331985 0.027821423 0.03534721
0001f0 3d 06 a0 bc 8e 69 71 bd 00 cc cf bc 14 c9 87 bc
       -0.019534225 -0.058938555 -0.02536583 -0.016575374
000200 70 53 60 bd f3 cc 1d 3c 24 d9 6f 3c 27 17 8f bc
       -0.054767072 0.009631383 0.014639173 -0.017467095
000210 ab 93 3d 3d eb c7 82 bc 90 13 45 bd 46 c7 55 3d
       0.046283405 -0.015964469 -0.04811436 0.052191995
000220 c7 09 00 bb 23 a9 b5 3c df d3 e8 3c 52 54 1c 3d
       -0.0019537078 0.022175377 0.02842134 0.03816635
000230 47 d7 15 3d fc ef 36 bd 14 fb 0a bd 2e 38 8d bd
       0.036582258 -0.04466246 -0.033930853 -0.06895481
000240 14 76 98 3c 79 81 81 bd 10 84 12 bd 14 e4 ba bd
       0.018610992 -0.06323523 -0.035770476 -0.09125534
000250 ec cf d8 3c b3 7c ac bd b0 cb 1b 3d 50 f1 47 bc
       0.026466332 -0.08422222 0.03803605 -0.0122035295
000260 1d 79 3d 3c 13 1d f6 3c f4 06 eb bc 4d c4 5b 3d
       0.01156452 0.03004316 -0.028689839 0.053654004
000270 28 73 c0 3b 66 29 3e 3d d8 cc 8f bd 8b a5 49 bd
       0.0058731027 0.0464262 -0.07021493 -0.04923014
000280 cb 8f 90 bc 36 4b 35 bd 6e b5 29 3d 1f 05 7b 3d
       -0.01764669 -0.04426118 0.04143279 0.06128418
000290 3c 55 4a bc 07 d2 14 3c ea 11 21 3d eb 2b 08 bd
       -0.012349423 0.009083278 0.039323725 -0.03324501
0002a0 51 1d 09 bd 9a 88 f8 bb f2 20 b9 3c 9d d9 bb 3c
       -0.033475224 -0.0075846436 0.022598717 0.022930915
0002b0 35 d5 bd 3c 11 78 da 3c fa c1 a1 3b bf f3 b9 bc
       0.023172954 0.02666858 0.004936454 -0.022699235
0002c0 bd 80 99 3d 09 33 9e bc 04 7f 43 3d b9 53 0c 3d
       0.07495258 -0.019311445 0.047728553 0.03425953
0002d0 87 3f fc 3c 0e cb f0 bd 35 18 9e bc b7 1d e8 3b
       0.030792011 -0.117574796 -0.019298652 0.0070836204
0002e0 0b ce 30 3c 61 c3 1e 3d 35 ba 26 bd 95 a4 3e 3d
       0.010791312 0.038760547 -0.040704925 0.046543676
0002f0 e2 e0 ee bc 27 2e 83 ba 97 30 b3 3d 98 8a 32 3a
       -0.029159967 -0.0010008261 0.08749502 0.0006810813
000300 78 73 6c bd ed ea 48 3d 52 c3 ac bc 1c 2e eb bb
       -0.057727307 0.049052168 -0.02108923 -0.0071771275
000310 dc a0 cc 39 80 bf 71 3c 79 49 23 3d 22 dc 10 3d
       0.00039029762 0.01475513 0.03986499 0.035366185
000320 f3 bc 3c 3d 23 6f 0e bd 81 23 dc 3c ea e4 f8 3c
       0.046078634 -0.034773957 0.026872398 0.030382592
000330 27 d8 53 3d 42 01 08 3c 9e 63 7c 3d ce 8a b9 3c
       0.05171981 0.008301081 0.06161844 0.022649195
000340 40 a4 04 3d c5 b6 3c 3c e0 e4 c3 bb 46 dd 0b bb
       0.032383204 0.011518185 -0.0059782118 -0.0021341606
000350 73 eb d2 bd db 56 c7 bb c3 71 bd 3d 49 bb ce 3d
       -0.102988146 -0.006083352 0.09250214 0.100943156
000360 e4 06 20 3d 6b a0 77 bc 22 04 01 bd 58 41 ef bd
       0.03906907 -0.01511393 -0.031498082 -0.11682385
000370 85 c8 01 3e 99 71 3e bc 0c 99 28 bd a9 2a 9f 3c
       0.12674148 -0.0116237635 -0.041161582 0.019429522
000380 13 76 09 bd 52 43 09 3c af 40 49 3c 08 94 57 3d
       -0.03355987 0.008377867 0.012283488 0.052631408
000390 11 89 69 3d ba 76 97 3c 07 61 81 3d 00 61 53 bc
       0.057015482 0.01848923 0.063173346 -0.012901545
0003a0 e4 21 e2 3c 5c 23 72 bd 54 21 43 bd b1 a8 b7 bc
       0.027604051 -0.059115753 -0.047639206 -0.022419306
0003b0 2a e7 65 3d d1 55 31 3c ec bc c8 bd e8 fb ee bd
       0.05612866 0.010823683 -0.09801659 -0.11669141
0003c0 e7 88 03 3a 27 d6 f3 bc 44 ed 7d 3c 76 55 98 bd
       0.00050176535 -0.029765202 0.015498463 -0.074381754
0003d0 8a 2e 7b 3d 3b 9b e2 3c b0 3f 94 bd 06 53 d2 3c
       0.06132368 0.02766191 -0.0723871 0.025674354
0003e0 64 b8 17 3d 74 f6 ad bb a9 bf ed bd 6e 0e 03 3d
       0.037041083 -0.0053089205 -0.11608822 0.031996183
0003f0 e3 40 ca bc 02 55 f4 bb d0 c9 c8 3d 3f e7 42 3c
       -0.024689144 -0.007456423 0.09804118 0.011895954

action_model._discrete_distribution.branches.0.bias f4 [7]
000000 81 22 1b bb 3d 7b 09 bb 99 87 c2 bb 09 8f 9e bd
       -0.002367169 -0.0020977997 -0.0059365747 -0.077421255
000010 a5 93 90 bc 09 34 00 3c 43 6a 82 3c
       -0.017648527 0.007824906 0.01591981
