CCP-main/results/WeightAgent_Training/WeightAgent_Training/WeightAgent_Training-81499946.onnx (onnx, 172208 bytes, 6 tensors)

network_body._body_endoder.seq_layers.0.weight f4 [128, 195]
00000000: 729b 923e e81a 84be 320b 263b e969 043d
00000010: 293b 23bd de03 59be dba3 ca3d b002 a7be
00000020: 9713 e13d 6bf2 09bd aeb7 993c 5861 d8be
00000030: 5a3d 8c3e 1b3a bcbd 4e7a 913d 029b b83c
00000040: 2e10 e5bd 30d6 033e a775 043e 472a b7bd
00000050: b923 8a3d 749f fa3b 1aef e83d 2e25 bebe
00000060: 6083 953e 7002 49be 6229 ebbc 87a5 7b3c
00000070: d7d9 8fbd c7f4 61be 19e0 0f3e 8548 f2bc
00000080: 413d 62bd c664 dabd d21c a33d 91ff 16be
00000090: 9493 f63d 5f13 7bbe 5ae1 87bd 9ef8 033e
000000a0: 4399 30be 8157 2cbe ec55 3f3d b820 20be
000000b0: ee49 e83c c471 2a3c 27f4 3e3e 1bd7 193d
000000c0: f0ba 283e e50c 87bd b5e2 c63d d5c4 7abd
000000d0: 8578 ef3c 4813 03bd dccd 0d3b 8c00 9abd
000000e0: 19f1 1bbe e4b5 f83a 81cf be3d 4f72 02bd
000000f0: d9be ea3c b091 5cbe 4b5d 9e3d e3de a63d
00000100: c43c 423d eb69 62bd 0e6b 3ebe aa38 293d
00000110: ff3d f33d d62b 953c 3d34 96be 83e4 803d
00000120: 290d 6cbe 36c4 b43c 8e6e 0e3d 5a7c 22bd
00000130: ccb9 3f3d 6d32 9c3d 0868 04be 75e0 3c3e
00000140: 967d 6ebe f3b3 c43d ed3d 66bd 36cc 9e3d
00000150: d392 99be 5bb4 013e 9487 ee3c 61e6 1abe
00000160: 0e44 44bd 3c9c 5b3d 53ba 523d af00 d93d
00000170: 6060 86bd ac94 0c3d c8f5 4bbe fcef ddbd
00000180: 9d9c e4bd 8754 cb3d 3cc1 ed3d 61b5 0ebd
00000190: cf91 dbbd be06 083e 776e eb3d 3fd0 e33c
000001a0: 1785 253d f553 a6bc eeca a8bd d8e0 f3bd
000001b0: 7457 5d3d 7380 e73d 63e9 cabd 9c0f 90bc
000001c0: 7346 5c3c 8e15 913e c72c 393e 8abf 00be
000001d0: e6d3 0cbd 3ed2 ecbc b8ba 37be f65c 56be
000001e0: 6458 c23d 3bae a6bc e418 d7bc 0b38 b13b
000001f0: 4bd3 05bd 0b28 3e3d 8951 283d caa9 d93c
00000200: fb1a 07be e273 2a3d a501 88bd d288 eebb
00000210: 7708 1e3e bfa5 30be c697 2f3e ddad af3d
00000220: 3dd9 ffbd ed39 823e 5d70 5abc 1954 8b3d
00000230: 0197 a1bc 0f1e 033d 66d4 cdbc 57d5 033d
00000240: 63cd 9ebd 648e 633d 9c8d cb3d 3cd8 bcbd
00000250: 6bc5 f1bd e241 5c3e 056c 4c3c 3dec 7a3d
00000260: 8868 bf3c 0f44 93bc ba9c 98bd 92f5 6d3d
00000270: 8dab d4bc 5d3d 7f3d 0ba5 b23e a44c e5bd
00000280: 5c25 62bd e617 e6bc 5b46 2e3d 0ccd 003d
00000290: 7dca 4f3d a954 ee3c 339a 81be 0806 a73d
000002a0: c95d 2c3e 0d19 ae3d 2cc1 97bd d8be 53bd
000002b0: e9f8 6ebd 46a3 7a3e 4f78 1f3e 14fd 353d
000002c0: 03ec b9bd 72a1 7abd 8743 7dbc ee2a de3d
000002d0: 856e d13c a8dc 1bbd 8993 abbd f76d 113c
000002e0: 3f28 febd 24da c43d 6a82 7cbe 8413 6b3e
000002f0: b217 0f3d 86e3 0bbe 6d77 80bb a5bc 58bc
00000300: 066f 853c 0762 c63d 7fa7 1c3d 745e 5cbe
00000310: c44d acbe 6f87 da3e ecec 9d3d b572 f4bd
00000320: 2145 4cbe 4815 97be bc6b 69be 611c a73e
00000330: 6d32 16bd 18d6 873d d167 e0be 6707 64be
00000340: 311e 5d3c 8461 e23e 8bd4 853c f0d3 9d3c
00000350: 7713 073e 3086 6c3c e503 1abe 7ab1 6b3e
00000360: 50d5 9bbd ce16 b73d ad25 61be 1737 61bd
00000370: eed0 013e ffef 57be 663f bd3c 6a13 453d
00000380: 5095 853e 3879 613e cb10 f33c e440 9cbe
00000390: de00 d8bc 24e3 e9bd 4715 a53d a1c1 b2bd
000003a0: 3d5a 18be a8e6 1c3d 20b4 95bd f843 15bc
000003b0: aa82 133e a040 853d 901e 3dbd ee4c 0dbe
000003c0: 312c 793d d9e1 c33d a732 233e 41eb 16be
000003d0: 22c8 843b 63d3 18be c7f2 eebd 64e0 043e
000003e0: 159c a63e d463 143e 88f2 a5bd d886 88be
000003f0: 688b 513d c956 aabd 287a 7bbd df52 c7bd
0.2863422 -0.25801778 0.0025336263 0.032327566 -0.03985134 -0.21192881 0.09894534 -0.32619238
0.109900646 -0.033678453 0.018764343 -0.42261767 0.27390558 -0.0919077 0.07103406 0.022534851
-0.11184727 0.12874675 0.12935506 -0.08943611 0.06745095 0.007648403 0.1137373 -0.3713774
0.29201794 -0.19629836 -0.028706256 0.015359289 -0.070239715 -0.22066031 0.1405033 -0.029575596
-0.055234198 -0.10663752 0.079644814 -0.14745928 0.12039867 -0.24519108 -0.06634779 0.12887809
-0.17245965 -0.16830255 0.0467128 -0.15637481 0.028355565 0.0104031 0.18647824 0.037558656
0.16477561 -0.06594256 0.0971121 -0.06122287 0.029232273 -0.03200081 0.0021637594 -0.075196356
-0.1522869 0.0018975106 0.09316922 -0.031847294 0.028655456 -0.2153995 0.07732638 0.08147981
0.047421232 -0.055276792 -0.18595526 0.041313805 0.11877059 0.01820938 -0.2933673 0.06293585
-0.23051895 0.022066217 0.034773402 -0.039669372 0.04680805 0.076268055 -0.1293031 0.18444999
-0.23290095 0.09604635 -0.0562114 0.07753794 -0.2999483 0.12666456 0.029117383 -0.15126945
-0.047916465 0.053615794 0.051447224 0.105958335 -0.06561351 0.034321472 -0.19917977 -0.10836789
-0.11162684 0.09928232 0.11609122 -0.034840945 -0.1072117 0.13283822 0.11495679 0.02780926
0.040410127 -0.020303706 -0.08241831 -0.1190812 0.05403848 0.113037966 -0.09907796 -0.017585568
0.013444531 0.28336757 0.18083487 -0.12573066 -0.03438177 -0.028908845 -0.17942321 -0.209339
0.094895154 -0.020346751 -0.026256986 0.005408292 -0.032672208 0.046424907 0.041093383 0.02657022
-0.13193886 0.04161442 -0.06640939 -0.007279494 0.15432917 -0.17250727 0.1714774 0.08578084
-0.12492607 0.2543482 -0.013332454 0.0680315 -0.019725325 0.032011088 -0.025125694 0.03218588
-0.07754018 0.055555716 0.09939119 -0.09220931 -0.118052326 0.21509507 0.012476926 0.06126045
0.023365274 -0.017976789 -0.07451768 0.058095522 -0.025960708 0.06231438 0.34891543 -0.11196259
-0.05521141 -0.028087568 0.042547565 0.031445548 0.050730217 0.029093103 -0.25312957 0.08155447
0.16832651 0.08500872 -0.074098915 -0.051695675 -0.058342848 0.24476346 0.15573238 0.044430807
-0.09078219 -0.061189122 -0.015457994 0.10848032 0.025565395 -0.03805223 -0.083777495 0.008876315
-0.1241002 0.096119195 -0.24659124 0.22956663 0.034934707 -0.13661012 -0.0039204867 -0.01322857
0.016288292 0.09686666 0.038245674 -0.21520406 -0.3365308 0.42681453 0.07711205 -0.11935941
-0.19948246 -0.29508424 -0.22795004 0.3263884 -0.036669184 0.06632632 -0.43829206 -0.22268449
0.013495968 0.44215024 0.0163367 0.019266099 0.13191019 0.01443629 -0.15040548 0.2301692
-0.076090455 0.089398965 -0.21987028 -0.05498418 0.12677357 -0.21087645 0.02310152 0.048114218
0.2609048 0.22018898 0.029671093 -0.30518258 -0.026367601 -0.11420277 0.08060699 -0.08728338
-0.14878173 0.03830591 -0.07309747 -0.009110443 0.14405313 0.06506467 -0.046171725 -0.13798878
0.06083316 0.095645614 0.15937291 -0.1473818 0.004052178 -0.14924388 -0.116674 0.12976223
0.32540956 0.14491206 -0.081029 -0.26665378 0.05115834 -0.08317334 -0.061395794 -0.09732603

network_body._body_endoder.seq_layers.0.bias f4 [128]
00000000: a303 f7bb 23ad 91bc ce4c 1b3d 356d e63c
00000010: 0750 183d 98c7 903d 4317 ac3b 94c7 7f3d
00000020: 2b64 4d3d 8315 313d b69c 1a3d a24f 4a3d
00000030: 5697 3cbc 5156 863c 8603 3abd 3a3e 8bbd
00000040: 0bc4 09bd 4552 17bc 55dd a93d 07d6 1cbd
00000050: f555 abbc 3db9 19bd a9cc 743d 61df 213c
00000060: 1f68 27bd c3cc 423d 6818 373d 11ae 1bbc
00000070: 7ac4 df3c f382 233d 01d4 c7bb cad2 adba
00000080: fc38 123d 8222 38bd 0f0d 093d f4e1 0e3d
00000090: fdb3 79bd c9b3 173d c8bf 583c 6c4f 123d
000000a0: 0fa5 1e3b 84d6 753d ad75 e4bd 055c f73c
000000b0: b137 433d 110b 27be f2d7 90bd 1849 a3bc
000000c0: 3f57 043d 1e1a a73c 8b45 abbd 76b9 27bc
000000d0: 44f9 733c c5d6 c9bd f396 013d ca32 953c
000000e0: f22f 5e3d f06d d63b ae26 773d ff7b d0bc
000000f0: dc41 b23b 46db 56bd 766c 9d3b 1ad5 aa3c
00000100: 6851 bcbc 079e cfb9 9735 813d 75ac 23bd
00000110: ba37 6b3d 440f dabb 1928 733c 5ce6 31bd
00000120: abde 5a3d 238d 09bd 42c9 abbd cc8f 473b
00000130: 7fab b53d 4d4c b7bc e9de 283d 2012 a03b
00000140: 7fa5 f9bc 4ff0 483d 1937 283d 7a40 8dbd
00000150: 6db6 623d 6fdd b6bc c2ac e0bc 864c 7b3d
00000160: 787c c4bc cc45 e73c 4c37 76bd fe67 413d
00000170: 65ba 02bd 11f5 503d 08e6 e73d 301b 263d
00000180: c1ae f13c 90a3 283d 68b2 1f3d c968 a43d
00000190: ffaa 943c 8ce8 dabb ae97 95bc 7bdf 2c3b
000001a0: be87 80bc 73f0 95bb aa7d ab3c 5c0f 573c
000001b0: b352 44bc f456 543d 5765 263d 5533 10bd
000001c0: 69a8 eb3c dac9 5bbd d8bc 7e3c 04a6 673d
000001d0: 6cb7 5e3d 29f1 5cbb f6c7 8a3d 6c7c 3f3d
000001e0: 6a54 d9bb a68c 033d a577 043d 4ac8 143c
000001f0: af80 003d 8d15 bc3c d433 273c e13d 5a3d
-0.0075382753 -0.017782753 0.037915044 0.028128246 0.037185695 0.070693195 0.0052517965 0.062446192
0.050144356 0.043233406 0.037747107 0.04939235 -0.011510691 0.01639858 -0.045413516 -0.06798978
-0.033634227 -0.009235923 0.08294169 -0.03829005 -0.020915011 -0.037530173 0.05976549 0.009879918
-0.040870782 0.047558557 0.04470101 -0.00950195 0.027315367 0.039919805 -0.006098271 -0.0013261673
0.035698876 -0.044954784 0.03345972 0.034883454 -0.060962666 0.03703669 0.013229318 0.035720274
0.002420727 0.06001903 -0.111552574 0.030195246 0.047660533 -0.16312815 -0.07072438 -0.019932315
0.032309767 0.020398196 -0.08362874 -0.010237088 0.0148909725 -0.09855417 0.031638097 0.018212695
0.054244943 0.0065438673 0.060339622 -0.025449751 0.00543998 -0.05245521 0.0048041893 0.020853568
-0.022988036 -0.00039599856 0.063090496 -0.03995939 0.057426192 -0.006654652 0.014841103 -0.04343258
0.05343501 -0.033581864 -0.08387996 0.00304507 0.08870601 -0.02237525 0.04122821 0.004884973
-0.030474422 0.0490573 0.04106817 -0.068970636 0.055349756 -0.022322385 -0.027426127 0.061352275
-0.023985133 0.028231524 -0.06011133 0.047218315 -0.03191604 0.051014964 0.11323172 0.04055327
0.029502274 0.04117161 0.0389885 0.08027799 0.018147944 -0.006680554 -0.018260803 0.0026378322
-0.015689727 -0.004575783 0.020933945 0.013126221 -0.011982608 0.051840737 0.04062399 -0.035205204
0.028766828 -0.053659298 0.015547954 0.05655481 0.054374143 -0.0033713079 0.06776421 0.046749517
-0.0066323774 0.032116555 0.032340664 0.009080956 0.031372722 0.022959495 0.010205228 0.05328167

network_body._body_endoder.seq_layers.2.weight f4 [128, 128]
00000000: 957a 45be 6332 8fbd b2c4 56bd 21b7 90bd
00000010: 7052 1f3d 33ff 8bbd 3f4a 723d 6255 d43d
00000020: 4c92 73bb e7b6 1bbe fbfd 07be f5ea 9d3e
00000030: 61f0 87bc f43e 8bbd 016e d23d e52a 533e
00000040: e89b 033d d382 7a3e 38f8 3a3d e00a 21be
00000050: 7407 87bd 9f37 24be ea22 283e 59a5 a2bd
00000060: 2fcf ad3d 9f97 0d3e 6e73 9dbe 31b4 74bd
00000070: 2ac8 d5be 96af 12be e3db d0bd 8ced c13d
00000080: 5f8f febc 735f 1fbd e74f b63d 8d39 893b
00000090: bbc3 4a3e 1cac 593d 887d 413e 40a4 de3d
000000a0: c23c 52be cebb de3c 72db 64bd 8291 89bb
000000b0: 2676 153e 898c 7a3c d6ba 943d 7f52 80be
000000c0: 4e0a b73d 985a cabc 1539 12be 00c6 0cbe
000000d0: cd65 133d d2bf af3c 404d 503b 601b c9bc
000000e0: 0395 7b3e 9c41 8ebd 2118 933e 6a0d 2ebe
000000f0: 9a0e 49bd f6d4 bdbd 3b18 113d 690a 81bd
00000100: feb6 89be e273 22bc 77dc 11bd 5d13 16be
00000110: 09d5 e33d 79ed d8bb 534d ea3d 8cf5 83bd
00000120: 4a4b c83d 3eb6 0cbe d289 a43c b03f a9bc
00000130: 38e5 99be 7838 a3bd 7467 2dbe 8c05 73bc
00000140: 8162 73bd f844 493d fe61 4cbe a7ee 6a3d
00000150: cc67 a83e 77f0 29bd ee38 fd3d f716 2d3e
00000160: 8228 8bbe b2d1 dbbe 2ea4 80bc 4edf 3dbe
00000170: 7f32 b9bc 0cce 213d 9cb5 b3bd 5b3a 203e
00000180: 7e1d 54be 44ed 0a3e babb e23b a433 1cbe
00000190: 2172 babd 2369 cf3c 103b cc3b 9017 033e
000001a0: 760d b5bd e5db 4bbd 9e4d a2be c90c fd3d
000001b0: 1bfb 18bb a51f 363d 7971 1abd cf8d 89bd
000001c0: fc62 2d3d 3da3 b7bd e823 1cbe aa22 edbd
000001d0: 5daf d93d 8c61 81be 7895 733e 5972 b9be
000001e0: 8540 0ebe d8d3 6ebd 7c6e 023e 0ffc 4ebc
000001f0: b28f 013e 5d60 57be 4a62 b53d e018 d83d
00000200: ef1f 313e 723c 023e 74a9 13bd 69e5 2d3e
00000210: 3c08 42be a378 9bbc 2a81 d33d 2394 16bc
00000220: 3a96 fabc 015e 633d efb5 37be 4378 c53d
00000230: ac6a c1bd 1af7 1bbc eb80 3a3d 08f8 c3bc
00000240: d8a7 aa3b 4f1d 50be 6b71 b93c 3266 1cbc
00000250: beb9 8dbe f89d 00bd 0952 16be 1e50 153e
00000260: 45e8 08be 6417 1fbe c88f 153e 08f7 00be
00000270: d0df 283e 79fd d43c fdcb 88be e480 d0bd
00000280: 7a81 9c3b 336f a63d 193d 743e 535a acbd
00000290: 7fe3 9dbd 61ad 76bc da97 ae3d 7a15 13be
000002a0: 4d64 83bd cb2e c0bc 89d0 93bd e39b 813a
000002b0: 2cf2 8a3d c4c4 103e b89b d23a f671 e13d
000002c0: 8bde 62bd 9fa7 06be ae06 16be e323 b43c
000002d0: 837b 263d 28d1 5b3c 2ec1 01bd 47e3 48bc
000002e0: bd1c 313d 8411 b03c 8f4a f13d cacc db3d
000002f0: 46fb 523c 7d19 073e 3a50 f8bc 0b02 bbbd
00000300: 6f28 44bd 0c38 cb3d 988f 573d c100 fb3d
00000310: d359 8b3e 2466 82be e9a4 f9bd 3476 e1bc
00000320: f242 3fbe cf33 b13c 3e92 16be f7f3 fb3d
00000330: 1569 cebd f468 453e 3869 8f3d f1e3 e83d
00000340: d3ff 823b c73e 18be e9a9 21be 255f e33c
00000350: 44a5 123d 2aa8 a8bd 5821 11be c34d f53d
00000360: 671b 363e 6d03 8a3e 82d3 83bd 6639 233e
00000370: c5dc 21bc 1c35 afbd 4823 1d3e a18d d33d
00000380: b151 a13d e8fb 8bbd 241b 4bbd ce94 0bbe
00000390: 8aa7 35bd a6db 1abe 0ba7 23be 02e7 203d
000003a0: 78cc 9f3d e59d 6abe b90b 873e 5d58 f5bd
000003b0: c60f 103e a115 92bc 35c0 a53d c183 8e3d
000003c0: 45be 4bbe 33ce 61bd 550f 42be 8fe3 19be
000003d0: 33da 69be d03d 893d 5313 1fbe f275 3ebd
000003e0: 04a4 443d 108b 23be 4a32 84bd 252a 773e
000003f0: 75e0 2dbe 583a 9dbe f527 943c f5b7 873c
-0.19285043 -0.069920324 -0.052433677 -0.07066179 0.038896978 -0.06835785 0.059152838 0.10367848
-0.0037166057 -0.1520649 -0.1328048 0.3084332 -0.016594114 -0.06799117 0.10274888 0.20621832
0.032131106 0.24463968 0.045646876 -0.15726805 -0.065932184 -0.16036843 0.16419569 -0.07941694
0.08486783 0.1382737 -0.30752128 -0.059742156 -0.41754276 -0.14324793 -0.1019819 0.094691366
-0.031074224 -0.038909387 0.08901959 0.004187769 0.19801228 0.053142652 0.18895543 0.10871172
-0.2053099 0.027189162 -0.05587334 -0.004198254 0.14595851 0.015292295 0.072621986 -0.2506294
0.08937512 -0.024701402 -0.14279588 -0.13747406 0.035985757 0.021453772 0.0031784326 -0.024549186
0.24568562 -0.06946108 0.28729346 -0.16997305 -0.04908619 -0.09269135 0.0354235 -0.06300814
-0.26897424 -0.009915324 -0.035610642 -0.14655824 0.111246176 -0.006620106 0.1144053 -0.06443319
0.09779985 -0.13741395 0.02008525 -0.020660251 -0.30057693 -0.07969755 -0.16933995 -0.014832865
-0.059420113 0.04913804 -0.19959256 0.057356503 0.3289169 -0.04148909 0.12364374 0.16903292
-0.27179343 -0.42933422 -0.015703287 -0.18542215 -0.022607086 0.039503142 -0.087748736 0.15647261
-0.20714375 0.13567072 0.0069193514 -0.15254074 -0.091037996 0.025318688 0.0062326267 0.12801957
-0.08840458 -0.049770255 -0.31699842 0.12355954 -0.002334303 0.044463772 -0.037705872 -0.06716501
0.042330727 -0.08966682 -0.15248072 -0.11578877 0.10629151 -0.25269735 0.23787487 -0.36220053
-0.138918 -0.0583075 0.12737459 -0.012633338 0.12652472 -0.21032853 0.08856638 0.105516195
0.17297338 0.1271837 -0.036050275 0.16982044 -0.18948454 -0.018978423 0.103273705 -0.009190592
-0.030589212 0.05550957 -0.17940496 0.09642079 -0.09444174 -0.009519363 0.045533102 -0.023921981
0.005207997 -0.2032368 0.02263709 -0.00954585 -0.27680773 -0.03140065 -0.14679731 0.14581344
-0.13369854 -0.15536267 0.1460563 -0.12594235 0.16491628 0.025999771 -0.2671813 -0.10180834
0.004776177 0.08126678 0.23851432 -0.084156655 -0.07709407 -0.015055985 0.08525057 -0.14363661
-0.06415615 -0.023459813 -0.07217509 0.0009888377 0.06784472 0.1413756 0.0016068136 0.110080644
-0.055388015 -0.1314988 -0.14650986 0.021989768 0.040645134 0.013416566 -0.03167837 -0.012261218
0.043240298 0.021492727 0.11781799 0.1073242 0.012877291 0.13193317 -0.030311693 -0.09131249
-0.047890123 0.099227995 0.052627176 0.12256003 0.27216968 -0.25468552 -0.12189657 -0.027522184
-0.18677881 0.02163115 -0.14704224 0.12302392 -0.100786366 0.19278318 0.07002491 0.113716014
0.003997782 -0.14867698 -0.15787472 0.02775533 0.03580214 -0.082352 -0.14172876 0.119777225
0.1778389 0.2695574 -0.06436826 0.15939865 -0.009879296 -0.08555052 0.1534549 0.10329748
0.078769095 -0.06835157 -0.04958643 -0.13630983 -0.04434923 -0.15122852 -0.1598169 0.039282806
0.07802671 -0.22911794 0.2637613 -0.119797446 0.14068517 -0.01783258 0.08093301 0.06958724
-0.19896801 -0.055128288 -0.18951161 -0.15028213 -0.22837143 0.06701243 -0.15534715 -0.0464992
0.04800798 -0.15971017 -0.064549044 0.2413717 -0.16980155 -0.30708575 0.01808546 0.01656721

network_body._body_endoder.seq_layers.2.bias f4 [128]
00000000: d72f a5bb 370f b939 8137 863d 293f 9f3c
00000010: 9527 4b3d c1ee 843d 5155 c2bc 8446 e93c
00000020: 2f3c f93c 182e aa3d c07c 57bd a647 50ba
00000030: cfbd 023c 75a6 683d 04d2 1d3d b970 cb3d
00000040: 63d0 d23d 94d8 ae3b 263f aabd 4cba e03d
00000050: a149 623d 5912 05bc ca34 2b3d 9afd d13c
00000060: 63af 4a3b a299 913d 51d8 8b3d d346 05bd
00000070: e36f 76bd ed16 153d 3ad1 dabb cc88 c8bd
00000080: 9ea9 58bd 14ab 45bd 6343 ae3d be91 9ebc
00000090: 2f53 083d 527b 703a 0c2d b13d b859 a7bb
000000a0: 7f6c dc3d 572b cbbb ca67 b23d c902 cb3c
000000b0: 2529 ad3d 8bed 503d 6750 17b9 0f33 8a3d
000000c0: 5ffb b13d 74b0 44bc 21c3 68bd 7fe2 27bc
000000d0: 36ae cabc 5706 b1bb 5b24 693b 09cf 773d
000000e0: 8db3 78bd b4b2 be3d cbfc 85bd 1488 1abd
000000f0: 1c4a 5d3d a0bc f9bc cc42 82ba c79b efbb
00000100: a975 883d f97d a93c 5f09 9fbd 05bc cd3d
00000110: d557 7cbd 6f06 a33d e93e e73d e78b b73c
00000120: 75b9 053d 4a96 9d3d d6da bd3c 7d53 01bd
00000130: 85dd a9bd 1660 013e 30e5 9d3c ec3e 89bb
00000140: fe03 993d e80d 293d 7923 f3bc e8df 523d
00000150: 9e77 033d 7eb0 ca3d 7876 883c 243a b13b
00000160: 90e3 003d c32b cc3d 9a81 26bd 550d 013d
00000170: 78f2 6dbc 8c88 813d 156b e23b 657a 213e
00000180: 867c 15be 35db fcbb e806 2bbc 40d1 9dbd
00000190: 0125 cd3b 143d 83bd b3b3 583d 628b 3a3d
000001a0: c0e0 12be 4ec0 523d 7d96 79bd 8d18 e13d
000001b0: d93d e43d 7574 933d 58cb 133e 3993 783d
000001c0: 8aca d83d 5129 1e3d deb0 353d 134e 35bc
000001d0: 810a f83d 55aa d13d 152c 3f3d a7d2 073d
000001e0: 268e 953d 86e3 1f3d 5a94 14bd 64c1 573c
000001f0: 37d1 a7bc 417f a63c 3c36 76bd eb88 653c
-0.0050411033 0.00035297286 0.06553555 0.019439297 0.049598295 0.06490851 -0.023722323 0.028476007
0.030424206 0.08309573 -0.052609205 -0.0007945247 0.007979824 0.05679937 0.038530365 0.099336095
0.10293653 0.0053358767 -0.08312826 0.10973033 0.055246 -0.00812205 0.04179839 0.025633622
0.0030927293 0.07109381 0.068283685 -0.032538246 -0.060165297 0.036398817 -0.006677774 -0.09791717
-0.052896135 -0.048258856 0.08508947 -0.019356605 0.033282455 0.00091736496 0.0865117 -0.005107131
0.107628815 -0.006200235 0.087112024 0.024781602 0.08455113 0.05100779 -0.00014430434 0.0674802
0.08690523 -0.01200496 -0.056826714 -0.010246872 -0.024741273 -0.005402367 0.0035574648 0.06050018
-0.060718108 0.09311429 -0.06542357 -0.03772743 0.054025754 -0.030485451 -0.000993812 -0.0073122713
0.06663067 0.020689951 -0.07765459 0.100456275 -0.0616072 0.079602115 0.11291296 0.022405578
0.03264757 0.07694681 0.023175638 -0.03157376 -0.082942046 0.1263431 0.019274324 -0.004188409
0.074714646 0.041273028 -0.02968 0.051483065 0.032096498 0.098969445 0.016658053 0.005408542
0.03146702 0.099692844 -0.04065094 0.031506855 -0.014523141 0.063248724 0.006909738 0.15769346
-0.14598283 -0.007716561 -0.010438658 -0.07705927 0.0062605147 -0.06408134 0.05290575 0.045543082
-0.14343548 0.051452927 -0.060934532 0.10991011 0.11144609 0.07199947 0.14433038 0.060687277
0.10585506 0.03861362 0.044358127 -0.011065978 0.121113785 0.102375664 0.0466729 0.033159878
0.07302503 0.039035343 -0.03627429 0.0131686665 -0.020485504 0.020324351 -0.060110316 0.014009695

action_model._discrete_distribution.branches.0.weight f4 [7, 128]
00000000: 76f4 90bc c12f 3cbb b6d2 c0be be91 f3bd
00000010: 20b5 3a3d 2e00 c13b 7626 173c 6aee 72bd
00000020: 3fb5 e13c 38f2 c2bd 7bf5 e43d d4af 8d3d
00000030: 5a8d 923c bc2a f63c 36ba 0b3e 0266 dc3d
00000040: 6fc0 26bc 5c11 06bc 7857 24bc 167c 5dbd
00000050: 9d87 66be b8a8 0bbb b347 cabc ce1b 31be
00000060: ec84 213e cb04 9cbc 870c 8c3d 00bc e43c
00000070: 6c13 30bd b4a0 3e3d 8e77 073e fd1e cd3b
00000080: 7a90 cbbd a610 2b3d 7dd0 f83c c9d0 b93d
00000090: 890f 3f3c 2de8 22be 4c9e ffbc eb4c 3cbc
000000a0: f71f 55bd c282 403d c373 eb3d 1f33 f03d
000000b0: 1d66 3c3d 914e 31be 9214 9d3d 316a 63bd
000000c0: f4a0 753d eecd 383d f42f 1c3e c47b 76bc
000000d0: 7e7d aebd d73f 0b3e 0e78 17be 8dc1 bb3b
000000e0: 3266 c7bd 1160 9d3c 2c3c a53c 3f73 17be
000000f0: a143 323d e267 a7bc 2ab9 55bd 3fc3 b2bd
00000100: b00b a3bc b316 193d 416d 26bd cb86 e4bd
00000110: 7e73 8ebb 835c 26be 185a ea3c 4f33 7abe
00000120: 8604 b6bc d850 3f3d 7404 f13d afb0 a93d
00000130: 6305 48bc 2b97 32be 5c57 bbbd 896b bf3c
00000140: 0b96 77bd aaca a7bd 29de b03d 6d23 28be
00000150: 8057 74be 584b bbbc 3b74 a43d 8213 823d
00000160: 2129 9e3c 95e7 0ebe 7fe5 753d be2e e3bc
00000170: 0eb1 23bd bcfc 9d3d 9701 86bb e75e 6b3d
00000180: f3bd ecbd 1399 7dbd d455 0c3d e42f 2dbd
00000190: a0b1 91bc 3b40 2bbe 42e5 0d3d 82d3 6fbd
000001a0: d4f2 ea3d a33b 883d 8b48 853e 0856 a23d
000001b0: cd42 ae3c 8fe5 68bd c213 53bd eaa0 b8bd
000001c0: 87cd 7bbd c58a 983d cbfd 263d 1fcf 86bc
000001d0: 0048 663d f2d5 32be fcdc 563d f5b2 1cbd
000001e0: eb17 593d 0895 8cbc 8fa3 8b3d 49c1 313e
000001f0: 42d9 83bd a666 08be 9720 2cbd 377c 303d
00000200: 7eb7 5ebe 8001 933d fdda 673e 7305 c63d
00000210: b787 753e 2681 e03d 91be 1dbe a968 9e3c
00000220: 3601 803e 87d6 9abe 925f 1b3e f0c8 07be
00000230: 6280 2b3d 813f 31be 670a 453e 57b9 a1be
00000240: f387 abbe b2c6 223e faeb 1a3d 7743 cd3d
00000250: e124 1e3e 318c 8abd dcf0 9ebe 08ae aebc
00000260: bce7 7dbe 6003 7fbe 6fa1 3f3e c7f9 bebd
00000270: 68e2 b4bd 98ad de3d 61df 07be 61d0 863e
00000280: 0ce3 823e c355 403e 6c22 9b3d 7dfd 34bd
00000290: c159 a83d 66eb 4e3d 45a6 cb3d 12fd 7a3d
000002a0: 2c67 96bb 3007 143e 1b09 eabe bf04 49be
000002b0: a6cf 18be 3dcb f83d 4e99 8b3d 7be4 453c
000002c0: 57b5 86bd 7ab2 5a3e 6d46 98bd 0c84 86be
000002d0: 0eca 673d 3c34 3cbd d749 7dbe 9e3d c43d
000002e0: dd6f 323e e197 babe 26a3 e13d 7fe6 f43d
000002f0: e8b6 45be 4ddc 6c3e 86af a93e 9485 debd
00000300: c46e 93bd 23d2 dc3d 90b0 14be fa29 7dbd
00000310: 6b72 07be 6bfb 27bd 987e 36be 9cfc 7f3c
00000320: 7308 0ebe 5c5b a6bd 7615 5c3e 5349 803d
00000330: ed1e 463e e6d8 cebd 3081 d93e c968 08be
00000340: 35c3 fcbd df90 ac3e ec64 0f3e 27e2 4e3e
00000350: d711 9e3d 46fa 24bd 086b 043e 096c b7be
00000360: 25c8 a73e c9d8 843e 0d7e 8b3e c5cc 053e
00000370: f8d2 133e 5bb9 c8be b032 1fbe 8be5 c0be
00000380: 08e5 493e e6a2 4f3e d4ff ea3d 9277 d13d
00000390: cf90 53bd 130e 03be badf 69be cee6 373e
000003a0: e0d2 3c3d 1056 acbd 1cfd 713d f344 633e
000003b0: 11f0 2fbe d27d 583e 0af5 0f3e 445d be3d
000003c0: afc0 0cbe 85ea 423e 603b 7abe 3567 ab3e
000003d0: be3e 1bbe 1231 1a3e 28ab 23bc 6e51 19be
000003e0: 1f2c cbbe 6cf8 423e f93b 61be 44b4 563d
000003f0: bd56 36bd ad0e 113e f4c4 39bc be55 903e
-0.017694693 -0.0028714987 -0.3766076 -0.118930325 0.04558289 0.005889914 0.009225478 -0.0593094
0.027552245 -0.09518856 0.11179634 0.06918302 0.017889667 0.030049674 0.13645253 0.10761644
-0.010177716 -0.00818285 -0.01003062 -0.054073416 -0.2251267 -0.002131028 -0.024692392 -0.17295763
0.15773362 -0.019045254 0.06838327 0.027921677 -0.042987272 0.046539977 0.132292 0.0062597976
-0.09939666 0.041763924 0.030372852 0.09073026 0.011661419 -0.1590888 -0.031203412 -0.011492948
-0.052032437 0.0469997 0.11496689 0.117285006 0.04599582 -0.17315127 0.07669939 -0.055521194
0.05996795 0.045118265 0.15252668 -0.015044156 -0.085200295 0.13598572 -0.14791891 0.00572986
-0.09736289 0.019210847 0.020170294 -0.14790057 0.043521527 -0.020435277 -0.05217854 -0.087286465
-0.019903034 0.037375163 -0.040631536 -0.11158522 -0.004347264 -0.16246228 0.028607413 -0.24433635
-0.022218954 0.046707958 0.117684275 0.08285653 -0.012208316 -0.17440479 -0.09147522 0.023366706
-0.060445827 -0.08192952 0.08636124 -0.16419764 -0.23861504 -0.022863075 0.08029982 0.06351377
0.019306721 -0.13955529 0.060033318 -0.02773225 -0.039963774 0.07714221 -0.004089545 0.057463553
-0.115596674 -0.06191356 0.03426154 -0.042282 -0.017784894 -0.1672372 0.034642465 -0.05855132
0.11472097 0.06652 0.26031908 0.079265654 0.021272087 -0.05685955 -0.051532514 -0.09015067
-0.061475303 0.07448343 0.04076938 -0.016456185 0.05622101 -0.17464426 0.05245684 -0.038256604
0.053001326 -0.017160907 0.06818306 0.17358889 -0.06437923 -0.13320407 -0.042023268 0.04308721
-0.21749684 0.071780205 0.22642131 0.09669008 0.23977552 0.10962133 -0.15404727 0.019337015
0.25000924 -0.30241796 0.15173176 -0.13260245 0.041870482 -0.17309381 0.1924225 -0.31586716
-0.3350216 0.15896109 0.0378227 0.100226335 0.15443756 -0.06765021 -0.31043136 -0.021323219
-0.24795431 -0.24903631 0.18713926 -0.09324985 -0.08832246 0.10872954 -0.13268806 0.26330855
0.25563848 0.18782715 0.07574925 -0.044187058 0.08220244 0.050517462 0.09943823 0.061276503
-0.0045899358 0.14455867 -0.45710072 -0.19630717 -0.14922962 0.121481396 0.0681635 0.0120784
-0.065775566 0.21357146 -0.07435308 -0.2627262 0.05658918 -0.045948252 -0.24735199 0.09582065
0.17425485 -0.36444 0.11017446 0.11958026 -0.19308054 0.23130913 0.33141726 -0.10865322
-0.07198861 0.10782268 -0.14520478 -0.06180761 -0.1322724 -0.041011255 -0.17821729 0.015624192
-0.1387041 -0.08122894 0.21492562 0.062639855 0.19347735 -0.10099964 0.42481375 -0.13321222
-0.1234192 0.33704278 0.14003342 0.20203458 0.077182464 -0.04027774 0.12931454 -0.35824612
0.32769886 0.25946644 0.27244607 0.13066395 0.14435947 -0.39203915 -0.1554668 -0.37675127
0.19716275 0.20276985 0.114745766 0.10227884 -0.051651772 -0.12798338 -0.22839251 0.17959139
0.046099544 -0.084148526 0.059079275 0.22194271 -0.17181422 0.21141747 0.14058319 0.09295133
-0.13745378 0.19034775 -0.24436712 0.33477178 -0.15160653 0.15057781 -0.009989537 -0.14972469
-0.396821 0.19040078 -0.21995534 0.05241801 -0.044516314 0.14165755 -0.011338461 0.28190416

action_model._discrete_distribution.branches.0.bias f4 [7]
00000000: 3b9a 0b3e 31f2 21be abc2 95bc 1724 86bd
00000010: 7344 babc 3f6d 7c3d b3b2 b73c
0.13633053 -0.15815045 -0.018281301 -0.06549852 -0.022737717 0.061627623 0.022424078
