CCP-main/results/WeightAgent_Training/WeightAgent_Training/WeightAgent_Training-70523.onnx (onnx, 172208 bytes, 6 tensors)

network_body._body_endoder.seq_layers.0.weight f4 [128, 195]
0.020564336 0.008430409 0.008628746 -0.04156035 -0.0072103557 0.11128466 -0.06344307 -0.1405497
-0.029887998 0.036109038 -0.07147015 0.026087195 -0.012540542 -0.106330305 0.04582279 -0.13225044
-0.09883317 -0.16436385 0.04382774 -0.05404283 -0.032512102 0.05385838 0.062112108 -0.06937835
0.15537873 0.0377242 -0.05486687 0.05884804 0.006062214 -0.0038845732 -0.06092202 -0.15536132
0.0329817 0.06651437 -0.057078023 -0.131295 0.051591452 0.075820535 -0.067969106 0.05965187
-0.04951271 -0.03483352 -0.07312718 -0.081869535 0.024702301 0.053720452 0.04856323 -0.19141217
0.0038455834 -0.058208108 -0.027609857 0.036535773 0.05862701 -0.079859324 -0.046784945 -0.0018493411
0.055904593 0.0070519145 0.026483545 0.13290952 -0.06900644 -0.048693832 -0.044025846 -0.0035107927
0.04319956 -0.2681097 -0.0018122435 -0.031936478 -0.147722 0.019241584 0.08316286 -0.051861215
0.0977521 -0.026926698 0.1237892 0.06843735 -0.098023556 -0.06960452 0.059684087 -0.12780882
-0.04167475 -0.011863169 0.03262505 0.032980803 -0.063651994 0.033281785 0.015434657 0.10434896
0.10093511 0.071198225 -0.0005383472 0.07324295 0.033894915 0.10710203 0.0361471 -0.040095694
-0.013899687 0.0006495345 -0.15701304 0.08706808 -0.060879715 0.047848776 -0.024622727 0.062376924
0.11920749 0.0475408 -0.05226237 0.0015755703 0.057855796 -0.010027224 0.0015336431 -0.044755235
-0.011877933 -0.06775291 -0.03205942 0.068440236 0.033951852 -0.06571282 -0.01398914 0.025813121
-0.1040392 0.013029642 -0.06182215 -0.065500826 -0.06972595 0.054500747 0.06524343 -0.038434997
-0.06106258 0.026415091 0.03398375 0.12927766 0.13517323 -0.058642976 0.04306024 -0.097978555
-0.039141245 -0.116703466 0.10516951 0.15696864 -0.05536732 0.10394192 0.01077575 0.056701485
-0.038776387 -0.14336017 0.16270804 -0.05387091 0.0065456037 0.09544865 -0.040513523 0.08050948
-0.031545397 -0.056516226 -0.036765214 0.094095826 0.08986203 0.004656902 -0.0068597025 0.067282215
-0.00019537406 0.0011055985 -0.026014986 0.046477478 0.034547925 -0.025710335 0.007291404 -0.07222276
-0.043176427 -0.14381194 -0.052127957 0.06395282 0.03291612 0.03350493 -0.03168066 -0.016697776
-0.061573014 -0.07100024 0.05853469 -0.031195218 -0.11466796 -0.025133647 -0.058996003 -0.17821307
-0.021398224 -0.077049665 -0.0032745642 -0.07628222 -0.1197323 0.16191363 0.03606339 -0.11844852
-0.060972106 0.12170555 0.043792583 0.07960713 -0.0092504015 0.025535686 -0.060166117 0.037849773
0.07222887 -0.13588211 0.09343617 -0.07598439 0.067333005 -0.08261613 0.019316943 -0.020505873
-0.056035243 -0.05159565 0.07294884 0.11437341 -0.0684667 -0.03838591 0.038207855 -0.17679533
0.03544314 -0.074791946 0.011618316 0.06361389 -0.06789159 0.12992188 -0.027472785 0.12476408
-0.123027116 0.04329891 -0.12891912 0.060520235 0.06218835 -0.08954781 -0.018005336 0.015731018
-0.009410799 -0.02713291 0.049546428 0.09119982 0.0512734 0.05641551 -0.006067884 0.008542954
0.066490255 -0.06809502 -0.045713168 0.12182633 -0.0047617634 -0.043553736 -0.042871892 0.040980402
0.011274421 0.15585482 -0.07038307 -0.018261323 -0.047981367 0.114776134 0.045010656 0.11917401
00000000: 8a76 a83c b31f 0a3c 955f 0d3c 303b 2abd
00000010: d944 ecbb 36e9 e33d 71ee 81bd 43ec 0fbe
00000020: add7 f4bc 12e7 133d f15e 92bd d0b4 d53c
00000030: d876 4dbc b4c3 d9bd aeb0 3b3d a96c 07be
00000040: 0c69 cabd ff4e 28be b784 333d 045c 5dbd
00000050: 692b 05bd 9b9a 5c3d 4469 7e3d 3d16 8ebd
00000060: 9a1b 1f3e b184 1a3d 15bc 60bd a40a 713d
00000070: 89a5 c63b 5394 7ebb 5e89 79bd 0a17 1fbe
00000080: d217 073d b038 883d a5ca 69bd 3272 06be
00000090: 8f51 533d cc47 9b3d 6333 8bbd 8555 743d
000000a0: d7cd 4abd 98ad 0ebd b4c3 95bd 37ab a7bd
000000b0: 7b5c ca3c fa09 5c3d 3dea 463d 8d01 44be
000000c0: 2f06 7c3b a06b 6ebd 112e e2bc 89a6 153d
000000d0: e022 703d 498d a3bd 92a1 3fbd 9765 f2ba
000000e0: 37fc 643d bf13 e73b 05f4 d83c 6f19 083e
000000f0: 4053 8dbd 2f73 47bd 7254 34bd 5415 66bb
00000100: 06f2 303d ad45 89be cd88 edba d3cf 02bd
00000110: 7044 17be 87a0 9d3c 4a51 aa3d 6d6c 54bd
00000120: 4132 c83d 6195 dcbc 3185 fd3d e228 8c3d
00000130: 93c0 c8bd d18c 8ebd 4d77 743d 51e0 02be
00000140: 25b3 2abd bd5d 42bc d8a1 053d e116 073d
00000150: fa5b 82bd 7b52 083d a5e1 7c3c e8b4 d53d
00000160: 11b7 ce3d 60d0 913d de1f 0dba 6600 963d
00000170: 65d5 0a3d 4f58 db3d fb0e 143d 623b 24bd
00000180: 83bb 63bc 8645 2a3a 07c8 20be c050 b23d
00000190: 025d 79bd 14fd 433d 9ab5 c9bc f27e 7f3d
000001a0: 0e23 f43d 24ba 423d 1111 56bd 5e83 ce3a
000001b0: 33fa 6c3d 3a49 24bc 8604 c93a 4451 37bd
000001c0: a99b 42bc 0ac2 8abd bd50 03bd 652a 8c3d
000001d0: 1911 0b3d 7194 86bd b532 65bc 0a76 d33c
000001e0: 8112 d5bd 487a 553c 3939 7dbd 4c25 86bd
000001f0: 7bcc 8ebd 2d3c 5f3d 599e 853d 046e 1dbd
00000200: c21c 7abd 7664 d83c 8b32 0b3d 5d61 043e
00000210: da6a 0a3e 9e33 70bd ef5f 303d fba8 c8bd
00000220: 9252 20bd 3a02 efbd 1d63 d73d 63bc 203e
00000230: d8c8 62bd 80df d43d c58c 303c d13f 683d
00000240: fdd3 1ebd 02cd 12be f09c 263e bea7 5cbd
00000250: 817c d63b 957a c33d 82f1 25bd 27e2 a43d
00000260: bf35 01bd 8f7d 67bd 1f97 16bd 50b5 c03d
00000270: 9609 b83d ed98 983b 5bc7 e0bb 42cb 893d
00000280: 53dd 4cb9 bbe9 903a 611d d5bc 2b5f 3e3d
00000290: 2082 0d3d 7b9e d2bc bbec ee3b 87e9 93bd
000002a0: c4d9 30bd 7043 13be 2084 55bd b2f9 823d
000002b0: 0ed3 063d 773c 093d 94c3 01bd c6c9 88bc
000002c0: fc33 7cbd 9368 91bd 12c2 6f3d 1d8d ffbc
000002d0: 09d7 eabd 14e5 cdbc cba5 71bd 7d7d 36be
000002e0: 544b afbc 37cc 9dbd 129a 56bb da39 9cbd
000002f0: 3536 f5bd b0cc 253e 35b7 133d 2395 f2bd
00000300: e3bd 79bd c240 f93d da5f 333d 1009 a33d
00000310: ff8e 17bc 3730 d13c bf70 76bd 5d08 1b3d
00000320: bbec 933d ae24 0bbe 765b bf3d b49d 9bbd
00000330: e3e5 893d a532 a9bd 913e 9e3c effb a7bc
00000340: 3685 65bd f655 53bd 3466 953d 9b3c ea3d
00000350: 4538 8cbd 8b3a 1dbd d77f 1c3d d609 35be
00000360: d32c 113d 852c 99bd c05a 3e3c 0048 823d
00000370: bf0a 8bbd 3e0a 053e 9b0e e1bc 4f84 ff3d
00000380: a4f5 fbbd 335a 313d 6003 04be 11e4 773d
00000390: 36b9 7e3d d864 b7bd ed7f 93bc 56de 803c
000003a0: c02f 1abc d645 debc 32f1 4a3d f9c6 ba3d
000003b0: 0f04 523d f313 673d 1ad5 c6bb bff7 0b3c
000003c0: 0b2c 883d 6775 8bbd bb3d 3bbd 1580 f93d
000003d0: 9108 9cbb 6765 32bd 709a 2fbd 11db 273d
000003e0: 59b8 383c 6898 1f3e 0025 90bd c598 95bc
000003f0: 1c88 44bd c00f eb3d 185d 383d 8111 f43d

network_body._body_endoder.seq_layers.0.bias f4 [128]
-0.009548561 -0.00033453575 -0.011310269 0.007250822 -0.003991674 0.006155269 -0.005272742 -0.0058074966
-0.003671114 -0.009632312 0.00068423763 -0.005559512 0.007224881 0.010156122 -0.0013516538 0.0041791894
0.00021769761 -0.005668027 -0.0047579044 -0.0060654967 -0.0005029562 -0.00068491016 -0.002580479 -0.00041693088
-0.000779823 0.004017624 -0.0075886203 -0.0025355322 0.00082873186 -0.0020136677 -0.011726542 0.001283623
-0.00023749389 0.021154696 0.0024470952 0.010666873 -0.0051722317 -0.0046859714 -0.0048801852 0.020685751
-0.009205996 -0.008322632 -0.0027483962 -0.0033110331 0.0021851386 0.00747771 -0.0027218726 0.0049039824
0.0028355345 -0.007831061 -0.0067930557 -0.0023266906 0.0052671004 -0.0046634255 -0.004985753 0.013740404
0.007958054 0.005113755 -0.0058017974 -0.001274865 -0.006499485 0.0049472568 0.0012727156 -0.008761386
0.0053178463 -0.01220296 -0.0109421685 0.011471077 0.010348061 0.018328598 -0.0056692716 0.00711813
-0.0025598642 0.008296723 0.017196517 0.0015113209 -0.0051134154 0.008938725 -0.008257236 -0.0009694477
-0.0063171303 0.009356601 -0.013663837 -0.0012163584 0.00699686 -0.009049415 0.0043780296 -0.007438569
-0.00313507 -0.002817295 -0.012806385 0.0078406595 0.004111438 0.0120011475 -0.010265376 0.017668879
-0.009125252 0.004687189 0.017033892 -0.0038078814 -0.0028041468 -0.0002390945 -0.00089394464 0.019796873
0.0037981302 0.0070980713 0.0007653855 0.00578942 -0.00024752767 1.4812395e-07 0.013021216 -0.003405166
-0.00049889693 -0.0040245196 0.0019629768 -0.002411663 -0.0044846754 0.016456252 0.00039938622 -0.008546598
-0.006039156 0.000999742 -0.0010555449 -0.007641346 0.014541084 0.01570815 -0.0010291095 -0.0105055
00000000: 9171 1cbc a164 afb9 b54e 39bc 4e98 ed3b
00000010: 97cc 82bb 24b2 c93b f7c6 acbb d04c bebb
00000020: 1397 70bb d8d0 1dbc 695e 333a 912c b6bb
00000030: b2be ec3b dd65 263c fa29 b1ba 95f1 883b
00000040: c245 6439 dbba b9bb 32e8 9bbb 13c1 c6bb
00000050: d2d8 03ba 8b8b 33ba 411d 29bb 8497 dab9
00000060: 096d 4cba 46a6 833b f6a9 f8bb 2c2b 26bb
00000070: 413f 593a bdf7 03bb af20 40bc 3e3f a83a
00000080: c807 79b9 9d4c ad3c 725f 203b 1cc4 2e3c
00000090: d37b a9bb c78c 99bb f6e9 9fbb 2a75 a93c
000000a0: bfd4 16bc a65b 08bc 701e 34bb ebfd 58bb
000000b0: 8b34 0f3b 9407 f53b 7261 32bb 96b1 a03b
000000c0: 60d4 393b da4d 00bc 4898 debb 647b 18bb
000000d0: a497 ac3b a6cf 98bb 875f a3bb 6e1f 613c
000000e0: 7f62 023c 4991 a73b 011d bebb 5f19 a7ba
000000f0: a2f9 d4bb 991c a23b 40d1 a63a eb8b 0fbc
00000100: 5441 ae3b edee 47bc c846 33bc 2ff1 3b3c
00000110: ea8a 293c db25 963c 4cc5 b9bb 343f e93b
00000120: 65c3 27bb faee 073c b6df 8c3c 8417 c63a
00000130: 708e a7bb bb73 123c 5c49 07bc 8922 7eba
00000140: eeff cebb 6e4c 193c 49de 5fbc 376e 9fba
00000150: ea45 e53b ff43 14bc 9375 8f3b 3dbf f3bb
00000160: bf75 4dbb 5ea2 38bb dfd1 51bc 1c76 003c
00000170: 3eb9 863b 76a0 443c 1c30 28bc 53be 903c
00000180: 1582 15bc fe96 993b a98a 8b3c a68d 79bb
00000190: c7c5 37bb 71b5 7ab9 9c57 6aba 0d2d a23c
000001a0: 0dea 783b f096 e83b 27a4 483a 2db5 bd3b
000001b0: 9ac6 81b9 000c 1f34 f056 553c 3529 5fbb
000001c0: 68c8 02ba 1ee0 83bb 49a5 003b fe0c 1ebb
000001d0: 2ff4 92bb 43cf 863c b664 d139 0807 0cbc
000001e0: 1de4 c5bb c609 833a 365a 8aba 4264 fabb
000001f0: ba3d 6e3c 61ae 803c 2fe3 86ba 431f 2cbc

network_body._body_endoder.seq_layers.2.weight f4 [128, 128]
-0.08954855 -0.027083911 -0.0061895247 0.027528258 -0.08740991 -0.11621607 0.18827526 -0.080159105
-0.14142655 0.058998894 0.08667942 -0.015090056 0.029684028 0.055440348 -0.09902616 0.19238238
-0.18119743 0.25231844 -0.0024966968 -0.053419713 0.09253276 0.08276681 -0.14491963 -0.05498421
0.07633842 0.024331082 0.0133476155 -0.035704024 -0.10439341 0.08458829 -0.043978922 0.021813363
-0.10382287 0.08570592 0.08332868 0.057477795 0.06730942 0.016283872 -0.0356876 -0.0042386823
-0.068739146 0.044171587 -0.054280054 0.05638744 0.1724366 0.03125709 -0.094574705 -0.040163513
-0.05194452 -0.16613734 -0.1691469 -0.06975036 0.020181071 -0.009326513 -0.046153206 0.067483224
0.026509682 -0.013015516 0.093049206 0.16235773 -0.062433794 0.046945475 -0.16216125 -0.034372717
-0.07176142 -0.020208316 -0.11047503 -0.15714678 0.053167496 0.06193568 0.09713028 0.057448283
-0.04291011 -0.048732556 0.091532044 0.06947673 -0.16761315 0.13163908 0.04324909 -0.07475144
0.14534737 0.019118525 -0.079142675 -0.22694741 0.09883995 -0.023145588 0.06975833 0.02593066
0.07108463 0.06522695 -0.05659924 -0.11924068 -0.0661095 0.027573552 -0.001090318 -0.11842413
-0.010989205 -0.08884524 0.049047552 0.09324852 0.07561585 -0.076478794 0.070217684 -0.0050681033
-0.004346942 -0.19282477 0.13142784 -0.16851293 -0.10248089 -0.2391645 0.041725047 -0.1513626
0.0206475 -0.03038535 0.035890564 -0.09634693 -0.026413983 -0.017563058 0.050435882 -0.072764814
0.014857994 0.055017754 0.18423223 0.06345052 0.20906799 -0.05471063 0.0032724207 -0.048036885
0.040028628 0.13662776 -0.14661817 0.13857366 -0.1578073 -0.06985278 0.037804253 -0.06812397
-0.1215787 0.06258705 -0.08630679 0.19143437 -0.041931376 -0.1380193 -0.019490631 -0.024287084
0.011672433 0.19859594 -0.120565295 0.025112784 0.00033923847 -0.05995776 0.070229635 0.17826425
-0.11153707 -0.21599783 0.015898647 0.039617267 -0.019488722 0.06328008 0.12961733 0.11187269
-0.01260797 -0.16197002 -0.122554034 0.057797138 0.060657766 -0.07191464 0.10689376 0.08116134
-0.15007786 -0.00068155664 0.05526926 0.115640834 0.10572209 0.015675722 -0.009867186 0.06353409
0.011494891 0.016975442 0.068632476 -0.24288474 0.02862822 -0.009516376 0.08251591 -0.05868942
0.04559819 -0.072734244 -0.015238476 0.077760726 0.17240947 -0.07313735 -0.05444317 0.05259209
0.0009718817 0.0047686035 0.028186489 0.07414852 0.1036809 -0.06647164 0.01820336 0.076079294
-0.08741719 0.053819023 0.02820734 0.02020225 -0.011924522 -0.03204324 0.08211459 0.010892709
0.024440622 -0.11397251 -0.040772874 -0.15078539 -0.09232079 0.0010673619 -0.026876409 0.0052097864
0.0011774168 0.039827667 -0.10666504 0.019134246 -0.03580263 0.07596973 0.02037844 -0.042188324
0.023352958 -0.04448957 0.048466686 0.06507692 0.074602686 -0.090543166 -0.1419161 0.07942625
0.07821939 0.08645633 0.06468107 -0.0069481316 -0.04263934 0.07940288 -0.107631706 0.053460706
-0.070428245 -0.15174936 -0.08644659 -0.042561837 -0.027823323 -0.13503063 -0.08438347 -0.0060945055
-0.04320209 -0.04853477 0.027175605 0.05040192 -0.021561462 0.052518588 0.110586084 -0.26887998
00000000: 3b65 b7bd 14df ddbc 7fd1 cabb f182 e13c
00000010: f803 b3bd b102 eebd 3bcb 403e 752a a4bd
00000020: 1fd2 10be d3a8 713d fb84 b13d 483c 77bc
00000030: eb2b f33c 6b15 633d 3ace cabd e3ff 443e
00000040: d28b 39be e22f 813e 9f9f 23bb a1ce 5abd
00000050: d181 bd3d a581 a93d d065 14be 1f37 61bd
00000060: 5157 9c3d fa51 c73c f5af 5a3c 623e 12bd
00000070: 36cc d5bd a03c ad3d 3e23 34bd f0b1 b23c
00000080: 16a1 d4bd 9686 af3d 3aa8 aa3d d66d 6b3d
00000090: 85d9 893d c165 853c 292d 12bd a5e4 8abb
000000a0: 1cc7 8cbd 44ed 343d c354 5ebd 84f6 663d
000000b0: 3893 303e 6f07 003d 62b0 c1bd 7f82 24bd
000000c0: c7c3 54bd e81f 2abe d834 2dbe 47d9 8ebd
000000d0: c652 a53c 3bce 18bc 250b 3dbd a534 8a3d
000000e0: d52a d93c 083f 55bc 9590 be3d 1b41 263e
000000f0: 94ba 7fbd e649 403d 990d 26be 68ca 0cbd
00000100: a7f7 92bd e98b a5bc bc40 e2bd 16eb 20be
00000110: 29c6 593d 45b0 7d3d 3eec c63d e44e 6b3d
00000120: 83c2 2fbd ca9b 47bd 2775 bb3d d149 8e3d
00000130: c8a2 2bbe 65cc 063e f525 313d 4817 99bd
00000140: f1d5 143e 749e 9c3c 8e15 a2bd e764 68be
00000150: 9a6c ca3d d19b bdbc 75dd 8e3d 896c d43c
00000160: d294 913d b595 853d 9bd4 67bd 7534 f4bd
00000170: 6b64 87bd eee1 e13c 00e9 8eba 5a88 f2bd
00000180: 110c 34bc 7ef4 b5bd 16e6 483d 14f9 be3d
00000190: 7cdc 9a3d eaa0 9cbd 4ace 8f3d 5512 a6bb
000001a0: cb70 8ebb db73 45be 0595 063e a78e 2cbe
000001b0: 80e1 d1bd 8ae7 74be e2e7 2a3d ccfe 1abe
000001c0: f224 a93c b3ea f8bc fc01 133d 8a51 c5bd
000001d0: 2362 d8bc 67e0 8fbc db95 4e3d b805 95bd
000001e0: f26e 733c 4c5a 613d 60a7 3c3e 59f2 813d
000001f0: eb15 563e 4118 60bd 1c76 563b 53c2 44bd
00000200: 0ff5 233d 26e8 0b3e 1323 16be 41e6 0d3e
00000210: 3d98 21be f90e 8fbd a2d8 1a3d 9484 8bbd
00000220: 41fe f8bd a42d 803d 9dc1 b0bd 5f07 443e
00000230: 3cc0 2bbd ee54 0dbe d1aa 9fbc b5f5 c6bc
00000240: bb3d 3f3c bc5c 4b3e f0ea f6bd 53b9 cd3c
00000250: d1db b139 4596 75bd 8ed4 8f3d e78a 363e
00000260: 8c6d e4bd 892e 5dbe e13d 823c b745 223d
00000270: d0a6 9fbc fd98 813d 68ba 043e 821d e53d
00000280: a991 4ebc 78db 25be 9cfd fabd b1bc 6c3d
00000290: 4774 783d fc47 93bd 1eeb da3d eb37 a63d
000002a0: 03ae 19be 7eaa 32ba 0562 623d 1ad5 ec3d
000002b0: d384 d83d 5f6a 803c faa9 21bc 291e 823d
000002c0: 1155 3c3c 1510 8b3c 2f8f 8c3d c7b6 78be
000002d0: bb85 ea3c 93ea 1bbc 1afe a83d 5164 70bd
000002e0: 2bc5 3a3d b1f5 94bd cdaa 79bc 0441 9f3d
000002f0: 1c8c 303e 09c9 95bd cdff 5ebd ce6a 573d
00000300: e0c5 7e3a f241 9c3b 5ae7 e63c 2edb 973d
00000310: a756 d43d 4822 88bd 361f 953c 76cf 9b3d
00000320: c907 b3bd 5671 5c3d 1413 e73c 307f a53c
00000330: 125f 43bc c63f 03bd b22b a83d 5577 323c
00000340: b337 c83c 6b6a e9bd 7501 27bd 7c67 1abe
00000350: af12 bdbd b9e6 8b3a ea2b dcbc dbb6 aa3b
00000360: 8d53 9a3a 5622 233d 3373 dabd 6cbf 9c3c
00000370: c7a5 12bd 0596 9b3d b0f0 a63c aacd 2cbd
00000380: b44e bf3c b23a 36bd 0185 463d 0c47 853d
00000390: 4bc9 983d b26e b9bd 7452 11be 3baa a23d
000003a0: 7d31 a03d 0410 b13d 8277 843d 27ad e3bb
000003b0: 97a6 2ebd fa9d a23d 036e dcbd 9df9 5a3d
000003c0: af3c 90bd 2f64 1bbe e90a b1bd 5255 2ebd
000003d0: bded e3bc 7845 0abe 3ed1 acbd 6bb4 c7bb
000003e0: adf4 30bd 65cc 46bd 609f de3c 3e72 4e3d
000003f0: aaa1 b0bc bb1d 573d f57a e23d a3aa 89be

network_body._body_endoder.seq_layers.2.bias f4 [128]
0.015259856 -0.0037196323 0.00060053694 0.013692066 -0.0058218637 -0.011880562 -0.00316764 -0.00542796
0.012805134 0.0094765 0.017134009 -0.00476646 -0.0041013025 0.0077514965 -0.003179844 -0.013055656
0.0011301237 0.0041462653 -0.005056461 -0.012147748 -0.011201745 0.00565131 -0.002380683 0.00080440857
-0.005353031 -0.0123882415 -0.0017433881 -0.008864498 0.0021100354 0.004514935 0.007962223 -0.006205845
-0.002749368 -0.0021150156 0.0010559313 0.0045393985 0.009540406 -0.005915866 0.019574724 0.010702397
0.0121807335 -0.004044326 6.66325e-05 -0.0055192616 0.0025932074 -0.00029983494 0.0058990545 -0.00048003727
-0.0033935893 0.016084401 0.002841526 0.0048261927 0.0034560617 0.00536254 0.0037202658 -0.010777588
0.016516028 -0.004718897 0.012817127 0.0007671409 -0.007335841 0.0021804539 -0.0039462685 0.0050822035
-0.009804909 0.0138904685 -0.004113506 0.009544279 -0.012416306 0.007255462 -0.0044407016 -0.0048750113
-0.00854378 -0.0064011626 0.0031455632 0.008593443 -0.008282536 -0.009803024 -0.012297483 0.0049228603
-0.0029780332 0.0124042155 -0.0070800562 -0.01060797 0.009401047 -0.000762856 0.0024237195 -0.0035931664
-0.003015988 -0.006435248 0.01993653 -0.0019451685 -0.0081276065 0.0012090061 -0.0022476756 -0.0048680236
-0.005993028 -0.0107916035 -0.0053323405 0.0046451357 -0.008701273 -0.008628446 0.0021726196 -0.007866394
-0.0013752019 -0.012422464 0.021341186 0.0068143397 -0.006400193 -0.004570427 -0.007214814 -0.003372484
0.012522733 0.00038673705 -0.0075357268 -0.0005418554 -0.012255604 -0.011463404 -0.0017307238 0.0057874755
-0.0036432084 0.006522932 -0.00520778 -0.0042184573 0.015192732 -0.00892806 -0.0052561183 -0.0041783922
00000000: 7a04 7a3c 13c5 73bb 5a6d 1d3a b054 603c
00000010: 55c5 bebb b0a6 42bc 2e98 4fbb 07dd b1bb
00000020: a0cc 513c 5243 1b3c 9f5c 8c3c f72f 9cbb
00000030: 3864 86bb 4400 fe3b ee64 50bb 64e7 55bc
00000040: a920 943a 65dd 873b abb0 a5bb 5907 47bc
00000050: 8687 37bc a02e b93b 3c05 1cbb f2de 523a
00000060: 7b68 afbb 0df8 4abc 6682 e4ba 663c 11bc
00000070: 8548 0a3b 05f2 933b fc73 023c 675a cbbb
00000080: be2e 34bb 139c 0abb 2d67 8a3a 3cbf 943b
00000090: 5d4f 1c3c e1d9 c1bb 2c5b a03c 1b59 2f3c
000000a0: b391 473c 4486 84bb 0dbd 8b38 ecda b4bb
000000b0: cdf2 293b 2a33 9db9 db4c c13b 83ad fbb9
000000c0: fb66 5ebb 6fc3 833c e538 3a3b 0a25 9e3b
000000d0: 187f 623b 3fb8 af3b b4cf 733b 7b94 30bc
000000e0: 9f4c 873c faa0 9abb edfe 513c f419 493a
000000f0: 7f61 f0bb f2e5 0e3b b34f 81bb 9d88 a63b
00000100: c5a4 20bc d994 633c 97ca 86bb 9c5f 1c3c
00000110: c36d 4bbc 3abf ed3b 4e83 91bb 8fbe 9fbb
00000120: 36fb 0bbc d8c0 d1bb cb25 4e3b 83cb 0c3c
00000130: 79b3 07bc dd9c 20bc 627b 49bc f24f a13b
00000140: 1b2b 43bb 0d3b 4b3c d1ff e7bb 0dcd 2dbc
00000150: d906 1a3c 66fa 47ba 44d7 1e3b 547b 6bbb
00000160: e2a7 45bb c6de d2bb ef51 a33c 06f5 feba
00000170: a729 05bc 8377 9e3a bd4d 13bb f183 9fbb
00000180: 2a61 c4bb 44cf 30bc eaba aebb 3936 983b
00000190: c98f 0ebc 535e 0dbc 8262 0e3b 0ce2 00bc
000001a0: 1e40 b4ba 9787 4bbc b6d3 ae3c d34a df3b
000001b0: b6b8 d1bb 85c3 95bb 3f6a ecbb e404 5dbb
000001c0: 262c 4d3c f8c2 ca39 42ee f6bb 4d0b 0eba
000001d0: bbcb 48bc 00d1 3bbc 74d9 e2ba dda4 bd3b
000001e0: e5c2 6ebb 52be d53b 06a6 aabb fc3a 8abb
000001f0: f0ea 783c ff46 12bc 843b acbb e5ea 88bb

action_model._discrete_distribution.branches.0.weight f4 [7, 128]
0.0029319723 -0.003929218 0.02545229 -0.0067263125 0.02046246 0.010979301 0.010510497 0.008491295
0.0073304116 -0.0012469036 -0.007175963 0.0072350716 -0.014486795 0.002237685 -0.006921647 0.0047132815
-0.0062023243 0.012851915 0.0061970837 -0.0037539555 0.002012048 0.004516298 -0.0024338358 -0.0044714315
0.007828318 -0.0075876424 -0.0074561685 0.0025008013 0.008422476 -0.007547629 0.013212212 0.009581774
-0.003541546 -0.0010661592 0.0035419127 0.00020926395 -0.0046646385 0.016828232 -0.003387733 0.00093157677
-0.0084368205 0.0036194755 0.0062490273 -0.015002874 -0.0058672135 -0.012161575 0.00091550424 -0.002730133
-0.027788026 0.01995614 0.011565537 0.02003915 -0.007458119 0.006125818 -0.012637972 -0.016655147
0.0075901635 -0.0044755717 0.0058027166 0.0038701603 0.009916119 0.0045244726 0.0077470904 0.00051705627
-0.009468489 -0.017691571 0.0018168933 0.0025184816 -0.015260371 -0.01567255 0.01146729 0.0052351113
-0.012495273 0.0013799993 -0.0038933144 0.0019993684 -0.006991285 -0.0051289964 -0.0009558862 0.0049197497
0.0035977315 -0.0052045817 0.0058957497 -0.0026978606 0.0020319521 0.016257796 -0.007820496 -0.0037350408
-0.004652673 -0.004428484 0.0033617401 -0.004110027 0.012923958 0.004555688 0.0109624835 -0.025267644
0.0067837983 0.010375779 -0.021512877 0.009550774 0.017115029 0.0007015876 0.0025961155 -0.0054346356
0.0080001205 -0.009941045 0.0107686175 0.004149637 0.003824027 -0.009809469 -0.009958031 -0.011782112
0.001285248 -0.0012147821 -0.0021447586 0.0057064304 0.0041908333 0.01042277 -0.00724207 -0.014444978
-0.003331968 -0.008990596 -0.0022460117 -0.0102269435 0.008913518 -0.0008012668 0.01133138 -0.010410705
0.007847992 -0.0028987683 0.00015802312 0.007401155 0.011237643 0.019641928 0.0071501867 -0.0044555594
-0.007100447 0.0075881695 0.004320001 -0.009601209 3.7892853e-05 0.014695494 0.010582724 -0.0015132296
0.02036035 -0.00012485444 -0.0073062005 0.019633453 0.00033056183 -0.018224362 -0.00050568924 -0.013817572
0.0087371515 0.0056047007 0.0111855185 0.018368322 0.0018762652 -0.013235134 0.0011902831 -0.009239972
0.008925168 -0.0065417425 -0.014581244 -0.00086111564 -0.004702772 -0.0056226207 0.0016706428 0.022114754
-0.002851847 -0.0069258963 -0.009096624 -0.003132358 -0.008399085 -0.009977868 0.009025241 0.0058875005
0.010488913 -0.008292028 -0.018233044 0.006612104 0.008731523 -0.004044316 -0.010300411 -0.016013883
-0.00039485734 -0.0036332947 0.00818044 0.0035162396 0.003300999 0.010952539 0.00552693 -0.0014156172
-0.004039476 0.004189077 0.001717008 0.0025815915 -0.00044830533 0.024323002 -0.0009706004 0.0018447083
-0.0017982326 0.010189056 -0.005720796 -0.0012683849 -0.006718874 0.009664115 0.009798767 0.01125862
0.002211901 0.014739819 -0.0022056033 -0.0029232912 0.013976295 0.024233956 0.009684307 0.011342547
0.014436796 0.011411282 0.005764978 -0.026331507 -0.0020555742 0.008341614 0.0005919803 0.0010433217
-0.00023617674 0.0060052415 -0.006601434 -0.007871542 0.017197931 0.0039217602 0.011735705 0.00547196
-0.012150032 0.0010424756 0.0038729713 0.006594936 0.017259313 -0.0049342946 0.018386142 -0.012872863
0.026514092 0.0056038788 0.0051483763 0.005366352 0.014916976 0.018889574 -0.004824524 0.016931077
-0.006684771 0.010273905 0.002975367 0.018106008 0.016940854 -0.003750009 -0.0012754644 0.010319419
00000000: 5526 403b abc0 80bb 5281 d03c 6668 dcbb
00000010: e4a0 a73c 87e2 333c 3834 2c3c 131f 0b3c
00000020: f333 f03b 246f a3ba 5724 ebbb 2e14 ed3b
00000030: 065a 6dbc 20a6 123b fcce e2bb df71 9a3b
00000040: de3c cbbb d790 523c e810 cb3b ec04 76bb
00000050: 90dc 033b 74fd 933b fd80 1fbb 1685 92bb
00000060: 5842 003c c2a1 f8bb e052 f4bb 7ce4 233b
00000070: 6dfe 093c 1a52 f7bb 0978 583c dffc 1c3c
00000080: 4819 68bb 5ebe 8bba 6f1f 683b dd6d 5b39
00000090: d3d9 98bb 5cdb 893c ba04 5ebb 0f35 743a
000000a0: 973a 0abc b934 6d3b a4c4 cc3b 9dce 75bc
000000b0: c141 c0bb 5841 47bc 73fe 6f3a 08ec 32bb
000000c0: b7a3 e3bc 0f7b a33c 617d 3d3c 2529 a43c
000000d0: 3d63 f4bb 16bb c83b 7f0f 4fbc 6070 88bc
000000e0: e8b6 f83b d1a7 92bb b724 be3b 84a2 7d3b
000000f0: 3877 223c 0742 943b 4edb fd3b 0f8b 073a
00000100: b921 1bbc eaed 90bc d324 ee3a 1c0d 253b
00000110: a306 7abc b863 80bc 4de1 3b3c 4c8b ab3b
00000120: f9b8 4cbc 18e1 b43a fa26 7fbb d607 033b
00000130: 2617 e5bb 2411 a8bb 7094 7aba da35 a13b
00000140: ebc7 6b3b 328b aabb 2231 c13b 97ce 30bb
00000150: 802a 053b 122f 853c 8a21 00bc 96c7 74bb
00000160: 7375 98bb d11c 91bb a450 5c3b 68ad 86bb
00000170: 02bf 533c e147 953b fd9b 333c 17fe cebc
00000180: a04a de3b 2cff 293c c63b b0bc d97a 1c3c
00000190: d134 8c3c bfea 373a 9723 2a3b 0715 b2bb
000001a0: f012 033c c4df 22bc db6e 303c aef9 873b
000001b0: 879c 7a3b e5b7 20bc 0227 23bc c209 41bc
000001c0: c475 a83a 5339 9fba 148f 0cbb 02fd ba3b
000001d0: 4253 893b 44c4 2a3c e34e edbb a1aa 6cbc
000001e0: 265d 5abb 4b4d 13bc d331 13bb e98e 27bc
000001f0: 010a 123c 1b0c 52ba 41a7 393c a991 2abc
00000200: dd94 003c 43f9 3dbb 02b3 2539 6385 f23b
00000210: 171e 383c 1ce8 a03c 1d4c ea3b f1ff 91bb
00000220: deaa e8bb 2ea6 f83b cc8e 8d3b 644e 1dbc
00000230: 24ef 1e38 5fc5 703c 2963 2d3c 8f57 c6ba
00000240: c0ca a63c 5ceb 02b9 da68 efbb 56d6 a03c
00000250: 424f ad39 424b 95bc 3b90 04ba 1963 62bc
00000260: 4526 0f3c a3a7 b73b 7743 373c 2a79 963c
00000270: 03ed f53a 2dd8 58bc 4603 9c3a 4063 17bc
00000280: de3a 123c 1d5c d6bb 2ce6 6ebc 7ebc 61ba
00000290: b619 9abb f63d b8bb 78f9 da3a 002a b53c
000002a0: 0ee6 3abb a1f2 e2bb 020a 15bc 3f48 4dbb
000002b0: 519c 09bc 367a 23bc 9bde 133c efeb c03b
000002c0: b1d9 2b3c 49db 07bc 775d 95bc 59aa d83b
000002d0: a90e 0f3c 2e86 84bb 0ec3 28bc 8c2f 83bc
000002e0: db04 cfb9 921c 6ebb 4107 063c b670 663b
000002f0: 9355 583b 4772 333c 401b b53b 3b8c b9ba
00000300: 955d 84bb 8644 893b 3a0d e13a eb2f 293b
00000310: 860a ebb9 0841 c73c e46f 7eba 24ca f13a
00000320: acb2 ebba 00f0 263c 8475 bbbb ef3f a6ba
00000330: 002a dcbb 3c56 1e3c 028b 203c 1376 383c
00000340: 8af5 103b 487f 713c e28b 10bb b094 3fbb
00000350: d4fc 643c 4a86 c63c edaa 1e3c 17d6 393c
00000360: 5088 6c3c 63f6 3a3c 24e8 bc3b 2cb5 d7bc
00000370: d0b6 06bb 44ab 083c 202f 1b3a 11c0 883a
00000380: 36a6 77b9 9ec7 c43b d850 d8bb a4f7 00bc
00000390: ade2 8c3c 1c82 803b 1d47 403c 214e b33b
000003a0: ee10 47bc ada3 883a add1 7d3b 551a d83b
000003b0: 6763 8d3c ddaf a1bb 899e 963c b3e8 52bc
000003c0: 1534 d93c bea0 b73b b6b3 a83b 39d8 af3b
000003d0: 5566 743c 4fbe 9a3c 0a17 9ebb 0bb3 8a3c
000003e0: ec0b dbbb e153 283c 60fe 423b 0d53 943c
000003f0: 8cc7 8a3c b6c2 75bb 7c2d a7ba c812 293c

action_model._discrete_distribution.branches.0.bias f4 [7]
0.0023977184 -0.002114749 0.0034714025 -0.009844814 -0.0009142885 0.0063359947 0.008254829
00000000: 0a23 1d3b 9a97 0abb 7880 633b 254c 21bc
00000010: ddac 6fba 2d9e cf3b 433f 073c
