CCP-main/results/WeightAgent_Training/WeightAgent_Training/WeightAgent_Training-54499994.onnx (onnx, 172208 bytes, 6 tensors)

network_body._body_endoder.seq_layers.0.weight f4 [128, 195]
0	0xbe75dbab	-0.24009578
1	0x3e80fdeb	0.25193724
2	0x3e438bef	0.19096349
3	0xbcb8c21f	-0.022553502
4	0xbe3a79aa	-0.18210474
5	0xbe234795	-0.15945275
6	0xbddbebc6	-0.107383296
7	0x3c7454b2	0.014912771
8	0x3e9422d8	0.28932834
9	0xbdd09837	-0.10185283
10	0xbe63537b	-0.22199814
11	0xbdf73dad	-0.120723106
12	0xbe7065ad	-0.23476286
13	0x3e05960a	0.13045517
14	0x3d8b1017	0.06790178
15	0x3cc73131	0.024315448
16	0x3d36e60c	0.044652984
17	0xb885c04c	-6.377752e-05
18	0x3e1eb5d0	0.15499043
19	0xbdb6789e	-0.08909725
20	0x3eae8442	0.3408528
21	0x3dd415e1	0.103557356
22	0xbe9e3866	-0.30902404
23	0xbd6d0785	-0.0578685
24	0xbebe0978	-0.371166
25	0xbc93d823	-0.018047398
26	0x3db11467	0.086464696
27	0xbca10e6d	-0.019660199
28	0x3ac1120a	0.0014730108
29	0x3e1d8487	0.15382586
30	0x3cd96fba	0.026542533
31	0xbe2a9021	-0.16656543
32	0x3f043bef	0.5165395
33	0x3c4fa619	0.012673878
34	0xbe7a0fb8	-0.24420059
35	0xbd8c7770	-0.068587184
36	0xbe8a56a6	-0.27019233
37	0xbdabe419	-0.083931156
38	0x3dba8284	0.09106925
39	0xbd97a92e	-0.07405315
40	0x3e00e522	0.12587407
41	0x3d2de311	0.042452876
42	0x3c411150	0.011783913
43	0xbe80c9ed	-0.25154057
44	0x3ed633cd	0.41836396
45	0x3db808f9	0.089860864
46	0xbe3184b5	-0.1733578
47	0xbdd0c60a	-0.10194023
48	0xbd22cfa1	-0.03974879
49	0x3e1e5907	0.15463649
50	0xbce3c0b3	-0.027801847
51	0xbd923ab4	-0.07140103
52	0x3ca73214	0.020409621
53	0x3e05dae6	0.13071784
54	0x3d245cbb	0.040127497
55	0xbe3bf1d9	-0.18353976
56	0x3ebfac6d	0.37436238
57	0x3e0e76f8	0.1391257
58	0xbd6c2762	-0.057654746
59	0xbcb18d2b	-0.02167376
60	0xbd43485e	-0.047676437
61	0x3d991ff7	0.074768
62	0xbdb13097	-0.08651846
63	0xbd32cb83	-0.043651115
64	0x3e17ab0e	0.14811346
65	0x3d681d11	0.056668345
66	0x3ddcd929	0.107836075
67	0xbe9a03e5	-0.30081096
68	0x3ef45eca	0.47728568
69	0xbd89bfdc	-0.067260474
70	0xbe2d027e	-0.16895482
71	0xbba9dff9	-0.0051841703
72	0xbe07a665	-0.13247068
73	0x3e83ff5c	0.2578076
74	0xbf31cd2b	-0.69453686
75	0x3d3652d7	0.044512596
76	0x3e3c5c48	0.18394578
77	0x3df7fdf0	0.121089816
78	0xbd6edffe	-0.058319084
79	0xbea06425	-0.31326404
80	0x3ebd3890	0.36957216
81	0x3dbe56ff	0.09293937
82	0x3cd5af8e	0.026084688
83	0x3d536e7c	0.051619038
84	0xbe3f60ae	-0.18689224
85	0x3ea28177	0.317394
86	0xbf2b5f19	-0.6694198
87	0x3c5b8c30	0.0134001225
88	0x3dbd9212	0.09256376
89	0xbd049ec7	-0.032377984
90	0x3d491b4b	0.049098294
91	0xbd528ba8	-0.051402718
92	0x3ef626c4	0.4807645
93	0x3ca02885	0.019550571
94	0x3c172440	0.009224951
95	0x3db65939	0.089037366
96	0xbe88125e	-0.26576513
97	0x3dabf18a	0.08395679
98	0xbf49736c	-0.78691745
99	0x3da73bd9	0.08165712
100	0x3e4907fd	0.19631954
101	0x3dab71ba	0.08371301
102	0x3e04a475	0.1295336
103	0x3ac75ec8	0.0015210742
104	0x3ed201fe	0.41017145
105	0x3c530f97	0.012882135
106	0x3d4583d7	0.048221435
107	0xbcac80bf	-0.021057485
108	0xbe1ec3cf	-0.15504383
109	0xbd1a9de8	-0.037748247
110	0xbf0db2e9	-0.5535112
111	0xbd045c73	-0.03231473
112	0x3d9a8e9c	0.07546732
113	0xbc69496a	-0.014238695
114	0x3cc6e248	0.024277821
115	0xbd934979	-0.07191748
116	0x3ea6580c	0.3248905
117	0xbd0a0560	-0.033696532
118	0xbd7d4843	-0.061836492
119	0xbd501408	-0.050800353
120	0xbe8a4a51	-0.27009824
121	0xbd166eba	-0.03672669
122	0xbf2dd3da	-0.67901385
123	0xbb9e83f8	-0.0048375092
124	0x3e2bb3a3	0.16767745
125	0xbd01856c	-0.03162138
126	0x3e0bf8e5	0.13669164
127	0xbe778338	-0.2417115
128	0x3e4d193b	0.20029156
129	0x3dedb280	0.11606312
130	0xbdac77c9	-0.08421285
131	0x3b9c289d	0.0047655837
132	0x3c521ed1	0.01282473
133	0xbd51c662	-0.051214583
134	0xbf03be82	-0.51462567
135	0x3d8268a6	0.06367616
136	0x3cbceedd	0.023063118
137	0x3c6f8c5e	0.0146208685
138	0xbd62b712	-0.05535037
139	0xbd90750a	-0.070535734
140	0x3bf4d6c6	0.007471892
141	0xbd11d2ec	-0.03560154
142	0x3d6cde17	0.05782899
143	0xbd6c9384	-0.05775787
144	0xbe03583c	-0.12826627
145	0xbc3aad4d	-0.011393857
146	0xbebf44e2	-0.3735724
147	0x3dd94b8c	0.106101125
148	0x3e1dc345	0.1540652
149	0x3b29701b	0.0025854174
150	0x3d5f76e1	0.05455673
151	0xbde5bb26	-0.11217336
152	0xbca32d49	-0.019919055
153	0xbd99d5e0	-0.075114965
154	0xbaa5b2f9	-0.0012641839
155	0xbd0495e3	-0.032369506
156	0x3c5cba10	0.013472095
157	0xbd5c55f9	-0.053792927
158	0xbe114cb8	-0.14189422
159	0xbdceab5f	-0.1009128
160	0x3dd6dd7a	0.10491462
161	0x3df17b9b	0.11791154
162	0x3cac6e3c	0.021048658
163	0xbd59b8a5	-0.053154606
164	0xbdf66e26	-0.12032728
165	0x3b778650	0.0037769265
166	0xbcf51f2f	-0.029922096
167	0x3cb5d413	0.022195851
168	0x3df3052e	0.11866222
169	0x3e2a5fde	0.16638133
170	0xbea02e1d	-0.31285182
171	0x3da4fcbe	0.08056019
172	0x3cb82a27	0.022481037
173	0x3dd09245	0.10184149
174	0xbde11137	-0.109896116
175	0xbd80804e	-0.06274472
176	0xbe45ec5f	-0.1932845
177	0xbd5603b7	-0.052249637
178	0x3e83c43b	0.2573565
179	0x3e22b149	0.15887941
180	0xbe5f9a29	-0.21836151
181	0xbc1a3129	-0.009411135
182	0xbe5dc2b5	-0.21656306
183	0x3d840b15	0.06447426
184	0x3b51b073	0.003199604
185	0x3dfdcce6	0.12392597
186	0xbe9cff38	-0.30663466
187	0xba6bf778	-0.00090014143
188	0x3de2f065	0.11081008
189	0x3c8bbca4	0.017057724
190	0x3d79cfab	0.060989063
191	0xbcf7d17e	-0.03025126
192	0x3d36bf0b	0.044615787
193	0x3caab908	0.020840183
194	0xbd996a2d	-0.074909545
195	0xbe1c7427	-0.15278684
196	0xbe126244	-0.14295298
197	0x3db0aa30	0.08626211
198	0xbcf295f6	-0.029612523
199	0x3d437b2b	0.047724884
200	0xbe6a508a	-0.22882286
201	0xbe1f02c4	-0.15528399
202	0x3b69a280	0.0035649836
203	0x3e30fb54	0.17283374
204	0xbc60cf27	-0.013721264
205	0xbdc35293	-0.09537234
206	0xbe8776f1	-0.26457933
207	0xbe40009c	-0.18750232
208	0x3dc24516	0.09485833
209	0xbdafe67e	-0.08588885
210	0x3c71ef6f	0.014766558
211	0xbdd780cf	-0.10522615
212	0xbdc87e8f	-0.09789764
213	0x3d406947	0.0469754
214	0x3ded3c0b	0.11583718
215	0x3daea605	0.085277595
216	0xbcfbcdf9	-0.030737864
217	0xbdb65ea4	-0.0890477
218	0xbc672edf	-0.014110296
219	0x3cc4b399	0.02401142
220	0x3de22c8e	0.110436544
221	0x3e010756	0.12600455
222	0xbc90e26d	-0.017686093
223	0xbe3d2b39	-0.1847352
224	0xbe2d72fc	-0.16938394
225	0xbcb117cb	-0.02161779
226	0x3deeca23	0.11659648
227	0x3c8a35f8	0.016871437
228	0xbdaea9e5	-0.085284986
229	0xbe097f3f	-0.13427447
230	0xbe1c519f	-0.15265511
231	0xbe47ee1a	-0.19524422
232	0x3dd0c672	0.101941004
233	0x3c932f87	0.017966999
234	0xbe0290fd	-0.12750621
235	0xbdcb7d1c	-0.09935972
236	0xbdf0b48f	-0.11753189
237	0x3d1e662c	0.038671657
238	0x3e1cf81d	0.15329023
239	0xbc4dc965	-0.012560223
240	0xbb609623	-0.0034269176
241	0xbe4e44e9	-0.20143475
242	0xbdbaca56	-0.09120624
243	0x3da87820	0.08226037
244	0x3d29aa64	0.041422263
245	0x3da85774	0.08219805
246	0xbc544cec	-0.012957793
247	0xbc2c9d69	-0.010535576
248	0xbdf7fb76	-0.12108509
249	0xbe670fd9	-0.22564639
250	0x3e260089	0.16211142
251	0xbe097692	-0.13424137
252	0x3da2bc0d	0.07946024
253	0x3d8ade86	0.06780724
254	0xbdb6d481	-0.08927251
255	0x3e307fca	0.17236248

network_body._body_endoder.seq_layers.0.bias f4 [128]
0	0x3bfc26ae	0.0076950407
1	0xbdc7587d	-0.09733675
2	0xbbac5076	-0.005258615
3	0xbda069fb	-0.07832714
4	0xbcce3570	-0.025171965
5	0xbd87b70e	-0.06626712
6	0x3d3980e9	0.045288954
7	0x3d04619a	0.032319643
8	0xbd5e3df5	-0.054258306
9	0xbd0f676f	-0.03501075
10	0x3d573822	0.052543767
11	0x3d6b74fb	0.05748461
12	0x3d42a1cb	0.04751758
13	0xbcc23859	-0.02370851
14	0x3c9640f6	0.018341523
15	0x3cd58359	0.026063608
16	0x3c367861	0.011137099
17	0x3b66246b	0.0035116922
18	0x3c75f849	0.015012809
19	0x3c8246c5	0.015902886
20	0x3d43b6c2	0.047781713
21	0xbd0b83ab	-0.034061115
22	0x3d253081	0.04032946
23	0xbc0ad665	-0.008473967
24	0x3d148796	0.036262117
25	0x3c733837	0.014844946
26	0x3c9d42b4	0.019196846
27	0x3d3acd7a	0.045606114
28	0xbd0edb36	-0.034877025
29	0xbc7af583	-0.015317324
30	0x3d633caf	0.055477794
31	0xbd9507f9	-0.07276911
32	0xbd6c3d35	-0.05767556
33	0x3c9a142f	0.018808452
34	0x3bc7e08f	0.0060997675
35	0x3cc74bda	0.024328161
36	0xb95b12ae	-0.00020892426
37	0x3d5aec55	0.05344804
38	0xbdb4f477	-0.088356905
39	0xbc375ee2	-0.011192055
40	0xbd17d40e	-0.037067465
41	0x3bebde3a	0.0071981223
42	0xbcfd43dc	-0.030916147
43	0x3d2bdeeb	0.041960638
44	0xbcaf8179	-0.021424042
45	0x3cfde1e7	0.030991508
46	0xbd453315	-0.04814442
47	0xbd19226d	-0.037386347
48	0x3d64bd0e	0.05584436
49	0xbd8d9d65	-0.06914786
50	0x3a8ca714	0.0010730946
51	0x3c42d850	0.011892393
52	0x3d3a1987	0.0454345
53	0xbd61a3c6	-0.055087827
54	0xb9696b29	-0.00022260532
55	0x3c5d0bb8	0.0134915635
56	0xbb8d4731	-0.004311465
57	0x3a78ec56	0.0009495666
58	0x3d8550b4	0.065095335
59	0xbd3c2e4a	-0.045942582
60	0xbc9ff945	-0.01952804
61	0xbc60354b	-0.013684581
62	0x3d12f6c1	0.035879854
63	0xbd375e50	-0.044767678
64	0xbc5325d2	-0.012887435
65	0xba7cfe95	-0.0009650973
66	0x3ce6075c	0.028079681
67	0x3c56d041	0.013111175
68	0x3ba91a46	0.0051606027
69	0x3d7ec2cc	0.06219749
70	0xbce8f484	-0.028436907
71	0x3c47949a	0.0121814255
72	0xbdea8e03	-0.11452868
73	0x3d9c91b7	0.076449804
74	0x3c148cc3	0.009066763
75	0xbcf64c24	-0.030065604
76	0x3cbb552c	0.022867762
77	0x3c272366	0.010201311
78	0x3c26030d	0.010132563
79	0x3d462342	0.04837347
80	0x3bd6c5ea	0.006554355
81	0x3be53b79	0.006995615
82	0xbd02bae5	-0.031916518
83	0x3bb0d793	0.005396792
84	0x3bc46b18	0.005994212
85	0x3c31d011	0.01085283
86	0xbc89b49c	-0.016809754
87	0x3d441e77	0.047880616
88	0x3d36a6aa	0.044592537
89	0x3cd58cf4	0.026068188
90	0x3d707471	0.058704797
91	0x3b0d2a54	0.0021540122
92	0x3cd1f5ee	0.025629964
93	0x3ce97e79	0.02850269
94	0xbd20c484	-0.039249912
95	0xbd97474f	-0.07386648
96	0x3d3e6700	0.046484947
97	0xbd294e02	-0.04133416
98	0x3cba9ce3	0.022779888
99	0xb95e5ebc	-0.00021206861
100	0x3c2d84cb	0.010590742
101	0xbd97e7ea	-0.07417281
102	0xbd220277	-0.039553132
103	0x3ce75509	0.02823879
104	0xbc2a3f40	-0.010391057
105	0x3d3d3416	0.04619225
106	0x3da02663	0.07819822
107	0xbcb71297	-0.022347732
108	0xbc5a0cc0	-0.013308704
109	0xbdb5372a	-0.08848412
110	0x3c66b1d2	0.014080482
111	0xbd12bd7c	-0.035825238
112	0xbcafd5fe	-0.021464344
113	0x3d2f6b94	0.042827204
114	0x3ade97d2	0.0016982502
115	0x3cdf6d94	0.02727393
116	0xba1c1f33	-0.0005955577
117	0x3ce51d37	0.027968032
118	0x3c950007	0.01818849
119	0x3ca76e6d	0.020438397
120	0x3c56520c	0.013081085
121	0x3c7e2993	0.015512842
122	0x3d2aba98	0.041681856
123	0xbd2ed368	-0.04268208
124	0x3cdcf6c9	0.026973145
125	0x3c310dad	0.010806483
126	0x3d21fd7e	0.03954839
127	0xbd72a671	-0.059240762

network_body._body_endoder.seq_layers.2.weight f4 [128, 128]
0	0x3e4199d7	0.18906341
1	0x3d7f346f	0.062305864
2	0xbda6045f	-0.081063025
3	0x3d9d15cf	0.07670175
4	0x3d2d583a	0.042320468
5	0xbd33916b	-0.043839853
6	0x3dd421af	0.10357987
7	0xbe82fa00	-0.2558136
8	0xbe0dda81	-0.13852884
9	0x3bfeb351	0.007772841
10	0x3e926143	0.2858983
11	0xbd100844	-0.035164133
12	0xbd1cb866	-0.038261794
13	0xbd0aa67c	-0.033850178
14	0x3e62897a	0.22122756
15	0xbe11a074	-0.14221364
16	0xbd85bb82	-0.06529905
17	0xbea63608	-0.32463098
18	0x3e4023fc	0.18763727
19	0xbd78976f	-0.060691293
20	0x3d1ff354	0.039050415
21	0xbe15db9f	-0.1463456
22	0x3e11f721	0.14254428
23	0xb9355d9b	-0.00017296376
24	0x3e075e20	0.132195
25	0x3d80b85c	0.06285164
26	0x3e821731	0.2540832
27	0x3e740095	0.23828347
28	0xbe11308e	-0.14178678
29	0xbe68b868	-0.22726595
30	0x3d4a4355	0.04938062
31	0x3d2b4086	0.04180958
32	0xbdded198	-0.108798206
33	0x3e2861fe	0.16443631
34	0x3cf03638	0.029322729
35	0xbd1faf1a	-0.03898535
36	0xbd02da4f	-0.031946477
37	0xbddb9a21	-0.10722757
38	0xbdbb1b33	-0.09136047
39	0x3ccc4a33	0.024937725
40	0x3e2b2be7	0.16715966
41	0xbe59d9bd	-0.21274467
42	0xbda35172	-0.07974519
43	0xbd85eb82	-0.0653906
44	0x3e5ec104	0.21753317
45	0xbde8b84e	-0.11363278
46	0xbe5ecc3c	-0.21757597
47	0xbc0d587a	-0.0086270515
48	0xbd855728	-0.06510764
49	0x3c644243	0.013931814
50	0x3bfd1951	0.007723965
51	0x3e33c3a2	0.17555097
52	0x3dcf56ee	0.101240024
53	0xbcfbd65f	-0.030741869
54	0xbd39cc91	-0.045361105
55	0xbd8ad14b	-0.06778201
56	0xbc8419f5	-0.016125659
57	0xbdf1e5cd	-0.11811409
58	0xbdba5cc1	-0.09099723
59	0x3d9b123c	0.07571837
60	0xbd889f3c	-0.066709965
61	0xbde9f7f9	-0.1142425
62	0x3d584071	0.05279583
63	0x3deb6d8c	0.11495504
64	0xbdccef0e	-0.100065336
65	0x3e158266	0.14600524
66	0x3c954579	0.018221604
67	0xbec17fd4	-0.37792838
68	0x3ded1461	0.115761526
69	0x3e340f8c	0.17584056
70	0x3c7423a7	0.014901078
71	0xbe8cdf79	-0.27514246
72	0xbe2a5ebf	-0.16637705
73	0xbdc3512f	-0.09536969
74	0xbd441e4d	-0.04788046
75	0x3c168993	0.009188074
76	0xbd69e7a3	-0.05710567
77	0x3e60ccd6	0.21953139
78	0xbe3f792e	-0.1869857
79	0xbe1eece0	-0.15520048
80	0x3cb20adf	0.0217337
81	0xbea50ee6	-0.3223793
82	0xbe8efae7	-0.27925798
83	0xbe373fd4	-0.17895442
84	0x3d4f5015	0.05061348
85	0x3d335937	0.043786254
86	0x3dc925e0	0.09821677
87	0x3e8e018b	0.27735552
88	0x3e037b02	0.12839893
89	0xbc0de156	-0.008659681
90	0x3bb68bbb	0.0055708564
91	0xbd0090f3	-0.031388234
92	0x3df0cc56	0.11757724
93	0x3e55ec9e	0.20891044
94	0xbde059f1	-0.10954655
95	0x3d9acf11	0.07559026
96	0x3e640a10	0.22269464
97	0x3d92df83	0.07171538
98	0x3cd82bab	0.02638801
99	0xbc27bd3d	-0.010237989
100	0xbd0ecbdf	-0.034862395
101	0xbe0e7709	-0.13912596
102	0xbde8516f	-0.11343657
103	0xbda06019	-0.07830829
104	0x3dd56ce2	0.104211584
105	0xbdb31a9d	-0.087453105
106	0x3d8c4b44	0.06850293
107	0x3c5a25b1	0.01331465
108	0xbdedc61a	-0.116100505
109	0xbd3a026e	-0.045412473
110	0x3d7fbac0	0.062433958
111	0xbe781a61	-0.24228813
112	0xbd9ef86a	-0.07762225
113	0x3d32c7e2	0.043647654
114	0xbe62f2b1	-0.22162892
115	0xbc86314f	-0.016380934
116	0xbe3d144f	-0.18464778
117	0x3e2922c6	0.16517171
118	0x3e10a1d7	0.14124237
119	0x3e63115b	0.2217459
120	0xbe9088f3	-0.28229484
121	0x3e1a0958	0.15042627
122	0xbe0cd3e0	-0.13752699
123	0xbc48be91	-0.012252466
124	0xbe34bf99	-0.17651214
125	0xbde33036	-0.1109318
126	0xbe6e542a	-0.23274294
127	0xbe6fb344	-0.23408228
128	0x3d8f64cf	0.070016496
129	0xbda9d00c	-0.08291635
130	0x3dc2bd07	0.0950871
131	0xbe37c56e	-0.17946407
132	0x3d3b5aac	0.04574077
133	0xbe53d318	-0.20685995
134	0x3dcaf482	0.099099174
135	0xbe15c5b4	-0.14626199
136	0x3d11ce48	0.035597116
137	0x3e1771b3	0.14789467
138	0x3e6696cd	0.22518463
139	0xbd6c58f2	-0.057702012
140	0xbde671ad	-0.11252151
141	0xbe1606ab	-0.14650981
142	0x3d1f3435	0.038868148
143	0xbe386bd7	-0.18009888
144	0x3cb676c2	0.022273425
145	0xbe8e1617	-0.27751228
146	0xbcc80d65	-0.02442045
147	0x3d3ec472	0.046574064
148	0x3e48ea90	0.19620728
149	0xbdeb21ba	-0.11481042
150	0xbe62c4ac	-0.22145337
151	0xbd862a87	-0.0655108
152	0x3bfafe33	0.0076596974
153	0xbceed90f	-0.029156236
154	0x3e6f3b57	0.2336248
155	0x3e41e037	0.18933187
156	0xbc64acf3	-0.01395725
157	0x3d713e20	0.058897138
158	0x3d66eb8d	0.056376982
159	0x3d8d1282	0.06888296
160	0x3e0cb9a1	0.13742687
161	0x3e16067f	0.14650916
162	0xbe408872	-0.1880205
163	0xbd9bb1cb	-0.07602271
164	0x3e43460a	0.19069687
165	0xbe79417d	-0.24341388
166	0xbc30baf9	-0.010786765
167	0x3dbeb724	0.09312275
168	0x3e06afc9	0.13152994
169	0xbd8ca8fc	-0.06868169
170	0xbe351a12	-0.17685726
171	0x3db89e85	0.0901461
172	0x3d4c0011	0.04980475
173	0xbdd7aa27	-0.10530501
174	0xbde21607	-0.11039358
175	0xbd0d9777	-0.034568276
176	0xbdd70df4	-0.10500708
177	0x3ae3941a	0.0017362863
178	0xbdbe69db	-0.09297534
179	0x3e01ef94	0.12689048
180	0x3bd9b0c6	0.0066433875
181	0xbe118a76	-0.14212975
182	0xbcb1393b	-0.021633735
183	0x3d949ee6	0.0725687
184	0x3c389f9d	0.0112685235
185	0xbe2188a8	-0.15774786
186	0x3c16a1dc	0.009193864
187	0xbda3fb24	-0.08006886
188	0xbe37d2ff	-0.17951582
189	0x3ceae9e4	0.02867598
190	0xbe2f79a3	-0.17136244
191	0xbe0c1414	-0.13679534
192	0x3c8a1538	0.016855821
193	0x3d77de0f	0.060514506
194	0x3dd66c39	0.104698606
195	0x3db79029	0.08963043
196	0x3cdb8b28	0.026799753
197	0x3e20a9e3	0.15689807
198	0xbdd0e4b3	-0.10199871
199	0xbd67c0b6	-0.056580268
200	0xbe35e22a	-0.17762056
201	0xbd546b03	-0.051859867
202	0xbe293fa2	-0.1652818
203	0xbca34be6	-0.019933652
204	0xbe254715	-0.16140397
205	0x3e8fb528	0.280679
206	0xbe736da5	-0.23772295
207	0xbe816f88	-0.25280404
208	0xbdb750ac	-0.08950934
209	0xbe97e44b	-0.2966636
210	0x3e5f1b22	0.21787694
211	0xbe3e4a11	-0.18582942
212	0x3d87cae7	0.066304974
213	0x3e99c0fe	0.30030054
214	0xbddfdc2b	-0.109306656
215	0x3e6dd0e4	0.23224217
216	0x3e65051e	0.22365233
217	0xbdeb31a2	-0.11484076
218	0xbcb30ec2	-0.021857623
219	0xbdb39b85	-0.08769897
220	0x3cb385d6	0.021914404
221	0x3df19697	0.11796301
222	0xbdfd0c8e	-0.1235591
223	0xbd1cc29f	-0.038271543
224	0x3e139772	0.1441324
225	0xbd86bd88	-0.06579119
226	0x3e5e637a	0.21717635
227	0xbd89e297	-0.06732672
228	0xbd96d232	-0.0736431
229	0x3d6b428b	0.057436507
230	0xbd070e64	-0.03297271
231	0xbe57de42	-0.21080878
232	0x3cba5a44	0.02274812
233	0xbe6adf04	-0.22936636
234	0x3d6b8972	0.057504125
235	0x3a5cf8f8	0.0008429433
236	0xbe1c367b	-0.15255158
237	0xbe8ee504	-0.279091
238	0x3d0fc4b5	0.035099704
239	0xbe27d926	-0.1639143
240	0xbd9c3e87	-0.07629114
241	0x3e12efdd	0.14349313
242	0xbe121f5a	-0.14269772
243	0x3cfc2d74	0.030783392
244	0xbd618c8c	-0.055065677
245	0x3a29004f	0.00064468844
246	0x3e422e25	0.18962915
247	0x3e4861eb	0.19568603
248	0xbd060ca7	-0.03272691
249	0x3e9430d3	0.289435
250	0x3d2fef5f	0.04295289
251	0xbc03211e	-0.008003501
252	0x3cb52d6c	0.022116385
253	0xbdaa275a	-0.08308287
254	0x3d460948	0.048348695
255	0x3d5c2bfc	0.053752884

network_body._body_endoder.seq_layers.2.bias f4 [128]
0	0xbac68335	-0.0015145304
1	0x3d32a421	0.043613557
2	0x3d53254a	0.051549233
3	0xbd97a065	-0.0740364
4	0x3da89c4a	0.08232935
5	0x3daf3d50	0.08556616
6	0xbaf09f81	-0.0018358083
7	0xbdbc4d7b	-0.09194466
8	0xbcead6f4	-0.02866695
9	0x3d02920c	0.031877562
10	0x3dc715d9	0.09720964
11	0xbc072cff	-0.008250474
12	0x3d934be1	0.07192207
13	0xbdb1fcc8	-0.08690792
14	0xbc341e2e	-0.0109935235
15	0x3cbeb719	0.023280667
16	0x3d26729f	0.040636655
17	0xb913c018	-0.00014090573
18	0x3d0b7edd	0.034056533
19	0xbd0d698e	-0.034524493
20	0x3c98de82	0.018660787
21	0xbcce1289	-0.025155323
22	0x3da921c3	0.08258393
23	0xbddd9be7	-0.10820752
24	0xbce4588a	-0.02787425
25	0xbcedfb8a	-0.029050607
26	0x3d0c29ec	0.034219667
27	0x3dae5650	0.085125566
28	0x3c76e432	0.015069054
29	0x3db522a9	0.088445015
30	0x3d300d2c	0.04298131
31	0xbd7df96c	-0.062005445
32	0x3d94f101	0.0727253
33	0x3a7a5bc3	0.0009550417
34	0x3d52dfa2	0.051482804
35	0xbc90dfd0	-0.017684847
36	0xbbb7b677	-0.0056064683
37	0x3dcd7869	0.10032732
38	0xbdae873d	-0.085218884
39	0xbd68d373	-0.05684228
40	0x3d02edda	0.031965114
41	0x3de9d160	0.11416888
42	0xbd2ae2ba	-0.04172013
43	0x3dcc12e5	0.09964541
44	0x3d477c8f	0.048702773
45	0xbd1155e3	-0.0354823
46	0xbd8381e0	-0.06421256
47	0xbca9c539	-0.020723926
48	0x3c22a6c2	0.0099274535
49	0xbd68617e	-0.0567336
50	0xbcb08476	-0.021547537
51	0xbd502109	-0.050812755
52	0x3c94792b	0.018124184
53	0x3d58ee9a	0.052961923
54	0xbd10e8a4	-0.035378113
55	0xbd246d24	-0.040143147
56	0xbcb56b05	-0.022145757
57	0x3cd2bc5e	0.025724586
58	0xbc8ed1eb	-0.017434081
59	0x3dc2e1b7	0.09515708
60	0xbcee690a	-0.02910282
61	0x3d38cdbd	0.045118082
62	0x3b3c5cc1	0.002874181
63	0x3ccfe456	0.025377434
64	0x3db87071	0.090058215
65	0x3dcd5260	0.100254774
66	0x3d06b4b5	0.03288718
67	0xbc63eb5b	-0.013911094
68	0xbdb273e8	-0.087135136
69	0xbc949f1e	-0.01814228
70	0x3b4ef7dd	0.0031580843
71	0xbe114402	-0.14186099
72	0xbd4b470c	-0.049628302
73	0x3d914c49	0.07094628
74	0x3e0fb804	0.1403504
75	0xbb8555f5	-0.004069085
76	0x3d7396d2	0.059470005
77	0x393fd144	0.00018293137
78	0xbd98361d	-0.07432196
79	0xbd6331d0	-0.055467427
80	0x3d85bf24	0.06530598
81	0xbd5aa926	-0.05338397
82	0x3d68b076	0.05680891
83	0x3c706c99	0.014674329
84	0x3c898f13	0.016791856
85	0x3cf683a5	0.03009207
86	0x3d941e6f	0.07232367
87	0x3ccaf2a0	0.024773896
88	0x39b1f4c4	0.00033942435
89	0x3c29057c	0.010316249
90	0x3d65f9aa	0.0561463
91	0xbd4e7a91	-0.050409857
92	0x3c0b46b9	0.008500748
93	0x3df98834	0.12184182
94	0x3d5efec7	0.054442193
95	0xbd732766	-0.059363745
96	0x3c1236d4	0.008924205
97	0xbce47643	-0.027888423
98	0x3ccf713e	0.025322553
99	0xbdca9c7d	-0.09893129
100	0x3d6de60f	0.05808073
101	0x3da5944b	0.08084925
102	0x3d23274d	0.039832402
103	0x3cdc7f6c	0.026916228
104	0xbdcaac5f	-0.098961584
105	0x3d4f0a45	0.050546903
106	0x3d50d088	0.05098012
107	0x3cfe2c88	0.031027094
108	0x3d9af0aa	0.07565434
109	0xbdab5a7f	-0.0836687
110	0x3c9bda15	0.019024888
111	0xbd80a450	-0.0628134
112	0x3cbbff1c	0.022948794
113	0x3dca7cfe	0.098871216
114	0x3cd4026e	0.025880065
115	0xbda416fb	-0.08012196
116	0x3d69a1b9	0.057038996
117	0x3978e0d4	0.00023734878
118	0xbccc5a45	-0.024945388
119	0x3d481c82	0.048855312
120	0x3d540430	0.051761806
121	0x3bd4682f	0.006482146
122	0xbc6cbfdf	-0.0144500425
123	0x3d661b4f	0.056178387
124	0xbc0e0883	-0.008669022
125	0xbd4dd66a	-0.05025331
126	0x3c6bd9a5	0.014395152
127	0x3d84ee27	0.064907365

action_model._discrete_distribution.branches.0.weight f4 [7, 128]
0	0xbe23042e	-0.15919563
1	0xbd9779b7	-0.07396262
2	0xbc648091	-0.013946668
3	0xbd4728cf	-0.048622902
4	0xbcc6528a	-0.02420928
5	0xbd67ef14	-0.056624487
6	0xbceddda5	-0.029036352
7	0xbd6fe8ff	-0.05857181
8	0x3d543523	0.051808488
9	0xbc3e6d83	-0.011622789
10	0x3d00b51c	0.03142272
11	0xbd0858bd	-0.033287752
12	0x3d8ba6bc	0.068189114
13	0xbd3155d4	-0.043294743
14	0x38de0134	0.00010586009
15	0xbde1e1b1	-0.11029375
16	0xbcc7bbc8	-0.024381533
17	0xbdc438bc	-0.09581134
18	0x3cd3c3fd	0.02585029
19	0xbe19b04f	-0.15008663
20	0x3d1be945	0.03806426
21	0xbdd1ebb6	-0.102500364
22	0x3cf57b3c	0.02996599
23	0x3dc217ae	0.09477173
24	0xbd19cf76	-0.037551366
25	0xbd832103	-0.06402781
26	0xbe4abfb8	-0.19799697
27	0x3d867e82	0.06567098
28	0xbe0af706	-0.13570794
29	0xbd112940	-0.03543973
30	0x3b8ce24c	0.0042994376
31	0x3db10fcb	0.086455904
32	0x3d4cf764	0.050040618
33	0xbe0c5159	-0.13702907
34	0xb97f8be9	-0.00024370816
35	0xbd3cc976	-0.046090566
36	0xbdd9b848	-0.10630852
37	0xbd4bfe18	-0.04980287
38	0xbda71073	-0.08157434
39	0x3cb56dc4	0.022147067
40	0x3d2a137c	0.041522488
41	0x3c8438e6	0.016140413
42	0xbd0d6f9b	-0.034530263
43	0x3df11f94	0.11773601
44	0xbd07238c	-0.032992885
45	0x3d042a75	0.032267053
46	0xba2217f2	-0.00061833777
47	0xbd526dc6	-0.05137422
48	0x3d7a409a	0.061096765
49	0xbc8e8238	-0.017396078
50	0xbde90d8b	-0.11379536
51	0xbcc0e134	-0.023544885
52	0xbc158da9	-0.009128013
53	0xbc028150	-0.007965401
54	0x3dab6cc0	0.08370352
55	0xbd4256fe	-0.047446243
56	0x3d551eaa	0.052031197
57	0xbd8a0f98	-0.067412555
58	0xbd9f7474	-0.077858835
59	0xbdc5ce71	-0.09658516
60	0x3dcb0add	0.099141814
61	0xbc87567d	-0.016520733
62	0xbd6405c3	-0.055669557
63	0xbd6693dd	-0.056293357
64	0xbd4cfce8	-0.050045878
65	0xbd576340	-0.052584887
66	0x3c9d9f49	0.019240992
67	0x3dc8695b	0.0978572
68	0x3b06435c	0.0020486927
69	0x3d2efb80	0.042720318
70	0xbcc6f43d	-0.024286384
71	0x3c28c3fb	0.010300632
72	0xbd05a997	-0.032632437
73	0xbc94a3af	-0.018144457
74	0x3d08ed2a	0.033429302
75	0xbd3201ab	-0.043458622
76	0xbd1f0e20	-0.03883183
77	0x3d267ea6	0.040648125
78	0xbd6605f1	-0.05615801
79	0xbd870e28	-0.06594497
80	0xbda833ce	-0.08213006
81	0xbdc45f9e	-0.0958855
82	0xbb0a3d74	-0.0021093758
83	0xbe0bfccf	-0.13670658
84	0xbdffaaa0	-0.12483716
85	0xbd93a384	-0.072089225
86	0xbc7c5ed4	-0.015403468
87	0xbe20e585	-0.15712555
88	0xbd0074c3	-0.031361353
89	0x3e1e9797	0.15487514
90	0x3e24da9a	0.16099015
91	0xbb850b57	-0.0040601897
92	0x3d1cc7e2	0.03827656
93	0xbe06951e	-0.13142821
94	0x3d518519	0.051152322
95	0x3d6a8809	0.05725864
96	0xbcf6acca	-0.03011169
97	0xbd9d06fb	-0.07667347
98	0x3bdf042b	0.006805917
99	0x3d440dbd	0.047864664
100	0xbb80c9c5	-0.003930303
101	0xbd1a8814	-0.03772743
102	0xbc9cfbbc	-0.019163005
103	0x3ccf74fe	0.02532434
104	0xbe1d9360	-0.1538825
105	0x3d48f2b8	0.0490596
106	0x3cdf4de2	0.027258817
107	0x3d830944	0.06398252
108	0xbd4b30e3	-0.04960717
109	0x3c06074c	0.008180451
110	0xbe24aafe	-0.16080853
111	0x3db5a523	0.08869388
112	0xbdb2a94f	-0.08723699
113	0x3d1c2076	0.038116895
114	0xbd3fe17a	-0.04684589
115	0xbd9f9651	-0.077923425
116	0xba90437b	-0.0011006439
117	0xbd1cc3ce	-0.03827267
118	0xbda72797	-0.08161848
119	0xbc735b58	-0.014853321
120	0xbe285aa8	-0.16440833
121	0xba3d4829	-0.00072205305
122	0xbd14af51	-0.036300007
123	0xbd7366b7	-0.05942413
124	0xbe752fa3	-0.23943953
125	0x3d76fe71	0.060301248
126	0xbd49eb7e	-0.04929685
127	0x3b324f26	0.002720782
128	0xbe943c23	-0.2895213
129	0xbd82c382	-0.063849464
130	0xbf016261	-0.5054074
131	0xbc2dfe17	-0.010619662
132	0x3e06d164	0.13165814
133	0xbc24ed9e	-0.010066418
134	0x3e26c408	0.16285717
135	0xbce078a4	-0.027401276
136	0xbbdba72c	-0.006703278
137	0xbdf03338	-0.11728519
138	0xbf171fe5	-0.5903304
139	0x3e0978c0	0.13424969
140	0x3d8d36bb	0.06895205
141	0x3d9380c0	0.072022915
142	0x3da9469d	0.082654215
143	0xbbf3fa42	-0.0074456045
144	0xbe6081ea	-0.21924558
145	0xbd25e7d4	-0.04050429
146	0xbd3468ea	-0.044045366
147	0x3d77d0b9	0.060501788
148	0x3c9648d5	0.018345276
149	0x3e80a41e	0.2512521
150	0xbefbcf3d	-0.49181548
151	0x3cc671af	0.02422413
152	0x3e41d100	0.18927383
153	0xbd3e5c05	-0.046474475
154	0xbe98c594	-0.2983824
155	0xbdd7b17e	-0.10531901
156	0x3d0497eb	0.032371443
157	0x3dd96020	0.106140375
158	0x3dd07d07	0.10180097
159	0xbd679bea	-0.056545176
160	0x3d02acd1	0.03190309
161	0x3dc426a9	0.09577686
162	0xbda87915	-0.082262196
163	0xbdd60dff	-0.10451888
164	0x3de8b244	0.113621265
165	0xbc45a6b7	-0.012063674
166	0x3b219830	0.0024657361
167	0x3d08938b	0.033343833
168	0xbe16909a	-0.14703599
169	0x3e019854	0.12655765
170	0x3dae0822	0.08497645
171	0xbcb046b6	-0.021518093
172	0xbe23cd98	-0.15996397
173	0xbd48cd60	-0.049023986
174	0xbca28816	-0.019840281
175	0xbcb18b3f	-0.021672843
176	0xbce966ac	-0.02849134
177	0x3c3dc92b	0.011583607
178	0x3e27a000	0.16369629
179	0xbb005fcf	-0.0019588356
180	0x3da69a4a	0.08134897
181	0x3e0b8aac	0.13627118
182	0xbc3bdc39	-0.011466079
183	0x3d0de9dc	0.034646854
184	0x3de34ce9	0.11098654
185	0x3d855c43	0.06511738
186	0x3e701fc0	0.23449612
187	0xbd802078	-0.06256193
188	0x3d0368c1	0.032082323
189	0xbe8a1315	-0.26967683
190	0x3d489648	0.048971444
191	0xbe3df0cb	-0.18548886
192	0xbe391532	-0.18074492
193	0xbebecb02	-0.37264258
194	0x3cb007f8	0.021488175
195	0xbda55ad2	-0.08073963
196	0xbdf29299	-0.118443675
197	0xbce58729	-0.028018551
198	0xbdeb0751	-0.11476005
199	0xbd4e5d2c	-0.050381824
200	0x3c3fe22f	0.011711641
201	0x3db96781	0.09052945
202	0x3ba8484a	0.0051355707
203	0xbe39dcb4	-0.18150598
204	0xbeb4739c	-0.35244453
205	0xbe3c3495	-0.18379433
206	0xbdae7cad	-0.08519874
207	0xbdb841ae	-0.089969024
208	0xbe8076be	-0.25090593
209	0xbddba80e	-0.10725413
210	0xbd0217fe	-0.031761162
211	0xbe2957dd	-0.16537423
212	0xbe543022	-0.20721486
213	0x3d453d98	0.048154444
214	0xbf00935e	-0.50224864
215	0x3db2df3b	0.08733984
216	0xbb92105b	-0.004457516
217	0x3d0efe14	0.034910277
218	0xbe635c22	-0.22203115
219	0x3db71ba4	0.08940819
220	0xbdfb3baa	-0.122672394
221	0xbea4369a	-0.32072908
222	0xbe8c9ac3	-0.27461824
223	0x3da8396c	0.08214077
224	0xbd2ae62c	-0.041723415
225	0x3df80cc9	0.121118136
226	0xbe1b0115	-0.15137132
227	0xbcac3d9c	-0.021025471
228	0x3b52e5c8	0.0032180417
229	0xba404a91	-0.000733533
230	0xbdda58e7	-0.10661488
231	0xbda5a62d	-0.08088336
232	0xbe09c8bb	-0.13455479
233	0xbdaf8c39	-0.08571667
234	0x3ce47130	0.027886003
235	0x3d9621cf	0.07330667
236	0xbe077e38	-0.13231742
237	0x3c2f5fb7	0.010703973
238	0x3dfe4fa7	0.12417536
239	0x3dd7bada	0.10533686
240	0xbe057811	-0.13034083
241	0xbdec3709	-0.115339346
242	0xbe26c8ee	-0.16287586
243	0x3cc62ef2	0.024192307
244	0xbe98eb16	-0.29866856
245	0x3d3506de	0.044196002
246	0x3e1bc09d	0.15210195
247	0xbe3b3aac	-0.182841
248	0x3d3e2acc	0.046427533
249	0xbe0035f3	-0.1252058
250	0xbd9b2d84	-0.07577041
251	0xbe93fbc3	-0.28903016
252	0xbd796ef8	-0.060896844
253	0xbd654fbd	-0.055984247
254	0x3e2d4790	0.1692183
255	0x3dacfc0e	0.08446513

action_model._discrete_distribution.branches.0.bias f4 [7]
0	0x3ca5b4ad	0.020227754
1	0xbd396eaa	-0.045271553
2	0xbc5b146b	-0.013371567
3	0xbcc460d1	-0.023971947
4	0xbd2e45c7	-0.042547014
5	0x3dd864ec	0.10566124
6	0xbc872ccd	-0.016500855
