CCP-main/results/WeightAgent_Training/WeightAgent_Training/WeightAgent_Training-1999936.onnx (onnx, 173232 bytes, 6 tensors)

network_body._body_endoder.seq_layers.0.weight f4 [128, 197]
-0.00439816 0.12988685 0.12239556 -0.025541559 -0.14247158 -0.10055237 -0.064446405 -0.016710002
0.006010245 -0.11976108 0.0014248786 -0.14611179 0.05424717 0.08114284 -0.012570958 0.04090618
0.021701388 -0.18965837 0.09035457 0.0046348684 -0.021430938 0.13624111 -0.031247923 -0.07409438
-0.18086801 0.033566914 -0.017904505 -0.07409616 -0.01365984 -0.26529977 -0.015816597 0.045274008
-0.03166071 -0.06637827 -0.040181275 -0.14124437 -0.048459202 0.107538365 0.042356197 -0.024956629
0.13240464 -0.0041490006 -0.005944333 0.018855443 0.10776516 -0.027071416 0.019064259 -0.11359253
-0.108943395 0.03258553 -0.024084354 -0.015077349 -0.15126505 -0.12415326 -0.029492617 -0.10465711
-0.12456586 -0.034756422 0.12635337 0.03394065 -0.07900471 -0.08049784 0.008146045 -0.13946787
0.08155793 0.04303117 0.061718468 -0.11459714 0.0222486 0.016623558 -0.12175846 -0.09584823
0.06169074 0.04120909 0.07182393 -0.07250664 -0.0017176784 -0.04842094 -0.004863959 -0.12176208
-0.0060528642 0.14047936 -0.034271892 0.008544103 -0.058830388 -0.06511638 0.020013543 0.080661535
-0.07083831 -0.16807477 0.0028663622 0.0231335 0.002371714 -0.14419788 0.042366136 0.09542648
0.049767137 0.039602008 0.09663846 -0.018111454 -0.006134284 -0.09046694 -0.013568405 0.07025369
-0.115440935 -0.13207185 0.13412035 -0.08308283 0.0069795526 0.07124235 -0.055102777 0.10247372
0.10240184 -0.039721847 0.040382877 0.0031616597 -0.027248027 0.0045561325 0.09510446 -0.052504934
-0.09810423 0.06953066 -0.017433997 0.03125449 0.09252712 0.007991509 -0.059595734 -0.1587532
0.03362348 0.047492284 -0.018537639 0.06825766 0.07405212 0.008840897 -0.07543202 -0.11925157
-0.08755666 0.099656776 -0.00959053 0.07651988 0.1401576 0.052640684 0.059411883 0.10002873
-0.12875545 0.061964743 -0.09765489 -0.023358872 0.020680437 0.046637762 -0.11416992 0.0084444275
-0.14172539 -0.07131226 -0.05785318 0.027826544 -0.078598134 0.06950425 0.03505049 0.018103775
-0.020204721 -0.05167301 0.17029214 0.023718119 -0.13641633 -0.057813358 -0.028948544 0.031079194
0.08170981 0.084717035 0.07699169 0.04570969 0.07141088 -0.06296108 -0.09821351 0.11074237
-0.03842439 -0.04392192 -0.030008452 0.012987662 0.031067822 -0.059991267 -0.020112626 -0.030080985
0.08198175 -0.12158899 0.1000011 -0.23786895 -0.109419435 -0.04179488 -0.18081549 -0.208757
-0.093030885 -0.123676956 -0.030053597 -0.02790403 0.07192377 0.114520594 0.14472935 0.08566707
-0.22097954 -0.011004874 0.05926917 0.0271275 0.14153275 0.0741991 -0.2424699 0.024677314
0.2699135 0.13061324 0.14672257 0.059068505 -0.09710662 0.07284285 0.05235512 0.09111395
0.22888102 0.22053549 -0.10737543 0.010078972 0.044729084 -0.07912054 0.16146062 -0.053308316
-0.120549366 -0.01689285 0.14117947 0.0545051 0.12867096 -0.030340046 0.011434444 0.16844279
0.14841807 -0.029545462 0.08611593 -0.023117207 -0.09620277 0.054936737 0.05522707 -0.0108243
0.08758169 0.11415819 0.03745597 -0.034128547 0.029025493 0.11679254 0.1780474 -0.03221087
0.055233628 -0.02953241 0.10293201 0.021273777 0.0187315 -0.056439687 0.017664125 0.064691536
00000000: 711e 90bb 0f01 053e 86aa fa3d 883c d1bc
00000010: 12e4 11be 67ee cdbd 7afc 83bd 6ae3 88bc
00000020: 97f1 c43b 4c45 f5bd fec2 ba3a 549e 15be
00000030: 4832 5e3d 382e a63d 6bf6 4dbc 3d8d 273d
00000040: 1cc7 b13c ce35 42be d10b b93d 18e0 973b
00000050: ef8f afbc ca82 0b3e a5fb ffbc cbbe 97bd
00000060: 7735 39be 767d 093d 78ac 92bc babf 97bd
00000070: 86cd 5fbc 5fd5 87be cf91 81bc 3d71 393d
00000080: a9ae 01bd 55f1 87bd 1f95 24bd 5da2 10be
00000090: 287d 46bd 133d dc3d b17d 2d3d d871 ccbc
000000a0: 1595 073e 57f4 87bb aec8 c2bb bb76 9a3c
000000b0: fbb3 dc3d e0c4 ddbc a62c 9c3c 33a3 e8bd
000000c0: b71d dfbd 6878 053d 8d4c c5bc fc06 77bc
000000d0: 3ae5 1abe 1044 febd 809a f1bc 7856 d6bd
000000e0: 631c ffbd c05c 0ebd c762 013e 5a05 0b3d
000000f0: 39cd a1bd 0ddc a4bd fd76 053c aad0 0ebe
00000100: d807 a73d 7441 303d 81cc 7c3d e8b1 eabd
00000110: b242 b63c 212e 883c 805c f9bd 144c c4bd
00000120: 6eaf 7c3d ddca 283d 6d18 933d 5c7e 94bd
00000130: b923 e1ba 0955 46bd d861 9fbb 665e f9bd
00000140: 1b57 c6bb d2d9 0f3e af60 0cbd 91fc 0b3c
00000150: 22f8 70bd bd5b 85bd 71f3 a33c e031 a53d
00000160: ad13 91bd cb1b 2cbe 94d9 3b3b 7782 bd3c
00000170: c26e 1b3b 9ca8 13be 1d88 2d3d f56e c33d
00000180: a0d8 4b3d b735 223d 63ea c53d 795e 94bc
00000190: 1b02 c9bb bb46 b9bd 044e 5ebc 2be1 8f3d
000001a0: 4c6c ecbd d83d 07be d856 093e 5527 aabd
000001b0: bbb4 e43b 82e7 913d 73b3 61bd bedd d13d
000001c0: 0eb8 d13d 60b3 22bd 8468 253d d933 4f3b
000001d0: 4137 dfbc 9c4b 953b 21c6 c23d 6a0f 57bd
000001e0: dfea c8bd 1766 8e3d bed1 8ebc b504 003d
000001f0: dc7e bd3d d1ee 023c a81a 74bd 3390 22be
00000200: c6b8 093d 4587 423d 3fdc 97bc acca 8b3d
00000210: a3a8 973d 69d9 103c 1a7c 9abd 2b3a f4bd
00000220: e850 b3bd da18 cc3d 9921 1dbc 74b6 9c3d
00000230: 7985 0f3e c29d 573d e059 733d dddb cc3d
00000240: 78d8 03be bece 7d3d 49ff c7bd 1b5b bfbc
00000250: 056a a93c 3d07 3f3d ebd1 e9bd 7f5a 0a3c
00000260: 7620 11be 2a0c 92bd 75f7 6cbd 7ef4 e33c
00000270: 0ff8 a0bd 3f58 8e3d 1a91 0f3d 5e4e 943c
00000280: 5f84 a5bc 14a7 53bd 1061 2e3e 804c c23c
00000290: b9b0 0bbe b3cd 6cbd 7f25 edbc cb99 fe3c
000002a0: 7957 a73d 2080 ad3d d2ad 9d3d 153a 3b3d
000002b0: de3f 923d bdf1 80bd 2a24 c9bd e5cc e23d
000002c0: e562 1dbd 79e7 33bd 49d4 f5bc 34ca 543c
000002d0: f281 fe3c 67b9 75bd 3cc3 a4bc 666c f6bc
000002e0: 0ce6 a73d a603 f9bd 60cd cc3d eb93 73be
000002f0: 4c17 e0bd 1c31 2bbd b227 39be 65c4 55be
00000300: fa86 bebd 584a fdbd f632 f6bc fe96 e4bc
00000310: c54c 933d c689 ea3d ee33 143e 3772 af3d
00000320: 7648 62be c94d 34bc 3bc4 723d 7e3a de3c
00000330: f6ed 103e b3f5 973d 084a 78be 1428 ca3c
00000340: 1a32 8a3e 7abf 053e 713e 163e d1f1 713d
00000350: d6df c6bd a22e 953d 5372 563d f399 ba3d
00000360: c95f 6a3e 0ed4 613e a6e7 dbbd 4622 253c
00000370: d835 373d f309 a2bd ef55 253e d259 5abd
00000380: 96e2 f6bd e062 8abc 5a91 103e bd40 5f3d
00000390: 52c2 033e b08b f8bc 8957 3b3c 447c 2c3e
000003a0: e8fa 173e 5309 f2bc 8c5d b03d 4c60 bdbc
000003b0: f505 c5bd 5805 613d c835 623d 6858 31bc
000003c0: 075e b33d c5cb e93d 6e6b 193d 60ca 0bbd
000003d0: dfc6 ed3c ed30 ef3d 0f52 363e 8cef 03bd
000003e0: a83c 623d f4ed f1bc 05ce d23d 5846 ae3c
000003f0: cd72 993c 4d2d 67bd 5bb4 903c ff7c 843d

network_body._body_endoder.seq_layers.0.bias f4 [128]
-0.035182487 0.018444508 0.0279439 -0.0092651425 0.019155854 0.014459763 0.019073127 0.05237551
0.06388364 0.04997651 0.0049877977 -0.00944061 0.027306482 0.02257843 0.080847144 -0.021430802
-0.032068685 0.011702627 0.022803765 0.001088172 -0.012704574 0.014435875 0.048797935 0.023642037
-0.001251257 -0.0070336126 -0.011930984 -0.013272387 0.00047543366 0.012766242 0.006792136 0.029446892
0.042457722 0.0033526877 0.014239604 0.0112193255 -0.014626498 -0.029757498 0.02679644 0.023452023
-0.058747966 0.04705345 0.05432665 -0.027684735 0.050635654 0.024098806 0.04639465 0.0128363725
0.03443246 0.01609875 -0.024100026 -0.010426351 0.04216265 -0.026738381 0.029215783 0.03898264
0.03921059 0.03281003 0.060326625 0.04605836 0.012965112 0.023782318 -0.018194495 0.013571981
0.011095362 0.02801919 0.03714566 -0.00425217 0.027141988 0.061815284 0.0023206866 0.0010579565
0.029606886 0.03594352 0.036604125 0.07413453 -0.006386738 -0.02687681 -9.903955e-05 0.006452767
0.0028193004 0.051763795 0.04132433 -0.02146847 -0.0062427144 0.0009758295 0.045000743 0.018854255
-0.014032713 0.015123805 0.011447202 -0.0020675014 0.07672871 0.042345364 -0.002703582 -0.01421833
0.0116667515 0.030910257 -0.048576377 0.036108565 0.003936811 0.06598066 0.060962446 -0.004575974
0.05946207 0.017641252 0.05193826 -0.03514832 0.0067823385 0.0074721705 0.049638066 -0.027794424
0.035401985 -0.01642322 0.023367163 -0.0011572891 0.0045103393 -0.036933232 0.030385507 -0.01464125
-0.003357044 0.0027860554 0.02281597 -0.0033234512 0.035456028 0.0062126596 0.016407488 0.008815982
00000000: 831b 10bd f018 973c 9bea e43c d3cc 17bc
00000010: bdec 9c3c a4e8 6c3c 3f3f 9c3c b487 563d
00000020: 6dd5 823d 2bb4 4c3d ae70 a33b caac 1abc
00000030: d8b1 df3c 66f6 b83c 3093 a53d a68f afbc
00000040: 745a 03bd 60bc 3f3c f6ce ba3c fea0 8e3a
00000050: d826 50bc 7384 6c3c 58e0 473d f2ac c13c
00000060: 3801 a4ba 387a e6bb 2d7a 43bc 6d74 59bc
00000070: a043 f939 8029 513c 9190 de3b 9c3a f13c
00000080: 26e8 2d3d c4b8 5b3b 3a4d 693c 43d1 373c
00000090: fba3 6fbc ffc5 f3bc 3584 db3c 751e c03c
000000a0: b5a1 70bd 1ebb 403d 9f85 5e3d 19cb e2bc
000000b0: 5567 4f3d dc6a c53c 5108 3e3d a64f 523c
000000c0: 0d09 0d3d 87e1 833c 6b6d c5bc 49d3 2abc
000000d0: beb2 2c3d 730a dbbc f055 ef3c 43ac 1f3d
000000e0: 499b 203d cf63 063d 0d19 773d b1a7 3c3d
000000f0: 9f6b 543c 23d3 c23c 9f0c 95bc 045d 5e3c
00000100: 52c9 353c 8088 e53c 0c26 183d ca55 8bbb
00000110: e058 de3c 0632 7d3d a916 183b 21ab 8a3a
00000120: 248a f23c 8339 133d 35ee 153d d8d3 973d
00000130: d747 d1bb c12c dcbc 74b3 cfb8 bc71 d33b
00000140: 03c4 383b 4606 543d b343 293d a5de afbc
00000150: af8f ccbb cfce 7f3a b352 383d 3d74 9a3c
00000160: 77e9 65bc d6c9 773c 0c8d 3b3c eb7e 07bb
00000170: f123 9d3d 5572 2d3d 942e 31bb 00f4 68bc
00000180: e725 3f3c 8237 fd3c 06f8 46bd 93e6 133d
00000190: 5d00 813b de20 873d c2b3 793d 0df2 95bb
000001a0: 808e 733d 6384 903c 37bd 543d aff7 0fbd
000001b0: 613e de3b 1cd9 f43b 4951 4b3d 22b1 e3bc
000001c0: ac01 113d fd89 86bc 7e6c bf3c 2eb0 97ba
000001d0: 78cb 933b 4d47 17bd 07eb f83c dae1 6fbc
000001e0: da01 5cbb 4196 363b 8fe8 ba3c 42ce 59bb
000001f0: 573a 113d 9193 cb3b ff68 863c e970 103c

network_body._body_endoder.seq_layers.2.weight f4 [128, 128]
-0.18343192 -0.06752568 0.01340544 -0.097636625 0.063829064 0.14250538 0.030590657 -0.024892839
0.003847542 0.16929547 0.026203621 -0.08035549 0.0106663825 -0.05296196 0.05404128 -0.15123053
-0.07700424 0.003909244 0.06895581 -0.11594463 -0.03201619 0.06133188 -0.16055644 -0.016493145
0.00663534 -0.087928265 -0.005334116 0.03144017 -0.18556973 -0.04734696 -0.10453701 0.015884733
0.1300879 -0.06744199 0.04541504 -0.14087713 0.116891734 0.059390616 0.0067059365 -0.19585066
-0.054359782 0.03960125 0.08796411 -0.08101186 0.1846188 0.03733315 0.052721247 -0.037507117
-0.07338292 -0.059669048 0.055317525 0.035443474 0.097466394 -0.056770872 -0.116673656 0.05579689
-0.053542256 0.062619254 0.07314075 0.03128255 0.07016772 0.11330197 -0.0698723 -0.1293671
-0.027074343 0.13462 0.12747978 0.06723457 -0.099030375 2.4771698e-05 -0.079690516 0.056459054
-0.14390442 -0.16448498 -0.007292841 0.18108737 -0.005486728 -0.018457364 -0.008550372 0.16319373
0.086161375 -0.0326624 0.15181008 0.03634274 0.025504457 0.0833941 0.10895095 -0.072850995
0.03593093 -0.0627548 -0.04173939 0.046786975 0.24602759 -0.015039934 -0.024250688 0.01104632
-0.028382462 -0.038294207 -0.15534733 -0.069398016 0.22606324 0.08182526 0.20708221 -0.13339704
-0.027818995 -0.02988797 -0.016813885 -0.09649104 0.027041974 0.015733255 0.12894331 -0.021803206
-0.07280509 -0.11275887 -0.14324538 -0.03473437 0.018179394 -0.095893934 0.044768948 -0.12614205
-0.19131342 -0.16697346 -0.04087347 -0.029054297 0.028363608 -0.079423524 0.10568976 0.022815382
0.060819637 0.02275641 -0.08322552 -0.101804845 0.07746905 0.115544565 0.1748079 0.16542505
0.024689252 -0.14993739 -0.0021858686 0.0910056 0.015531358 0.1563123 0.107234076 -0.09953849
0.1508278 -0.032305326 -0.011579924 0.08354541 -0.043868937 -0.12493616 0.19603054 -0.13283937
0.08391072 -0.07729406 0.019535914 -0.03601376 0.07635135 -0.2366783 -0.026734665 -0.03486824
0.029727798 -0.032143008 0.014404854 -0.105615065 0.037832372 -0.14236383 -0.025721824 0.0006782099
0.0020930187 0.13718836 0.099836946 0.005574726 -0.019526506 -0.0089443205 -0.03572216 0.03439547
0.07978388 -0.04771032 0.022413813 -0.038980767 -0.052289534 -0.15629387 0.27904782 -0.023196014
-0.067616306 -0.023821779 -0.074665695 -0.18475632 -0.055055846 -0.18287925 0.061004616 0.033960212
0.099949725 -0.13977031 -0.06924506 -0.007431135 -0.023143064 -0.08828817 -0.015079982 0.15579921
0.091395915 0.08443649 0.08656 0.14784187 0.048397996 0.12813978 -0.035482835 -0.053590294
0.103322394 -0.00442791 0.048752088 0.16894726 -0.11789457 -0.014041621 0.117456906 -0.13483252
-0.10540933 0.08844606 0.110014185 -0.038253155 0.042155128 0.06281581 -0.12809089 -0.022135407
0.077724956 0.028450457 0.024006383 0.17467888 0.052102853 0.0040082587 -0.17435127 -0.03178978
0.038305897 0.044055883 -0.22730097 -0.09579127 -0.02325204 -0.03669538 -0.06248349 -0.1627813
0.2496272 -0.07804736 0.014522771 -0.08751386 0.012857306 -0.09270452 0.06479759 0.13853782
-0.08072283 0.112077065 0.072346136 -0.14232935 0.09343651 0.053059615 0.0025493905 -0.0610945
00000000: 94d5 3bbe e74a 8abd 7ea2 5b3c b6f5 c7bd
00000010: d0b8 823d eeec 113e 4299 fa3c 11ec cbbc
00000020: 0b27 7c3b cb5b 2d3e faa8 d63c 6b91 a4bd
00000030: 0dc2 2e3c a4ee 58bd 645a 5d3d 2ddc 1abe
00000040: 66b4 9dbd 1e19 803b b438 8d3d 6174 edbd
00000050: 6923 03bd 2337 7b3d e868 24be a21c 87bc
00000060: 446d d93b bc13 b4bd cfc9 aebb 68c7 003d
00000070: fe05 3ebe e3ee 41bd 8017 d6bd b320 823c
00000080: c335 053e 071f 8abd 1f05 3a3d 1842 10be
00000090: ef64 ef3d 9343 733d 79bd db3b 138d 48be
000000a0: 5da8 5ebd ec34 223d 8726 b43d 8ce9 a5bd
000000b0: b60c 3d3e a5ea 183d 3cf2 573d 10a1 19bd
000000c0: c949 96bd 8867 74bd a194 623d 2d2d 113d
000000d0: 769c c73d 9388 68bd 99f2 eebd 488b 643d
000000e0: 204f 5bbd 863e 803d d1ca 953d 2222 003d
000000f0: 18b4 8f3d dd0a e83d 3519 8fbd cf78 04be
00000100: 03cb ddbc d3d9 093e 0f8a 023e 47b2 893d
00000110: 70d0 cabd d1cc cf37 c834 a3bd 9c41 673d
00000120: ae5b 13be c06e 28be c9f8 eebb f86e 393e
00000130: 03ca b3bb e633 97bc dc16 0cbc 421c 273e
00000140: 6075 b03d 02c9 05bd 1a74 1b3e 20dc 143d
00000150: b9ee d03c 87ca aa3d ad21 df3d e732 95bd
00000160: 502c 133d 9785 80bd ecf6 2abd b3a3 3f3d
00000170: a8ee 7b3e 0e6a 76bc 61a9 c6bc a0fb 343c
00000180: 5682 e8bc 63da 1cbd 5f13 1fbe 8c20 8ebd
00000190: 1f7d 673e 0094 a73d 5c0d 543e 3c99 08be
000001a0: a9e4 e3bc 9ed7 f4bc 46bd 89bc 189d c5bd
000001b0: 2187 dd3c 07e3 803c b709 043e a39c b2bc
000001c0: d61a 95bd 1fee e6bd ebae 12be a045 0ebd
000001d0: f4ec 943c 0a64 c4bd a55f 373d 622b 01be
000001e0: aae7 43be 17fb 2abe f16a 27bd 4703 eebc
000001f0: cc5a e83c cda8 a2bd df73 d83d 53e7 ba3c
00000200: 031e 793d a76b ba3c 2472 aabd 0f7f d0bd
00000210: 18a8 9e3d a1a2 ec3d d800 333e 2f65 293e
00000220: 1d41 ca3c 3089 19be ca40 0fbb 2561 ba3d
00000230: 3d77 7e3c 5510 203e 8a9d db3d d6da cbbd
00000240: 9a72 1a3e 9752 04bd b9b9 3dbc db19 ab3d
00000250: eaaf 33bd 88de ffbd 3bbc 483e 0b07 08be
00000260: 62d9 ab3d 594c 9ebd c809 a03c 2a83 13bd
00000270: 195e 9c3d cc5b 72be a802 dbbc 00d2 0ebd
00000280: b687 f33c 63a8 03bd 5602 6c3c b64c d8bd
00000290: 1ef6 1a3d d3c7 11be 93b6 d2bc e5c9 313a
000002a0: 072b 093b 1b7b 0c3e 5077 cc3d 31ac b63b
000002b0: 0df6 9fbc 338b 12bc 6651 12bd 44e2 0c3d
000002c0: bb65 a33d e66b 43bd 2c9d b73c 4caa 1fbd
000002d0: 8d2d 56bd 800b 20be 5bdf 8e3e 9105 bebc
000002e0: 6b7a 8abd e425 c3bc 54ea 98bd c330 3dbe
000002f0: 3d82 61bd b344 3bbe fadf 793d dd19 0b3d
00000300: 71b2 cc3d f31f 0fbe 5bd0 8dbd e180 f3bb
00000310: 8696 bdbc 6ed0 b4bd 0712 77bc d489 1f3e
00000320: c82d bb3d 0aed ac3d 5f46 b13d dc63 173e
00000330: fa3c 463d 1337 033e 7356 11bd 7f81 5bbd
00000340: b19a d33d 0018 91bb 45b0 473d 8300 2d3e
00000350: b572 f1bd d40e 66bc 3f8d f03d 8911 0abe
00000360: d9e0 d7bd 3523 b53d 1e4f e13d 57af 1cbd
00000370: dbaa 2c3d 93a5 803d 422a 03be 5055 b5bc
00000380: 432e 9f3d ef10 e93c 09a9 c43c 05df 323e
00000390: cd69 553d b657 833b 2489 32be 0036 02bd
000003a0: a5e6 1c3d f173 343d 96c1 68be 372e c4bd
000003b0: 107b bebc e54d 16bd b0ee 7fbd 24b0 26be
000003c0: 469e 7f3e 4bd7 9fbd ebf0 6d3c 773a b3bd
000003d0: 73a7 523c dedb bdbd 99b4 843d dcdc 0d3e
000003e0: 0352 a5bd a988 e53d 362a 943d c9be 11be
000003f0: a45b bf3d 0a55 593d ad13 273b 3a3e 7abd

network_body._body_endoder.seq_layers.2.bias f4 [128]
0.047760442 0.014847647 -0.009088749 -0.016300116 0.02081548 0.026132815 0.0273778 0.0073809074
-0.007113973 -0.019123955 -0.002453726 0.010268675 -0.00990376 -0.014256565 -0.0023762297 -0.02950647
-0.029295236 4.1768453e-05 0.016936371 -0.027890246 0.0039057357 -0.015286168 -0.007718334 -0.0052489797
-0.0020840527 -0.00036059375 0.0027596161 -0.00082665397 -0.0051141186 0.0155945495 -0.0264331 0.031784408
0.028827172 -0.021899 -0.0047144364 -0.014391957 0.0151754245 0.016382087 0.023536311 -0.0026124895
-0.019440968 0.005626713 0.037337177 0.023074139 0.030027162 0.019094134 0.011752097 -0.03578403
0.024759188 0.037364673 -0.021591624 0.02699577 0.022886582 0.015430692 0.011412741 -0.031900562
-0.008350663 0.020586994 0.0042479457 0.0048788874 0.04098003 0.0032402277 0.0025630104 -0.024732022
0.029342037 -0.007248148 -0.0066797934 -0.0043901308 0.02814835 -0.016942978 0.030242834 -0.0010277107
0.008811939 0.013364446 0.011195838 0.008493745 0.0116766365 0.034005575 0.023811216 0.026119048
-0.02219204 -0.038105268 0.010907506 -0.026663516 0.010194493 0.007038563 0.01694843 0.017641684
0.05054126 -0.0068360707 -0.008507184 0.032633554 -0.01829633 -0.0051701223 0.02766453 0.05296735
0.014701925 -0.0066036284 -0.03886671 0.0026978187 -0.01767878 0.012177925 0.014056689 0.057766553
-0.006173158 -0.022790307 0.04688296 0.061673895 0.009510063 0.011205471 -0.04229109 -0.028551867
-0.030060789 -0.04140994 0.037790895 0.007423946 0.02494142 -0.019990537 0.043475408 0.0007856913
0.015072154 0.012393366 -0.05988889 -0.020063296 0.03995261 -0.036811166 0.009619847 0.011769351
00000000: 74a0 433d 8c43 733c fae8 14bc d287 85bc
00000010: 3a85 aa3c 7c14 d63c 6847 e03c 8adb f13b
00000020: 551c e9bb d7a9 9cbc b1ce 20bb f23d 283c
00000030: 6143 22bc 5e94 69bc 85ba 1bbb 8db7 f1bc
00000040: 90fc efbc 8930 2f38 25be 8a3c 167a e4bc
00000050: 5ff7 7f3b d672 7abc 14ea fcbb a2ff abbb
00000060: 9a94 08bb 130e bdb9 adda 343b cfb3 58ba
00000070: 5694 a7bb 4880 7f3c 3b8a d8bc 5e30 023d
00000080: f626 ec3c 8865 b3bc 8f7b 9abb 3ecc 6bbc
00000090: 58a2 783c ba33 863c 39cf c03c 4d36 2bbb
000000a0: aa42 9fbc 4a60 b83b deee 183d fa05 bd3c
000000b0: 86fb f53c 4d6b 9c3c de8b 403c 4692 12bd
000000c0: c8d3 ca3c b30b 193d ebe0 b0bc 3c26 dd3c
000000d0: a47c bb3c 03d1 7c3c 81fc 3a3c 2aaa 02bd
000000e0: 38d1 08bc 0ea6 a83c 5a32 8b3b 13df 9f3b
000000f0: adda 273d 005a 543b 2ef8 273b cf9a cabc
00000100: b65e f03c df81 edbb 2be2 dabb 16db 8fbb
00000110: 5e97 e63c 00cc 8abc d2bf f73c 40b4 86ba
00000120: f35f 103c 8df6 5a3c c06e 373c 5929 0b3c
00000130: 5d4f 3f3c 6e49 0b3d bd0f c33c 9df7 d53c
00000140: 15cc b5bc 4514 1cbd 65b5 323c 726d dabc
00000150: ce06 273c bfa3 e63b 6fd7 8a3c 4b85 903c
00000160: 5a04 4f3d 1e01 e0bb b761 0bbc c3aa 053d
00000170: 2fe2 95bc 216a a9bb b9a0 e23c 4bf4 583d
00000180: 58e0 703c 4063 d8bb b332 1fbd e3cd 303b
00000190: 17d3 90bc eb85 473c 074e 663c 9f9c 6c3d
000001a0: 3448 cabb bdb2 babc 5908 403d c49d 7c3d
000001b0: 18d0 1b3c 2797 373c 6c39 2dbd 9be5 e9bc
000001c0: 0b42 f6bc 789d 29bd a0ca 1a3d 9344 f33b
000001d0: f351 cc3c 32c3 a3bc 4513 323d daf6 4d3a
000001e0: 32f1 763c 8b0d 4b3c 0d4e 75bd c85b a4bc
000001f0: 59a5 233d 4ec7 16bd 909c 1d3c 3cd4 403c

action_model._discrete_distribution.branches.0.weight f4 [7, 128]
-0.030529622 0.0023573493 -0.0038158598 -0.03999388 0.008050172 -0.048332777 0.0054503637 -0.024571989
0.005367634 -0.015045878 -0.03269488 -0.023823004 -0.01034047 -0.011748595 -0.0056319484 -0.030150933
-0.0102800485 -0.02609527 -0.0037356934 -0.01226791 -0.004534195 -0.02970718 0.0127866315 -0.0063042627
-0.0069326083 0.0032447567 0.0068846825 0.0049691563 -0.037487764 0.019930527 -0.0138368495 0.00471719
0.0052931947 -0.01889709 -0.003580418 -0.009763804 0.0018639459 -0.010722573 0.002040654 -0.009911989
-0.020222332 -0.017128885 0.0049380697 -0.0155423395 0.015149095 -0.012259922 0.0010093476 -0.012822208
-0.018986143 0.019878568 -0.00666354 0.0020886238 -0.032938704 0.0031341272 -0.028303884 -0.022333527
-0.0017839854 -0.0003869757 -0.001609745 -7.92229e-05 0.0050063757 -0.0031896704 -0.026334155 -0.02767613
0.0059279525 -0.03414286 0.0039695613 -0.015772466 0.02347415 0.0041228076 0.00911598 0.0036950975
0.015098089 0.00956595 -0.003109243 -0.037435096 0.0053911083 -0.01341004 -0.046710838 0.00041970637
-0.005451356 -0.039812747 -0.038958985 -0.010338288 -0.005993699 0.0004535741 0.00038612445 -0.0215609
0.0008302163 -0.012450202 -0.029604167 -0.016158463 0.005064982 -0.01957691 -0.012500721 0.02426403
-0.003982617 -0.00765404 -0.031168288 -0.0024073992 -0.0060353875 -0.009380806 -0.0146246925 0.003789933
-0.013799908 -0.024525477 0.010859466 0.02898925 0.006066079 0.01163888 -0.02953686 -0.037132077
-0.009524517 -0.016541377 0.0013242078 -0.014122755 -0.006710762 0.0025209135 -0.034272317 -0.002929272
0.010785142 0.004578435 -0.02651584 0.0025164247 0.002550938 -0.046854783 -0.0077020354 0.0092731295
0.047156222 -0.03245096 -0.021791896 0.000631466 -0.039559472 0.0502215 -0.029928613 0.011873035
-0.011535491 0.027771033 0.10038385 0.055830456 -0.021554383 -0.012726089 -0.023719506 0.037868712
-0.006154077 0.033392116 -0.0045478577 0.002150263 -0.02793032 0.03796429 0.0040340964 0.01932092
-0.020802151 -0.015751297 -0.007827374 -0.009138266 0.029178036 0.01393973 -0.007331918 -0.034766227
-0.01898371 0.010435988 0.0021300898 0.053589996 0.043166958 -0.02280081 -0.045781553 -0.02739853
0.028826946 -0.011041895 0.012054938 -0.013290649 -0.036658764 0.020374889 0.032622732 0.033619072
0.090810016 -0.08732704 0.04693293 -0.03696345 0.12800923 -0.03263993 0.08602352 0.037991058
0.022883875 -0.019341107 -0.020392174 -0.019742604 -0.029173162 6.276381e-05 0.03859808 0.029069457
0.01739012 0.02511732 0.005734177 0.10434535 -0.036956925 -0.00417252 -0.04400319 -0.017245403
-0.02125348 0.006225962 -0.040864278 0.073359996 -0.027207032 0.08026659 0.11809548 -0.023514945
0.02195389 0.031161066 -0.06427341 -0.0070031704 -0.033787213 0.053741734 -0.018373007 -0.030846238
-0.08407356 -0.015800275 0.035302766 0.015331197 0.00014750131 0.026175145 0.022281708 -0.050437935
-0.02423627 0.005649063 0.033639874 0.038251773 -0.0107501345 -0.052541777 -0.026284572 -0.03126612
0.06312083 0.041503806 -0.074239455 -0.101936825 0.021052355 0.0102377115 0.023134675 0.03130303
-0.0067888005 0.018176574 -0.04676923 -0.013233096 -0.10827684 0.009323081 0.081640325 -0.011010779
0.027678937 0.034819003 0.03624999 0.014587131 -0.048319884 0.026634809 -0.045039304 -0.029864818
00000000: 4219 fabc c27d 1a3b 8113 7abb 9fd0 23bd
00000010: dee4 033c 97f8 45bd f798 b23b 324b c9bc
00000020: fae2 af3b fc82 76bc 11eb 05bd 7628 c3bc
00000030: 136b 29bc 2e7d 40bc 358c b8bb 17ff f6bc
00000040: a66d 28bc bfc5 d5bc 89d2 74bb 58ff 48bc
00000050: 9693 94bb 795c f3bc 057f 513c fd93 cebb
00000060: ef2a e3bb fca5 543b e798 e13b 4ed4 a23b
00000070: c58c 19bd 5845 a33c f4b3 62bc a892 9a3b
00000080: 8972 ad3b 12ce 9abc 72a5 6abb 5df8 1fbc
00000090: a54f f43a bbad 2fbc 7ebc 053b e565 22bc
000000a0: 4ea9 a5bc e051 8cbc 88cf a13b 4ca5 7ebc
000000b0: e933 783c d7dd 48bc 164c 843a 3d14 52bc
000000c0: d488 9bbc 61d8 a23c d359 dabb 4be1 083b
000000d0: bcea 06bd ee65 4d3b 8cdd e7bc cdf4 b6bc
000000e0: 9ed4 e9ba 00e3 cab9 14fe d2ba 7824 a6b8
000000f0: 860c a43b ca09 51bb baba d7bc 0db9 e2bc
00000100: 453f c23b 62d9 0bbd 1813 823b 4235 81bc
00000110: dc4c c03c 9e18 873b 315b 153c 7329 723b
00000120: fa5d 773c 81ba 1c3c 71c4 4bbb 8b55 19bd
00000130: e5a7 b03b c9b5 5bbc dd53 3fbd 090c dc39
00000140: 4aa1 b2bb b112 23bd 7593 1fbd ec61 29bc
00000150: cb66 c4bb afcd ed39 bf70 ca39 7ca0 b0bc
00000160: dfa2 593a effb 4bbc 7084 f2bc c15e 84bc
00000170: 26f8 a53b c25f a0bc d3cf 4cbc 5cc5 c63c
00000180: 9d80 82bb bece fabb a354 ffbc 75c5 1dbb
00000190: 80c4 c5bb f4b1 19bc 689c 6fbc 8660 783b
000001a0: 0219 62bc a7e9 c8bc e7eb 313c dd7a ed3c
000001b0: f5c5 c63b 00b1 3e3c 49f7 f1bc ce17 18bd
000001c0: b80c 1cbc c881 87bc 0a91 ad3a 2163 67bc
000001d0: f4e5 dbbb e935 253b 2161 0cbd 07f9 3fbb
000001e0: 2ab4 303c b206 963b bf37 d9bc 9aea 243b
000001f0: a32d 273b cdea 3fbd 5b61 fcbb 53ee 173c
00000200: e226 413d 4ceb 04bd eb84 b2bc f788 253a
00000210: 1d09 22bd 0fb5 4d3d da2c f5bc 1e87 423c
00000220: 5bff 3cbc 1480 e33c 0c96 cd3d 7aae 643d
00000230: d192 b0bc 1681 50bc 694f c2bc 391c 1b3d
00000240: 24a8 c9bb 2cc6 083d 3206 95bb 6deb 0c3b
00000250: 20ce e4bc 7180 1b3d 7430 843b e846 9e3c
00000260: 4669 aabc dd08 81bc 633e 00bc aab8 15bc
00000270: c706 ef3c 7763 643c 9640 f0bb 0867 0ebd
00000280: ba83 9bbc b5fb 2a3c fa98 0b3b 2f81 5b3d
00000290: d6cf 303d c4c8 babc 7085 3bbd e272 e0bc
000002a0: 7d26 ec3c 10e9 34bc 1382 453c 06c1 59bc
000002b0: 8027 16bd 3de9 a63c 6a9f 053d 27b4 093d
000002c0: 9afa b93d 85d8 b2bd be3c 403d fd66 17bd
000002d0: da14 033e 72b1 05bd 192d b03d 839c 1b3d
000002e0: f776 bb3c 3e71 9ebc 7d0d a7bc 3ebb a1bc
000002f0: 8efc eebc 10a0 8338 0519 1e3d 1223 ee3c
00000300: ba75 8e3c d6c2 cd3c c3e5 bb3b 04b3 d53d
00000310: 2560 17bd a2b9 88bb b03c 34bd 3b46 8dbc
00000320: c71b aebc 2803 cc3b 4d61 27bd c43d 963d
00000330: 48e1 debc cf62 a43d 0bdc f13d 6aa2 c0bc
00000340: a5d8 b33c 7e45 ff3c c7a1 83bd da7a e5bb
00000350: 7664 0abd 4b20 5c3d fd82 96bc 40b1 fcbc
00000360: c22e acbd 946f 81bc a299 103d b32f 7b3c
00000370: 95aa 1a39 426d d63c 2188 b63c 0298 4ebd
00000380: 248b c6bc c61b b93b f7c9 093d e4ad 1c3d
00000390: 5521 30bc 0c36 57bd be52 d7bc e710 00bd
000003a0: 7e45 813d e5ff 293d db0a 98bd 41c4 d0bd
000003b0: fd75 ac3c 13bc 273c ee84 bd3c 9b37 003d
000003c0: 9674 debb 0ae7 943c 1891 3fbd a1cf 58bc
000003d0: 3fc0 ddbd d6bf 183c 0b33 a73d 8e66 34bc
000003e0: f0be e23c 5f9e 0e3d df7a 143d ddfe 6e3c
000003f0: 12eb 45bd 3e31 da3c 227b 38bd 10a7 f4bc

action_model._discrete_distribution.branches.0.bias f4 [7]
0.01870087 -0.037638642 0.005090318 -0.013417759 0.008574715 0.0027844508 0.017133905
00000000: 9132 993c fa2a 1abd afcc a63b 29d6 5bbc
00000010: f67c 0c3c 557b 363b 675c 8c3c
