CCP-main/results/WeightAgent_Training/WeightAgent_Training/WeightAgent_Training-499974.onnx (onnx, 174256 bytes, 6 tensors)

network_body._body_endoder.seq_layers.0.weight f4 [128, 199]
000000 51 36 ce bd da b9 43 3c 31 f1 8f 3c 0b a5 c1 3d
       -0.10068954 0.011946166 0.017571064 0.094553076
000010 35 8f d1 bc 5d 3d 23 bd 38 4f e4 3d d8 f3 89 3c
       -0.025580982 -0.039853442 0.11147922 0.016839907
000020 7f c5 54 3d 6c 9d 58 3d 1c 64 e8 bd 72 39 ae 3c
       0.05194616 0.052884504 -0.11347219 0.021267626
000030 e7 94 c9 bd ae c7 5e 3d a8 0e 11 3d 0d 86 67 3d
       -0.09842854 0.05438965 0.035414368 0.056524325
000040 3e 59 b8 bd e2 f8 5f 3c a9 29 40 bd e4 df c9 bd
       -0.090013966 0.013670178 -0.04691473 -0.09857157
000050 91 de e4 3c 63 9e 8f 3c b5 b8 4d bd 96 d9 81 3d
       0.02793816 0.01753158 -0.05022498 0.06340329
000060 f5 b6 22 3c da 15 80 bc 66 6b 96 bd 59 2f 52 bc
       0.009931316 -0.01563542 -0.073447034 -0.012828671
000070 b4 1d 19 3d 5f aa 6e 3d 17 6b 0e 3d 94 1d 36 3d
       0.037381843 0.058267947 0.034770098 0.0444618
000080 9f e6 13 bd 10 cd c9 3d 7a e5 a2 3d af fb 66 3d
       -0.03610861 0.09853566 0.079539254 0.056392368
000090 96 1e d6 3c a9 06 e4 bd a5 50 ef 3d b1 d1 79 bc
       0.026137631 -0.11134083 0.116853036 -0.015247748
0000a0 d8 a4 1b bd 54 02 16 bc d0 42 ac 3d fb 4f 49 3c
       -0.037999004 -0.0091558285 0.08411181 0.012287135
0000b0 00 33 88 3d 6c c4 a7 3c e4 c8 0b bd 93 72 40 3d
       0.066503525 0.020479403 -0.03412713 0.046984266
0000c0 45 95 2b be c5 47 d6 3d 94 c5 25 3c 39 2e eb 3c
       -0.1675616 0.10462908 0.010117907 0.028708564
0000d0 c3 a1 ef 3d a7 10 0e 3e a5 cc 16 bd 32 97 03 3d
       0.117007755 0.1387354 -0.036816258 0.032126613
0000e0 8a 80 7b 3c 20 4f d8 bc d3 6c 16 3b 39 43 f1 bd
       0.01535047 -0.026404917 0.0022953048 -0.117804
0000f0 49 57 69 3c 0f 7e a5 3c 81 eb 19 3e 57 8f d5 bc
       0.014242002 0.020201711 0.15031244 -0.026069326
000100 41 f6 05 3e 70 e4 f2 bd 9b 42 9a 3d 80 0f f3 bc
       0.1308222 -0.11859977 0.07532235 -0.029670477
000110 44 d4 c4 bd 66 0d 5e bc bf 01 0f 3c 77 4d 04 bd
       -0.09610799 -0.013552999 0.008728444 -0.03230044
000120 83 17 c2 3c dc d0 87 3d 42 ef fd 3d 5d 65 62 3d
       0.023692852 0.06631634 0.123991504 0.05527245
000130 e0 6b 75 bd 42 5d 65 3e 7b 22 10 3e ee 5b 6c 3c
       -0.05991733 0.22398856 0.14075653 0.014426215
000140 cf c0 67 3c 9c 72 fd 3d ea 40 cc 3c c9 9b b6 3d
       0.01414509 0.12375376 0.024933297 0.089164324
000150 0e 01 d4 3c 86 b6 13 bd 9b cf 3c bc 3a 8f 0d bc
       0.02587941 -0.03606274 -0.011524106 -0.008640105
000160 be ff ec bb 5b d9 d4 3d ba 44 37 bd 9a c9 72 3c
       -0.0072326353 0.1039302 -0.044743277 0.014818573
000170 d7 3f 31 be ba d9 d6 bd 68 c7 24 bd 75 c8 b1 bc
       -0.17309509 -0.10490747 -0.04022923 -0.02170203
000180 bb a7 6e bd b5 da e2 3d 6f 07 60 3d db 75 2f 3e
       -0.05826543 0.11076871 0.05469459 0.17134802
000190 e0 a0 e7 3d 96 fe 0f bc 9b af df 3c d1 bf 81 3d
       0.11309981 -0.008788725 0.027305415 0.06335414
0001a0 23 f3 7b 3d 8b 50 ab bd f8 8a 2e be 2a f8 8d 3d
       0.06151117 -0.08364972 -0.170452 0.06932099
0001b0 6a 7c 9c bc 2d 5f a1 3d 4e fc e5 bc 9e 62 43 3d
       -0.019102294 0.078794815 -0.02807441 0.04770147
0001c0 61 96 a0 bd a9 d9 cc bd a5 c7 a8 3d 34 a1 90 bc
       -0.078411825 -0.10002453 0.08241204 -0.017654993
0001d0 0c 4b 8b bd 37 84 82 3c 52 6f c9 3d e0 4e f1 3d
       -0.068014234 0.015932186 0.09835686 0.11782622
0001e0 ce 39 05 3e 7b a4 73 3c 4a 06 8d bd 4b 0e 13 3d
       0.13010332 0.014870758 -0.06885965 0.035902303
0001f0 55 81 35 bc a9 9f 7d 3d c7 58 7c 3e 17 5f b4 bd
       -0.011078198 0.061919842 0.24643241 -0.088071994
000200 26 d3 14 3d ac 13 83 bb 09 db 6c 3d 39 eb ae bc
       0.03633418 -0.004000148 0.057826076 -0.021352397
000210 af 50 bf 3d 1c 9c 1a 3e b3 bd 74 bd 67 b8 89 3d
       0.09341561 0.15098614 -0.059751224 0.06724625
000220 7f 65 26 3c 94 52 14 3b 12 9e 00 3e 8f 79 f2 3d
       0.0101560345 0.0022632228 0.12560299 0.11839592
000230 46 4d 66 bd 93 4c 86 3d bd 61 aa 3d 7b 55 a8 bd
       -0.056226037 0.06557574 0.08319423 -0.08219429
000240 07 5f 28 bb 74 8e 25 3d 56 a6 90 bd e7 dd 17 3c
       -0.0025691406 0.040419057 -0.07062976 0.009269214
000250 3d 6c 68 bc 9b 59 49 3d 1a 77 d9 3d 54 ad 3a bd
       -0.014185962 0.04915772 0.1061842 -0.045575455
000260 de 84 54 bd 34 ff 82 3d 9e c9 52 bd d6 e0 24 bd
       -0.051884525 0.063963324 -0.05146181 -0.040253483
000270 eb e4 ce bc ab 69 e2 3c 66 9d d1 bd b4 97 1c 3e
       -0.025255641 0.027638277 -0.102350995 0.15292245
000280 18 55 fd 3d 28 8e 8c bc 0f bd c0 bd 3c cc a1 3d
       0.12369746 -0.01715763 -0.0941106 0.07900283
000290 1d ce 49 bb 1a 88 8b bd 15 7f 0c bd 94 1b 92 3d
       -0.003079302 -0.06813069 -0.034300882 0.07134166
0002a0 b5 a0 c7 3d a6 dd 86 3d b0 7a 9f ba e4 ec 07 3d
       0.09747449 0.06585245 -0.0012167301 0.0331849
0002b0 ac 1a 33 3e ca cd 80 3d 61 05 b7 3d 75 9f c5 3c
       0.17490643 0.06289251 0.08936573 0.024123887
0002c0 36 36 55 bd 32 b9 26 bd cf 13 bf bd 6c c5 6e 3d
       -0.052053653 -0.04070396 -0.0932995 0.058293745
0002d0 26 d7 88 3d d0 3c e3 3d 39 a3 10 bd 74 d8 22 bd
       0.06681661 0.110955834 -0.03531191 -0.039757207
0002e0 c8 fd e9 bc f9 05 64 3d 77 de a2 3c 88 85 0e 3d
       -0.028563395 0.05566976 0.01988147 0.034795314
0002f0 0b 60 3c bb 19 4f 8c bb 1a 5c 84 bd 92 0e ff 3d
       -0.002874377 -0.00428189 -0.064628795 0.12453951
000300 8e 06 43 3d 79 6f 82 bc 0b 1f ff 3d 80 12 82 bd
       0.047613673 -0.015922295 0.12457093 -0.06351185
000310 08 c8 bf 3d c7 20 a4 bd 53 ba 83 bd 73 77 4e 3c
       0.09364325 -0.08014064 -0.06432023 0.012601721
000320 c0 75 17 3e 60 a6 ce bd 40 85 81 bd 08 4e 90 3c
       0.14791012 -0.10090327 -0.063242435 0.017615333
000330 20 df 4c 3d ab c8 ae bc 81 14 78 3d 12 6c ff bd
       0.050017476 -0.02133592 0.06056643 -0.12471785
000340 ac bb e3 bd 38 7a 8c 3d d3 ea eb 3c 5e 95 c9 3d
       -0.1111978 0.06859249 0.028798496 0.09842943
000350 9c d6 91 bd 18 ad c3 3c cc 3a e0 bd d7 a4 39 be
       -0.071210116 0.023886248 -0.109487146 -0.18129288
000360 12 0d f0 3c 5b 2c a6 bd 89 0f 9b bd 48 c1 d2 bc
       0.029303107 -0.08113929 -0.075713225 -0.02572693
000370 03 95 a6 bd eb aa 11 3e c3 83 88 bc 11 bd f1 bd
       -0.081338905 0.14225356 -0.016664391 -0.1180364
000380 12 ce 2b 3e e5 89 6e bd f2 92 5e bb ef 99 9b 3d
       0.16777828 -0.058236975 -0.0033962098 0.0759772
000390 b9 29 38 3d 80 f5 08 bb 7a 51 26 bd fe 3b 07 3c
       0.044961665 -0.0020898283 -0.040605046 0.008254049
0003a0 7d b5 07 bd 91 aa 09 3e 1e de 10 be f1 38 04 be
       -0.033132065 0.13443972 -0.14147231 -0.12912346
0003b0 06 6a d8 bc 7f eb 15 bd 84 1c bf 3d 51 0e 90 bd
       -0.026417743 -0.03660154 0.09331611 -0.07033981
0003c0 6b df 17 3d 39 42 1e 3d 8a 81 66 bc 1d 8b eb bc
       0.037078302 0.038637374 -0.01406897 -0.028752858
0003d0 6f bb eb bd 20 50 0d 3d 98 c1 03 3e 2d 5e 2b bd
       -0.115103595 0.03450024 0.12866819 -0.04183786
0003e0 38 81 33 bd 0e 8c 3e bd 2f 4b a1 3d e3 05 94 3d
       -0.043824404 -0.046520285 0.07875668 0.07227685
0003f0 26 20 b7 3d 37 5e fd 3d a3 08 a4 3c 6c aa 35 bd
       0.08941679 0.12371486 0.02002365 -0.04435198

network_body._body_endoder.seq_layers.0.bias f4 [128]
000000 a5 dd 0d 3d df 27 69 3b d7 fd e0 bb 53 8f 79 bc
       0.034635205 0.0035576744 -0.0068661976 -0.015231925
000010 95 0f 34 bc 84 84 ab 3b d5 27 49 3c 06 79 73 3c
       -0.010990043 0.005234303 0.012277563 0.014860397
000020 9d 0d 61 bc fc 04 bc bc 14 7b 8b 3c 84 2e 89 3a
       -0.013736156 -0.022951595 0.017026462 0.0010466133
000030 3a 2d 1a 3d fe cb e6 bb d4 48 2f 3d 92 d0 d7 bb
       0.037640788 -0.0070433607 0.042794064 -0.006586143
000040 c8 a6 63 bc 3f 9f 34 3c c1 34 a5 3c b8 70 15 3c
       -0.013894744 0.011024295 0.020166757 0.0091211125
000050 c1 87 98 3c 1a 13 26 3c 1d 7b 96 bb e3 66 15 bc
       0.01861942 0.01013639 -0.004592313 -0.009118768
000060 f9 f1 f1 3b 81 ce d1 bc 16 36 a3 3c ee 59 bc 3a
       0.0073835817 -0.025611164 0.019923251 0.0014370063
000070 27 c6 d9 3a e2 b8 62 bc 8b 92 06 3d 78 19 be 3c
       0.001661484 -0.013838025 0.032854598 0.023205504
000080 c5 5d eb bb 77 58 c6 bb 3e e9 5e 3c b5 8f e4 3c
       -0.007182809 -0.0060530263 0.013605414 0.027900556
000090 55 e1 7e bc e3 d6 2b 3d f3 74 1e bc 02 89 b5 3c
       -0.015556653 0.04195298 -0.009671438 0.022160057
0000a0 d7 7a fc 3c dd d5 a4 3a d5 1f ab 3c a2 5c 01 bc
       0.030820293 0.0012575943 0.020889202 -0.007895621
0000b0 15 33 b3 bb 14 bb 19 bc af d0 1a bc ed 74 25 3b
       -0.005468736 -0.009382982 -0.009449168 0.0025246695
0000c0 bb af c6 bc 42 d8 c4 bc e1 78 4f 3b 53 3e ef 3c
       -0.024253717 -0.024028901 0.0031657743 0.029204523
0000d0 22 4d 35 3c 93 0b fb 3c 9c c4 28 3a 36 c8 7e bb
       0.011065753 0.030645167 0.00064379885 -0.003887666
0000e0 8b 36 d2 3c 73 c9 03 bc a7 1c 6c bb ec cb be bc
       0.025660774 -0.008043635 -0.003602782 -0.023290597
0000f0 cf 55 2b 3d b1 a8 ce bb 77 ad 99 3b e7 8c 39 bc
       0.04182988 -0.0063067307 0.004689868 -0.011325098
000100 dc 38 f3 3c f0 47 d9 3c 4f a1 ae bc 54 55 e6 3c
       0.029690199 0.02652356 -0.021317152 0.02811686
000110 e1 79 0c 3c bb 52 96 bc 1c d7 59 bb 15 08 00 3d
       0.00857398 -0.018349996 -0.0033239787 0.031257708
000120 9b 6d 7b bc fa d9 96 3c 23 24 bc 3c c2 69 d6 3b
       -0.015345956 0.018414486 0.02296645 0.006543369
000130 fc 24 06 3a 11 d7 37 bb 96 8d 2e bc 19 55 13 3d
       0.00051172054 -0.0028051774 -0.010653874 0.035969827
000140 6f e7 a2 3c e0 3d 1e ba 8c 7e fd 3b b2 ba 21 bc
       0.019885747 -0.0006036442 0.007736033 -0.009871172
000150 98 44 3b 3c a8 7a 18 3c 51 ab 48 3c 07 10 ca bc
       0.011429928 0.009306587 0.012247876 -0.024665846
000160 b6 bf b4 3c 2e 2b 60 bc 4a 78 bd 3c ef dc bc 3c
       0.022064071 -0.01368217 0.023128647 0.023054568
000170 59 2e 84 3b b2 af b3 3c cd e1 ff 3b 0d 63 6f bc
       0.0040338454 0.021934364 0.0078089 -0.014611018
000180 23 a1 fe 3b 2d 1a 5d 3a ea 8a 28 3d 5f f4 cf 3c
       0.007770674 0.00084343815 0.041148104 0.02538508
000190 c8 2f 89 bc 4d b2 2b 3c 28 98 e5 3c 6d 8d 10 bc
       -0.016746417 0.010479522 0.028026655 -0.008822781
0001a0 2b 56 83 bb ea 5c 1b bc 8e bd be bb a2 c3 92 bc
       -0.0040080748 -0.009482602 -0.0058209365 -0.01791555
0001b0 19 d1 c2 3c 2c 13 21 3d 49 6a dc 39 97 48 47 bb
       0.023781346 0.039324924 0.00042040859 -0.0030408257
0001c0 d7 d0 66 3c a5 de 99 3b 34 2e 4f bc 7c 69 c6 3c
       0.014087877 0.0046957307 -0.012645293 0.02422022
0001d0 9c 32 75 bc 6d 8a 1b 3d 76 46 cf ba bf ce 0b 3b
       -0.0149656795 0.03797381 -0.0015813846 0.0021332947
0001e0 b2 89 2e 3b 82 e0 9c 3b c3 7c ac bb fb e9 92 3c
       0.0026632366 0.0047875056 -0.005263896 0.017933836
0001f0 20 94 6d bc 7f 51 8b bc bd 33 2c 3c dd 17 26 bc
       -0.014500648 -0.017006634 0.010510382 -0.010137525

network_body._body_endoder.seq_layers.2.weight f4 [128, 128]
000000 8e 5b 13 3d d0 c1 a2 3d bd de 1d 3d c8 83 84 bd
       0.035975985 0.07947123 0.038542498 -0.06470448
000010 a2 d8 8f bd 28 e0 99 3a b9 cb 7f bd a4 2b c2 bc
       -0.07023741 0.0011739777 -0.062450144 -0.02370245
000020 cc 0e 1c bd 3e e9 8a bd 7c 59 ad bd dc 3c fe 3c
       -0.03810005 -0.06782769 -0.084643334 0.03103488
000030 24 1b 0e be 6f cc b9 3d 76 05 17 bd 7b 85 04 bd
       -0.13877541 0.09072196 -0.036870442 -0.03235386
000040 c9 32 e7 bd ce 45 1c bc 2f dd c7 3d 72 78 55 3d
       -0.112889834 -0.009538127 0.09758984 0.05211682
000050 af 54 d9 bc 69 50 8d bc cd 4a 56 bd 84 e6 7c bd
       -0.026529638 -0.017250257 -0.05231743 -0.061743274
000060 e3 19 9a 3d 82 a1 75 3d 2a f1 26 bc d8 8c 98 3b
       0.07524469 0.05996848 -0.010189334 0.0046554618
000070 f8 de 33 3e a0 b4 33 bd 0f 24 37 3d 13 54 91 bb
       0.17565525 -0.04387343 0.044712123 -0.0044350713
000080 cd a8 85 3d c4 4b e9 bb 74 b5 95 3d 57 e2 9d 3b
       0.06526337 -0.0071196277 0.0731 0.0048182416
000090 e6 d2 a4 3c 61 41 0e be 8c 4c 8b 3d 8d b8 32 3d
       0.020120095 -0.13892128 0.068017095 0.043633033
0000a0 87 21 ab bd 9c e1 d0 3c 07 33 91 3d 56 94 5f bd
       -0.08356004 0.025498204 0.07089811 -0.054584824
0000b0 9a 42 e0 bc 04 0e 23 bd 3b f3 c9 3c 09 01 0b 3e
       -0.027375508 -0.03980829 0.024652114 0.13574614
0000c0 47 9d 38 bd a6 9f a9 bc df ba af 3d 57 1d a7 3d
       -0.045071866 -0.02070601 0.08580565 0.08159893
0000d0 16 04 0c be 72 72 04 be 5e 81 62 bd 7b cf 8f bc
       -0.13673434 -0.12934282 -0.055299155 -0.01755499
0000e0 04 60 e6 bc bd 11 13 3e 56 79 ab 3d bc a0 96 3d
       -0.028121956 0.14362235 0.08372752 0.073548764
0000f0 a3 ce 29 3b f0 27 c3 bc aa 66 22 3c 0a 96 58 bc
       0.0025910519 -0.023822755 0.009912172 -0.013219366
000100 82 e5 bf bd 29 36 9d 3d 02 68 2a be ff b9 11 bd
       -0.09369947 0.07676346 -0.16641238 -0.03557777
000110 91 17 27 bd 8b 73 00 3e ef 64 92 3d 40 17 2c 3c
       -0.04079396 0.12544076 0.07148158 0.01050359
000120 28 9f 05 bd 2b 6c 6d 3c de 8b 8d bd 42 bf c5 bd
       -0.032622486 0.014491121 -0.06911443 -0.0965562
000130 ca e0 1e bd 46 6f 03 3e a3 58 b7 3c 4f ff df bd
       -0.038788594 0.12835416 0.022381132 -0.10937368
000140 d8 2e a5 bb f0 b6 93 bc d0 6e bf bd 23 c7 d3 bc
       -0.0050409846 -0.018031567 -0.09347308 -0.025851792
000150 ab b7 07 be d4 72 8c 3d 43 b7 e1 bc 85 00 93 bd
       -0.13253658 0.06857839 -0.027553206 -0.071778335
000160 aa 65 39 3d e3 d9 46 bd 83 92 81 bd b5 3c 60 bd
       0.04526297 -0.048547637 -0.06326773 -0.054745395
000170 0a 47 5a bd ad 88 63 3e f1 4c 57 bb 8e 8b 3e bd
       -0.053290404 0.22220106 -0.0032852257 -0.04651981
000180 7a 5d 18 3e 4a 8f 11 3e dd 21 c2 bd f0 0a 8a 3d
       0.14879408 0.14214817 -0.09479115 0.067403674
000190 e9 3c be bd 49 b0 1d 3e 17 1d e3 bd 96 00 8a 3d
       -0.092889614 0.15399279 -0.11089533 0.06738393
0001a0 dc ad ba bd 9e 52 41 3e 53 50 0f 3e 44 85 b9 3d
       -0.09115192 0.18879172 0.13995485 0.090586215
0001b0 e4 d3 32 3d 6d b9 d6 3d af eb 17 3e 5e 53 41 bd
       0.043659106 0.10484586 0.14836 -0.047198646
0001c0 b8 4f 28 bd da 2a aa bc 6a e3 8b bd 3f 59 41 3d
       -0.04109165 -0.020772386 -0.06830485 0.047204252
0001d0 0f 98 e3 bc 48 05 e3 bd 94 4a a0 bd 0a 43 84 bd
       -0.027782468 -0.11084992 -0.07826725 -0.06458099
0001e0 bc 94 29 bd f0 75 b4 ba 51 c9 0f be 10 35 b5 bc
       -0.04140161 -0.0013768058 -0.1404164 -0.022120029
0001f0 4d e3 c1 3d cc 02 ff bd fe 95 b3 3d ed 91 76 bd
       0.09467182 -0.12451705 0.08768843 -0.06019776
000200 b6 f9 58 3c 97 e9 4c 3d bf 79 b8 3c 9e 3f c8 bb
       0.0132431295 0.050027456 0.02251899 -0.0061110994
000210 87 39 08 3e 98 5c 94 3c fe 35 86 bd fd 86 d8 bd
       0.13303195 0.018110558 -0.06553267 -0.10572622
000220 68 30 a8 3c 02 56 7f bd 6b 54 c0 bd d1 d1 c4 3d
       0.020530894 -0.062337883 -0.093911014 0.09610332
000230 8b a5 98 bd ec 65 51 3c a4 94 53 3b 72 90 67 3d
       -0.0745345 0.012780648 0.0032284642 0.05653424
000240 c7 ee 8b bc cf 85 87 bd 47 71 9b bd f2 af 1e 3d
       -0.017081631 -0.06617319 -0.07589965 0.038742013
000250 f4 e8 c5 bc aa cf 84 3d 17 95 3b 3e 3f 2f 38 3d
       -0.024158932 0.06484921 0.18318592 0.044966932
000260 2a e9 5c 3d f5 45 99 3c 4d 9b 0c be e2 40 93 bc
       0.0539333 0.018710116 -0.13731118 -0.017975274
000270 28 f2 1a be 6c af a3 bd dc ba 13 3e 50 48 a3 3d
       -0.15131438 -0.079924434 0.1442675 0.07972777
000280 ab 58 21 be 7a f8 24 3d 87 f8 c9 3d 11 58 50 bc
       -0.1575648 0.04027603 0.09861856 -0.012716309
000290 9b 6a da 3d 39 6d df 3d 53 87 97 bd 28 bc b8 3d
       0.10664865 0.109095044 -0.07398858 0.09020263
0002a0 07 c1 e7 bd f0 4f 26 3d ba 50 c6 bd 9d 83 af 3b
       -0.11316114 0.040603578 -0.09683366 0.0053562657
0002b0 8e bd e6 3c a5 a0 e6 bd b7 09 1e be 67 f9 69 bd
       0.028166559 -0.11261109 -0.15433393 -0.057122614
0002c0 68 1e e2 3c 43 d6 58 bd 88 97 32 3e 69 ea d0 3c
       0.02760239 -0.05293871 0.17440617 0.0255024
0002d0 39 e1 7a bd 17 87 c3 3d 74 56 7b bd af a2 9d bd
       -0.061249945 0.09547251 -0.061361745 -0.07697045
0002e0 d5 90 f6 3d 06 61 c3 bd 71 6f a3 3d 05 87 57 be
       0.12039343 -0.0953999 0.0798024 -0.210476
0002f0 b9 93 11 3e 35 e3 03 3e 02 43 33 bc f4 d6 c7 bd
       0.14216508 0.12879641 -0.010941269 -0.09757796
000300 84 80 41 3d 33 3e b5 3c 3a 92 53 3d 46 9a d1 bc
       0.047241703 0.022124385 0.051653124 -0.025586259
000310 89 d2 d8 bc f4 ff a0 3c 85 b0 4b 3c 19 17 40 bd
       -0.026467578 0.019653298 0.012432222 -0.046897028
000320 54 cd da 3c 2f 0c 84 bd de 66 16 bb 47 a7 9d 3b
       0.026709236 -0.06447636 -0.0022949497 0.004811201
000330 6e c5 1f 3c ca 29 f5 bd c4 d6 53 3c b9 35 6b be
       0.009751661 -0.11970861 0.012929622 -0.22969712
000340 34 b4 b0 bd 1d d5 22 bd ba 5e ce 3b 73 dc 80 bd
       -0.08628121 -0.039754022 0.0062979134 -0.06292047
000350 92 3d 5a bd 46 11 9e 3d 8f b1 92 bc b5 85 06 3e
       -0.053281374 0.077181384 -0.017906932 0.13136943
000360 6a be 50 bd be 3e 48 bd 92 8c b1 3d b8 ec 90 bd
       -0.050962843 -0.04888796 0.0866939 -0.070764005
000370 01 99 60 bc b8 6c 83 3c d2 96 12 3d 0d ba 0f bc
       -0.013708354 0.016043052 0.035788365 -0.008772385
000380 f9 28 fb 3c e9 7c 9c bd 9a 4f a1 3d 93 32 82 bd
       0.030659186 -0.07641012 0.07876511 -0.063573025
000390 b1 39 94 3d e3 0a c5 3d 53 ce 01 3e 9f 98 13 3c
       0.07237566 0.09621217 0.12676363 0.009008556
0003a0 80 f6 10 be b7 39 8d 3c 1e ef 0d bd 62 75 aa 3d
       -0.14156532 0.017239435 -0.034651868 0.0832317
0003b0 10 c6 23 3d 1b 15 69 3d 5f e3 9d 3d 52 af 2c 3c
       0.03998381 0.056904893 0.07709383 0.0105398465
0003c0 af e4 9b bd b6 d7 04 be c1 50 db 3d 63 ab ee bd
       -0.07611977 -0.12972912 0.10708762 -0.11653783
0003d0 3e a7 64 3e ee b0 c6 3d 2e 88 a8 bc 65 de a6 3d
       0.22329423 0.097017154 -0.020572748 0.08147887
0003e0 2c 3b ed bd 60 85 96 3d aa 37 fb 3d 52 50 41 be
       -0.11583552 0.07349658 0.122664765 -0.18878296
0003f0 d9 2b f5 bc 6a f9 1d 3e 1c 86 d6 3d 80 4f c8 bd
       -0.029928135 0.15427175 0.10474798 -0.097807884

network_body._body_endoder.seq_layers.2.bias f4 [128]
000000 dd 25 69 ba 89 98 bb ba c2 b0 c2 3c 3b 8f 5f bc
       -0.00088938867 -0.0014312427 0.023765925 -0.013644989
000010 d6 c7 cc bc 04 f5 61 3c b0 d1 da 3b 20 c2 30 3c
       -0.024997633 0.013791326 0.0066778287 0.0107884705
000020 39 76 52 bb 4c 3b 0a bc 95 19 f0 3b ab b3 15 3d
       -0.0032113923 -0.008436989 0.0073272684 0.036548298
000030 33 11 a4 3c 5e 5b a5 bc 3d 0e 82 3c e0 3c 72 bc
       0.020027732 -0.020185169 0.01587593 -0.014785022
000040 dd c5 c9 bb 1c d7 5a bc 6c 00 50 3c c9 d5 75 bc
       -0.0061576203 -0.01335695 0.012695413 -0.015004584
000050 4d 62 87 bb bb 86 06 bc 02 55 d5 bc 90 2e 27 3c
       -0.0041315914 -0.008210833 -0.026041511 0.010203972
000060 d7 19 a0 3c a1 10 c9 3b ea d4 15 bb 01 31 4b 3c
       0.019543571 0.0061360155 -0.0022862502 0.01240182
000070 92 4e 62 bc 62 be a8 bc 82 c4 31 bc 56 ab 81 3c
       -0.013812678 -0.020598594 -0.010850074 0.01582877
000080 bb 0b c4 bc a4 6e 52 bb 4c 19 80 3b 3a 84 b6 bb
       -0.023931375 -0.0032109404 0.0039092656 -0.005569962
000090 d3 b6 f1 3c 16 aa a1 bc 94 15 2e 3c 16 ed b8 38
       0.029506123 -0.019734424 0.010625262 8.8179644e-05
0000a0 4a 91 c7 3c c7 fb 56 bc d3 2c 39 bc de df 65 3c
       0.024361271 -0.013121552 -0.011302191 0.014030425
0000b0 e9 28 82 3b 4f b3 db 3c 7d 2b ee 3c 4c 25 bd bb
       0.003972162 0.0268189 0.029073471 -0.0057722684
0000c0 2c a3 30 bc 1d 86 82 3c 01 be 9b 3c ee 9c 6c bb
       -0.010781091 0.01593309 0.0190115 -0.003610428
0000d0 0e 82 1d 3c 98 97 aa 3a 82 7c 70 39 52 30 d2 bc
       0.009613527 0.0013015149 0.00022934566 -0.025657807
0000e0 fa 2a f1 bb f6 8c 82 3b 43 99 32 3b 71 03 ea bb
       -0.0073598595 0.003984089 0.0027251996 -0.0071415235
0000f0 62 14 07 3c f7 0f b9 bc 99 2b 4a bc dc ac 63 3c
       0.008244606 -0.02259062 -0.012339496 0.013896193
000100 5f c2 8f bc b8 03 de 3c 7b 50 bf 3b 8a c3 45 3c
       -0.017548738 0.027101383 0.0058384514 0.012070546
000110 50 d9 9c bc 28 02 2d bb 3c 48 de ba 53 17 aa bc
       -0.019146591 -0.002639899 -0.0016958783 -0.020763075
000120 07 7c 90 3c e5 19 e6 3c ac b8 c9 3c 6c d2 22 3d
       0.017637266 0.02808852 0.024624191 0.039751455
000130 54 a5 cd bc f8 80 96 3c 69 df 7b 3a 3d 8b 24 3c
       -0.025103249 0.018372044 0.0009608181 0.010042963
000140 46 a4 22 3c cd 8d 57 bc 4c 5d 80 bc 8b f2 2e 39
       0.009926861 -0.013156367 -0.015669487 0.00016684287
000150 df 48 12 3c d8 e5 07 bc 3d f6 4a bc 91 1d 07 3d
       0.008928507 -0.008294545 -0.012387809 0.03298718
000160 8e 82 00 bd d6 a7 5e 3c 7c 73 9c 3c 36 0d 4a bb
       -0.031374507 0.01358982 0.019098036 -0.0030830628
000170 a5 08 b2 bc 75 5e 82 bc 40 76 0f bc 72 ae 48 3c
       -0.021732638 -0.015914181 -0.00875622 0.012248622
000180 7a f6 61 3b 00 5a 50 3a 61 af d8 bc 0b 53 a9 bb
       0.0034479187 0.00079479814 -0.026450815 -0.00516737
000190 3f 7e 2b 3c b9 48 20 bc 35 7c 2b bc f4 ec 12 3b
       0.010467111 -0.009782963 -0.010466625 0.0022419067
0001a0 c8 77 c4 3a 04 cd 45 bc 97 78 b8 bb ba ae cf bc
       0.0014989311 -0.012072805 -0.00562961 -0.02535187
0001b0 8d 2d 61 bc cb 1e 66 3c c5 9b 0e 3c 2e b6 eb bb
       -0.01374377 0.014045428 0.008704131 -0.0071933484
0001c0 93 73 5b bc 46 be cc 3c f4 ba cf ba 67 6b 81 3c
       -0.013394254 0.024993073 -0.0015848563 0.015798284
0001d0 d2 fc 8e bc c9 0c ae bc 8f 2c 16 3c e0 fb bb bc
       -0.017454538 -0.02124633 0.009165897 -0.022947252
0001e0 e5 d0 81 bc a7 05 dc 3c de f9 34 3c 1b 40 b7 bc
       -0.015846679 0.026858164 0.011045901 -0.022369435
0001f0 07 59 17 3d 29 49 b5 bc 0e dc a7 bc 2c b8 eb 3c
       0.036950137 -0.022129612 -0.020490672 0.028774343

action_model._discrete_distribution.branches.0.weight f4 [7, 128]
000000 b7 69 86 bc 22 98 1c bc cf a2 84 3b 72 e5 a4 bc
       -0.01640783 -0.009557756 0.0040477286 -0.02012894
000010 71 17 6e 3b 80 91 96 3a 43 b8 76 bc 10 b2 dd bb
       0.003632989 0.0011487454 -0.01505858 -0.0067656115
000020 8b 6f 5f 3c f7 eb 78 3c 78 45 16 bc e7 74 f7 38
       0.013637434 0.015192977 -0.009171836 0.000117996526
000030 fc d7 4a 3a db d8 88 bc 56 87 e1 3b ff 84 d6 bb
       0.00077378727 -0.016704967 0.0068825884 -0.006546616
000040 3b 08 c8 3b b5 6f 62 3a e8 d2 e1 3b 2c f9 dd 3b
       0.006104497 0.00086378615 0.006891597 0.0067740884
000050 ce d3 22 3b c9 99 dc ba ed 49 61 bc c3 ba 39 3c
       0.0024845484 -0.00168305 -0.013750535 0.011336031
000060 28 64 8b 3c cb ff 33 3b 6e 8f 09 3b 5d ff 14 3c
       0.017015532 0.0027465697 0.0020990032 0.0090940865
000070 bc 0f 13 bc 6d db 42 bc 71 01 98 3c 8d b7 4a 3c
       -0.008975919 -0.0118931355 0.018555375 0.0123728635
000080 b8 c2 c2 bb e2 06 e5 3b 5f da 95 3b f5 ce 3e bc
       -0.0059436224 0.006989346 0.004573151 -0.011646022
000090 43 e4 5d bc fc bb 02 bc 98 ee f3 3b 29 34 02 3d
       -0.013543191 -0.007979389 0.007444214 0.031788025
0000a0 cc c5 a0 3b 82 b8 cf bb 07 40 35 bc 37 de ac 3b
       0.0049063917 -0.0063391337 -0.011062629 0.0052755135
0000b0 0d 55 45 3c ab 15 b1 bb ad 0e 8d bb b1 04 ca bb
       0.0120442035 -0.0054041944 -0.004304728 -0.00616511
0000c0 57 31 a2 39 7c 1b ff 3b 8d 88 ce bb 2c 6f 9a bb
       0.0003093581 0.007785259 -0.006302899 -0.0047129598
0000d0 31 d7 64 3b 51 90 ac 3b 61 75 30 bc 88 75 16 bc
       0.0034918303 0.0052662273 -0.010770173 -0.009183295
0000e0 fa 22 dc 3b d1 87 9b 3c 66 73 2f 3b 68 58 29 bb
       0.0067180367 0.01898566 0.0026771664 -0.0025840048
0000f0 ee 7d 23 3c 74 58 8d bc 0e 09 84 bc d6 f8 b7 bb
       0.009978754 -0.017254092 -0.016117599 -0.0056143804
000100 69 88 83 bb da d2 90 3c d4 20 2c 3b 1c d5 1a 3b
       -0.004014064 0.017678667 0.0026264684 0.0023625558
000110 a3 68 a0 bc cb 73 58 3c 10 3c 48 bb e2 2b 95 bc
       -0.019581145 0.013211201 -0.0030553378 -0.018209402
000120 19 da a5 ba bf 04 05 3b 86 a2 1a 3c 5c 7c 31 3c
       -0.0012653499 0.0020297018 0.009438163 0.010832872
000130 53 fd 30 bc c3 54 03 3c ce 63 73 bc d1 16 e1 bb
       -0.010802585 0.008015814 -0.014855338 -0.006869175
000140 94 e8 63 ba b4 cb 18 bc 7a 74 65 3b db 63 cd ba
       -0.00086940196 -0.00932591 0.0035012052 -0.0015670018
000150 b9 4b c5 bb cc c0 99 3b ee 25 cf 3b fa 14 9c 3c
       -0.0060209897 0.0046921726 0.0063216602 0.019052971
000160 29 14 ef bc ff 20 be ba 08 2c 0b 3c ab e8 7a bc
       -0.029184418 -0.0014505683 0.008494385 -0.015314261
000170 81 55 4b 3b 9a 70 11 bb 3e 6f 40 3c 3c 28 0c ba
       0.0031026306 -0.002219236 0.011745272 -0.00053465716
000180 04 1d 08 bc 9c b9 e0 ba ce f0 4d bc 45 03 61 3b
       -0.008307699 -0.001714516 -0.012569619 0.0034334224
000190 c3 d6 a8 3b 61 57 36 3c 3a 75 62 bc ae a2 f1 3b
       0.0051525547 0.011129231 -0.013821894 0.0073741293
0001a0 7d d8 47 3c 6b 07 74 bb 63 df ec b9 2d 64 82 bb
       0.012197611 -0.0037235867 -0.00045179864 -0.003979227
0001b0 e0 b3 d9 bc db 4c 2a bb 02 62 10 39 c2 ce 4b 3a
       -0.026575029 -0.002598575 0.00013769421 0.0007774645
0001c0 9a 6c 5c bc 70 3e 89 3c 1b 53 a9 bb be c3 f3 ba
       -0.013453627 0.016753405 -0.0051673776 -0.0018597764
0001d0 ad 55 9c 3b 6d 26 02 ba dc 8b be 3c 9a 9e 49 bc
       0.0047709555 -0.00049648323 0.02326005 -0.01230588
0001e0 ab c0 27 3b 69 38 0a 3a 2d be 0c 3c 94 26 10 bc
       0.0025597017 0.0005272688 0.008590263 -0.00879826
0001f0 84 44 24 3c a9 7b 6c bc bb 61 79 bc 3f 36 d2 bb
       0.010026101 -0.01443378 -0.015221055 -0.006415158
000200 ca 87 70 3c d3 08 dc 3c d9 73 bf bc 6d 23 2d 3d
       0.014680812 0.026859676 -0.02337067 0.042270113
000210 32 75 0d 3c 53 6b c6 bb 4d 6a 20 bc c4 73 62 bc
       0.008633899 -0.0060552745 -0.009790969 -0.013821546
000220 d3 cf 51 3c 17 d7 12 3d 04 1c 8a bc ea bd 51 bd
       0.012805897 0.035849657 -0.016859062 -0.051206507
000230 ac 0c 19 bd 37 f4 31 3d 9c ef 1c bc 72 48 52 3d
       -0.0373656 0.043445792 -0.009578612 0.05133862
000240 e6 1c 0e 3d 7d e9 78 bb 04 24 d7 bb 1d ab 15 3d
       0.03469553 -0.0037980967 -0.0065655727 0.03654014
000250 55 12 89 bc f9 88 71 3d 9d 08 29 3d 72 85 c4 3a
       -0.016732374 0.058968518 0.04126798 0.0014993383
000260 55 b0 88 bc 09 35 8a bc cc fc 21 3d 56 b8 62 3d
       -0.016685644 -0.016870992 0.039547727 0.055351578
000270 7b 5e f9 3c ab 43 b3 3c 6a 04 55 3d 72 29 15 bc
       0.03044056 0.021882853 0.052006163 -0.00910412
000280 f8 ec 04 3d e5 c7 bc 3c 0a bc ee 3a 52 f1 95 bc
       0.032452554 0.023044536 0.0018213999 -0.018303547
000290 f4 ec e3 bc ff c7 30 3d 16 cf ed bc af 3d 61 3d
       -0.027822949 0.04315948 -0.02902941 0.054990467
0002a0 19 4a 2a bd 25 11 07 3d b5 6e b2 3c 3c 6e 13 bd
       -0.04157457 0.032975335 0.021781305 -0.0359938
0002b0 47 f6 14 3d 76 72 bc bc 2c 21 b8 bc 80 b4 0a 3d
       0.03636768 -0.023003798 -0.022476755 0.033863544
0002c0 0e 35 45 3d 33 60 1e bc 48 f7 b0 bc c0 a6 93 bc
       0.0481463 -0.00966649 -0.021602288 -0.018023849
0002d0 d6 51 06 3c e3 ad 96 3b 16 20 4d bc 22 c7 31 3d
       0.008198222 0.0045983656 -0.012519857 0.0434028
0002e0 3e 44 42 bc 3f c1 20 3d 54 29 48 bc aa 06 a0 bc
       -0.0118570905 0.039246794 -0.012216885 -0.019534428
0002f0 43 58 89 3d 37 c0 35 3d b9 87 10 3d 66 1f c1 bc
       0.06706288 0.044372763 0.035285685 -0.023574542
000300 43 09 5a 3d c8 07 dc bc 06 4b 45 3d 43 58 7a 3c
       0.05323149 -0.02685918 0.04816725 0.015279832
000310 48 ab 0b 3d 56 d9 e1 bb e1 11 30 3d 2e b0 59 3c
       0.034098893 -0.0068923635 0.0429858 0.013286633
000320 40 7f 58 bc b8 40 4f bd 56 d5 f9 bc aa 57 48 bd
       -0.0132139325 -0.05059883 -0.030497234 -0.048911728
000330 96 35 1c 3d 03 94 0a bc 8a 03 6b 3d 36 42 dd 3c
       0.03813704 -0.00845814 0.057376422 0.02700911
000340 50 26 2a bc f9 52 88 3c de 43 b4 bb c6 3e 30 3d
       -0.010385111 0.016641127 -0.0055012545 0.043028615
000350 03 14 bd 3c 29 aa 79 3b 67 38 b1 3a ea cf 97 3c
       0.023080831 0.0038095808 0.0013520838 0.018531758
000360 91 5e ff 3c ac 7d fb bb f6 ad 42 bc 3d 9f 2b 3d
       0.031173022 -0.0076748934 -0.011882296 0.04189991
000370 11 16 63 3c 07 37 cc 3c cb 06 f0 bb 3e aa 12 bc
       0.0138602415 0.024928583 -0.0073250285 -0.008951722
000380 41 68 42 3d 6b 7e d0 bc 0f 83 42 3d 7a 13 67 3c
       0.047462706 -0.025450906 0.04748827 0.014103765
000390 54 73 76 3d db 5c 33 3b 2c 06 ea 3c b3 b9 2d bc
       0.06016858 0.0027368579 0.028567396 -0.010603356
0003a0 21 72 82 bc 28 d3 e3 bb 85 c5 63 3c 64 de 1a 3d
       -0.015923562 -0.006952662 0.013902073 0.037809744
0003b0 aa cb bc 3c 91 f1 37 bc 0f a3 fc bb da 63 df 3b
       0.023046333 -0.0112270275 -0.007709868 0.006817323
0003c0 8b df 83 3d fa ab 13 bd 63 43 39 3d 36 a9 d6 3c
       0.06439122 -0.03605268 0.04523028 0.026203733
0003d0 10 f4 2e 3d f9 c8 ca 3c 18 1e 14 3d f0 f7 ba 3c
       0.042713225 0.024754034 0.036161512 0.022823304
0003e0 83 56 e6 3c 27 6c 31 bd 2b 15 70 3d 2c a4 22 3d
       0.028117424 -0.043316033 0.058613937 0.039707348
0003f0 b1 6f 99 3b 6a 4b 1e 3d 4c 8c e9 3c fd fa fb bc
       0.004682504 0.03864614 0.028509282 -0.030759329

action_model._discrete_distribution.branches.0.bias f4 [7]
000000 6c a6 d6 3b 90 a6 f9 bc 58 38 56 bc b9 bc 81 3c
       0.0065506008 -0.030474931 -0.013074957 0.01583706
000010 8f 6d c0 3b 45 98 25 bc 8f 35 b1 3a
       0.0058724354 -0.010107105 0.001351999
