CCP-main/results/WeightAgent_Training/WeightAgent_Training/WeightAgent_Training-999950.onnx (onnx, 173232 bytes, 6 tensors)

network_body._body_endoder.seq_layers.0.weight f4 [128, 197]
0	0x3c5c09e6	0.013430094
1	0x3e0ca8b6	0.13736233
2	0x3ded0a8f	0.115742795
3	0x3b888dbd	0.004167287
4	0xbe17034e	-0.14747354
5	0xbd7ba48a	-0.061436214
6	0xbcc1573d	-0.023601169
7	0xbc61da7e	-0.013785003
8	0x39859e0d	0.00025485494
9	0xbdc99200	-0.098423004
10	0xbbd242d6	-0.006416659
11	0xbdd6f7e5	-0.10496501
12	0x3da692fd	0.081335045
13	0x3de0672f	0.10957181
14	0xbc8e94a1	-0.017404856
15	0x3d23f82c	0.040031597
16	0x3d108b93	0.03528936
17	0xbe16b289	-0.14716543
18	0x3db86c83	0.09005072
19	0x3d212230	0.039339244
20	0xbbe13f0f	-0.0068739722
21	0x3e11b395	0.14228661
22	0xbcfe5964	-0.031048484
23	0xbcb56e36	-0.02214728
24	0xbe083aed	-0.13303728
25	0x3d1f1ff7	0.038848843
26	0xbca6cd1d	-0.020361478
27	0xbd696af8	-0.05698678
28	0xbce40725	-0.027835438
29	0xbe6a98c3	-0.22909836
30	0x3b890b68	0.004182268
31	0x3d6ca1ff	0.05777168
32	0xbc3489c8	-0.011019178
33	0xbda32f02	-0.079679504
34	0xbd26c87a	-0.040718533
35	0xbdee2dc7	-0.11629825
36	0x3c989a02	0.018628124
37	0x3df1ebae	0.118125305
38	0x3d111753	0.035422634
39	0xbca61a9f	-0.020276366
40	0x3e055c3c	0.13023466
41	0x3cca5635	0.02469931
42	0x3c350c66	0.011050319
43	0x3d089f6d	0.033355165
44	0x3dfc4a0f	0.12318813
45	0xbcd9c0a5	-0.026581118
46	0x3c1a08f3	0.009401548
47	0xbda81d5a	-0.08208723
48	0xbd84dfa4	-0.064879686
49	0x3d1e35ae	0.03862541
50	0xbc95b6cd	-0.018275643
51	0x3aba5261	0.0014215225
52	0xbe227901	-0.15866472
53	0xbdb248cc	-0.08705291
54	0xbd651df7	-0.05593678
55	0xbd817e76	-0.06322949
56	0xbdc99515	-0.09842888
57	0xbd61400e	-0.054992728
58	0x3e05e42e	0.13075325
59	0x3d307f1b	0.043089967
60	0xbd310195	-0.0432144
61	0xbdad71b0	-0.0846895
62	0x3c9c7f8e	0.019103792
63	0xbdd87c6b	-0.10570606
64	0x3da7f71d	0.0820143
65	0x3d7fdf6c	0.06246893
66	0x3d60f5a2	0.054921754
67	0xbda1995d	-0.0789058
68	0x3c436bad	0.011927527
69	0x3bc5c7e2	0.006035791
70	0xbdf4d997	-0.119555645
71	0xbda2c81f	-0.07948326
72	0x3dc37227	0.09543257
73	0x3caf0f58	0.021369621
74	0x3ddcaecc	0.10775527
75	0xbd6f04b5	-0.0583541
76	0xbb93e570	-0.004513435
77	0xbd20a6ec	-0.03922169
78	0x3c4090fd	0.011753318
79	0xbdc763df	-0.09735846
80	0xbc7a9bec	-0.015295964
81	0x3e150854	0.14553958
82	0xbd00d35a	-0.03145156
83	0x3cbdbd3e	0.023161527
84	0xbd24bf32	-0.0402214
85	0xbd93f320	-0.07224107
86	0x3d8f2298	0.0698902
87	0x3d7028d1	0.058632676
88	0xbd8978ac	-0.067124695
89	0xbe3a1379	-0.1817149
90	0x3cb18098	0.021667764
91	0x3d1c6394	0.038180903
92	0x3ca9118b	0.020638248
93	0xbdd8f889	-0.10594279
94	0x3d47c3c1	0.04877067
95	0x3dd31c28	0.10308105
96	0x3d486d08	0.048932105
97	0x3d3fdc6c	0.04684107
98	0x3e0a9d74	0.13536626
99	0xbcd6f1a6	-0.026238274
100	0xbbe2ea41	-0.006924898
101	0xbdb1dca1	-0.0868466
102	0xbc61dfb9	-0.01378625
103	0x3dccc9bf	0.099994175
104	0xbdc5a1f3	-0.0965003
105	0xbdf471ae	-0.11935745
106	0x3e0a16f7	0.13485323
107	0xbd84d9f1	-0.064868815
108	0x3ca8da38	0.020611867
109	0x3d8f2372	0.069891825
110	0xbc99bf21	-0.018767895
111	0x3dde7c01	0.108634956
112	0x3dc86c83	0.09786322
113	0xbca40715	-0.020022908
114	0x3cc0779f	0.02349454
115	0x3d2e4cb0	0.042553604
116	0xbd233871	-0.03984875
117	0x3c81d85f	0.015850244
118	0x3d90504e	0.07046567
119	0xbcd7fdfc	-0.026366226
120	0xbdcb2eb2	-0.09921016
121	0x3dc14d1a	0.09438534
122	0x3b2e3a81	0.0026585164
123	0x3d14a752	0.03629238
124	0x3d8d37b6	0.06895392
125	0x3d21685a	0.039406158
126	0xbd5294fc	-0.051411614
127	0xbe05adc0	-0.13054562
128	0x3d253ee4	0.04034318
129	0x3d223d67	0.03960934
130	0x3bacff8b	0.0052794865
131	0x3d9cdc89	0.07659251
132	0x3dc552ca	0.096349314
133	0x3cedc8e7	0.029026462
134	0xbd8a86f3	-0.06764021
135	0xbdf95d8b	-0.12176045
136	0xbdb02ba2	-0.08602072
137	0x3de723ad	0.112861015
138	0x39bc9149	0.000359664
139	0x3dc8dc07	0.09807592
140	0x3e014a69	0.12626041
141	0x3d8f1001	0.069854744
142	0x3d50fa37	0.051019873
143	0x3de7cc85	0.11318306
144	0xbdde9a3c	-0.108692616
145	0x3db72fa2	0.08944632
146	0xbde31c4c	-0.110893816
147	0xbcc64b6c	-0.024205886
148	0x3c1841e1	0.0092930505
149	0x3d8e9a96	0.06963079
150	0xbd9bc056	-0.076050445
151	0x3c84e2ea	0.016221482
152	0xbe023c5f	-0.12718342
153	0xbd84637f	-0.0646429
154	0xbda2fe95	-0.07958714
155	0x3d21baf6	0.03948494
156	0xbd927b21	-0.07152391
157	0x3dc9415b	0.09826919
158	0xbb9126ca	-0.004429673
159	0x3d144149	0.036195073
160	0xbc7e8398	-0.015534304
161	0xbcb3a5db	-0.021929672
162	0x3e1c807e	0.15283391
163	0x3d2061c8	0.03915575
164	0xbe008def	-0.12554143
165	0xbbe2bbf5	-0.006919379
166	0xbd0872a2	-0.033312447
167	0x3d400d0b	0.04688744
168	0x3e121147	0.14264403
169	0x3dbd6028	0.09246856
170	0x3d24a87e	0.04019975
171	0x3cffd8bd	0.031231279
172	0x3d805964	0.0626705
173	0xbd341958	-0.043969482
174	0xbd8c7a23	-0.06859233
175	0x3e0d09e3	0.13773303
176	0xbd7bf1af	-0.061509784
177	0xbd4d476b	-0.050116938
178	0xbcb843f1	-0.022493334
179	0x3c9fdefd	0.019515509
180	0x3d789496	0.060688578
181	0xbd072b79	-0.033000443
182	0xbd30f067	-0.043198016
183	0xbd1495b0	-0.036275566
184	0x3db74a21	0.08949686
185	0xbdeba537	-0.115061216
186	0x3dce72e8	0.100805104
187	0xbe749364	-0.2388435
188	0xbdb2e2e5	-0.08734683
189	0xbca95bfd	-0.020673746
190	0xbe1c720d	-0.15277882
191	0xbe3985b1	-0.18117405
192	0xbd82fb34	-0.063955694
193	0xbdc4a7cc	-0.09602317
194	0xbaf6ae0c	-0.001882018
195	0xbbceed36	-0.006314899
196	0x3d920bbb	0.07131144
197	0x3dc118fb	0.09428593
198	0x3e05a1a0	0.13049936
199	0x3e07f97d	0.13278766
200	0xbe587ce3	-0.2114139
201	0xbd2d0254	-0.04223855
202	0x3c4e4348	0.012589283
203	0x3c3b51a2	0.011433037
204	0x3debf08a	0.115204886
205	0x3dd13eac	0.10217032
206	0xbe50ff7e	-0.20409963
207	0x3d17636a	0.036960043
208	0x3e823977	0.25434467
209	0x3de51d12	0.11187185
210	0x3e0ad458	0.13557565
211	0x3dcf6c3c	0.10128066
212	0xbdba4443	-0.09095051
213	0x3db20cbb	0.086938344
214	0x3ca528e4	0.0201611
215	0x3db595fd	0.088664986
216	0x3e4f63ac	0.20252866
217	0x3e7c1566	0.24617538
218	0xbdc35b29	-0.09538872
219	0x3c1b5763	0.009481284
220	0x3c807ae0	0.015683591
221	0xbd93096d	-0.07179532
222	0x3e1a4b99	0.150679
223	0xbd30f6ff	-0.043204304
224	0xbdd9298a	-0.10603626
225	0xbc84cbd1	-0.016210468
226	0x3dd928fc	0.1060352
227	0x3d6c6745	0.057715673
228	0x3db4f9f3	0.088367365
229	0x3c6a50f6	0.014301529
230	0x3a46b302	0.0007579775
231	0x3e29aef7	0.1657065
232	0x3df96b0b	0.1217862
233	0xbc89bba4	-0.016813107
234	0x3da13766	0.078718945
235	0xbbe6e4d8	-0.0070463233
236	0xbdce3d05	-0.10070232
237	0x3d54c4ef	0.051945623
238	0x3c915883	0.017742401
239	0x3bca2698	0.0061691515
240	0x3d8052fa	0.062658265
241	0x3e111ac4	0.14170367
242	0x3d278211	0.040895525
243	0xbca0d1ed	-0.01963135
244	0x3c1f17ea	0.009710291
245	0x3e03d8bb	0.12875645
246	0x3e15da6c	0.14634103
247	0x3c583d7c	0.013198253
248	0x3d59eaf5	0.053202588
249	0xbd0f50a7	-0.034989025
250	0x3d5cf672	0.053945966
251	0x3d5fe456	0.054661117
252	0xbc14e47b	-0.009087677
253	0xbcbb8ffe	-0.02289581
254	0x3ca9f351	0.020745905
255	0x3d8edb6d	0.06975446

network_body._body_endoder.seq_layers.0.bias f4 [128]
0	0xbbec9c42	-0.007220776
1	0x3ccfec59	0.025381254
2	0x3c60d79c	0.01372328
3	0xbc739287	-0.014866478
4	0x3c49ec9c	0.0123244785
5	0x3ccc7f76	0.024963122
6	0x3c6435c3	0.013928833
7	0x3d2d2b6b	0.042277735
8	0x3d204b10	0.039134085
9	0x3d1edc80	0.038784504
10	0xbb8acb2d	-0.004235646
11	0xba8244d7	-0.0009938729
12	0x3ca177e1	0.019710483
13	0x3cb47cf4	0.022032239
14	0x3d8c88e9	0.06862051
15	0xbc80e21a	-0.015732814
16	0xbc9c4a8b	-0.019078514
17	0x39ddaca5	0.00042281035
18	0x3c9aa3a9	0.018876867
19	0xbc967c46	-0.018369805
20	0x3a8761d7	0.0010328841
21	0xbb4ac821	-0.003094204
22	0x3d1046ce	0.035223775
23	0x3c9235b5	0.017847875
24	0xbb5fc0a8	-0.0034141932
25	0xbc697abd	-0.0142504545
26	0xbc133abf	-0.008986174
27	0xbc763142	-0.015026392
28	0xbd068d82	-0.032849796
29	0x3c061664	0.008184049
30	0x3c1b998f	0.00949706
31	0x3c65d1dc	0.014027085
32	0x3ca9df3f	0.020736335
33	0xbca5e1eb	-0.020249328
34	0x3c62f8f1	0.013853298
35	0x3c873eb7	0.016509397
36	0xbc92b098	-0.017906472
37	0xbc9b0b0e	-0.01892617
38	0x3cda6ea2	0.026664082
39	0x3cf52929	0.029926853
40	0xbd0b7630	-0.03404826
41	0x3caa80c4	0.020813353
42	0x3d33afbc	0.043868765
43	0xbc69b184	-0.014263514
44	0x3cb467f5	0.022022227
45	0x3bceb467	0.0063081267
46	0x3d158867	0.036507037
47	0x3c771ff2	0.0150833
48	0x3d07b457	0.03313097
49	0x3ca35c00	0.01994133
50	0xbbb1cd81	-0.0054261093
51	0xbaec7039	-0.0018038816
52	0x3ceee89c	0.029163651
53	0xbce7feef	-0.028319804
54	0x3d0aeae4	0.033915415
55	0x3d1a56cd	0.037680436
56	0x3d16952e	0.036763363
57	0x3ca8c844	0.020603307
58	0x3d43fc1e	0.04784786
59	0x3ceee41a	0.029161502
60	0x3c1be23f	0.0095143905
61	0x3cda5ad4	0.026654638
62	0xbc83756d	-0.016047204
63	0x3c7a93bc	0.015294012
64	0x3c986f90	0.018607885
65	0x3d0a9753	0.03383572
66	0x3caebda9	0.021330671
67	0xba78dd1e	-0.0009493398
68	0x3c303849	0.010755607
69	0x3d66ed95	0.05637892
70	0x3b49a354	0.0030767517
71	0x3c295655	0.010335525
72	0x3d0a5cad	0.03377979
73	0x3d2e0464	0.042484656
74	0x3c0cf0c6	0.008602327
75	0x3d2f01b6	0.04272624
76	0x3bb245d5	0.0054404535
77	0xbc72bb10	-0.014815107
78	0x3c128d9c	0.008944895
79	0xbc7b4b08	-0.015337713
80	0x3b960612	0.0045783604
81	0x3d3dcdc4	0.04633881
82	0x3cef9dc3	0.029250031
83	0xbc3ea48b	-0.01163591
84	0xbcb254f5	-0.021769026
85	0xbbcf6b8e	-0.00632996
86	0x3c21d08c	0.009876382
87	0x3c9f3fa3	0.019439524
88	0xbc53a6f4	-0.012918223
89	0x3cb44d5c	0.022009544
90	0x3c6dc28b	0.014511715
91	0xb9c85699	-0.00038211493
92	0x3d84c451	0.06482757
93	0x3d2ebe57	0.04266199
94	0xbc677243	-0.014126363
95	0xbca1579b	-0.019695094
96	0x3c9bd808	0.01902391
97	0x3cf7cb47	0.030248297
98	0xbd07cdeb	-0.033155363
99	0x3c9b4f06	0.01895858
100	0x3a356e60	0.0006921049
101	0x3d625c42	0.055263765
102	0x3d51ccba	0.051220633
103	0xbac4ae6b	-0.0015005594
104	0x3d57da2a	0.05269829
105	0x3cc35c9b	0.023847869
106	0x3cd9d1f5	0.026589373
107	0xbd11a11b	-0.035554033
108	0x3c6de375	0.014519562
109	0x3ba32f77	0.0049800235
110	0x3d146e52	0.036238022
111	0xbc387e85	-0.011260633
112	0x3cf90401	0.030397417
113	0x3b369659	0.002786061
114	0x3c23e30a	0.010002861
115	0xbb4ea3c6	-0.0031530722
116	0x3c3db669	0.0115791345
117	0xbc921f89	-0.017837303
118	0x3c22d79d	0.0099391015
119	0xbcb3b947	-0.021938933
120	0x3c3af3e4	0.011410687
121	0x3bafda1a	0.005366576
122	0x3c85564d	0.016276503
123	0xbc0fc341	-0.0087745795
124	0x3c884c06	0.016637813
125	0x3c0a1ae8	0.0084292665
126	0xbb5341e6	-0.0032235323
127	0x3c530d37	0.012881569

network_body._body_endoder.seq_layers.2.weight f4 [128, 128]
0	0xbe219608	-0.15779889
1	0xbd9b9d74	-0.07598391
2	0x3d1c9d07	0.03823569
3	0xbdcd5b69	-0.10027201
4	0x3cffdd69	0.031233506
5	0x3e09007b	0.1337909
6	0x3d59e8be	0.053200476
7	0xbd262d33	-0.04057045
8	0xbc7eaee5	-0.015544628
9	0x3e2ab169	0.16669239
10	0x3ca99a23	0.02070338
11	0xbda1d9a9	-0.079028435
12	0xbc95b3d4	-0.018274225
13	0xbd5b5a0f	-0.053552683
14	0x3d1e42a0	0.038637757
15	0xbe18c519	-0.14918937
16	0xbd3ae4c7	-0.045628335
17	0xbc6e8282	-0.014557483
18	0x3d675974	0.056481794
19	0xbde1d9ce	-0.11027871
20	0xbd0ac80c	-0.033882186
21	0x3d5a9ac7	0.053370263
22	0xbe23af2d	-0.15984793
23	0xbca44a10	-0.020054847
24	0x3b965795	0.0045880773
25	0xbd8bcf98	-0.06826705
26	0xbb7039ae	-0.0036655474
27	0x3d1f1df9	0.038846944
28	0xbe3d3d22	-0.18480352
29	0xbd948b6a	-0.072531536
30	0xbdaa01b4	-0.08301106
31	0xbc4aca91	-0.012377397
32	0x3dec85e1	0.11548973
33	0xbd2340c4	-0.039856687
34	0x3d39734d	0.045275975
35	0xbdd9c9a7	-0.10634165
36	0x3e154140	0.14575672
37	0x3d95a24b	0.073063456
38	0x36841908	3.9368206e-06
39	0xbe5eb728	-0.21749556
40	0xbd172e99	-0.036909673
41	0x3cf45a59	0.029828237
42	0x3db5c8e5	0.08876208
43	0xbd8cdbfe	-0.06877898
44	0x3e0dc0b6	0.13843045
45	0x3cffea1b	0.03123956
46	0x3d478335	0.048709113
47	0xbd11f3ec	-0.035633013
48	0xbda1be46	-0.0789762
49	0xbd6e9ec3	-0.058256876
50	0x3d878bbc	0.06618449
51	0x3d11a446	0.035557054
52	0x3d9b8e95	0.07595555
53	0xbda434c9	-0.080178805
54	0xbe05b15d	-0.1305594
55	0x3d32b2c6	0.043627523
56	0xbd385ce7	-0.045010474
57	0x3d6f4dc9	0.05842379
58	0x3d77dd1b	0.060513597
59	0x3c98e568	0.018664077
60	0x3d4fb162	0.050706275
61	0x3dd0d295	0.10196415
62	0xbd9c4ff2	-0.07632436
63	0xbe08dbab	-0.13365047
64	0xbd184300	-0.03717327
65	0x3dfbe5bc	0.12299678
66	0x3dc6674c	0.09687671
67	0x3dc1abc8	0.09456593
68	0xbe05be7b	-0.13060944
69	0x3b8bda52	0.004267969
70	0xbd962301	-0.07330895
71	0x3d757e2a	0.059934773
72	0xbe054fc2	-0.13018706
73	0xbe353183	-0.17694668
74	0xbc43f771	-0.01196085
75	0x3e0caf5d	0.13738771
76	0xbb02d64b	-0.0019964154
77	0xbc76949a	-0.015050078
78	0x3bb3fbe2	0.0054926733
79	0x3e226d44	0.15861994
80	0x3d9c8b7e	0.076437935
81	0xbd24196c	-0.040063307
82	0x3e0d7f6a	0.13818136
83	0x3d3a773e	0.045523874
84	0x3cbb3bb2	0.022855613
85	0x3d9d260f	0.07673275
86	0x3d90dd3b	0.07073446
87	0xbdbe41a6	-0.09289865
88	0x3d4d4489	0.05011419
89	0xbd7d7e22	-0.061887868
90	0xbcf79b11	-0.030225309
91	0x3d2254bd	0.039631594
92	0x3e745d7e	0.2386379
93	0x3ba5660b	0.005047565
94	0xbcc400b4	-0.023926117
95	0x3ca45519	0.020060109
96	0xbd0c38ef	-0.034233984
97	0xbcf1e978	-0.029530272
98	0xbe10fd70	-0.14159179
99	0xbc788e0c	-0.015170585
100	0x3e51f936	0.20505223
101	0x3da6f58a	0.081523016
102	0x3e3edd48	0.186391
103	0xbe07b604	-0.13253027
104	0xbcef41c7	-0.02920617
105	0xbcb964b5	-0.022631029
106	0xbd61a5e1	-0.055089835
107	0xbd9185e3	-0.07105615
108	0x3c57dd9e	0.013175396
109	0xba34d6cc	-0.00068984623
110	0x3df6073c	0.120130986
111	0xbc7059d8	-0.014669858
112	0xbd60c1c9	-0.054872308
113	0xbdc651e6	-0.0968359
114	0xbe0c50ea	-0.13702741
115	0xbd43e4ed	-0.047825743
116	0x3ca9aad9	0.02071135
117	0xbdb1477f	-0.08656215
118	0x3cf3941c	0.02973371
119	0xbdd95072	-0.10611047
120	0xbe29c03e	-0.16577241
121	0xbe2e94ea	-0.17048994
122	0xbd501006	-0.05079653
123	0xbd1d4fa5	-0.038406033
124	0x3cc83f3a	0.024444211
125	0xbda2a4b2	-0.079415694
126	0x3d8e3e38	0.06945461
127	0x3cb4fb3b	0.022092452
128	0x3d48c0aa	0.049011864
129	0x3c3bc59d	0.011460689
130	0xbdb56a3a	-0.08858152
131	0xbdd399df	-0.10332083
132	0x3da37ac1	0.07982398
133	0x3dea1148	0.114290774
134	0x3e167856	0.14694342
135	0x3e20c8ee	0.15701649
136	0x3cbc9a18	0.023022696
137	0xbe2e8ccc	-0.17045897
138	0xba823fab	-0.0009937187
139	0x3dcf05d7	0.10108536
140	0x3d86d075	0.06582729
141	0x3e1e0b65	0.15434034
142	0x3dc3b3ae	0.095557556
143	0xbdd06a6e	-0.1017655
144	0x3df972f9	0.121801324
145	0xbcd24d9c	-0.025671773
146	0xbc1ef12d	-0.0097010555
147	0x3db32a53	0.08748307
148	0xbd400aa4	-0.046885148
149	0xbdfbb050	-0.12289488
150	0x3e31b06d	0.17352457
151	0xbe116b1f	-0.1420102
152	0x3da8938d	0.08231268
153	0xbd8d0730	-0.068861365
154	0x3bb0876d	0.0053872378
155	0xbd1d3864	-0.038383856
156	0x3d2518b3	0.040306758
157	0xbe4aae5a	-0.19793072
158	0xbd0019c4	-0.031274572
159	0xbc90b9d9	-0.017666744
160	0x3ce03a65	0.027371595
161	0xbd22336c	-0.03959982
162	0x3baa7e4e	0.005203045
163	0xbe081000	-0.13287354
164	0x3c52dd23	0.012870106
165	0xbdfa78b9	-0.12230057
166	0xbcf6c7e8	-0.03012462
167	0x3bbc6986	0.005749884
168	0x3a02d95a	0.00049914944
169	0x3e0d4d91	0.1379912
170	0x3deec3b8	0.11658424
171	0x3c249dec	0.010047417
172	0xbb25353f	-0.002520874
173	0xbc06feaf	-0.008239432
174	0xbcbb6cbb	-0.022878995
175	0x3d04684c	0.032326028
176	0x3d9fdcc2	0.07805778
177	0xbd4f2bf0	-0.05057901
178	0x3c537ea7	0.012908614
179	0xbd262d67	-0.040570643
180	0xbd9fc38d	-0.0780097
181	0xbe0b0081	-0.13574411
182	0x3e8b1f9c	0.27172554
183	0xbca20e1d	-0.01978212
184	0xbd5e6090	-0.054291308
185	0xbcc31704	-0.023814686
186	0xbd94ed17	-0.07271784
187	0xbe3e9ed9	-0.18615283
188	0xbd30d928	-0.043175846
189	0xbe36a1db	-0.1783518
190	0x3d7d2850	0.061806023
191	0x3d1b545f	0.03792226
192	0x3dc464ec	0.09589562
193	0xbe322427	-0.17396604
194	0xbd2627c8	-0.040565282
195	0xbd006a21	-0.031351212
196	0xbc3df68e	-0.011594428
197	0xbdfda2b2	-0.12384547
198	0xbcd6649c	-0.026171021
199	0x3e186e0f	0.14885734
200	0x3d9d544a	0.076820925
201	0x3d9f35d4	0.07773939
202	0x3d99b0b5	0.07504407
203	0x3e290bce	0.1650841
204	0x3d35757a	0.044301488
205	0x3dfc015f	0.12304949
206	0xbd2f691b	-0.042824846
207	0xbd640eac	-0.055678055
208	0x3dd31c5f	0.10308146
209	0xbc1c40c1	-0.009536923
210	0x3d4c02ed	0.049807478
211	0x3e265f47	0.16247283
212	0xbdf218ce	-0.11821137
213	0xbc58fd4c	-0.013243984
214	0x3e10118b	0.14069192
215	0xbe1768ed	-0.1478612
216	0xbdc6f65b	-0.09714957
217	0x3dab1caf	0.0835508
218	0x3dd80e30	0.10549581
219	0xbd25f263	-0.04051436
220	0x3d39104c	0.045181558
221	0x3d4979a1	0.04918826
222	0xbe02469f	-0.12722252
223	0xbcc18c98	-0.02362661
224	0x3d9b57ff	0.07585143
225	0x3c2678fe	0.010160683
226	0x3c90845c	0.017641239
227	0x3db5be13	0.088741444
228	0x3d8e68a3	0.069535516
229	0xbc8c77aa	-0.017146904
230	0xbe29392e	-0.16525719
231	0xbce33888	-0.027736917
232	0x3ccc0a41	0.024907233
233	0x3d8084d9	0.06275339
234	0xbe4d4712	-0.20046642
235	0xbdc845f9	-0.09778971
236	0xbccfcf3f	-0.025367377
237	0xbcb189ac	-0.021672092
238	0xbd8085bd	-0.062755086
239	0xbe29ace1	-0.16569854
240	0x3e709f09	0.23498167
241	0xbda7efd8	-0.082000434
242	0xbbc150e6	-0.0058995364
243	0xbdac5143	-0.08413937
244	0x3c34f975	0.011045803
245	0xbdc8c8f8	-0.09803957
246	0x3d83cb91	0.064353116
247	0x3dbcb625	0.09214429
248	0xbdb441c7	-0.088016085
249	0x3de3fddf	0.111324064
250	0x3d983cc3	0.074334644
251	0xbe138899	-0.14407577
252	0x3dc4b919	0.09605617
253	0x3d4a5014	0.049392775
254	0x3cef9f1f	0.02925068
255	0xbd51bde5	-0.05120649

network_body._body_endoder.seq_layers.2.bias f4 [128]
0	0x3cf426ed	0.029803718
1	0x3c76bb63	0.015059325
2	0xba8eb544	-0.0010887762
3	0xbc88cecd	-0.016700173
4	0x3cd5ce02	0.026099209
5	0x3cbb1dde	0.02284139
6	0x3ccad602	0.02476025
7	0xbbbfec22	-0.0058570066
8	0xbcbdd998	-0.023175046
9	0xbcb69046	-0.022285592
10	0xba866e4a	-0.0010256257
11	0x3b9dff6a	0.0048217075
12	0xb9d48b98	-0.00040539796
13	0xbc6636e6	-0.014051175
14	0x3c176c11	0.009242074
15	0xbc7c83f3	-0.0154123185
16	0xbcb6a96e	-0.022297587
17	0x3b66caef	0.0035216173
18	0x3bb8e359	0.0056423363
19	0xbc570f83	-0.013126257
20	0x3b1d2373	0.0023977428
21	0xbcc078e1	-0.02349514
22	0xbb11123c	-0.0022136113
23	0xba4aa1b7	-0.0007729786
24	0x39e6dc71	0.0004403326
25	0x3b6a9f5a	0.0035800547
26	0x3b8d4334	0.0043109898
27	0xbc0ea130	-0.008705422
28	0xbbed313a	-0.0072385343
29	0x3bd4b6ce	0.0064915186
30	0xbca3c5d9	-0.019991802
31	0x3ca73dc0	0.020415187
32	0x3c125eb2	0.00893371
33	0xbc7dc71d	-0.015489367
34	0xbb3e1a8f	-0.002900753
35	0xbc234919	-0.009966158
36	0x3c263bc2	0.010146083
37	0xbbd1148e	-0.006380624
38	0x3c91109a	0.017708112
39	0x3be72f40	0.007055193
40	0xbc8fca98	-0.017552659
41	0xbaf11e90	-0.0018395949
42	0x3d226ed7	0.039656486
43	0x3c74e1c4	0.014946405
44	0x3ce1d3bb	0.027566781
45	0x3c5ed7ae	0.013601227
46	0x3c0aa1a9	0.008461394
47	0xbcbf0584	-0.02331806
48	0x3cb29397	0.021798892
49	0x3d0ea53b	0.034825545
50	0xbca1361d	-0.019679124
51	0x3c2c2240	0.010506213
52	0x3cb3a1aa	0.021927673
53	0x3c4e0df5	0.01257657
54	0x3c4aa1d8	0.012367688
55	0xbc97ff8a	-0.018554468
56	0xbc7007cf	-0.014650299
57	0xbb9f12a9	-0.0048545194
58	0xb9fccfe9	-0.0004822009
59	0x3bb86201	0.0056269174
60	0x3cedb038	0.029014692
61	0x3afb4ea6	0.0019173219
62	0xbab5b99e	-0.0013864522
63	0xbc8fac01	-0.017538073
64	0x3c56d677	0.013112656
65	0xbbdd0efe	-0.006746172
66	0x3affd14c	0.0019517331
67	0xbb39faf7	-0.0028378346
68	0x3cc32eae	0.02382597
69	0xbbcb6d27	-0.0062080803
70	0x3cecdb9a	0.028913308
71	0xbb0a813d	-0.002113416
72	0x3c957718	0.018245265
73	0x3bc60c17	0.0060439217
74	0x3c6a4872	0.014299499
75	0x3b8919de	0.004183992
76	0x3c24f440	0.010067999
77	0x3c22a0a0	0.009925991
78	0x3d003a28	0.031305462
79	0x3bf7d8a7	0.007563669
80	0xbc8d706a	-0.017265517
81	0xbd08c9d0	-0.03339559
82	0xb99d21e1	-0.00029970615
83	0xbcb1e431	-0.021715255
84	0x3b55ee09	0.00326431
85	0x3b4a7f1a	0.0030898512
86	0x3cb0dfce	0.021591093
87	0xbc03b459	-0.008038604
88	0x3d3a8f3a	0.045546748
89	0xbc283d72	-0.010268556
90	0xbbe2f77a	-0.006926474
91	0x3c494656	0.012284836
92	0xbc0e1a57	-0.008673272
93	0xbc008190	-0.00784339
94	0x3c70afd0	0.0146903545
95	0x3d287208	0.041124374
96	0x3c888533	0.016665077
97	0x3bc01692	0.0058620656
98	0xbcbb6058	-0.022873089
99	0xbc2fcbab	-0.010729711
100	0xbb93be2e	-0.004508755
101	0x3c7c81cb	0.015411804
102	0x3bc5aa3e	0.0060322573
103	0x3d2348db	0.039864402
104	0xbc37272d	-0.011178774
105	0xbc91c411	-0.017793687
106	0x3ce06b29	0.027394848
107	0x3d27891b	0.04090224
108	0xba895a6a	-0.0010479216
109	0xbba8f8d8	-0.0051566176
110	0xbd10e952	-0.03537876
111	0xbcc6185b	-0.024181535
112	0xbc93fb7e	-0.018064257
113	0xbd0cfa8a	-0.03441862
114	0x3cacdbb9	0.021100866
115	0xba3d4f56	-0.00072216
116	0x3c934d58	0.017981216
117	0xbca0fa88	-0.019650713
118	0x3d0afe9a	0.033934213
119	0x3bc8a2d7	0.0061229276
120	0x3cc69815	0.02424244
121	0xbc19df06	-0.009391552
122	0xbd388768	-0.04505101
123	0xbce413e8	-0.027841523
124	0x3d115776	0.0354838
125	0xbcda8c9c	-0.026678376
126	0x3b6146c7	0.0034374462
127	0x3c8cdf54	0.017196335

action_model._discrete_distribution.branches.0.weight f4 [7, 128]
0	0xbd2ba22b	-0.041902702
1	0xbb80acde	-0.0039268574
2	0xbbbf3088	-0.005834643
3	0xbd3d2e13	-0.046186518
4	0x3c02a8b8	0.007974796
5	0xbcbc393c	-0.02297651
6	0x3bd4f633	0.006499076
7	0xbcee44ff	-0.029085634
8	0xbaf1c248	-0.0018444741
9	0xbc046509	-0.008080729
10	0xbceaf59b	-0.028681567
11	0xbcb6495a	-0.022251774
12	0xbbd811da	-0.006593925
13	0xbc41813a	-0.011810595
14	0xbab9a149	-0.0014162447
15	0xbd433c21	-0.047664765
16	0xbc128cbe	-0.008944688
17	0xbd346c37	-0.044048514
18	0x3c32fbea	0.010924319
19	0xbc2d9a52	-0.010595875
20	0xbbd45248	-0.0064795353
21	0xbcea56c0	-0.028605819
22	0x3c7f9899	0.015600347
23	0xbb76cb9e	-0.0037657986
24	0xbc35f593	-0.011105913
25	0x3b36036e	0.002777304
26	0x3c02fb9c	0.007994559
27	0x3c00887d	0.007845041
28	0xbd1b3fab	-0.037902515
29	0x3b83e986	0.004025641
30	0xbc82d966	-0.015972804
31	0x3bf7c78f	0.007561631
32	0x3b4898c6	0.0030608638
33	0xbd12a307	-0.035800006
34	0xbbf4b4f0	-0.0074678585
35	0xbc91781e	-0.017757472
36	0x3b04a0d3	0.002023746
37	0xbc5b3cca	-0.013381192
38	0x3b069384	0.0020534704
39	0xbbfb61a8	-0.0076715536
40	0xbd0bdb89	-0.034144912
41	0x3b134733	0.0022472858
42	0x3972324c	0.00023097656
43	0xbc535a64	-0.012899969
44	0x3c68aff6	0.014202109
45	0xbc40eb09	-0.011774787
46	0x3aaa4bf3	0.0012992605
47	0xbcbaed9c	-0.02281838
48	0xbc48037e	-0.012207864
49	0x3cb35263	0.021889871
50	0x3a4f6fd1	0.0007913085
51	0x3add6c52	0.0016893244
52	0xbcf8566b	-0.030314645
53	0xba43691a	-0.0007454321
54	0xbd4b397c	-0.04961537
55	0xbce2f90f	-0.027706651
56	0xbb1319bf	-0.0022445766
57	0xbb219780	-0.0024656951
58	0xbc15646a	-0.009118179
59	0x3aae2b66	0.001328808
60	0x3bff3724	0.0077885557
61	0xbc0af142	-0.008480372
62	0xbd311a32	-0.043237872
63	0xbd05de56	-0.03268274
64	0xbbe41934	-0.0069610123
65	0xbd0898ac	-0.033348724
66	0x3b0c21e7	0.0021382512
67	0xbcbd0136	-0.023071866
68	0x3cc3c065	0.023895452
69	0x3b8bca02	0.0042660246
70	0x3c381836	0.011236241
71	0x3bb4df84	0.005519809
72	0x3c866b76	0.016408663
73	0x3b924661	0.004463956
74	0x3b26a723	0.002542921
75	0xbd04608c	-0.032318637
76	0x3bc800df	0.0061036195
77	0xbd2818cb	-0.04103927
78	0xbd3c204e	-0.045929246
79	0x3ba4b21e	0.005026116
80	0xbd07d6a0	-0.033163667
81	0xbd2a3f15	-0.041564066
82	0xbd3e58da	-0.046471454
83	0xbc667085	-0.014064913
84	0xbb3ccfa2	-0.0028810282
85	0xbc50f999	-0.012754821
86	0x3b3d2e96	0.0028866879
87	0xbd137b02	-0.03600598
88	0x3c1e1cba	0.009650404
89	0xbc6f2ff0	-0.014598832
90	0xbd122bbb	-0.035686236
91	0xbc8d863f	-0.017275928
92	0x3bcca7d6	0.0062455935
93	0xbd042702	-0.032263763
94	0xbcb9e1e7	-0.022690726
95	0x3ce59954	0.028027214
96	0xbb567e84	-0.0032729218
97	0xbb2fd99d	-0.0026832588
98	0xbd1ef6ec	-0.0388097
99	0x39c6e102	0.00037933147
100	0xbc04db1d	-0.008108881
101	0xbc3ecf57	-0.011646113
102	0xbc49d4ae	-0.012318773
103	0xbc39c15c	-0.011337604
104	0xbcfa2097	-0.030533118
105	0xbd0ebf63	-0.03485049
106	0x3c36a89a	0.011148596
107	0x3d13cd6a	0.03608457
108	0x3af954df	0.0019022486
109	0x3b14d254	0.0022708373
110	0xbd184c75	-0.03718229
111	0xbd20c39c	-0.039249048
112	0xbc241aa5	-0.010016118
113	0xbcd313fa	-0.025766362
114	0xb85be40a	-5.2426047e-05
115	0xbc89d5ac	-0.01682552
116	0xbc531379	-0.012883061
117	0xba40c1e2	-0.00073531095
118	0xbd260c2f	-0.040538963
119	0xbbad32c7	-0.005285594
120	0x3bd32277	0.0064433175
121	0xbbdad388	-0.0066780485
122	0xbcec9e87	-0.028884185
123	0xbc475c67	-0.0121680265
124	0x3bae6628	0.0053222366
125	0xbd581a87	-0.052759673
126	0xbc2db05c	-0.010601129
127	0x3c17ace0	0.009257525
128	0x3d5635c4	0.05229737
129	0xbcd665a9	-0.026171522
130	0xbc52392d	-0.012831015
131	0x3ba2e304	0.00497091
132	0xbd166dac	-0.036725685
133	0x3d1990ba	0.037491538
134	0xbccd1ab1	-0.025037142
135	0x3b5228c7	0.0032067762
136	0xbb6cee75	-0.0036152874
137	0x3c6f0aff	0.014590024
138	0x3da716ba	0.081586316
139	0x3d4b9854	0.04970582
140	0xbca2252d	-0.019793117
141	0xbc0a9070	-0.008457288
142	0xbc620e1b	-0.013797308
143	0x3d1b4698	0.03790912
144	0xbb59eb86	-0.0033251955
145	0x3c79486d	0.015215022
146	0xbbd8897d	-0.0066081868
147	0x3ba62750	0.0050706044
148	0xbca718fb	-0.020397654
149	0x3d08247c	0.03323792
150	0x3b54518e	0.0032397243
151	0x3caa5f45	0.020797381
152	0xbc8a2e94	-0.016867913
153	0xbc2c2fe8	-0.010509469
154	0xbbbcd570	-0.0057627484
155	0xbb502234	-0.0031758668
156	0x3cde3cfe	0.027128693
157	0x3b9e94fd	0.004839538
158	0xbbbafdce	-0.0057065254
159	0xbcdacd50	-0.026709229
160	0xbc343439	-0.010998779
161	0x3c50d7f0	0.012746796
162	0xbb2072bd	-0.0024482452
163	0x3d2dcb25	0.04243006
164	0x3cdbb57f	0.026819943
165	0xbc4ef4b1	-0.012631581
166	0xbd0dfac1	-0.034662966
167	0xbca095a1	-0.019602599
168	0x3ca02850	0.019550472
169	0x3bd8ce00	0.006616354
170	0x3ac27f97	0.001483905
171	0xbc93e058	-0.018051311
172	0xbceaff5f	-0.028686224
173	0x3c0d348e	0.008618487
174	0x3c9d55c9	0.019205945
175	0x3d17aa93	0.037027907
176	0x3d92eb47	0.07173782
177	0xbd9dc00b	-0.07702645
178	0x3d0d0027	0.034423973
179	0xbcad896c	-0.021183692
180	0x3dd53f37	0.10412448
181	0xbcbfd3a7	-0.023416353
182	0x3d8762f0	0.06610668
183	0x3d10d0b2	0.035355277
184	0x3c8d8cb6	0.01727901
185	0xbbdd5719	-0.0067547676
186	0xbc99dab6	-0.018781047
187	0xbc8029e5	-0.015644977
188	0xbcc8464a	-0.024447579
189	0xbb1f729a	-0.0024329782
190	0x3cbeb25e	0.023278411
191	0x3ce4bdba	0.0279225
192	0x3c656327	0.014000691
193	0x3d151a4f	0.036402043
194	0x3b579c9e	0.0032899748
195	0x3dbe36ee	0.09287821
196	0xbce8d74f	-0.02842298
197	0xba8a229a	-0.0010538877
198	0xbd199ace	-0.03750115
199	0xbc211a6f	-0.009832962
200	0xbc732200	-0.014839649
201	0x398aa626	0.000264452
202	0xbd1a0203	-0.037599575
203	0x3d4b64d6	0.04965671
204	0xbca357bb	-0.019939294
205	0x3d963593	0.07334437
206	0x3dde6904	0.10859874
207	0xbc419615	-0.0118155675
208	0x3d00e780	0.031470776
209	0x3cd51367	0.026010228
210	0xbd1bf9c2	-0.038079984
211	0xbb91628a	-0.0044367956
212	0xbcc6cc94	-0.024267472
213	0x3d226585	0.039647598
214	0xbc96608a	-0.01835658
215	0xbc827b74	-0.015928008
216	0xbda2f5e0	-0.07957053
217	0xbbf5b0e1	-0.0074978922
218	0x3d1355b4	0.035970405
219	0x3cb16642	0.021655206
220	0xba050fa4	-0.0005075878
221	0x3c9b6729	0.018970089
222	0x3c9b79a8	0.018978909
223	0xbd321257	-0.04347452
224	0xbca0c11b	-0.01962333
225	0x3b4e75f0	0.0031503402
226	0x3d04ad78	0.032391995
227	0x3cadf0fd	0.021233076
228	0xbc2629fb	-0.010141845
229	0xbd267f49	-0.040648732
230	0xbca66e3e	-0.02031624
231	0xbc96e737	-0.018420799
232	0x3d77f5f4	0.060537294
233	0x3d233007	0.039840724
234	0xbd7b09ea	-0.06128875
235	0xbd973c31	-0.073845275
236	0x3c5a5575	0.013326039
237	0x3b9c3e84	0.0047681946
238	0x3ca78358	0.020448372
239	0x3cf475ed	0.029841388
240	0xbbb83998	-0.0056221
241	0x3cc8540e	0.024454143
242	0xbcf4b608	-0.029871956
243	0x3c2bda1f	0.010489016
244	0xbdb03c5e	-0.08605264
245	0x3c10c495	0.008835931
246	0x3d9361b9	0.071963735
247	0xbc2ba289	-0.010475763
248	0x3c477fc3	0.012176457
249	0x3cad0774	0.021121718
250	0x3d09c711	0.03363711
251	0x3c975502	0.018473152
252	0xbd29c765	-0.041449923
253	0x3cc81f0e	0.02442887
254	0xbd18dd52	-0.037320442
255	0xbcca6dbc	-0.024710529

action_model._discrete_distribution.branches.0.bias f4 [7]
0	0x3c82ad26	0.015951704
1	0xbd045858	-0.032310814
2	0x3c087a8b	0.008329998
3	0xbb8aeee2	-0.004239903
4	0xbaefad2a	-0.001828586
5	0x3c1bd1bf	0.009510457
6	0x3bb8467b	0.0056236363
