CCP-main/results/WeightAgent_Training/WeightAgent_Training/WeightAgent_Training-1999977.onnx (onnx, 173232 bytes, 6 tensors)

network_body._body_endoder.seq_layers.0.weight f4 [128, 197]
0	0x3d42f3da	0.047595836
1	0x3d2d50bb	0.04231332
2	0xbce93e4e	-0.028472092
3	0x3c6e3652	0.014539318
4	0x3ce101e7	0.027466727
5	0xbdaf2142	-0.08551265
6	0x3c015f3c	0.007896241
7	0x3d9713d1	0.073768266
8	0xbc914b98	-0.017736241
9	0x3dd081ed	0.101810314
10	0x3d6756b0	0.056479156
11	0x3d7ec9be	0.062204115
12	0x3aea0cd6	0.0017856609
13	0x3dfc1132	0.12307967
14	0xbd807f18	-0.06274241
15	0xb8c4bb78	-9.380927e-05
16	0xbd416a92	-0.047220774
17	0x3d25d719	0.040488336
18	0x3d963b4d	0.073355295
19	0x3c294196	0.010330578
20	0x3b6745a5	0.0035289314
21	0x3ce5166a	0.02796479
22	0x3e0c4fc3	0.13702302
23	0x3e9c6c3f	0.30551335
24	0x3cc1f233	0.02367506
25	0xbd21faff	-0.03954601
26	0xbdee6eab	-0.11642202
27	0x3dbd2a80	0.09236622
28	0xbd499123	-0.04921068
29	0x3d56d054	0.05244477
30	0x3d61cf23	0.05512918
31	0xbaeeb9dc	-0.0018213349
32	0xbd3afde4	-0.045652285
33	0xbcbcbd10	-0.02303937
34	0x3d0a19ca	0.033716
35	0xbbc2005f	-0.0059204544
36	0x3d97dd2d	0.07415233
37	0xbd96d9c5	-0.07365755
38	0x3cef2592	0.02919272
39	0x3bee4469	0.0072713387
40	0xbbfbb682	-0.0076816687
41	0x3d025073	0.031815004
42	0xbcf079f6	-0.02935503
43	0xbdf802a0	-0.12109876
44	0xbc74775a	-0.014921034
45	0xbd57e555	-0.052708942
46	0xbd8b78ac	-0.06810126
47	0x3d789c14	0.060695723
48	0xbdb005e0	-0.085948706
49	0x3e1e344d	0.15449639
50	0xbd549431	-0.05189914
51	0x3d863048	0.06552178
52	0xbc39d990	-0.011343375
53	0xbd88a60a	-0.066722944
54	0xbe208d27	-0.15678845
55	0xba0a4aed	-0.0005275447
56	0x3e2e746b	0.17036597
57	0x3cdb2804	0.02675248
58	0x3db9c773	0.09071245
59	0xbd1821d4	-0.037141636
60	0x3d777880	0.060417652
61	0x3d2ddb57	0.042445507
62	0xbde53ff7	-0.11193841
63	0x3dcc9283	0.099888824
64	0x3c772e9a	0.015086794
65	0x3d8b7cc0	0.068109035
66	0xbcbf6b3c	-0.023366563
67	0xbdfb3424	-0.122658044
68	0x3e2d1656	0.16903052
69	0xbd9ad074	-0.075592905
70	0x3a9675f3	0.0011479243
71	0xbd9231b4	-0.07138386
72	0xbda15a54	-0.07878557
73	0x3d9499ad	0.07255874
74	0x3d075ad1	0.033045594
75	0x3df57226	0.11984663
76	0x3dbc6f08	0.09200865
77	0xbb17e1b9	-0.0023175313
78	0x3dca7254	0.098850876
79	0xbd560e2e	-0.052259617
80	0x3e641ca9	0.22276558
81	0x3c7c7f2c	0.0154111795
82	0xbd2e165b	-0.04250179
83	0xbb8ebe60	-0.0043561906
84	0x3c9afee0	0.018920362
85	0x3c57230e	0.013130916
86	0xbda3b50a	-0.07993515
87	0x3cf5698a	0.029957552
88	0xbc952c97	-0.018209739
89	0xbd2c535d	-0.04207169
90	0x3d4f1ecb	0.050566476
91	0x3da6baa4	0.081410676
92	0x3e4dca87	0.2009679
93	0x3d63a2a1	0.055575017
94	0xbb2d320c	-0.0026427535
95	0xbd8a14ee	-0.06742273
96	0x3dd97404	0.10617831
97	0x3d57150c	0.052510306
98	0xbe042168	-0.12903368
99	0x3cc18ac6	0.023625743
100	0x3da48792	0.080336705
101	0x3d925489	0.0714503
102	0x3de3588b	0.111008726
103	0xbde0eb64	-0.10982397
104	0x3d85e4b6	0.06537764
105	0xbb49143f	-0.0030682234
106	0xbd11847d	-0.03552674
107	0x3da5b86c	0.08091816
108	0xbd38ba43	-0.045099508
109	0xbd88acfc	-0.06673619
110	0xbdeb675c	-0.114943236
111	0x3de23086	0.11044411
112	0xbcfd54e3	-0.030924266
113	0x3cc0eecb	0.023551365
114	0x3e19513c	0.14972395
115	0x3d10958d	0.035298873
116	0x3da838f3	0.08213987
117	0xbde7125d	-0.112827994
118	0x3de10b66	0.10988502
119	0xbd0ce448	-0.034397393
120	0x3e14f1c5	0.14545353
121	0x3d0aac61	0.0338558
122	0xbe038411	-0.12843348
123	0x3d02c846	0.031929277
124	0xbdb88ead	-0.09011588
125	0x3d27c882	0.040962704
126	0x3d0b0280	0.03393793
127	0x3d6543c8	0.055972844
128	0x3e4b9bd0	0.19883657
129	0xbc7733a5	-0.015087997
130	0x3d8f6b19	0.07002849
131	0x3e05bb64	0.13059765
132	0xbc57a7ab	-0.013162534
133	0xbcf7bd81	-0.03024173
134	0x3dc24a4e	0.09486829
135	0xbc8b66b6	-0.01701675
136	0xbcc90f92	-0.024543557
137	0x3d58dd0c	0.05294518
138	0x3db2a82d	0.08723483
139	0x3d8870ec	0.06662163
140	0x3d61f858	0.05516848
141	0xbe3eb197	-0.18622433
142	0x3d98a2d6	0.074529335
143	0x3e3500cd	0.17676087
144	0xbd83783f	-0.064194195
145	0x3d0f3157	0.034959164
146	0xbcbece17	-0.02329163
147	0xbe2df50b	-0.16988008
148	0xbaeb0ad4	-0.0017932304
149	0xbc867216	-0.016411822
150	0x3d9b3cb0	0.075799346
151	0x3cc9d7c5	0.02463902
152	0x3ca00235	0.019532302
153	0xbe36d311	-0.17853953
154	0xbe1cc314	-0.15308791
155	0x3d80970e	0.062788114
156	0xbcb6a4b7	-0.022295339
157	0x3b8fa24f	0.0043833624
158	0xbdeb6142	-0.1149316
159	0x3d9ea628	0.077465355
160	0xbb329743	-0.0027250804
161	0xbd9a3145	-0.07528929
162	0xbda98076	-0.08276455
163	0xbbb25408	-0.005442146
164	0xbc1c4390	-0.0095375925
165	0x3ced5183	0.028969532
166	0x3d1ccd8f	0.038281973
167	0xbe1025de	-0.14076945
168	0x3dc8a880	0.09797764
169	0xbdd41613	-0.10355773
170	0xbd6cec2f	-0.05784243
171	0x3c1e5be8	0.009665467
172	0xbc4aaea7	-0.012370742
173	0x3e15cda6	0.1462923
174	0x3d79a6a8	0.06094995
175	0x3caccf2f	0.021094887
176	0xbe379cae	-0.17930862
177	0xbc6da229	-0.014503994
178	0x3d391a71	0.045191232
179	0xbd344200	-0.044008255
180	0x3d9108b6	0.070817396
181	0x3ce16fa1	0.02751905
182	0xbe097e54	-0.13427097
183	0x3dabc8ec	0.08387932
184	0x3d654557	0.05597433
185	0xbc00a657	-0.0078521585
186	0x3e0018bd	0.12509437
187	0x3cf59e9a	0.029982854
188	0xbd09e80f	-0.033668574
189	0x3ca38427	0.019960476
190	0x3dd35a09	0.10319907
191	0x3bff269a	0.007786584
192	0xbd9f5be7	-0.07781201
193	0x3dca19ff	0.098682396
194	0xbc55d586	-0.013051396
195	0x3ca00073	0.019531464
196	0xbc482801	-0.012216569
197	0xbd3f4ece	-0.046706013
198	0x3d4a104f	0.04933196
199	0x3e23662c	0.15956944
200	0x3d14c193	0.03631742
201	0xbcb79e7c	-0.022414438
202	0xbd4f5f97	-0.05062827
203	0x3e076949	0.13223757
204	0x3d91093b	0.07081839
205	0x3e39c2af	0.18140672
206	0x3dcbb9f0	0.09947574
207	0xba340f0a	-0.0006868696
208	0xbd4db7bf	-0.050224062
209	0xbd8535b1	-0.065043814
210	0xbd0ae0ae	-0.033905677
211	0xba87d49c	-0.0010363045
212	0x3d12dbb9	0.035854075
213	0xbdc74a02	-0.09730913
214	0xbd402bbd	-0.046916712
215	0xbe23b6e5	-0.15987737
216	0x3d864fef	0.06558215
217	0x3d5a3883	0.05327655
218	0x3d63148e	0.055439524
219	0xbdd34fde	-0.10317968
220	0x3d2f1208	0.042741805
221	0xbd278b2f	-0.04090422
222	0xbe0c3200	-0.13690948
223	0x3e2825e0	0.16420698
224	0x3e5716ee	0.2100484
225	0x3d6eb1c8	0.058275014
226	0xbd14222f	-0.036165413
227	0xbe1c06ca	-0.15236965
228	0xbe090c89	-0.13383688
229	0x3e003ef1	0.1252401
230	0x3e2f4712	0.17116955
231	0x3ba288ca	0.004960154
232	0x3cac5a44	0.021039136
233	0x3d053c4f	0.032528218
234	0xbd41b1e9	-0.04728881
235	0xbc607974	-0.013700832
236	0x3d86cbab	0.06581815
237	0x3cb244e4	0.021761365
238	0x3d5a9057	0.05336031
239	0x3d701350	0.058612168
240	0xbdce1f10	-0.100645185
241	0x3e0b9e73	0.13634662
242	0xbdbfaf30	-0.09359586
243	0xbd7b337a	-0.06132839
244	0xbc0e2b06	-0.00867725
245	0x3d830e62	0.06399228
246	0xbd27c01e	-0.0409547
247	0xbca0c416	-0.019624751
248	0x3d5975f1	0.053090993
249	0xbdeee401	-0.11664582
250	0x3e0794db	0.13240378
251	0x3d0cc5a7	0.034368183
252	0x3cb4ab50	0.022054344
253	0x3ea6a9ac	0.32551324
254	0xbc45bd14	-0.0120690055
255	0xbdbfa961	-0.09358478

network_body._body_endoder.seq_layers.0.bias f4 [128]
0	0x3bcfc3e5	0.006340491
1	0x3d534bf3	0.051586103
2	0x3c664df3	0.0140566705
3	0x3c28dee5	0.010307048
4	0x3c98b7a7	0.01864226
5	0xbcded736	-0.02720223
6	0xbcb56fb6	-0.022147994
7	0xbb870eb6	-0.0041216267
8	0x3c0f5231	0.008747623
9	0x3cb227e8	0.021747544
10	0xbc3f556e	-0.011678083
11	0x3b795323	0.0038043938
12	0x3b307f8e	0.0026931497
13	0x3ca3c29a	0.019990254
14	0x3b854c82	0.0040679583
15	0x3d0e198e	0.03469234
16	0x3d8681fa	0.0656776
17	0x3d0c31e9	0.034227286
18	0x3d17ca09	0.03705791
19	0x3b707580	0.003669113
20	0xbc670264	-0.014099691
21	0x3d9debcf	0.077109925
22	0x3bc87a47	0.006118092
23	0xbbfc5002	-0.0076999674
24	0x3c5e9cb4	0.013587166
25	0x3d159a10	0.03652388
26	0x3bdc3d50	0.006721176
27	0x3ca95cc2	0.020674113
28	0xbcfa295a	-0.030537296
29	0x3d3d687d	0.046242226
30	0xbd69c1a6	-0.057069443
31	0xbcbd168a	-0.023082037
32	0xbd149379	-0.036273453
33	0x3a1412d0	0.0005648555
34	0xbcc2acb3	-0.02376399
35	0x3af46b26	0.0018647655
36	0x3cb6e76d	0.02232715
37	0xbcaeb4f9	-0.021326529
38	0x3c6338ac	0.013868492
39	0x3d08089d	0.03321134
40	0x3c670c2a	0.014102021
41	0x3c3db7b7	0.011579446
42	0xbc8b1df5	-0.016982058
43	0x39f68b84	0.00047024724
44	0x3d352ba7	0.044231083
45	0xbc1428bb	-0.009042914
46	0xbbf298cb	-0.0074034682
47	0x3cfe7c24	0.031065054
48	0x3bf3bd14	0.0074383114
49	0xbc693986	-0.014234906
50	0xbbe7bdfa	-0.0070722075
51	0x3c6c1efc	0.014411684
52	0x3cf3de8b	0.029769203
53	0xbb564972	-0.0032697585
54	0x3d78dfbd	0.06076025
55	0x3c200d6d	0.009768826
56	0x3c3fc7d3	0.011705357
57	0xbcbe6f85	-0.023246536
58	0x3d2852ec	0.041094705
59	0xbc23d2c0	-0.009998977
60	0x3cc039f8	0.023465142
61	0xbd18cacb	-0.037302773
62	0xbc2f680c	-0.010705959
63	0x3ced2d5e	0.028952297
64	0xbc5a6050	-0.013328627
65	0xbc11c844	-0.008897845
66	0xbc83c1f8	-0.016083702
67	0xba927074	-0.001117243
68	0x3cff094d	0.031132365
69	0x3c569686	0.013097411
70	0x3c58fd3d	0.01324397
71	0x3d21356d	0.03935759
72	0xbccfba4b	-0.025357386
73	0x3c057a3a	0.008146817
74	0xbc56a2de	-0.013100354
75	0x3d306bb9	0.043071482
76	0xbaa87f58	-0.0012855334
77	0x3cdc51e9	0.026894527
78	0x3ce6ecd7	0.028189106
79	0x3cbe7861	0.02325076
80	0x3bc21be6	0.005923736
81	0xbc8a3be3	-0.01687426
82	0x3d11a82a	0.035560764
83	0x3c8275dd	0.015925342
84	0x3cb94127	0.022614075
85	0x3d779bd3	0.06045134
86	0x3d2691ae	0.040666275
87	0x3c863420	0.016382277
88	0x3ad1cb5e	0.0016006043
89	0x3d1b920f	0.03798109
90	0xbd14e22f	-0.036348518
91	0x3d76cdee	0.060254984
92	0xbc571294	-0.013126988
93	0x3d42bc21	0.047542695
94	0xbc096b55	-0.008387406
95	0x3cf67957	0.030087156
96	0x3ca77575	0.02044175
97	0x3cb29d1e	0.021803435
98	0x3d688a54	0.056772545
99	0x3c459da3	0.012061509
100	0xbc251222	-0.010075124
101	0x3cea3957	0.028591795
102	0xbc1dfcc0	-0.00964278
103	0x3d0951d0	0.033525288
104	0x3d1c50cd	0.038162995
105	0x3ca079cf	0.019589333
106	0x3d0b9e15	0.034086306
107	0xbcdd3670	-0.027003497
108	0x3d0e5a79	0.03475425
109	0x3d3a0bb1	0.045421306
110	0x3c2f9bf0	0.010718331
111	0x3cefdf9f	0.029281436
112	0x3d04d4ef	0.03242963
113	0x3d1fa57d	0.03897618
114	0x3c47b4c3	0.012189093
115	0x3ce59171	0.028023453
116	0x3d3b2321	0.0456878
117	0xbd0195b5	-0.031636912
118	0x3c84afbe	0.016197082
119	0x3d38f3d3	0.045154404
120	0xbb4ade4d	-0.0030955255
121	0x3cc6be92	0.024260793
122	0x3d0c1bdd	0.03420626
123	0x3c2234d2	0.009900289
124	0x3aba5a19	0.0014217525
125	0x3c527879	0.012846106
126	0xbc5d6a6f	-0.013514145
127	0xbc0b5490	-0.008504048

network_body._body_endoder.seq_layers.2.weight f4 [128, 128]
0	0x3e01c5b5	0.12673075
1	0x3d3e4799	0.046455
2	0xbe3f61b2	-0.18689612
3	0x3dfd850e	0.12378894
4	0xbd439c2c	-0.04775636
5	0x3db93278	0.09042829
6	0xbdd41707	-0.103559546
7	0xbdb1d793	-0.08683696
8	0x3de3e8c3	0.1112838
9	0xbdfc26b2	-0.12312068
10	0x3d476882	0.04868365
11	0x3dbcfbdd	0.092277266
12	0xbc51022d	-0.012756866
13	0xbdd498ff	-0.10380744
14	0x3b16f1f4	0.00230324
15	0x3c0e9c3f	0.008704244
16	0xbc607e75	-0.013702025
17	0xbd74e989	-0.05979303
18	0x3d5460e4	0.051850215
19	0x3d008e9f	0.031386014
20	0xbe03a46e	-0.12855694
21	0x3deb2476	0.11481564
22	0x3e71d733	0.23617248
23	0x3dc448c3	0.09584191
24	0x3c8c0fcb	0.017097374
25	0x3d4db348	0.050219804
26	0x3d91a099	0.0711071
27	0x3d4cce71	0.050001565
28	0x3c8512e7	0.016244365
29	0xbdc13433	-0.09433784
30	0x3d79bf9a	0.06097374
31	0xbd84254b	-0.064524256
32	0xbd81be7d	-0.06335161
33	0xbd8aea95	-0.06783024
34	0xbe2857c6	-0.16439733
35	0x3caed202	0.021340374
36	0xbde69377	-0.112585954
37	0x3d4aae91	0.049482886
38	0xbe3a5e48	-0.18200028
39	0xbdd511f1	-0.10403813
40	0xbd58e29f	-0.052950498
41	0xbcfbf0b6	-0.030754428
42	0xbdfad0e5	-0.12246875
43	0x3dc738ec	0.09727654
44	0xbbcb137d	-0.0061973915
45	0xbbcb294f	-0.0061999927
46	0xbd004225	-0.03131308
47	0xbe1f02b8	-0.15528381
48	0xbd0d83f0	-0.034549654
49	0x3d5cdc0c	0.05392079
50	0x3c9e0b26	0.019292425
51	0x3c270e4c	0.01019628
52	0xbb96bb24	-0.0045999456
53	0xbde157bd	-0.11003063
54	0x3e00e42a	0.12587038
55	0xbd918c4b	-0.07106837
56	0xbda5faf1	-0.08104504
57	0x3e1087cb	0.14114301
58	0xbd882609	-0.0664788
59	0xbd4d0a1c	-0.05005847
60	0x3d04b2d5	0.03239711
61	0xbda89740	-0.08231974
62	0xbe1cf884	-0.15329176
63	0xbda58a5a	-0.08083029
64	0xbdb40ab7	-0.08791106
65	0xbd419200	-0.047258377
66	0xbda04c54	-0.078270584
67	0xbca39212	-0.019967113
68	0xbd71da6a	-0.059046187
69	0xbd40eebb	-0.04710267
70	0x3cfb9946	0.030712735
71	0xbd54f3b8	-0.05199024
72	0xbc9d6ba8	-0.019216374
73	0xbd1eecae	-0.038799934
74	0x3c68daf8	0.0142123625
75	0xbd253208	-0.040330917
76	0xbdce76fc	-0.10081288
77	0xbafab37b	-0.0019126976
78	0x3ceccb00	0.028905392
79	0x3cee1695	0.029063502
80	0x3e39e60c	0.18154162
81	0xbda2caa4	-0.07948807
82	0x3da82636	0.08210413
83	0xbd2145fb	-0.03937338
84	0x3bcce8ee	0.0062533533
85	0xbe44db10	-0.1922419
86	0x3d2dfb35	0.042475898
87	0x3beaf1b9	0.007169929
88	0x3dc05b3a	0.093924
89	0xbcf21856	-0.02955262
90	0xbb71ea80	-0.0036913455
91	0xbb4790e0	-0.0030451342
92	0xbe484f3b	-0.19561474
93	0xbe18b104	-0.14911276
94	0xbe6756f3	-0.22591762
95	0xbcd14dcd	-0.025549794
96	0xbbe7c10b	-0.007072573
97	0x3db6e3c1	0.08930159
98	0x3dc22654	0.09479967
99	0x3c62997d	0.01383054
100	0xbc3b4777	-0.011430613
101	0x3c2fa663	0.010720822
102	0xbdb9b543	-0.09067776
103	0xbca7374c	-0.02041211
104	0xbe3f2d6f	-0.18669675
105	0xbbe93182	-0.0071164975
106	0x3cc5aaba	0.02412926
107	0xbd81d2f3	-0.063390635
108	0xbd9abfaa	-0.07556088
109	0x3e10177c	0.14071459
110	0xbdeb560c	-0.114910215
111	0x3d351cca	0.04421691
112	0xbd91b986	-0.07115464
113	0x3dafc0ed	0.085817195
114	0x3e11c8a4	0.14236695
115	0xbe0b459a	-0.1360077
116	0x3d3ff0d7	0.046860542
117	0x3e044b2d	0.12919302
118	0x3dac0e68	0.08401185
119	0xbd518e10	-0.051160872
120	0x3e7869e4	0.24259144
121	0xbbf9e64e	-0.0076263314
122	0xbd2a1a81	-0.041529182
123	0x3d07cbcb	0.033153336
124	0xbe01e0e7	-0.1268345
125	0xbe2f5f51	-0.17126204
126	0x3e86088e	0.26178402
127	0x3c29751c	0.010342862
128	0xbdf919e1	-0.12163139
129	0x3e659265	0.22419126
130	0xbd3b5d4e	-0.04574328
131	0xbdfee297	-0.12445562
132	0x3df23a27	0.11827498
133	0x3d9b577e	0.07585047
134	0x3b831057	0.0039997506
135	0xbd82796e	-0.06370817
136	0x3d7e7a45	0.062128324
137	0xbe0ff1cf	-0.14057086
138	0xbd85911e	-0.065218195
139	0x3be9af7e	0.007131516
140	0xbe1042ab	-0.14087932
141	0xbe22c938	-0.15897071
142	0x3dcaa32d	0.098944046
143	0x3dfdb4a3	0.12387969
144	0xbe0d3fea	-0.13793913
145	0xbc96c3d9	-0.018403934
146	0xbd377866	-0.044792555
147	0x3d7fb4b4	0.06242819
148	0xbd285b0b	-0.04110245
149	0xbd10eb4b	-0.035380643
150	0xbe41f15d	-0.18939729
151	0xbd08fb2f	-0.033442672
152	0xbdb20eb7	-0.08694213
153	0xbda7d4f7	-0.08194917
154	0xbd3af6bc	-0.04564546
155	0x3cc2142a	0.023691256
156	0xbdef78e2	-0.116929784
157	0x3d912b53	0.070883416
158	0xbdad419d	-0.0845978
159	0xbd68e407	-0.05685809
160	0xbdde31b6	-0.10849325
161	0xbc5a291f	-0.013315468
162	0x3c4b7a84	0.012419347
163	0xbd93913b	-0.07205435
164	0xbc78186c	-0.015142541
165	0xbb987526	-0.004652637
166	0xbc065ba7	-0.008200563
167	0x3e0d95c5	0.13826664
168	0xbcfdabba	-0.030965675
169	0xbd44042d	-0.047855545
170	0xbb84eaf0	-0.004056327
171	0xbbcfcb53	-0.006341377
172	0xbb0e6a80	-0.002173096
173	0xbdd2c49e	-0.10291408
174	0xbe142967	-0.14468919
175	0x3d007c73	0.031368684
176	0xbbb678cc	-0.0055685993
177	0xbd694c58	-0.056957573
178	0x3db713b7	0.08939307
179	0xbd56dd9c	-0.052457437
180	0x3d8f66f1	0.070020564
181	0x3ccd656a	0.025072772
182	0xbe219ec3	-0.15783219
183	0x3deac53d	0.114634015
184	0xbd55b82a	-0.052177586
185	0x3e06b67e	0.13155553
186	0x3d809c4b	0.062798105
187	0x3da54da1	0.08071447
188	0x3d098459	0.033573482
189	0xbd187716	-0.037222944
190	0xbe0ba226	-0.13636073
191	0xbe212bde	-0.1573939
192	0xbd65e21a	-0.05612383
193	0xbdc92ce4	-0.09823015
194	0xbe034512	-0.12819317
195	0x3d25d548	0.040486604
196	0xbd1754cc	-0.036946103
197	0x3c941b38	0.018079385
198	0xbd5b0e06	-0.05348017
199	0xbd6b7b63	-0.057490718
200	0xbcba5601	-0.022746088
201	0x3c985e58	0.018599674
202	0xbcff2a21	-0.031148018
203	0x3ded6c32	0.11592902
204	0xbd3b0b02	-0.045664795
205	0xbd5357c9	-0.05159739
206	0x3d195b56	0.03744062
207	0xbe0f16b7	-0.13973509
208	0xbd327e1d	-0.043577302
209	0x3a8fa4ac	0.001095911
210	0x3d36f2f2	0.044665284
211	0xbd9278a6	-0.07151918
212	0xbdad426e	-0.08459936
213	0xbdef1bac	-0.116752
214	0x3d0177d5	0.03160842
215	0x3c93fe66	0.018065643
216	0x3d5e2704	0.054236427
217	0x3df346a8	0.11878711
218	0xbd764ffd	-0.060134877
219	0x3e05aaf8	0.130535
220	0xbdd48686	-0.10377221
221	0x3d05833e	0.032595865
222	0xbe63c621	-0.22243549
223	0x3de7ca2b	0.11317857
224	0x3d783765	0.060599703
225	0xbdd908cb	-0.1059738
226	0xbd9c9026	-0.07644682
227	0xbd8abe74	-0.06774607
228	0x3e120c4b	0.14262502
229	0x3d0b50e8	0.034012705
230	0x3db570fd	0.088594414
231	0x3dc70e82	0.09719564
232	0x3c4bd2a1	0.012440355
233	0xbdd8babb	-0.10582491
234	0x37ac7984	2.0560583e-05
235	0x3d42f7a2	0.047599442
236	0x3dbf8940	0.0935235
237	0x3d22344b	0.03960065
238	0x3c11ed38	0.008906655
239	0x3dbf0bf1	0.093284495
240	0xbe03c2a9	-0.12867226
241	0xbdd66d67	-0.104700856
242	0xbc403a05	-0.011732583
243	0x3d3dd744	0.04634787
244	0x3cf4df3b	0.0298916
245	0xbc554d37	-0.013018898
246	0x3e06c383	0.1316052
247	0x3c563840	0.0130749345
248	0xbc9ee658	-0.019396946
249	0x3d84fa29	0.06493027
250	0xbd9c1b8e	-0.07622443
251	0x3cf22545	0.029558787
252	0xbdc1c119	-0.094606586
253	0x3d80d50c	0.062906355
254	0x3e1e1c04	0.15440375
255	0xbd29e7f0	-0.04148096

network_body._body_endoder.seq_layers.2.bias f4 [128]
0	0x3cfc4791	0.030795844
1	0x3c41310c	0.011791479
2	0xbcb399f4	-0.021923997
3	0x3d14a75c	0.03629242
4	0x3c6bb140	0.014385521
5	0xbc905509	-0.017618673
6	0xbb89d322	-0.004206077
7	0x3cb6641b	0.02226453
8	0x3af75484	0.0018869792
9	0xbc05df9c	-0.008170988
10	0x3b555bbe	0.0032555903
11	0xbb7873fb	-0.0037910927
12	0xbc31e83f	-0.010858594
13	0x39a51d83	0.0003149324
14	0x3a44e60b	0.0007511086
15	0xbc83d650	-0.016093403
16	0x3c5202d5	0.012818058
17	0x3d03fa41	0.032221083
18	0x3b765ada	0.0037590773
19	0x3d726193	0.059175085
20	0x3cbf64e2	0.023363534
21	0x3cb9c38e	0.022676256
22	0x3c668df9	0.014071935
23	0x3b436948	0.0029817391
24	0x3c72bd1d	0.014815596
25	0x3d051aae	0.032496147
26	0x3c568096	0.013092181
27	0x3b349522	0.002755471
28	0x3b6e72b5	0.0036384289
29	0x3b684571	0.003544178
30	0x3c97fc22	0.018552843
31	0x3c627021	0.013820679
32	0x3c1b0003	0.009460452
33	0x3d41b94b	0.04729585
34	0x3d17faf1	0.03710455
35	0x3cabdccb	0.020979306
36	0x3d0c8e38	0.034315318
37	0x3d462161	0.048371676
38	0xbc0cd0d8	-0.008594714
39	0xbcefac8b	-0.02925708
40	0x3c7744e3	0.0150921075
41	0x3cd52a27	0.026021076
42	0x3ccf95cc	0.025339983
43	0xbca5863d	-0.020205611
44	0x3bc58724	0.006028073
45	0x3d23159d	0.039815534
46	0x3c19af92	0.009380238
47	0xbbb7032b	-0.0055850944
48	0x3ce20ba0	0.027593434
49	0x3c305737	0.010762981
50	0xbbf9ad69	-0.007619549
51	0xbcc219bc	-0.023693912
52	0x3cf5ee95	0.030020991
53	0x3d232c80	0.03983736
54	0x3cc5d139	0.024147617
55	0x3b890cb3	0.004182422
56	0x3d0d88cf	0.0345543
57	0x3c1c30ef	0.009533151
58	0xbc37f72d	-0.011228365
59	0x3d4d4cd6	0.050122105
60	0x3bee87e8	0.007279385
61	0x3ca38b2d	0.019963825
62	0xbb5b82a8	-0.0033494625
63	0xbb7c24ed	-0.0038474158
64	0x3caf47ff	0.021396635
65	0xbb7d437c	-0.003864496
66	0x3d41ceee	0.047316484
67	0x3b919864	0.004443215
68	0xbc06b081	-0.008220793
69	0x3c17e647	0.009271211
70	0x3aec1a38	0.0018013185
71	0xbcc2101a	-0.023689318
72	0xbd11107f	-0.035416123
73	0xbc8c308b	-0.01711299
74	0x3bcb3f40	0.0062026083
75	0x3d362644	0.044470087
76	0x3b20e96f	0.00245532
77	0x3d005d9f	0.031339284
78	0x3bd668f5	0.0065432736
79	0xbc71ae65	-0.014751052
80	0xbaebdf69	-0.0017995659
81	0xbb84c7ed	-0.0040521533
82	0x3d54278d	0.05179553
83	0xbcd5ae2e	-0.026084032
84	0x3bded433	0.0068001985
85	0xbc8af6f3	-0.016963458
86	0xbc2b8a56	-0.010469994
87	0x3d0763f5	0.03305431
88	0x3c7ac240	0.015305102
89	0x3bfdb689	0.007742707
90	0xbc3b1f0e	-0.011420978
91	0x3cfaf97c	0.030636542
92	0xbb550709	-0.0032505414
93	0xbc20d7a0	-0.009817034
94	0xbc64ba5c	-0.013960447
95	0x3cb78ac5	0.022405038
96	0x3d825977	0.0636472
97	0x3d0c1476	0.0341992
98	0x3afa5fbe	0.001910202
99	0xbcb20e59	-0.021735357
100	0x3bda23f5	0.0066571184
101	0x3c0d2f6f	0.008617266
102	0xbc929b7b	-0.017896404
103	0x3cee4732	0.029086683
104	0x3b48d255	0.0030642946
105	0x3c644a1c	0.013933685
106	0x3d13bfb4	0.036071494
107	0x3cfdebf9	0.03099631
108	0xbb9da017	-0.004810344
109	0xbbbc5c26	-0.0057482896
110	0x3d4e601b	0.050384622
111	0x3b70ad1f	0.0036724282
112	0x3d5b6d7a	0.0535712
113	0x3acd9f5b	0.001568775
114	0x3b1db471	0.002406385
115	0x3d19904e	0.037491135
116	0xbc6f8165	-0.014618252
117	0x3cbe18e7	0.023205234
118	0x3cc74c6f	0.024328439
119	0x3d465ab4	0.048426345
120	0xbc7aa5f4	-0.015298355
121	0xbc8a502c	-0.016883932
122	0x3d056f57	0.032576885
123	0x3c648268	0.013947107
124	0x3bf58c54	0.007493535
125	0x3cd37fc7	0.025817765
126	0x3d260ded	0.040540624
127	0x3d4bd1f1	0.049760763

action_model._discrete_distribution.branches.0.weight f4 [7, 128]
0	0x3c831cac	0.016004883
1	0x3c067c54	0.008208353
2	0xbc091bdc	-0.008368459
3	0x3cd926a1	0.026507678
4	0xbcc4f7f1	-0.024044009
5	0xbc17737b	-0.009243841
6	0xbc39d795	-0.011342903
7	0x3c4673cf	0.012112572
8	0xbd194552	-0.037419625
9	0x3b77d054	0.0037813382
10	0xbc9d77c1	-0.019222142
11	0xbb9d6162	-0.0048028687
12	0xbcb5171b	-0.022105744
13	0xbc86237b	-0.01637434
14	0x3c0c78af	0.008573695
15	0xbd52124f	-0.05128699
16	0x3c9da8b2	0.01924548
17	0x3d2d2f95	0.042281706
18	0xbc7bc095	-0.015365739
19	0x3d74973e	0.05971455
20	0x3c2e5740	0.010640919
21	0x3ab0e6ac	0.001349648
22	0xbc96c1fc	-0.018403046
23	0xbc3a62b1	-0.011376069
24	0xbd0864f7	-0.033299413
25	0x3d0b80db	0.034058433
26	0xbcf66807	-0.030078901
27	0xbd4f515a	-0.050614692
28	0x3c9ae981	0.018910171
29	0x3b86f858	0.0041189604
30	0xbbb2fefe	-0.0054625263
31	0x3c522bb6	0.012827804
32	0xbc863277	-0.016381485
33	0x3ca4210e	0.020035293
34	0x3cbd3d21	0.023100438
35	0xbcfd3f67	-0.030914022
36	0xbd51cdd9	-0.051221702
37	0x3d6a8c6c	0.057262823
38	0xbb54adfc	-0.0032452336
39	0xbc2fe844	-0.010736529
40	0xbce920af	-0.028457968
41	0x3d0ccd29	0.034375343
42	0xbd5d951e	-0.054097287
43	0x3bdc59ab	0.0067245564
44	0x3c849330	0.016183466
45	0x3d07dafc	0.033167824
46	0xbb35b887	-0.0027728395
47	0x3b599f7f	0.003320664
48	0x3bccf2f4	0.006254548
49	0xbcb7849b	-0.022402098
50	0xbc2ff483	-0.0107394485
51	0xbc8a47ea	-0.016879994
52	0x3c0d2eb1	0.008617089
53	0x3c157007	0.009120948
54	0x3c874b7d	0.016515488
55	0xbb966677	-0.0045898515
56	0x3cb3498a	0.021885652
57	0xbc915d58	-0.017744705
58	0xbca72494	-0.020403184
59	0x3c1e5c0e	0.009665502
60	0xbd69c136	-0.057069026
61	0x3ca16367	0.019700719
62	0xba110e1f	-0.0005533415
63	0xba13bdd1	-0.000563589
64	0xbbc1e7a5	-0.0059175068
65	0xbbc8480c	-0.0061121043
66	0x3bc6a5f1	0.006062262
67	0x3c4c25bf	0.012460171
68	0xbd8d4f20	-0.068998575
69	0xbd00067d	-0.031256188
70	0x3b8d2aaf	0.004308067
71	0xb70ad2c8	-8.274517e-06
72	0xbcc35e22	-0.023848597
73	0xbd313d39	-0.043271277
74	0xbbfc751c	-0.00770439
75	0x3c4a39fc	0.012342926
76	0xbb05f111	-0.0020437876
77	0xbd236f56	-0.0399011
78	0x3ca557c9	0.02018346
79	0xbbf5dcff	-0.0075031514
80	0xbc69b805	-0.014265065
81	0xbad3b5f9	-0.0016152255
82	0xbcb4a8ef	-0.02205321
83	0xbc97332c	-0.018457018
84	0xbb33e6fe	-0.0027450914
85	0xbc5d2a09	-0.0134987915
86	0xbb69f23a	-0.0035697357
87	0x3c48593f	0.012228309
88	0x3baa9af8	0.005206462
89	0x3bbd862d	0.0057838173
90	0xbca46a8a	-0.020070333
91	0x3c1464d3	0.0090572415
92	0xbd15565b	-0.036459308
93	0xbcf6973a	-0.030101407
94	0xbd07b536	-0.0331318
95	0xbbae08d5	-0.0053111115
96	0x3c9bbddc	0.01901143
97	0xbcbbbe46	-0.022917878
98	0xbcd2cfa5	-0.025733778
99	0xbc835697	-0.0160325
100	0x3ac9a43c	0.0015384029
101	0x3bba56ba	0.005686608
102	0x3b861287	0.004091564
103	0x3d349635	0.04408856
104	0x3b68874e	0.0035481039
105	0xbb891413	-0.0041833012
106	0x3c98fd2e	0.018675413
107	0x3c203f40	0.009780705
108	0x3c3920c2	0.011299314
109	0xbd6af11e	-0.057358854
110	0x3cca4a82	0.024693731
111	0x3b300908	0.0026860852
112	0xbd02ab35	-0.031901557
113	0x3c9a5c59	0.018842863
114	0xbd119eca	-0.035551824
115	0x3c0a26e2	0.008432122
116	0xbb6bd3de	-0.0035984437
117	0x3c8339fa	0.016018856
118	0xbc40daee	-0.011770947
119	0x3b26f5df	0.002547614
120	0xbc7afaa3	-0.0153185455
121	0xbbcb1ec0	-0.006198734
122	0x3bbfe398	0.0058559887
123	0xbd1f933e	-0.03895878
124	0xbd058270	-0.032595098
125	0x3d2c3a15	0.04204758
126	0x3d1b68d5	0.037941772
127	0xbd6b2710	-0.0574103
128	0xbc1ee776	-0.009698739
129	0xbcf3e242	-0.029770974
130	0x3c9335d6	0.017970007
131	0x3b186064	0.0023250813
132	0x3d80a0cf	0.06280672
133	0x3a690426	0.0008888863
134	0x3ce369a0	0.027760327
135	0xbc562ade	-0.013071744
136	0x3b466dec	0.003027792
137	0xbae5b2b1	-0.0017524568
138	0x3c164c6c	0.009173494
139	0x3a4f578f	0.00079094706
140	0x3ccaf9d9	0.02477734
141	0x39a51fd7	0.00031494975
142	0x3c21606a	0.009849647
143	0x3cde54d9	0.027140068
144	0x3c93f7bd	0.018062467
145	0xbcd20209	-0.025635736
146	0xbbd4a57e	-0.006489455
147	0xbd9b6fe1	-0.075896986
148	0xbcb4cec7	-0.022071255
149	0xbd1bce13	-0.038038325
150	0x3d909665	0.070599355
151	0x3d1cb1d8	0.038255543
152	0xbceace2c	-0.028662764
153	0xbd306c09	-0.04307178
154	0x3d930d5e	0.07180284
155	0x3c777aca	0.015104959
156	0x3c8b4144	0.016998895
157	0x3cf9af82	0.030479196
158	0x3d6a31f4	0.057176545
159	0xbd4bd98f	-0.049768027
160	0x3db654af	0.08902871
161	0xbd6d7a53	-0.057977986
162	0xbd54352d	-0.051808525
163	0x3d2c91f8	0.042131394
164	0x3d9020a0	0.07037473
165	0xbd9a535e	-0.07535432
166	0x3c87f738	0.016597375
167	0x3d7dde87	0.061979797
168	0xbca6f56d	-0.0203807
169	0xbd17194d	-0.036889363
170	0xbbca60ca	-0.006176089
171	0x3c357f21	0.011077673
172	0x3dbb1400	0.09134674
173	0xbd25f007	-0.04051211
174	0x3d1d47dc	0.03839861
175	0x3d010887	0.031502273
176	0x3b99cdc5	0.004693719
177	0x3d81a07f	0.0632944
178	0x3c4506fd	0.012025592
179	0x3d0e19aa	0.034692444
180	0xba7d1ed6	-0.0009655779
181	0x3d6943c8	0.056949407
182	0xbc2f9ebd	-0.0107189985
183	0xbc06e1d6	-0.008232554
184	0xbd314402	-0.043277748
185	0x3d9c4d6c	0.076319546
186	0x3cdbcd75	0.026831368
187	0xbddcf920	-0.10789704
188	0x3da4026b	0.08008274
189	0x3d81d032	0.06338538
190	0x3c5ab38b	0.01334847
191	0x3d2e63d9	0.04257569
192	0xbcf378b8	-0.02972065
193	0xbb1ed0b1	-0.0024233276
194	0x3d4b760e	0.049673133
195	0x3aec9f76	0.0018052894
196	0x3d5a01af	0.05322426
197	0x3d828c96	0.06374471
198	0xbcc26256	-0.02372853
199	0x3c056d0a	0.008143673
200	0x3d390a3d	0.04517578
201	0x3d4207a7	0.04737058
202	0xbb7cac9a	-0.0038555027
203	0xbd1260fc	-0.035737023
204	0x3c163b3c	0.009169396
205	0x3d861f2b	0.065489136
206	0x3c5dee1a	0.013545537
207	0x3cec88ea	0.02887388
208	0xbabad011	-0.0014252682
209	0x3d36a486	0.044590496
210	0xbcad72bd	-0.021172876
211	0x3cc3ac76	0.023885947
212	0xbc852d09	-0.016256826
213	0x3c8cac45	0.017171988
214	0x3c50e1fc	0.012749191
215	0xbce2ec92	-0.027700696
216	0xbc4a8bdb	-0.012362446
217	0xbb60d845	-0.0034308594
218	0x3cdb86f6	0.026797753
219	0x3dafaa08	0.08577353
220	0x3d47f43e	0.048816912
221	0x3d80c429	0.062874146
222	0x3da03bd4	0.07823911
223	0xbcceafc0	-0.025230289
224	0xba8a6a9e	-0.0010560339
225	0xbc1cf387	-0.009579546
226	0x3cdc2dfb	0.026877394
227	0x3cc3b888	0.023891702
228	0xbcacae5e	-0.021079239
229	0xbc119145	-0.008884733
230	0x3c5a8eaa	0.013339678
231	0xbd3249ee	-0.043527536
232	0xbc516ab8	-0.012781791
233	0xb9c17484	-0.0003689864
234	0x3ac8aab6	0.0015309665
235	0xbd1b82df	-0.037966605
236	0x3cade0bf	0.021225331
237	0x3d37dced	0.044888426
238	0xbd740d60	-0.059583068
239	0x3d1f0a69	0.038828287
240	0xbd766fb9	-0.06016514
241	0xbc09d0c2	-0.008411588
242	0x3d21b07e	0.039474957
243	0xbcb015c9	-0.021494763
244	0x3aaea0ad	0.0013323032
245	0x3d1dc8b9	0.038521502
246	0xbcc904cb	-0.024538418
247	0x3d1e44c1	0.038639788
248	0x3d15dcc2	0.036587484
249	0x3be64357	0.0070270705
250	0xbc9a3f2c	-0.01882895
251	0x3d706410	0.058689177
252	0x3d3e3015	0.046432573
253	0xbb890cea	-0.0041824477
254	0x3d21f0c8	0.039536268
255	0x3d3296e9	0.04360095

action_model._discrete_distribution.branches.0.bias f4 [7]
0	0x3c3f5a6e	0.011679275
1	0xbd05c364	-0.032657042
2	0x3cb780bb	0.02240025
3	0xbc995822	-0.018718783
4	0x3bcef351	0.0063156267
5	0x3a22808e	0.0006198966
6	0x3c6ead8f	0.014567747
