CCP-main/results/WeightAgent_Training/WeightAgent_Training/WeightAgent_Training-12999981.pt (torch, 929636 bytes, 33 tensors)

network_body._body_endoder.seq_layers.0.weight f4 [128, 164]
0	0xbd3c451f	-0.045964357
1	0xbca7d86c	-0.02048894
2	0xbe03203a	-0.12805262
3	0x3dbebea1	0.09313703
4	0x3e006ddd	0.1254191
5	0xbd8f59a0	-0.069995165
6	0xbcd1954a	-0.025583882
7	0xbe69d971	-0.22836854
8	0x3dfd2d58	0.12362164
9	0xbb2013ff	-0.002442598
10	0xbd823850	-0.06358397
11	0xbcec9171	-0.028877946
12	0xbdbc6cc8	-0.09200436
13	0x3d20d0c6	0.039261602
14	0x3dfa22bb	0.122136556
15	0xbd404eb9	-0.046950076
16	0xbda07c5f	-0.07836222
17	0xbe03c86d	-0.12869425
18	0x3aad62bc	0.0013228278
19	0x3e6ec4b3	0.23317222
20	0xbdd5fe1d	-0.10448859
21	0x3d5c4498	0.053776354
22	0x3d6d54c6	0.057942174
23	0x3e65d642	0.22445014
24	0x3dcb384b	0.099228464
25	0x3dfa92ec	0.122350544
26	0xbdca9036	-0.09890787
27	0xbe0b839b	-0.13624422
28	0x3de167f3	0.11006155
29	0x3e8eae58	0.2786739
30	0xbe636090	-0.22204804
31	0x3e3b3e1a	0.18285409
32	0x3d96fb5c	0.07372162
33	0xbd3e527a	-0.046465375
34	0xbd4199ba	-0.047265746
35	0x3c06eea0	0.008235604
36	0xbd8cf8fc	-0.068834275
37	0xbd0dd49b	-0.034626585
38	0x3d6d52a5	0.057940144
39	0x3e447248	0.1918422
40	0x3df58e9e	0.11990093
41	0x3cfd93cd	0.030954266
42	0x3e0f00fe	0.13965222
43	0xbb147185	-0.002265067
44	0xbe01ff72	-0.12695101
45	0x3dcdfb36	0.1005768
46	0xbd0f0d16	-0.03492459
47	0xbd9200a9	-0.07129032
48	0x3ce18403	0.027528768
49	0x3db7de3d	0.089779355
50	0x3cb65f1d	0.02226215
51	0x3de3ab85	0.11116699
52	0x3de5bce9	0.112176724
53	0xbdafe141	-0.08587886
54	0xbda14e83	-0.07876303
55	0xbb6ea24c	-0.0036412654
56	0x3be264d9	0.0069089946
57	0x3e0745ee	0.1321027
58	0x3d777fab	0.060424488
59	0xbd73fc66	-0.059566878
60	0x3e08ae68	0.1334778
61	0x3e2c8e23	0.16851096
62	0x3cf1412f	0.029450027
63	0xbe5455a8	-0.207358
64	0xbcad770c	-0.02117493
65	0x3e7736b5	0.24141963
66	0x3dd5f7c0	0.10447645
67	0x3e6151f3	0.22003917
68	0xbe2421c7	-0.1602851
69	0x3d8876f9	0.06663317
70	0x3dc43e43	0.09582188
71	0x3e4f09b6	0.20218548
72	0x3daf2ee0	0.085538626
73	0xbd13cf13	-0.036086153
74	0xbd167be5	-0.03673925
75	0x3d9d8a5f	0.07692408
76	0xbd7a768d	-0.061148215
77	0xbd58c815	-0.052925188
78	0x3cf8b5ab	0.030360064
79	0xbd1a0cc1	-0.03760982
80	0x3e3b7752	0.18307236
81	0x3e1929b6	0.14957318
82	0x3b73f798	0.0037226435
83	0x3e218ae6	0.15775642
84	0xbbaaa57d	-0.005207716
85	0x3e246697	0.1605476
86	0xbdc0859f	-0.09400486
87	0xbca9c318	-0.02072291
88	0x3d810efe	0.06301688
89	0xbc9dfefa	-0.019286621
90	0x3df65822	0.12028529
91	0x3e0be1fe	0.13660428
92	0xbd0110dd	-0.031510223
93	0x3d4c8cfb	0.049939137
94	0xbd860a86	-0.06544976
95	0x3e08ebb6	0.13371167
96	0xbcf67340	-0.030084252
97	0x3c312568	0.010812141
98	0xbdd201e0	-0.10254264
99	0x3d3eaca6	0.04655137
100	0xbb8f9e9a	-0.0043829205
101	0x3c9a916b	0.018868169
102	0xbd3f3558	-0.046681732
103	0xbd0d9f84	-0.034575954
104	0xbd5e0538	-0.054204196
105	0x3e4ee083	0.20202832
106	0xbdbb6bfb	-0.09151455
107	0xbe2c9c37	-0.16856466
108	0xbdedd784	-0.11613372
109	0xbccd21da	-0.025040556
110	0x3e3a9499	0.18220748
111	0x3b610f9b	0.0034341577
112	0xbe22d807	-0.1590272
113	0xbdbe448b	-0.09290417
114	0x3e03b8a3	0.12863402
115	0x3e78a081	0.24279977
116	0xbd22c413	-0.039737772
117	0x3cffee67	0.031241609
118	0x3d5f8d0b	0.05457787
119	0x3c8baf27	0.017051293
120	0x3e24d7eb	0.16097991
121	0x3dd20867	0.10255509
122	0xbc367a04	-0.011137489
123	0xbde045c5	-0.109508075
124	0x3ce43363	0.027856534
125	0x3d8528b8	0.06501907
126	0xbe2b9b36	-0.16758427
127	0x3e6389aa	0.22220483
128	0x3d8515f3	0.06498327
129	0xbc3ec7bb	-0.011644299
130	0x3b66efdf	0.003523819
131	0xbe0b484e	-0.13601801
132	0x3cc7c6b8	0.024386749
133	0xbb481859	-0.003053209
134	0x3c93bd35	0.018034557
135	0x3c479327	0.01218108
136	0xbdd64450	-0.10462248
137	0x3e39fe83	0.18163495
138	0x3e281539	0.16414346
139	0x3d838df5	0.064235605
140	0x3de8670f	0.11347782
141	0xba39ed95	-0.00070925924
142	0x3c820e08	0.015875831
143	0x3da7d01e	0.08193992
144	0xbdcba78c	-0.099440664
145	0x3dc4c0a8	0.09607059
146	0xbdfac9bb	-0.12245508
147	0x3ccc844a	0.024965424
148	0x3d42ed57	0.047589626
149	0x3d97d0c5	0.074128665
150	0x3dfe38d8	0.12413186
151	0xbdc9955d	-0.09842942
152	0xbd3fa959	-0.046792362
153	0x3e422a11	0.1896136
154	0x3cd1cd46	0.025610577
155	0x3e1d7a36	0.15378651
156	0x3d196d16	0.037457548
157	0x3c8c4284	0.01712156
158	0xbca3843f	-0.01996052
159	0x3e0cd72e	0.1375396
160	0x3d9d142e	0.076698646
161	0x3dc63420	0.09677911
162	0x3de8064f	0.11329328
163	0x3d1d508c	0.038406894
164	0x3e68d229	0.2273642
165	0xbe80a6e6	-0.25127333
166	0x3dbcf173	0.0922574
167	0xbd4b6629	-0.049657974
168	0x3cefa3d8	0.029252931
169	0x3dcfa496	0.10138814
170	0x3d4d7e0a	0.05016903
171	0x3da4f296	0.08054082
172	0xbd2dbc35	-0.042415816
173	0x3e1eb107	0.15497218
174	0x3e112887	0.14175616
175	0xbd4cdaf8	-0.050013512
176	0x3d3ad28a	0.045610942
177	0xbe41ac6b	-0.18913428
178	0xbcd56476	-0.02604888
179	0xbd588cce	-0.052868657
180	0x3aedbca4	0.0018137884
181	0xbbaf70b7	-0.005354013
182	0xbd883ab6	-0.06651823
183	0x3df01f3a	0.11724706
184	0x3e29168a	0.16512504
185	0xbcf2af97	-0.029624743
186	0x3cfcb7af	0.030849306
187	0xbcde0f0e	-0.027106788
188	0x3d682b32	0.05668182
189	0x3d1b9adc	0.037989482
190	0x3df0c8d0	0.11757052
191	0xbcfc28f9	-0.030781256
192	0x3e1490ed	0.1450841
193	0x3db1e426	0.08686094
194	0xbd697395	-0.056994993
195	0xbca44b9c	-0.020055585
196	0x3d408cdf	0.047009345
197	0x3b46a89c	0.0030312901
198	0xbcce2e8d	-0.025168682
199	0x3e0c80d4	0.13721019
200	0xbd9d18ae	-0.07670723
201	0xbe17f45a	-0.14839306
202	0xbda9960e	-0.08280574
203	0x3e443995	0.19162591
204	0xbe2f82c3	-0.17139725
205	0xbe5d3f35	-0.21606143
206	0xbde1f1a8	-0.110324204
207	0xbbb580e4	-0.0055390466
208	0xbde88079	-0.11352629
209	0xbd1d8d95	-0.0384651
210	0x3e26ce78	0.16289699
211	0xbdc1e01c	-0.094665736
212	0xbbe82a66	-0.0070851324
213	0xbc2cce66	-0.010547256
214	0x3d1d794e	0.038445763
215	0xbd5573a1	-0.052112225
216	0x3d8baac3	0.068196796
217	0x3cf13fe7	0.029449416
218	0x3cc1b77e	0.023647066
219	0x3d6098f7	0.05483338
220	0x3e5f302e	0.21795723
221	0xbe7612c3	-0.24030595
222	0x3a847ba1	0.0010107645
223	0xbdf648c6	-0.12025599
224	0x3c1c56ea	0.009542206
225	0xbe0c5907	-0.13705836
226	0xbe57fd68	-0.2109276
227	0x3e436fb6	0.19085583
228	0x3e185883	0.14877515
229	0x3ca1c909	0.019749181
230	0xbbda76e7	-0.0066670063
231	0xbde48c23	-0.111595415
232	0x3d5f3cb8	0.054501265
233	0x3d287f67	0.041137125
234	0x3d4ee002	0.0505066
235	0xbce352fc	-0.027749531
236	0x3d1f2398	0.038852304
237	0x3e01dfeb	0.12683074
238	0x3d6aa0c1	0.057282213
239	0xbdf33b93	-0.11876597
240	0x3ddd05cc	0.10792121
241	0x3d7bac69	0.06144372
242	0x3c53faac	0.012938183
243	0x3d6c1ef3	0.057646703
244	0x3e319eba	0.17345706
245	0xbe0b7100	-0.13617325
246	0x3cad7558	0.021174118
247	0x3d8e7746	0.06956343
248	0xbd8aaca6	-0.06771211
249	0xbd0c4565	-0.034245867
250	0x3dca0025	0.09863309
251	0x3d650b1f	0.05591881
252	0xbd36ae80	-0.04460001
253	0xbc0a6c31	-0.008448646
254	0xbb08255a	-0.0020774216
255	0xbc0f6b2b	-0.008753578

network_body._body_endoder.seq_layers.0.bias f4 [128]
0	0x3d3d250b	0.046177905
1	0x3ca18858	0.019718334
2	0x3cfaa4d9	0.030596184
3	0x3c8b7c96	0.01702718
4	0x3cf49e3f	0.029860614
5	0x3d055275	0.03254934
6	0xbccdbfbb	-0.025115838
7	0x3d1d7774	0.038443998
8	0xbd226567	-0.039647486
9	0x3d0f2dc9	0.034955774
10	0x3cafd396	0.021463197
11	0x3d0c74a1	0.034290913
12	0x3c731398	0.0148362145
13	0x3c9b8b8b	0.018987438
14	0x3d2472a6	0.0401484
15	0x3ca13ec1	0.019683244
16	0x3cf78aa9	0.030217486
17	0xbcf1082b	-0.02942284
18	0xbc9444e8	-0.018099263
19	0x3c9f8ebe	0.019477244
20	0x3c85d725	0.01633794
21	0x3cfea475	0.031084279
22	0x3c6b6257	0.014366708
23	0x3cdffc2e	0.027341928
24	0x3d294f83	0.041335594
25	0x3d0de56d	0.034642626
26	0x3d11f7d3	0.035636734
27	0x3c9b8b17	0.018987222
28	0x3d1b11e4	0.03785886
29	0x3c17b377	0.009259096
30	0xba709b66	-0.00091784296
31	0x3cc8ce61	0.024512472
32	0x3b5892e1	0.003304653
33	0xbba072a9	-0.004896481
34	0x3cc63ad4	0.024197973
35	0x3c9c2c96	0.019064229
36	0x3d22be7d	0.039732445
37	0x3ca7cfce	0.020484831
38	0x3d2d5337	0.042315688
39	0x3cd7e45d	0.02635401
40	0x3b87fd85	0.004150095
41	0x3ba684e5	0.00508176
42	0xbd5c55a5	-0.053792614
43	0x3cd60f44	0.026130326
44	0xbc56329a	-0.013073588
45	0xbc99deee	-0.018783059
46	0xbb0949d5	-0.0020948548
47	0xbd780ea8	-0.060560852
48	0x3b35fb32	0.0027768132
49	0x3bb4cc14	0.005517492
50	0x3bcc5d24	0.006236689
51	0x3d0d9c70	0.03457302
52	0x3d3f9229	0.04677025
53	0xbb0c5aa1	-0.0021416324
54	0x3d1fad32	0.03898353
55	0x3c702080	0.014656186
56	0x3cbe2a5b	0.023213556
57	0x3ca84f13	0.020545518
58	0xbb83fea0	-0.0040281564
59	0x3c3b6918	0.0114386305
60	0x3be75c18	0.007060539
61	0xbc5004b0	-0.01269643
62	0x3c0e8227	0.008698023
63	0x3b80184c	0.0039091464
64	0xbbfdfa7f	-0.0077508087
65	0x3d2ea335	0.042636115
66	0xba8a3b48	-0.0010546232
67	0xbb88b8ed	-0.0041724355
68	0x3bed0335	0.0072330483
69	0x3d318611	0.043340746
70	0x3d027f88	0.031859905
71	0x3c8525d0	0.016253382
72	0xbb791e22	-0.0038012345
73	0x3c090726	0.008363521
74	0x3d2accaf	0.041699108
75	0x3d373277	0.04472586
76	0x3d5b81c5	0.053590555
77	0x3c2409d7	0.010012112
78	0x3d442b85	0.047893066
79	0xbd033c6d	-0.03204005
80	0x3d27083b	0.040779334
81	0x3c720183	0.014770868
82	0x3c3e0a59	0.011599147
83	0x3b782b3b	0.0037867564
84	0xbc238536	-0.00998049
85	0x3c67b646	0.0141425785
86	0x3cf8c51a	0.030367423
87	0x3c01d56c	0.007924419
88	0x3d243b56	0.04009565
89	0x3c5f7d0a	0.0136406515
90	0x3cd3cad3	0.02585355
91	0xbcec454e	-0.02884164
92	0xbccf0442	-0.025270585
93	0x3bca9dc5	0.0061833584
94	0x3cb2c5a9	0.021822767
95	0x3d2b17ef	0.04177087
96	0x3bbc48a3	0.0057459637
97	0x3c54923f	0.012974321
98	0x3b9e1ff9	0.004825589
99	0x3cc65e8a	0.024215002
100	0x3c22403b	0.009903009
101	0x3cadf404	0.02123452
102	0x3c915314	0.01773981
103	0xba9b025c	-0.0011826265
104	0x3d38887a	0.04505203
105	0x3d49394c	0.04912691
106	0x3cb7b479	0.022424923
107	0x3d054fa7	0.032546666
108	0x3d05a766	0.032630347
109	0x3c8ff1a8	0.017571285
110	0x3ce6e2ee	0.02818438
111	0x3d0b84b8	0.034062117
112	0x3d04d912	0.032433577
113	0xba15306d	-0.0005691115
114	0x3c4ec91e	0.012621192
115	0xbd0dfe9d	-0.034666646
116	0x3ccc7e51	0.024962576
117	0x3cb10296	0.021607678
118	0x3cf3eb75	0.02977536
119	0x3c5f8d39	0.01364451
120	0x3d11671b	0.03549872
121	0x3cd3b190	0.025841504
122	0x3c21302d	0.009838146
123	0x3b92524a	0.004465376
124	0x3d33e4f2	0.04391951
125	0x3cc00ed3	0.023444569
126	0xbc0ed40b	-0.008717547
127	0x3c9c3790	0.019069463

network_body._body_endoder.seq_layers.2.weight f4 [128, 128]
0	0x3d09843b	0.03357337
1	0xbd9f4e39	-0.07778592
2	0x3e2eb106	0.17059717
3	0xbe0fcf15	-0.1404384
4	0xbccdeca4	-0.025137253
5	0xbcc4220b	-0.023942014
6	0x3e3b1c97	0.18272625
7	0xbd7d222a	-0.06180016
8	0xbe40ff60	-0.18847418
9	0xbe8a9762	-0.2706862
10	0xbd62932e	-0.055316143
11	0xbd2bcdeb	-0.041944426
12	0x3d3fc325	0.046816964
13	0xbd5e61d2	-0.054292507
14	0x3e86bda6	0.26316565
15	0x3e0a10bc	0.13482946
16	0x3db16507	0.086618476
17	0xbea6121b	-0.32435688
18	0x3d93aac2	0.07210304
19	0x3df94bb0	0.12172639
20	0xbd68e288	-0.056856662
21	0x3d5b7f52	0.05358822
22	0x3cd43c1d	0.02590757
23	0x3dde1bbd	0.108451344
24	0x3bc2ba3e	0.005942612
25	0x3da869e6	0.082233235
26	0x3ca0953f	0.019602416
27	0x3b85f913	0.00408853
28	0x3db159da	0.08659716
29	0x3ce083c8	0.027406588
30	0x3d1351f5	0.035966832
31	0x3c163585	0.0091680335
32	0xbe76f0e5	-0.24115331
33	0xbd644d2d	-0.055737663
34	0xbdde1d7d	-0.10845468
35	0xbdae2714	-0.08503547
36	0xbde15c42	-0.11003925
37	0xbbda0ff5	-0.0066547343
38	0xbe4b590f	-0.19858192
39	0xbe59fcc7	-0.21287833
40	0xbe070f76	-0.13189492
41	0x3e1a37f9	0.15060414
42	0xbdc01d4f	-0.0938059
43	0x3e2a6097	0.16638409
44	0xbe647ce4	-0.22313267
45	0x3d34bfcd	0.044128228
46	0xbe8de2af	-0.27712008
47	0xbda471cd	-0.08029518
48	0x3dcc79f3	0.099841975
49	0xbd92e7e4	-0.07173136
50	0xbe4c4e0b	-0.19951646
51	0xbe1616ba	-0.14657107
52	0x3d46f683	0.048574936
53	0xbe072ebf	-0.13201426
54	0x3ddb2410	0.10700238
55	0xbe4c5760	-0.19955206
56	0xbe9b9fca	-0.30395347
57	0xbe22edb1	-0.15910985
58	0xbcc5b001	-0.024131777
59	0xbd94e6d5	-0.0727059
60	0x3a2ea857	0.0006662658
61	0xbe0ac545	-0.13551815
62	0x3db6d844	0.08927968
63	0x3c7a9249	0.015293666
64	0xbbbabae3	-0.005698548
65	0x3abb9418	0.0014311103
66	0xbde2a3f1	-0.110664256
67	0xbbc37ff0	-0.005966179
68	0x3ddd4d99	0.10805816
69	0x3bb6df18	0.005580794
70	0xbe373a75	-0.17893393
71	0xbdb2fa9e	-0.08739208
72	0x3e07b0be	0.13251016
73	0x3e599e13	0.21251707
74	0x3e043695	0.12911446
75	0x3dc161e2	0.09442498
76	0xbe2c7ce4	-0.16844517
77	0x3d97cfb8	0.07412666
78	0x3da15f2f	0.07879483
79	0xbe695561	-0.22786476
80	0x3cca500e	0.024696376
81	0x3dc2339d	0.09482501
82	0xbd71b238	-0.059007853
83	0xbdd7559e	-0.10514377
84	0xbe1b59bb	-0.15170948
85	0x3e15da83	0.14634137
86	0x3d3cf7a8	0.04613462
87	0x3e393d1b	0.18089716
88	0x3e101b46	0.14072904
89	0x3e66a098	0.22522199
90	0xbddc8d58	-0.10769147
91	0x3daceb2a	0.084432915
92	0xbe0ab612	-0.13546017
93	0xbe286fcd	-0.16448899
94	0xbc33ad42	-0.010966601
95	0x3d8c6474	0.068550974
96	0x3d9f2d2b	0.07772287
97	0xbd14fffb	-0.036376934
98	0xbd3e566b	-0.046469133
99	0x3da0f437	0.0785908
100	0x3e01241f	0.12611435
101	0x3d42fadc	0.04760252
102	0x3cc4cf27	0.02402456
103	0x3e18d37e	0.14924428
104	0x3d087231	0.033312026
105	0xbd3ffbc7	-0.046870973
106	0xbdbd2983	-0.09236433
107	0xbcea80c3	-0.028625851
108	0x3ceab464	0.02865047
109	0x3d1ac09a	0.037781335
110	0xbdf5ce17	-0.12002199
111	0x3ceb60b0	0.028732628
112	0xbdf71a2f	-0.12065541
113	0xbdd5e84e	-0.10444699
114	0x3c7a6d7a	0.01528489
115	0xbdfe63e7	-0.124213986
116	0xbd03c660	-0.032171607
117	0xbd712fd5	-0.058883507
118	0x3db3e697	0.08784216
119	0x3e9b4c27	0.30331537
120	0x3e091fee	0.13391086
121	0xbd0496f0	-0.032370508
122	0xbc8abbaf	-0.016935198
123	0xbe147af2	-0.14500025
124	0x3d20c4fd	0.039250363
125	0xbe1d75e3	-0.15377001
126	0xbd360eb5	-0.04444762
127	0xbe6ea31a	-0.23304406
128	0xbd6c59a3	-0.05770267
129	0xbe2c6e7d	-0.16839023
130	0x3d23593a	0.039880015
131	0x3e397191	0.18109728
132	0x3dbf8865	0.09352187
133	0xbdc04b55	-0.093893684
134	0xbe05e17b	-0.13074295
135	0x3c8b6679	0.017016636
136	0xbe4c667e	-0.19960973
137	0x3d841ce8	0.06450826
138	0x3e80bf08	0.25145745
139	0x3d350504	0.044194236
140	0xbd7cb4cd	-0.061695863
141	0x3d5d2061	0.053985957
142	0x3d00c61c	0.03143893
143	0x3e3ef510	0.18648171
144	0x3dce13f3	0.10062399
145	0x3d1eb1ad	0.038743664
146	0xbdf610b1	-0.120149024
147	0xbb58a781	-0.0033058824
148	0xbe704821	-0.23465015
149	0x3c0f75ed	0.008756143
150	0x3d0ee314	0.034884527
151	0x3d9ecaaf	0.077535026
152	0x3e05a718	0.13052022
153	0xbe462460	-0.19349813
154	0x3dabbf4b	0.083860956
155	0x3d329c4a	0.04360608
156	0x3c910110	0.017700702
157	0x3d68d01c	0.056839094
158	0x3d897bbe	0.06713055
159	0x3c6a8c81	0.014315725
160	0x3e654846	0.22390851
161	0x3e14d8b6	0.14535794
162	0xbdc18f9c	-0.094512194
163	0x3d288dd9	0.0411509
164	0x3d809dd9	0.06280107
165	0x3daed830	0.08537328
166	0xbd6c3c7c	-0.05767487
167	0xbe03889e	-0.12845084
168	0x3e2ef6bc	0.17086309
169	0xbc312bd1	-0.010813669
170	0xbded17d5	-0.11576811
171	0x3d739d3b	0.05947612
172	0xbccbb469	-0.0248663
173	0xbd54e15e	-0.05197274
174	0xbe11ebad	-0.1425006
175	0xbe3e4b92	-0.18583515
176	0x3e18cbf1	0.14921547
177	0xbe08fd6e	-0.13377926
178	0xbd7bf2cb	-0.061510842
179	0x3cba4637	0.02273856
180	0x3c4a7b10	0.012358442
181	0xbdee753f	-0.11643457
182	0x3d01df19	0.031706903
183	0xbe8177df	-0.25286767
184	0xbdfe02ed	-0.12402902
185	0x3cf20b91	0.02954653
186	0xbdaa2d05	-0.08309368
187	0x3de8b62d	0.11362872
188	0xbde4b44c	-0.111672014
189	0xbd6aada9	-0.05729452
190	0x3c82df94	0.015975751
191	0x3d06e9df	0.03293788
192	0xbd9cfa82	-0.07664968
193	0x3e042873	0.12906055
194	0x3e09677d	0.13418384
195	0xbc4ecb23	-0.012621674
196	0x3c4a4794	0.012346167
197	0x3d29de0b	0.041471522
198	0x3da7384a	0.08165033
199	0x3e0630f4	0.13104612
200	0x3c5eb260	0.013592333
201	0xbdad9de0	-0.08477378
202	0xbd8e3bca	-0.069449976
203	0x3de8e589	0.11371905
204	0x3e8623ef	0.2619929
205	0xbc21a129	-0.009865084
206	0xba9ac782	-0.0011808726
207	0xbe4480cb	-0.19189756
208	0x3dc3031e	0.09522079
209	0x3e2183eb	0.15772979
210	0x3d1fc527	0.03900638
211	0x3d39a391	0.045322005
212	0xbdb3f95d	-0.08787797
213	0x3d8d7b95	0.06908337
214	0x3e144d1c	0.1448254
215	0xbd432cdc	-0.047650203
216	0xbd9ab016	-0.07553117
217	0x3e25215d	0.16126008
218	0xbd920dae	-0.071315154
219	0xbc21d016	-0.009876272
220	0xbe117d75	-0.14208014
221	0xbda225bc	-0.079173535
222	0x3da88acb	0.08229598
223	0xbcfeb972	-0.031094287
224	0xbd18cec1	-0.03730655
225	0xbc5287ab	-0.012849729
226	0xbe931f6d	-0.28734913
227	0xbd7cdba3	-0.0617329
228	0xbd4ae3b9	-0.04953358
229	0xbd901e99	-0.07037086
230	0x3d7f3a35	0.06231137
231	0xbd394ca1	-0.045239095
232	0xbd3c716f	-0.046006616
233	0x3d8610e6	0.06546192
234	0x3d0d2d67	0.034467127
235	0x3abbaba3	0.001431812
236	0x3e1771eb	0.1478955
237	0x3d646e91	0.055769507
238	0xbdb4b91b	-0.088243686
239	0x3e327dce	0.17430803
240	0x3e0c9fcb	0.13732831
241	0xbcf7f488	-0.030267969
242	0xbd956aab	-0.07295736
243	0x3b13b3fa	0.0022537694
244	0xbe3463f6	-0.17616257
245	0xbba01383	-0.0048851385
246	0xbc5b1c96	-0.013373515
247	0x3e400ff1	0.18756081
248	0x3d9e57c5	0.077315845
249	0xbd4a350c	-0.049366996
250	0x3cf0fdf0	0.029417962
251	0xbc82120f	-0.015877752
252	0x3e3e8b18	0.18607748
253	0x3de20912	0.11036886
254	0xbd0022df	-0.031283256
255	0x3e152146	0.14563474

network_body._body_endoder.seq_layers.2.bias f4 [128]
0	0x3d42ba9e	0.047541253
1	0x3db55478	0.08854002
2	0xbd885189	-0.066561766
3	0x3c70da2d	0.014700455
4	0xbc7bf587	-0.0153783625
5	0xbd14a5a5	-0.036290783
6	0x3cfc570c	0.030803226
7	0xbcc3067b	-0.023806801
8	0x3d0fbe7a	0.035093762
9	0x3ccf18dd	0.02528041
10	0x3d1904a1	0.03735793
11	0x3c8a4405	0.016878137
12	0xbb71e9cf	-0.0036913042
13	0x3c377490	0.011197224
14	0x3d288184	0.04113914
15	0x3cdaf910	0.02673009
16	0x3b41dfbd	0.0029582821
17	0x3d22c95e	0.03974282
18	0x3d6032d2	0.054735966
19	0x3cad2da6	0.021139931
20	0x3ce8fae5	0.028439948
21	0x3cb09bb4	0.02155862
22	0xbc143488	-0.009045728
23	0x3cf9a379	0.030473458
24	0xbd602373	-0.054721307
25	0x38ea6caa	0.0001117823
26	0xbbc23ac8	-0.0059274174
27	0xbce60f18	-0.02808337
28	0xbc6fccf6	-0.014636269
29	0x3c54f9fd	0.012999055
30	0x3ba58b1a	0.0050519826
31	0x3cf67c11	0.030088456
32	0x3d3f2d11	0.046673838
33	0xbc9abc22	-0.018888537
34	0x3d012eb0	0.031538665
35	0x3ce2600f	0.027633695
36	0xbc5f0606	-0.013612276
37	0xbd2d8880	-0.042366505
38	0x3d070395	0.0329624
39	0xbbf931cb	-0.0076048127
40	0x3d699e27	0.05703559
41	0x3d4c27fa	0.049842812
42	0x3cd0fb32	0.025510404
43	0xbc9839ca	-0.018582243
44	0x3c4967b5	0.012292792
45	0x3c96e793	0.01842097
46	0x3aa6be11	0.0012721439
47	0x3bd8a8da	0.0066119255
48	0xbc955548	-0.018229142
49	0xbcc8da41	-0.024518134
50	0xbbe234e2	-0.006903277
51	0x3cb7fa1b	0.022458127
52	0x3ca14032	0.019683931
53	0x3d53ee81	0.051741127
54	0xbd1b3335	-0.03789063
55	0xbc382447	-0.011239118
56	0x3cb3b174	0.021935202
57	0x3c67f836	0.014158299
58	0x3d4831f0	0.04887575
59	0xbca439aa	-0.020047028
60	0xbcc1f5f2	-0.023676846
61	0xbdbe209a	-0.09283562
62	0x3d166bdd	0.03672396
63	0xbcaa226a	-0.020768363
64	0x3cce5166	0.025185298
65	0xba813991	-0.0009859075
66	0x3d8cb603	0.068706535
67	0x3d960155	0.07324473
68	0xbdb55bc5	-0.08855394
69	0xbc9a5a85	-0.018841991
70	0x3c9278d4	0.017879881
71	0xbc376e65	-0.011195754
72	0xba811731	-0.000984883
73	0xbbc55a2c	-0.006022712
74	0xbd25dde5	-0.04049482
75	0x3bd362fe	0.00645101
76	0xbd082ae7	-0.03324404
77	0x3ba2cbfa	0.0049681636
78	0x3cb2c751	0.021823557
79	0xbaa6ff64	-0.0012740907
80	0x3d1f098a	0.038827457
81	0x3c4cced6	0.012500485
82	0xbb0fa469	-0.0021918064
83	0x3cf2daca	0.029645342
84	0xbbf7c3ef	-0.007561199
85	0x3c04b9ab	0.008100907
86	0x3c915a44	0.017743237
87	0x3d2e0614	0.042486265
88	0x3bd6a0e4	0.0065499414
89	0x3c51b3dc	0.0127992295
90	0x3c9e20d2	0.01930276
91	0xbccd1911	-0.025036367
92	0x3c95b343	0.018273955
93	0x3ca54116	0.020172637
94	0x3ba5b9e4	0.0050575603
95	0x3d238db4	0.03993006
96	0x3cc5d9a4	0.02415163
97	0xbda0802d	-0.078369476
98	0x3ced4f50	0.028968483
99	0xbd2b61f5	-0.041841466
100	0x3d7e8a2a	0.062143482
101	0xbd6ea304	-0.058260933
102	0xbcbb0860	-0.022831142
103	0xbd890e82	-0.0669222
104	0x3c381842	0.011236252
105	0x3bc167fa	0.0059022876
106	0x3d161dbb	0.036649447
107	0x3c83c9ee	0.016087499
108	0x3cde12e9	0.027108626
109	0xbcb145e7	-0.021639777
110	0x3bac34c0	0.0052553117
111	0x3c61a24c	0.013771605
112	0x3b108f48	0.0022058059
113	0x3c9f8be1	0.01947588
114	0x3cbee56e	0.02330276
115	0x3c05e618	0.008172534
116	0x3c3e5405	0.0116167115
117	0x3c966933	0.01836071
118	0x3d307568	0.043080717
119	0x3c1f718c	0.0097316615
120	0x3cb7ec6f	0.022451608
121	0x3ca43290	0.020043641
122	0x3d09ee01	0.033674244
123	0x3cdbe4cc	0.026842497
124	0x3cc8e387	0.024522556
125	0x3d118d0f	0.035534915
126	0x3c3fb59e	0.011701016
127	0xbcd54ff8	-0.026039109

action_model._discrete_distribution.branches.0.weight f4 [7, 128]
0	0x3d3553a4	0.04426922
1	0x3c0aab2c	0.008463662
2	0x3c91e68d	0.01781013
3	0x3c0a2820	0.008432418
4	0x3b7dd2f5	0.0038730477
5	0x3a041a06	0.0005039278
6	0xbbda0f4b	-0.006654655
7	0xbbbd21fd	-0.005771874
8	0xbcf6e30b	-0.03013756
9	0x3d1b4d50	0.037915528
10	0x3d2b7234	0.04185696
11	0xbc9989be	-0.018742438
12	0x3c8b6d73	0.017019963
13	0xbda33722	-0.079695
14	0x3d83e5e9	0.06440336
15	0xbcc88b51	-0.024480494
16	0x3aab9763	0.0013091381
17	0x3da2a350	0.07941306
18	0xbddec828	-0.108780205
19	0x3ceb71f2	0.028740857
20	0x3b4191a4	0.0029536271
21	0x3d25ab1b	0.040446382
22	0xbd56347b	-0.052296143
23	0xbb9c8e1c	-0.004777683
24	0x3ccd4f3a	0.025062192
25	0xbde18793	-0.11012187
26	0x3c71b623	0.014752897
27	0xbd426678	-0.047461003
28	0xb99e6c6f	-0.00030216898
29	0x3ceae8fb	0.028675547
30	0x3ce2df21	0.027694287
31	0xbd2b729f	-0.041857358
32	0x3d1793c5	0.03700616
33	0x3c51aecf	0.012798025
34	0x3d258f75	0.040420014
35	0xbd70f8e6	-0.058831118
36	0xbc69abfc	-0.014262196
37	0xbbb23f97	-0.0054397094
38	0xbd9b6f71	-0.07589615
39	0x3cd48960	0.025944412
40	0x3cac1d2e	0.021010008
41	0xbd421993	-0.04738767
42	0x3d017aaf	0.03161114
43	0xbd09673a	-0.03354571
44	0x3d213edf	0.0393666
45	0x3d4eb620	0.050466657
46	0xbc379f60	-0.011207432
47	0x3c96ae1e	0.018393572
48	0xbcf638ff	-0.030056475
49	0x3c348648	0.011018343
50	0x3c8e6b07	0.017385019
51	0xbc6a50b8	-0.014301471
52	0xbdc3f35b	-0.09567901
53	0x3d58fe47	0.052976873
54	0x3bdce172	0.0067407424
55	0x3b07d752	0.0020727706
56	0xbc8592bb	-0.016305318
57	0xbd7d8903	-0.061898243
58	0x3d81f8e8	0.06346303
59	0xbd2c8bdf	-0.04212558
60	0xbaed908c	-0.0018124743
61	0x3bf896e0	0.007586345
62	0xbd12f522	-0.035878308
63	0x3d607fef	0.054809507
64	0x3c37a4a1	0.011208684
65	0xbda3b3fd	-0.079933144
66	0x3d0dfe37	0.034666266
67	0x3ced5a81	0.02897382
68	0x3cd5318b	0.0260246
69	0x3d3e1770	0.04640907
70	0xbc10ac9f	-0.008830219
71	0xbd858920	-0.06520295
72	0x3cfd0593	0.030886447
73	0x3a0f7e36	0.0005473824
74	0x3d77b84a	0.060478486
75	0xbc920a7d	-0.017827267
76	0x3b9bbc7a	0.0047526928
77	0x3b3920b1	0.0028248245
78	0xbca78d80	-0.020453215
79	0x3b75b481	0.0037491622
80	0x3d27c734	0.04096146
81	0xbda2fff4	-0.079589754
82	0x3c198f6f	0.009372576
83	0x3d471f5a	0.048613884
84	0x3ba794cd	0.005114174
85	0xbc02bf7e	-0.007980226
86	0x3d122111	0.035676066
87	0xbc4bdcdc	-0.012442794
88	0xbdb720c3	-0.08941796
89	0xbd7fa652	-0.062414475
90	0xbc1523d8	-0.009102784
91	0x3c273329	0.010205069
92	0xbbe87235	-0.0070936927
93	0x3d2e1eab	0.042509716
94	0x3d992ba7	0.07479029
95	0x3d33ba52	0.04387886
96	0x3d55c20e	0.052187018
97	0xbcbefb93	-0.02331332
98	0x3cee859a	0.02911644
99	0x3c7e4970	0.015520439
100	0xb90325ce	-0.00012507217
101	0xbc82405f	-0.015899835
102	0xbd2bb7a1	-0.04192317
103	0x3c50e9fb	0.012751098
104	0x3d8eb048	0.06967217
105	0x3d26c861	0.04071844
106	0xbc15b528	-0.009137429
107	0xbde9ffcc	-0.114257425
108	0x3d37357d	0.044728745
109	0xbc152bac	-0.0091046505
110	0x3c8aa1e5	0.0169229
111	0x3c3f8208	0.011688717
112	0x3c07efa2	0.008296879
113	0x3b085931	0.0020805115
114	0x3a0e799a	0.000543499
115	0x3d302b28	0.043009907
116	0xbd4bc4cd	-0.04974823
117	0x3d598ea3	0.053114545
118	0x3d1b0d5e	0.037854545
119	0xbbef29f1	-0.007298701
120	0x3cf27d52	0.029600773
121	0x3d32ded1	0.043669526
122	0x3cb643f7	0.022249205
123	0x3d0b702c	0.034042522
124	0xbd5984ef	-0.05310529
125	0xbd85391b	-0.06505033
126	0xbd2cb475	-0.042164285
127	0xbbc0b57c	-0.0058810096
128	0xbdbc09a3	-0.091815256
129	0x3bae782b	0.0053243837
130	0xbc980413	-0.01855663
131	0xbdd4352e	-0.10361706
132	0x3d95add0	0.07308543
133	0xbd01909a	-0.031632043
134	0xbd6bff45	-0.05761649
135	0x3d7f9dba	0.06240628
136	0x3c79392a	0.015211383
137	0x3d3a430e	0.045474105
138	0x3d858b56	0.06520717
139	0x3d25bcf0	0.040463388
140	0x3c586014	0.013206501
141	0xbd603aa6	-0.05474343
142	0xbce48bb5	-0.027898649
143	0xbe0828ae	-0.13296768
144	0x3cd14183	0.025543934
145	0xbd9738a7	-0.073838525
146	0xbd5f134e	-0.05446177
147	0xbddc6e76	-0.10763256
148	0x3c0a2e40	0.008433878
149	0xbdfc7528	-0.12327033
150	0x3d70de57	0.05880579
151	0xbc3893b1	-0.011265681
152	0x3cc98fb1	0.02460465
153	0x3d2b11ab	0.041764896
154	0xbd19c4af	-0.037541088
155	0x3d8c8836	0.06861918
156	0x3d065769	0.032798205
157	0x3d7a01cd	0.061036874
158	0xbdeff768	-0.11717111
159	0xbd7f002c	-0.062256023
160	0x39d07d0d	0.00039766022
161	0xbd8ebb11	-0.06969274
162	0x3d27d09a	0.040970422
163	0x3da04fd2	0.078277245
164	0xbb9255e7	-0.0044658068
165	0x3c99c4ad	0.01877054
166	0x3d5ac77a	0.053412892
167	0xbcc3b063	-0.023887819
168	0xbc73a766	-0.014871454
169	0xbc87acb0	-0.016561836
170	0x3ce1b89a	0.027553845
171	0xbbc33564	-0.0059572924
172	0xbc5a4eb8	-0.013324432
173	0x3d97bb3b	0.07408758
174	0x3c74289a	0.014902258
175	0xbd4a18b3	-0.04933996
176	0x3db82c90	0.089928746
177	0xbd322e4a	-0.043501176
178	0xbc4e5b2d	-0.01259498
179	0x3d802f31	0.06259001
180	0x3d34ee5c	0.04417263
181	0xbe415cfe	-0.1888313
182	0xbbd450a9	-0.006479342
183	0x3c7e42c7	0.015518851
184	0xbc9fc3c0	-0.01950252
185	0x3d466134	0.048432544
186	0xbd736fcf	-0.0594328
187	0x3d96a5e0	0.07355857
188	0xbd883b52	-0.066519395
189	0xbb5c02e4	-0.003357106
190	0x3dada849	0.084793635
191	0x3c85010a	0.016235847
192	0xbdd75d60	-0.10515857
193	0x3d7b152b	0.061299484
194	0xbca1d750	-0.01975599
195	0x3c304035	0.010757496
196	0x3c021778	0.007940166
197	0x3b035840	0.0020041615
198	0x3d9de10c	0.0770894
199	0x3d371082	0.044693477
200	0x3d740c60	0.059582114
201	0xbd7ee9ac	-0.062234566
202	0x3cd53b1c	0.026029162
203	0x3d4956a9	0.04915491
204	0x3d242f76	0.040084325
205	0x3b5e79e2	0.003394716
206	0x3dbdb080	0.0926218
207	0x3d1ee406	0.03879168
208	0x3cc0bb1b	0.023526719
209	0x3c85fdfb	0.016356459
210	0xbc76f287	-0.015072471
211	0x3c05ef3f	0.0081747165
212	0xbe02d007	-0.12774669
213	0x3b6eb2f1	0.0036422575
214	0x3dc50fb8	0.09622139
215	0x3e080ead	0.13286848
216	0x3d43a34b	0.04776315
217	0xbd074589	-0.0330253
218	0xbc9c25c2	-0.019060973
219	0xbdd841f0	-0.105594516
220	0x3e43f659	0.19136943
221	0xbbbe5a6d	-0.0058091194
222	0xbdbdafed	-0.09262071
223	0x3d059b1a	0.03261862
224	0xbd351bfd	-0.044216145
225	0x3b969d99	0.004596424
226	0x3c599773	0.013280737
227	0x3c5001fb	0.012695785
228	0x3da8e52b	0.08246835
229	0x3cc4b23c	0.02401077
230	0x3daffd73	0.085932635
231	0xbc91c443	-0.01779378
232	0x3d1e660d	0.038671542
233	0xbdbeacef	-0.09310328
234	0xbd4991cc	-0.04921131
235	0xbcc48cba	-0.023992885
236	0x3daea6af	0.08527886
237	0xbc190275	-0.009338965
238	0xbe0c3c8f	-0.13694976
239	0xbdcc02fd	-0.099615075
240	0x3d74d44e	0.059772782
241	0xbc309e23	-0.01077989
242	0xbd5775db	-0.05260263
243	0xbd1c4f51	-0.03816158
244	0x3db9925b	0.09061118
245	0x3cd2d2ce	0.025735285
246	0xbdafab70	-0.08577621
247	0xbc0858c7	-0.008321947
248	0x3d73138a	0.059344806
249	0xbc3039cc	-0.010755967
250	0xbe16fb2a	-0.14744249
251	0x3cefde3c	0.029280774
252	0xbd186595	-0.03720625
253	0x3c647dcd	0.013946009
254	0x3de684d0	0.11255801
255	0x3bd1e326	0.006405252

action_model._discrete_distribution.branches.0.bias f4 [7]
0	0xbb319373	-0.0027095943
1	0xbc220e0a	-0.0098910425
2	0xbc8fe217	-0.017563863
3	0xbda182a8	-0.07886249
4	0xbc2bfbdf	-0.0104970625
5	0x3c816d95	0.015799323
6	0x3cdf5b00	0.027265072

exp_avg f4 [128, 164]
0	0xb8df701e	-0.00010654352
1	0x377ce49c	1.5073598e-05
2	0x38862070	6.39566e-05
3	0x382a7ce5	4.0647476e-05
4	0x387414db	5.8193556e-05
5	0xb8a28741	-7.749955e-05
6	0x37192b00	9.129522e-06
7	0x388fd40a	6.858267e-05
8	0x3758c96b	1.29215e-05
9	0x3810950f	3.4471097e-05
10	0x3851eb3d	5.0048566e-05
11	0x36f58c7b	7.317923e-06
12	0x38977486	7.221945e-05
13	0xb8f43796	-0.0001164518
14	0xb8bc0b18	-8.966605e-05
15	0xb8b88958	-8.799386e-05
16	0x374f8938	1.237011e-05
17	0x37e0642c	2.6749527e-05
18	0x38820a7e	6.2008374e-05
19	0x388d0477	6.7242356e-05
20	0x37dc51a3	2.6264059e-05
21	0x372bf9a0	1.0250515e-05
22	0xb794524a	-1.7681294e-05
23	0xb6bf3b20	-5.6991266e-06
24	0xb8435fc4	-4.658081e-05
25	0xb806528e	-3.2024975e-05
26	0x3738dff1	1.1019395e-05
27	0x380596e0	3.1850184e-05
28	0x3619a658	2.2895601e-06
29	0x37ab17cd	2.0395872e-05
30	0x37e5104e	2.730652e-05
31	0x3631a7ad	2.6472655e-06
32	0x38098098	3.2783108e-05
33	0xb8500c85	-4.9602724e-05
34	0xb84de68e	-4.909053e-05
35	0xb83c155d	-4.484259e-05
36	0x3704487a	7.884688e-06
37	0xb82f9a3e	-4.18669e-05
38	0x38c0da1b	9.195899e-05
39	0x388b8c06	6.654118e-05
40	0x37d2c74a	2.5126752e-05
41	0x35b5c9ae	1.3544247e-06
42	0x37b6b397	2.1779719e-05
43	0xb81354ff	-3.512669e-05
44	0xb69d6640	-4.690868e-06
45	0xb56ae1d0	-8.7500393e-07
46	0x37063785	7.999949e-06
47	0xb7754630	-1.461948e-05
48	0x37ad0bd0	2.0628708e-05
49	0x3827f41c	4.0043247e-05
50	0x37c8d480	2.3940811e-05
51	0x35737e98	9.070877e-07
52	0x374b4acb	1.2117157e-05
53	0xb7c7e863	-2.3830862e-05
54	0xb7955eba	-1.7806295e-05
55	0xb8384a58	-4.3938257e-05
56	0x36721ca1	3.6077474e-06
57	0xb6a3a984	-4.8775128e-06
58	0x3874b47a	5.8342215e-05
59	0x38a3d40f	7.811945e-05
60	0xb7e38ee8	-2.7127055e-05
61	0xb3be460c	-8.860306e-08
62	0x375b7ad9	1.308202e-05
63	0x37e4bd2e	2.7267812e-05
64	0x37a7914c	1.997561e-05
65	0xb8d0be60	-9.953673e-05
66	0x358ee152	1.0645401e-06
67	0x360d6449	2.106901e-06
68	0x38e5a314	0.000109499466
69	0x389f0f60	7.5845746e-05
70	0x38c1839d	9.227472e-05
71	0xb368fdd7	-5.4247575e-08
72	0x36bf15f0	5.6947974e-06
73	0xb8b1cc82	-8.47811e-05
74	0xb8475577	-4.7524893e-05
75	0xb83961da	-4.419857e-05
76	0xb494c81b	-2.7712744e-07
77	0x33c5f5a6	9.2182106e-08
78	0x38713f2c	5.751771e-05
79	0x38bd741f	9.0338515e-05
80	0xb7639470	-1.3564815e-05
81	0xb31f3351	-3.7066744e-08
82	0x35584a3d	8.05743e-07
83	0x37d984e6	2.5930301e-05
84	0xb7a89464	-2.009626e-05
85	0xb9408aeb	-0.00018362298
86	0xb22a770d	-9.922371e-09
87	0xb3d7f317	-1.00559355e-07
88	0x394e6e45	0.0001968677
89	0x3952f2a6	0.00020117554
90	0x38bccbe3	9.0025154e-05
91	0xb3563d91	-4.9881752e-08
92	0xb54fdfc1	-7.7439114e-07
93	0xb89f8604	-7.606673e-05
94	0xb85b8d65	-5.2345353e-05
95	0xb8e5bd03	-0.00010954777
96	0xb181bacc	-3.7756305e-09
97	0xb0d4ca25	-1.5482483e-09
98	0x3900a59d	0.00012268727
99	0x39143dc6	0.00014137392
100	0x38b2162e	8.491833e-05
101	0xb264ee63	-1.33255496e-08
102	0xb4b3a986	-3.3464693e-07
103	0xb895d002	-7.143618e-05
104	0xb8537f59	-5.0424922e-05
105	0xb8a83a80	-8.021761e-05
106	0x31278910	2.437961e-09
107	0x35ad0478	1.2890805e-06
108	0x38c11079	9.2060254e-05
109	0x38ba9453	8.896799e-05
110	0x382995c4	4.043222e-05
111	0xb2a6ebd5	-1.9432187e-08
112	0x3546174a	7.379464e-07
113	0xb7eb052e	-2.8016595e-05
114	0xb7acd682	-2.0603886e-05
115	0xb8ba2338	-8.875731e-05
116	0x30f2fb14	1.7679178e-09
117	0xb44e68b1	-1.9223332e-07
118	0x38d614d5	0.000102081955
119	0x38d3a0b6	0.00010091199
120	0xb80dd674	-3.3816745e-05
121	0xb2765fb8	-1.43408485e-08
122	0x3523c26e	6.1005164e-07
123	0x38426d74	4.635514e-05
124	0x38538d3a	5.0437848e-05
125	0xb8834ac1	-6.260491e-05
126	0x30c8e92f	1.461819e-09
127	0xb13dc83b	-2.7616938e-09
128	0x389ed6ca	7.574035e-05
129	0x389dd40c	7.52584e-05
130	0xb7aedc7f	-2.0845093e-05
131	0xb20c3b69	-8.162581e-09
132	0x33fc2866	1.1742013e-07
133	0x380e0f92	3.386994e-05
134	0x381da8d0	3.7588936e-05
135	0xb8804399	-6.116107e-05
136	0xb117ace0	-2.207166e-09
137	0xb3ab25dc	-7.9696946e-08
138	0x389bfaee	7.437715e-05
139	0x37ebaca6	2.8094579e-05
140	0xb7d91764	-2.5879308e-05
141	0xb282ab9a	-1.5212027e-08
142	0x32e41a2a	2.6554591e-08
143	0x38239637	3.9002127e-05
144	0x381ff7b3	3.8139242e-05
145	0x3751cb78	1.25047445e-05
146	0xb10f93ef	-2.089333e-09
147	0x32d66834	2.4960265e-08
148	0x3522d200	6.0655293e-07
149	0x36e8fba0	6.943432e-06
150	0x3751cb78	1.25047445e-05
151	0xb10f93ef	-2.089333e-09
152	0x32d66834	2.4960265e-08
153	0x3522d200	6.0655293e-07
154	0x36e8fb90	6.9434245e-06
155	0x37b78c8b	2.1880745e-05
156	0xb779f5a2	-1.4898747e-05
157	0x368a7ffc	4.12762e-06
158	0xba270232	-0.00063708716
159	0x375c5adc	1.3134177e-05
160	0x35b7b3e4	1.3686918e-06
161	0x35ba8194	1.3895792e-06
162	0x37576e14	1.2840628e-05
163	0x375c5a2c	1.3134017e-05
164	0x38f242d3	0.00011551906
165	0xb6761e5a	-3.6674523e-06
166	0xb62dec05	-2.591639e-06
167	0xb901ae94	-0.00012367434
168	0xb8f1befc	-0.00011527349
169	0x389fefd4	7.626382e-05
170	0xb600d990	-1.9200124e-06
171	0xb6b0dfcb	-5.2712617e-06
172	0xb8af15ab	-8.348686e-05
173	0xb89f9242	-7.6089535e-05
174	0x3704a92e	7.907203e-06
175	0x35fde831	1.8917546e-06
176	0xb77b0734	-1.4962443e-05
177	0xb71b3419	-9.25085e-06
178	0xb5e0db10	-1.6753056e-06
179	0x38aae343	8.1485625e-05
180	0xb6ab0742	-5.097042e-06
181	0xb6aace14	-5.0903855e-06
182	0xb8b3c08a	-8.571248e-05
183	0xb8a8cef6	-8.049414e-05
184	0xb88745fb	-6.4503365e-05
185	0x34d153a0	3.899013e-07
186	0xb80adf16	-3.310953e-05
187	0x38ada994	8.280869e-05
188	0x38a981f6	8.082755e-05
189	0x380ef199	3.4080444e-05
190	0xb5f41749	-1.8186194e-06
191	0xb768d191	-1.3877071e-05
192	0xb80991bd	-3.2799075e-05
193	0xb813a847	-3.520425e-05
194	0xb8130d0b	-3.505968e-05
195	0xb51678ff	-5.6055427e-07
196	0xb75eeaee	-1.328693e-05
197	0x3810ac6e	3.4492863e-05
198	0x383140a0	4.2260275e-05
199	0x3826deb8	3.9784907e-05
200	0x354a6008	7.539061e-07
201	0x371d5794	9.37832e-06
202	0xb886e9b5	-6.433149e-05
203	0xb837df82	-4.3838758e-05
204	0xb8165453	-3.584132e-05
205	0xb458e4a0	-2.0199741e-07
206	0x36e581ee	6.8398576e-06
207	0x37781edb	1.4789136e-05
208	0x37b7ca64	2.1909545e-05
209	0x388c8c8d	6.7019e-05
210	0x34f15065	4.4948243e-07
211	0xb81a0106	-3.6717414e-05
212	0xb83d6ffc	-4.5165405e-05
213	0xb80331b5	-3.1279127e-05
214	0xb8188e7d	-3.6372327e-05
215	0x33d0a5a8	9.7158875e-08
216	0xb70cc2e2	-8.390025e-06
217	0x37fdc33f	3.0250869e-05
218	0x37f7793a	2.9501145e-05
219	0x37f4987d	2.9158075e-05
220	0x3413c2a7	1.3761256e-07
221	0xb6486bed	-2.9865143e-06
222	0xb82ace84	-4.072349e-05
223	0xb818387c	-3.629223e-05
224	0xb7965519	-1.792102e-05
225	0xb1be905f	-5.546141e-09
226	0x37564c91	1.2773221e-05
227	0xb71b5fa4	-9.260988e-06
228	0xb7b338be	-2.1364885e-05
229	0x35902900	1.0740769e-06
230	0x33550b66	4.9603294e-08
231	0xb510bbc8	-5.391744e-07
232	0xb77ba39a	-1.4998857e-05
233	0xb688bed0	-4.0753293e-06
234	0xb82ee751	-4.1700263e-05
235	0xb2ad41e5	-2.0169816e-08
236	0xb7504600	-1.2414064e-05
237	0x38269939	3.9720184e-05
238	0x379003d2	1.7167917e-05
239	0x37387e64	1.0996682e-05
240	0xb1784234	-3.6126382e-09
241	0x3408d662	1.2743979e-07
242	0xb7d6339d	-2.5534822e-05
243	0xb824b238	-3.9266626e-05
244	0x380fc23f	3.4274763e-05
245	0xb0440029	-7.130461e-10
246	0xb502fa84	-4.879332e-07
247	0xb84a2ad2	-4.8200433e-05
248	0xb4d34400	-3.935129e-07
249	0x38a1b81e	7.711373e-05
250	0xb169e8ab	-3.403822e-09
251	0x3124e416	2.3994793e-09
252	0xb8bff235	-9.152704e-05
253	0xb8d241ab	-0.00010025812
254	0xb838e520	-4.4082408e-05
255	0xb0487b8e	-7.293516e-10

exp_avg_sq f4 [128, 164]
0	0x33dac36f	1.0186965e-07
1	0x3102e0ad	1.9045203e-09
2	0x33b247a4	8.301802e-08
3	0x35152df8	5.557372e-07
4	0x351a9993	5.759295e-07
5	0x33fb7e59	1.1711081e-07
6	0x30fe909e	1.8522035e-09
7	0x33732dee	5.661962e-08
8	0x3519b24b	5.725639e-07
9	0x351e4f93	5.897538e-07
10	0x33e2a525	1.0553985e-07
11	0x311a263d	2.2431685e-09
12	0x34298af0	1.5789897e-07
13	0x34f51a34	4.5653871e-07
14	0x3502870f	4.862531e-07
15	0x340774b8	1.2615317e-07
16	0x31003be9	1.8660506e-09
17	0x33ca3a79	9.416994e-08
18	0x350cec93	5.2498325e-07
19	0x3514efc0	5.548318e-07
20	0x3406398b	1.2500657e-07
21	0x316a9d7b	3.4141e-09
22	0x3446a560	1.850035e-07
23	0x34d120eb	3.8953235e-07
24	0x34e6316e	4.2876803e-07
25	0x341bd56e	1.4513145e-07
26	0x313b904f	2.7294111e-09
27	0x340720e9	1.2584827e-07
28	0x34f97242	4.6462998e-07
29	0x35096bf7	5.1193587e-07
30	0x3418156b	1.4163895e-07
31	0x31709392	3.500848e-09
32	0x345b0d9e	2.0400918e-07
33	0x34b95d6b	3.4526906e-07
34	0x34d24a37	3.9169547e-07
35	0x3438e4d7	1.7219587e-07
36	0x315c6c87	3.2075904e-09
37	0x340463d9	1.2329782e-07
38	0x34e425b2	4.2495736e-07
39	0x3501ee45	4.840297e-07
40	0x342df2bf	1.6200191e-07
41	0x311f5702	2.3187003e-09
42	0x344e5335	1.9215516e-07
43	0x34b689a1	3.400028e-07
44	0x34d135b7	3.8968366e-07
45	0x346bfae8	2.197736e-07
46	0x315fd11b	3.2569634e-09
47	0x33bc07f3	8.755878e-08
48	0x34dce0f5	4.114187e-07
49	0x350103b1	4.8061617e-07
50	0x344fc56e	1.9350202e-07
51	0x3076c10f	8.976863e-10
52	0x343734f3	1.7062466e-07
53	0x34b8a236	3.4390695e-07
54	0x34d1d970	3.908749e-07
55	0x34977e65	2.8217906e-07
56	0x310c14e4	2.0384556e-09
57	0x3332e20c	4.1649443e-08
58	0x34cfa6a2	3.8677996e-07
59	0x3500ca4a	4.7978085e-07
60	0x34842db2	2.4620164e-07
61	0x2fc2c582	3.5428732e-10
62	0x3390d400	6.744085e-08
63	0x34da0def	4.0615802e-07
64	0x34f3be55	4.5400762e-07
65	0x34a0da8b	2.9961333e-07
66	0x3102fe73	1.9062127e-09
67	0x31b051c2	5.131569e-09
68	0x34e0a0f8	4.1840372e-07
69	0x35038912	4.9000766e-07
70	0x34972e01	2.8159414e-07
71	0x2f924bd5	2.6611127e-10
72	0x31ce922c	6.012007e-09
73	0x34ef738d	4.4601293e-07
74	0x35065412	5.004123e-07
75	0x3488e04b	2.549517e-07
76	0x2ffce7a9	4.6003137e-10
77	0x306e5e9f	8.671836e-10
78	0x3500b760	4.795056e-07
79	0x350e463c	5.3001327e-07
80	0x348a0008	2.5704526e-07
81	0x2eea3edd	1.0652255e-10
82	0x30299f47	6.170819e-10
83	0x35013200	4.8129004e-07
84	0x350c897f	5.235415e-07
85	0x345e6102	2.0710652e-07
86	0x2f911e69	2.6396954e-10
87	0x2f9de573	2.8721167e-10
88	0x350daf56	5.278174e-07
89	0x3517cd29	5.655043e-07
90	0x346e76ae	2.2208653e-07
91	0x2ee8b198	1.05816855e-10
92	0x2f8d1496	2.5662378e-10
93	0x35090c17	5.105407e-07
94	0x35118440	5.420916e-07
95	0x34207801	1.4944818e-07
96	0x2f3a17c7	1.6925049e-10
97	0x2f2d67ee	1.5771182e-10
98	0x351ec998	5.9152944e-07
99	0x3525c271	6.175024e-07
100	0x345641d2	1.9954248e-07
101	0x2eca943c	9.212228e-11
102	0x2f16292f	1.3657052e-10
103	0x350bdada	5.2100006e-07
104	0x35146fa8	5.529678e-07
105	0x34046c78	1.2332919e-07
106	0x2f78f5f7	2.2642853e-10
107	0x2effd311	1.16335504e-10
108	0x352713a5	6.2240935e-07
109	0x352d4a04	6.455523e-07
110	0x34409ff4	1.7939584e-07
111	0x2e7685a1	5.605261e-11
112	0x2ea8f5c6	7.6834136e-11
113	0x350eb27c	5.315885e-07
114	0x3516f835	5.6240543e-07
115	0x33ee3de2	1.1093995e-07
116	0x2f18c17a	1.3893056e-10
117	0x2e3f7e8c	4.3540768e-11
118	0x352e2060	6.4867163e-07
119	0x3532c121	6.6591207e-07
120	0x3434df2f	1.6845e-07
121	0x2e781f0b	5.6416243e-11
122	0x2e2f3ca6	3.984426e-11
123	0x351718cd	5.6287973e-07
124	0x351e419d	5.8955067e-07
125	0x33d1ee39	9.775653e-08
126	0x2e94fa99	6.774776e-11
127	0x2d854b67	1.5153835e-11
128	0x3531700e	6.61007e-07
129	0x35351bfd	6.746848e-07
130	0x3412ac08	1.3659894e-07
131	0x2e966450	6.839029e-11
132	0x2d5222f9	1.19448835e-11
133	0x35216745	6.012745e-07
134	0x3528397e	6.266854e-07
135	0x33dd3909	1.0301489e-07
136	0x2ec30d69	8.8699555e-11
137	0x2c088ae5	1.9403864e-12
138	0x353122ed	6.598846e-07
139	0x3534908e	6.726558e-07
140	0x33f7fe45	1.1548085e-07
141	0x2ea131b2	7.33026e-11
142	0x2c9efc5f	4.518649e-12
143	0x352acc54	6.362727e-07
144	0x352ef442	6.5175493e-07
145	0x33e254e0	1.0539384e-07
146	0x2ee673cc	1.0479759e-10
147	0x2c2ebafa	2.483068e-12
148	0x35300e54	6.558596e-07
149	0x3532e998	6.665009e-07
150	0x33e254e0	1.0539384e-07
151	0x2ee673cc	1.0479759e-10
152	0x2c2ebafa	2.483068e-12
153	0x35300e54	6.558596e-07
154	0x3532e998	6.665009e-07
155	0x313d4c9e	2.7546672e-09
156	0x33cd8fbf	9.572204e-08
157	0x3488505f	2.5390452e-07
158	0x3893b0e9	7.042458e-05
159	0x35523d7b	7.832056e-07
160	0x325b1b82	1.2753732e-08
161	0x32aa04a8	1.9792722e-08
162	0x354cd4a6	7.6305366e-07
163	0x3550ceb6	7.778684e-07
164	0x33bfd49c	8.932804e-08
165	0x3082ff91	9.531381e-10
166	0x33522521	4.8928204e-08
167	0x349d48bf	2.929646e-07
168	0x34a2ff6c	3.0360695e-07
169	0x33ca7933	9.428404e-08
170	0x3084941b	9.646358e-10
171	0x32b53c85	2.1098694e-08
172	0x34ac3fb6	3.2083852e-07
173	0x34b12f72	3.300334e-07
174	0x33bf5217	8.9090626e-08
175	0x308778df	9.856896e-10
176	0x34091e6c	1.2770187e-07
177	0x345b8dcb	2.0447548e-07
178	0x347082a0	2.2399263e-07
179	0x33cd4e15	9.5602594e-08
180	0x3069fbf8	8.5122975e-10
181	0x32a52ca7	1.9228834e-08
182	0x34b03a24	3.2824857e-07
183	0x34b65caa	3.3967564e-07
184	0x33b995ec	8.6420044e-08
185	0x30c2b46b	1.4166636e-09
186	0x342d051b	1.6113738e-07
187	0x34320bdb	1.6581855e-07
188	0x344b0b92	1.8910058e-07
189	0x33db91c8	1.02245e-07
190	0x309f305a	1.1582515e-09
191	0x329fe1fd	1.8612804e-08
192	0x34ac1344	3.2051514e-07
193	0x34b4add8	3.36541e-07
194	0x33ac7329	8.030322e-08
195	0x30f3824c	1.771761e-09
196	0x34440c7d	1.8258466e-07
197	0x3423bd5f	1.5249451e-07
198	0x343fd6f5	1.7866462e-07
199	0x33f75d96	1.1518857e-07
200	0x30bb3cff	1.3623377e-09
201	0x3295b43a	1.742784e-08
202	0x34a0c199	2.9943183e-07
203	0x34add1e3	3.2376474e-07
204	0x33af07b5	8.1504744e-08
205	0x30a147f4	1.1734742e-09
206	0x344accb8	1.8887192e-07
207	0x341a9b33	1.4398829e-07
208	0x343c8621	1.755766e-07
209	0x340f65b8	1.3354918e-07
210	0x30dd12ab	1.6085172e-09
211	0x32671c24	1.3452368e-08
212	0x34985b4e	2.837864e-07
213	0x34aa8d57	3.1767806e-07
214	0x33cacf67	9.444084e-08
215	0x2fe58ff4	4.1757142e-10
216	0x34403fb2	1.7904566e-07
217	0x341ec42d	1.4786265e-07
218	0x3443c03e	1.8230728e-07
219	0x341fae70	1.4871489e-07
220	0x30891b7e	9.975876e-10
221	0x31f676aa	7.173033e-09
222	0x34913b3f	2.7051462e-07
223	0x34aa3bc6	3.1708458e-07
224	0x33f14df9	1.123662e-07
225	0x2efabe9e	1.1402544e-10
226	0x33d0866b	9.710205e-08
227	0x34599a33	2.0265797e-07
228	0x34828d95	2.4317401e-07
229	0x342c24fe	1.6032206e-07
230	0x30904454	1.0496799e-09
231	0x30ecd10a	1.7230672e-09
232	0x34902836	2.6851347e-07
233	0x34aa7356	3.1748885e-07
234	0x34317ff7	1.6530963e-07
235	0x2eaf9cc2	7.9859244e-11
236	0x323fdbb4	1.1167618e-08
237	0x3485e290	2.4938026e-07
238	0x349ffe66	2.9801157e-07
239	0x3402e21f	1.2189456e-07
240	0x2f7cb112	2.2982174e-10
241	0x2f58cd5f	1.9718048e-10
242	0x34a60cd6	3.092925e-07
243	0x34b7fad8	3.426892e-07
244	0x3435682f	1.689484e-07
245	0x2dc9d93b	2.2947524e-11
246	0x2fe8b399	4.2328166e-10
247	0x34915663	2.707121e-07
248	0x34a46f9c	3.0628587e-07
249	0x33c51505	9.177351e-08
250	0x2ebef4d2	8.6836885e-11
251	0x2ed939f0	9.878309e-11
252	0x34b833da	3.4310398e-07
253	0x34c335b0	3.6360643e-07
254	0x340f28f1	1.3332807e-07
255	0x2e1c76ec	3.5575917e-11

exp_avg f4 [128]
0	0x375c5ae0	1.313418e-05
1	0xb771d4f6	-1.4414303e-05
2	0x38617cba	5.376034e-05
3	0xb8aab0de	-8.139176e-05
4	0xb8812cea	-6.159565e-05
5	0xb8b30130	-8.535606e-05
6	0x36108ff8	2.1541473e-06
7	0x37a98e62	2.0212672e-05
8	0xb7936316	-1.7569906e-05
9	0xb8bc67c4	-8.9838664e-05
10	0xb90e0522	-0.00013544087
11	0x38ccc0ca	9.763388e-05
12	0xb89d211f	-7.492513e-05
13	0x37d92940	2.5887624e-05
14	0x392de9f6	0.00016585723
15	0x38b55c28	8.647918e-05
16	0x38ec901f	0.000112802016
17	0xb7decfff	-2.6561318e-05
18	0xb78f7e7b	-1.7105825e-05
19	0xb8c328a9	-9.305898e-05
20	0xb8c1f7a0	-9.249081e-05
21	0x38abafc9	8.186658e-05
22	0x387c077e	6.008846e-05
23	0x37107054	8.609222e-06
24	0x38bc0033	8.964576e-05
25	0x38329b26	4.2583e-05
26	0xb8822356	-6.205465e-05
27	0xb88f304f	-6.8277695e-05
28	0x38f110ba	0.00011494891
29	0xb7774218	-1.4737736e-05
30	0xb8a4188a	-7.8247e-05
31	0xb81c107c	-3.720865e-05
32	0xb529ee00	-6.330374e-07
33	0xb8731d5e	-5.7963065e-05
34	0xb7a4be96	-1.9639072e-05
35	0xb80791d7	-3.2322332e-05
36	0xb852ea92	-5.0286362e-05
37	0x3831888c	4.2327258e-05
38	0xb8525e35	-5.015564e-05
39	0xb8c9665c	-9.603493e-05
40	0x374b09df	1.2102041e-05
41	0xb8848979	-6.319857e-05
42	0x37abbf80	2.0473963e-05
43	0x3902273a	0.00012412379
44	0xb7c444d5	-2.3397073e-05
45	0xb85475a7	-5.065431e-05
46	0xb7906c88	-1.7216676e-05
47	0xb73c8143	-1.1235769e-05
48	0xb88e6254	-6.789403e-05
49	0xb800daa5	-3.0721207e-05
50	0xb842876e	-4.6379333e-05
51	0xb6d47d10	-6.3326515e-06
52	0x371a75b8	9.206524e-06
53	0xb8f00d18	-0.00011446531
54	0x3827d7d1	4.0016897e-05
55	0xb885f402	-6.387384e-05
56	0xb86eba07	-5.6916873e-05
57	0x38c370a4	9.3193055e-05
58	0xb5476100	-7.427443e-07
59	0xb7232c40	-9.72586e-06
60	0x38984715	7.261165e-05
61	0xb902c9d4	-0.00012472953
62	0xb794de90	-1.7746614e-05
63	0xb8f87611	-0.00011847553
64	0x37eacb61	2.798968e-05
65	0x38b79900	8.7546185e-05
66	0xb80a3cc8	-3.295837e-05
67	0xb8521c69	-5.009436e-05
68	0xb7b8d8e8	-2.2035514e-05
69	0x38f51a9e	0.00011687468
70	0xb915762e	-0.00014253773
71	0xb7c28500	-2.3188535e-05
72	0xb7ba5449	-2.2212176e-05
73	0x38d5213a	0.000101628204
74	0x38e9c0b0	0.000111461966
75	0x381759fe	3.6085017e-05
76	0x38addaaa	8.290012e-05
77	0xb7207570	-9.564086e-06
78	0x3796126c	1.7889972e-05
79	0x381d61b2	3.7522703e-05
80	0x38c653af	9.456963e-05
81	0x38223185	3.866993e-05
82	0xb8367a20	-4.350592e-05
83	0xb770ae18	-1.4345649e-05
84	0xb851f30e	-5.0055845e-05
85	0x389c88db	7.464151e-05
86	0x38993896	7.3061485e-05
87	0x3843d1ac	4.6686895e-05
88	0x38a09efe	7.659009e-05
89	0x38255ba5	3.9424416e-05
90	0xb8cf7464	-9.8922086e-05
91	0x346c5780	2.2011045e-07
92	0x37e71741	2.7548174e-05
93	0x3716a949	8.9801115e-06
94	0x356078c0	8.3622217e-07
95	0x38aae646	8.1491235e-05
96	0x387a8550	5.97288e-05
97	0xb8815c79	-6.168424e-05
98	0x38d08c3a	9.944332e-05
99	0xb7220a28	-9.658317e-06
100	0x37e9d69e	2.7875703e-05
101	0xb87d8e88	-6.0452643e-05
102	0x3564ae00	8.518982e-07
103	0x367d8150	3.7775208e-06
104	0x39533e1a	0.00020145663
105	0xb722506c	-9.674677e-06
106	0x38777e0b	5.9006776e-05
107	0x36ccab3c	6.099608e-06
108	0x391d91f8	0.00015027064
109	0x38c2d916	9.291076e-05
110	0xb904c60a	-0.00012662276
111	0xb7f3b6a4	-2.9052906e-05
112	0x3891e7da	6.9573245e-05
113	0xb7ba415c	-2.2203363e-05
114	0x382d5ebe	4.133465e-05
115	0x374bdba1	1.2150879e-05
116	0xb82dc9e9	-4.1434458e-05
117	0xb8d042d3	-9.93066e-05
118	0x384faa9e	4.9511546e-05
119	0x38c85686	9.5528594e-05
120	0x389f8738	7.606897e-05
121	0x3877c4cc	5.907267e-05
122	0x375486e8	1.2667595e-05
123	0x38453856	4.7020927e-05
124	0x38c3b573	9.332122e-05
125	0xb905b960	-0.00012752926
126	0xb85426c5	-5.0580846e-05
127	0xb8dc6c08	-0.0001051054

exp_avg_sq f4 [128]
0	0x35563799	7.980212e-07
1	0x3500e44a	4.801592e-07
2	0x34a8acc8	3.1418153e-07
3	0x35348741	6.7252046e-07
4	0x35460eac	7.37821e-07
5	0x3556580b	7.984933e-07
6	0x341c330d	1.4547204e-07
7	0x35032463	4.885425e-07
8	0x343cea54	1.7594112e-07
9	0x35e2b326	1.6890451e-06
10	0x35a191a5	1.2037823e-06
11	0x349b6678	2.8945556e-07
12	0x34e42676	4.2496293e-07
13	0x34f52130	4.5658953e-07
14	0x357d4cde	9.43617e-07
15	0x35452c40	7.345261e-07
16	0x35c6fdff	1.4826072e-06
17	0x349813c5	2.832659e-07
18	0x34307fb2	1.6437733e-07
19	0x35b6a4fb	1.3608072e-06
20	0x35f110af	1.7960755e-06
21	0x35c46e9e	1.4635332e-06
22	0x3521cf98	6.027926e-07
23	0x34eb861c	4.3869738e-07
24	0x351c817b	5.830295e-07
25	0x358a3247	1.0296434e-06
26	0x357c2eb9	9.3945306e-07
27	0x3422fae1	1.5178695e-07
28	0x35ca0081	1.505032e-06
29	0x34a032c5	2.9839262e-07
30	0x34cafaca	3.7807905e-07
31	0x354ae879	7.5589156e-07
32	0x34133ff5	1.3713709e-07
33	0x34847d36	2.467802e-07
34	0x3565f3d2	8.5663953e-07
35	0x34533d2f	1.9673165e-07
36	0x355b505f	8.1700813e-07
37	0x3581cf70	9.671621e-07
38	0x354e6d5a	7.690011e-07
39	0x3587c599	1.0115792e-06
40	0x34a2571a	3.0238226e-07
41	0x3539b161	6.917599e-07
42	0x348a1181	2.571724e-07
43	0x35269817	6.206114e-07
44	0x345d6e39	2.0622328e-07
45	0x34675256	2.1543505e-07
46	0x3433d9f8	1.674997e-07
47	0x33aec971	8.1391484e-08
48	0x34663e75	2.1443141e-07
49	0x35604c93	8.355793e-07
50	0x34fd57f2	4.718891e-07
51	0x351a3ce5	5.7458084e-07
52	0x350f455d	5.337259e-07
53	0x3583562c	9.78534e-07
54	0x3581dba5	9.675174e-07
55	0x3594ef6f	1.1096544e-06
56	0x3612f887	2.1900357e-06
57	0x34d27915	3.9203647e-07
58	0x34216436	1.503075e-07
59	0x34bf4a1b	3.563044e-07
60	0x354791a2	7.43452e-07
61	0x35050e90	4.956755e-07
62	0x3490b53c	2.6953956e-07
63	0x34a55c79	3.0800928e-07
64	0x34088b48	1.2716657e-07
65	0x35befc4f	1.4229535e-06
66	0x34d163b4	3.9001827e-07
67	0x32e4969b	2.661118e-08
68	0x34d259b0	3.9180804e-07
69	0x35a46ca7	1.2250574e-06
70	0x36028431	1.9448455e-06
71	0x34d0c0b8	3.888324e-07
72	0x3434d1f3	1.6840185e-07
73	0x3514e89c	5.547279e-07
74	0x35b634cf	1.3575426e-06
75	0x35b411dd	1.3416244e-06
76	0x3603b372	1.9624972e-06
77	0x3488ca83	2.547932e-07
78	0x34a23968	3.021662e-07
79	0x34d50445	3.9677448e-07
80	0x3554f437	7.9331534e-07
81	0x34b53fcc	3.3760296e-07
82	0x34d08c2e	3.8845013e-07
83	0x345b4d44	2.0424073e-07
84	0x33dff018	1.04279195e-07
85	0x34fdd31c	4.7278525e-07
86	0x357ce2b0	9.420719e-07
87	0x349c02ea	2.9059385e-07
88	0x355eca82	8.299613e-07
89	0x34e6e82e	4.300977e-07
90	0x35a9cabe	1.2650487e-06
91	0x330b6813	3.2458114e-08
92	0x34013131	1.2031957e-07
93	0x34df4453	4.15867e-07
94	0x33f95912	1.1611168e-07
95	0x351bb549	5.8005804e-07
96	0x34152356	1.3889562e-07
97	0x3579eadd	9.31015e-07
98	0x350390a7	4.90118e-07
99	0x34b5c422	3.3856583e-07
100	0x35124ed7	5.4503965e-07
101	0x35377803	6.834745e-07
102	0x34f5c27f	4.577632e-07
103	0x3482ed70	2.4387145e-07
104	0x36046135	1.9726115e-06
105	0x34e20a89	4.2103446e-07
106	0x35168d31	5.6084815e-07
107	0x34d606fd	3.986569e-07
108	0x35022f96	4.849802e-07
109	0x35be5e7f	1.4183605e-06
110	0x35f95a69	1.8578259e-06
111	0x34fb0e81	4.6762946e-07
112	0x362253be	2.4188626e-06
113	0x346f9696	2.2313392e-07
114	0x3523e82a	6.1060075e-07
115	0x33d59a9f	9.946711e-08
116	0x35ae90c5	1.3006144e-06
117	0x35413ec5	7.1989444e-07
118	0x353195cd	6.6155627e-07
119	0x35811ea4	9.620167e-07
120	0x35476626	7.428192e-07
121	0x34f405c3	4.5452734e-07
122	0x33dd8200	1.0314761e-07
123	0x3441199b	1.7983841e-07
124	0x3561c40d	8.4104323e-07
125	0x348cda52	2.623588e-07
126	0x3398360e	7.087884e-08
127	0x354536b6	7.3467834e-07
