CCP-main/results/WeightAgent_Training/WeightAgent_Training/WeightAgent_Training-499978.onnx (onnx, 173232 bytes, 6 tensors)

network_body._body_endoder.seq_layers.0.weight f4 [128, 197]
000000 ad 0e 30 bc 83 d6 12 bd 62 6f 38 bd 71 33 21 bd
       -0.0107456865 -0.035849106 -0.045028098 -0.0393557
000010 52 df 93 bc 95 bd 8d 3c 20 16 1c 3e 28 ce 38 bd
       -0.018050823 0.017302314 0.15242815 -0.04511848
000020 e2 e1 ee 3d 8c 98 9b 3c e6 5a ce 3d 20 d8 6d bb
       0.116641775 0.018993638 0.10075931 -0.003629215
000030 71 12 16 3e 0b f8 d2 3d e2 23 1b 3d 10 2d 1c 3c
       0.14655472 0.10301217 0.037876017 0.009532228
000040 b2 a5 49 3b 9b b7 01 3e 5d c0 41 bd 21 21 b1 bc
       0.0030768928 0.12667696 -0.047302593 -0.021622242
000050 e7 99 80 bd db 4b e7 3b cd d2 7e bd 1c d6 c6 3c
       -0.062793545 0.007058603 -0.062212754 0.024272017
000060 8a 64 25 bd 97 a2 88 3d 3d 18 8a bd 6d 19 79 3d
       -0.040379085 0.066716366 -0.06742904 0.060815264
000070 47 9b 4c 3d 55 b4 b2 bd 15 89 1c bb be 30 24 bb
       0.04995277 -0.08725802 -0.0023885418 -0.0025053467
000080 ba 49 73 bc 74 b4 56 bd df e1 23 bd 23 d3 20 3c
       -0.014849121 -0.052418187 -0.04001033 0.009815964
000090 1e 72 06 3e 4d 20 f8 bb 2f b4 9b 3c 94 1e 1d 3e
       0.1312947 -0.00757221 0.019006817 0.15343696
0000a0 f4 d9 8d 3c a0 dc 67 bb 1b b7 08 3d be cb 8c 3d
       0.017315842 -0.0035379305 0.033377748 0.06874798
0000b0 a6 47 09 bd 9f e4 85 3d 4b b6 47 3d 3c 9d a3 3d
       -0.033515595 0.06537747 0.048757832 0.079889745
0000c0 2c 16 31 bd d0 16 b5 3b a1 17 03 be e2 25 d7 3d
       -0.043234035 0.005526401 -0.12801982 0.105052724
0000d0 4f 37 c5 bd da 51 96 3b e2 0d b1 bc 54 fe 2e 3c
       -0.0962969 0.004587394 -0.021613065 0.010680754
0000e0 b0 02 06 3d ee ae 0a 3d 04 32 8f 3d 69 6e a2 bd
       0.032717407 0.033858232 0.069919616 -0.07931215
0000f0 af df fc bc 1c e4 5c bb 73 90 09 bc 35 59 73 3d
       -0.03086838 -0.00337053 -0.008396256 0.059411246
000100 ff 28 c5 3c 97 ed 32 3d 2f 8f bd 3d 96 65 17 3d
       0.0240674 0.043683615 0.09255826 0.036962114
000110 c3 9a d9 bb 8b 3c 42 3c e7 ac 43 3e 72 34 39 3d
       -0.0066407635 0.011855255 0.19108926 0.04521603
000120 e5 bf 32 bd f5 57 4c 3d be 65 0b be 82 44 d4 3d
       -0.043640036 0.04988857 -0.1361303 0.10364629
000130 d5 89 18 3c 37 af fd 3c 83 ca 13 3d aa 23 01 3e
       0.0093102055 0.030967338 0.036081802 0.12611261
000140 1c 82 8b bd 26 bb 5d bc a9 e2 21 bd 1b d1 0b 3e
       -0.06811926 -0.013533389 -0.0395228 0.13653986
000150 1f 7d 2f bd 29 a5 ab 3d 6c 64 b3 bd 1c 5e a2 3d
       -0.042843934 0.08381111 -0.08759388 0.07928106
000160 75 3b d7 bc 93 68 f6 bd a4 f5 1f 3d 59 ec 7a ba
       -0.026273469 -0.12031665 0.03905262 -0.0009571962
000170 a8 35 db bb e0 ce 87 bd 1a 62 0a 3d a1 cc 0c bc
       -0.006689746 -0.06631255 0.033784963 -0.008593709
000180 53 94 ea bc 12 a1 cb 3d 65 ed 48 bd 8e e6 34 bd
       -0.02863518 0.09942831 -0.049054522 -0.044165187
000190 ae f9 06 3d 2b 9a 89 bc ca 6d 88 3d 44 df 5a 3d
       0.032952957 -0.016797146 0.066615656 0.05343558
0001a0 ac f3 50 bb 6f d2 3f bb c0 c2 cb 3c a7 7d 08 3c
       -0.003188352 -0.0029269715 0.024873137 0.008330739
0001b0 62 5c 5e 3d 1c 3a f0 3b f2 73 06 be a2 f4 8b bd
       0.054287322 0.007331146 -0.13130167 -0.068337694
0001c0 54 1c e5 3c 4f 97 9e 3d 37 9b 0f bd f5 ba 3e 3d
       0.02796761 0.077437036 -0.035060134 0.046565015
0001d0 ee 64 b9 3d 6a 2b 71 3d 67 71 58 3d a9 cf ea 3d
       0.09052454 0.058879294 0.052842524 0.11465389
0001e0 d1 39 f7 3c 08 b5 fa bd f9 3c 96 bd 6c 54 2c 3d
       0.030178936 -0.1224156 -0.07335848 0.0420727
0001f0 91 81 30 bd ff 7f 48 bd 09 16 bb 3d 72 a2 b8 3c
       -0.043092314 -0.04895019 0.09135062 0.022538397
000200 1e 32 96 ba 6b eb 3b 3d 2e 7d 46 bd 75 47 d1 3c
       -0.0011459028 0.04587881 -0.048459224 0.025546769
000210 04 af 66 bd 40 74 9f 3c b1 79 df bc 7d 76 db bb
       -0.05631925 0.019464612 -0.027279707 -0.0066974745
000220 b9 d9 d8 bc de da 8f 3d 7f 0c 10 bd 7d 07 69 3c
       -0.026471006 0.070241675 -0.035168167 0.014222977
000230 87 65 0a 3d f4 ba 7f 3c f7 4f 80 3b d7 31 8e 3d
       0.03378823 0.015608538 0.0039157826 0.069431
000240 58 e1 81 bd d6 d0 f3 3d f0 d0 49 bc 75 03 07 3e
       -0.06341809 0.11905067 -0.012317881 0.13184913
000250 f6 60 84 3d 3e 40 9d bd d2 74 04 3d f9 20 76 bd
       0.06463806 -0.07678269 0.03233797 -0.06009004
000260 29 6b 05 bd 4d b5 f3 bc b5 72 84 3d d4 e8 2e 3d
       -0.0325729 -0.029749537 0.06467191 0.04270251
000270 2f c1 e9 3d dc 02 ee bd 3d b5 b8 3c 91 b4 88 3d
       0.114138 -0.11621639 0.022547359 0.06675065
000280 fa ca 25 3e 1b 93 be 3d 36 60 a0 bd 3f 8e e7 3d
       0.1619071 0.09305402 -0.07830851 0.11306428
000290 54 f8 d2 3c 1e 8c 93 3d ac 41 d5 bd b6 59 8b 3d
       0.025753178 0.072044596 -0.104129165 0.068042204
0002a0 5e 5f 49 3d d7 32 e6 bb 83 81 80 bc ac b9 20 3e
       0.049163215 -0.0070251036 -0.015686756 0.15695828
0002b0 68 28 f5 3c 9f df bb 3d 80 e9 ea 3d ad 3d 26 bc
       0.029926494 0.09173512 0.11470318 -0.010146541
0002c0 89 0c 68 bd 0c bb 00 3d 84 b1 63 3c 6c ba 9a bc
       -0.05665258 0.03142838 0.0138973035 -0.018887721
0002d0 85 e0 5c bc 82 40 fb 3c 5e 1b 03 bc 16 d1 13 3e
       -0.013481264 0.030670408 -0.00800213 0.14435229
0002e0 7a 57 7e bd 64 59 2a 3b 1d 7f 1d 3e 6b fd f9 bd
       -0.062095143 0.0025993222 0.15380521 -0.12206539
0002f0 88 15 f2 bd ed 43 52 bd b0 66 c7 bd 58 55 94 3d
       -0.11820513 -0.05133431 -0.09736383 0.072428405
000300 bf c3 8c bd e5 a4 5b 3d 00 a4 08 3e 7f ad 54 bd
       -0.06873273 0.053624053 0.13343811 -0.05192327
000310 75 00 8f 3d f5 12 16 3c 9d eb a2 bc b4 9d 97 bd
       0.06982509 0.009159793 -0.01988774 -0.07403126
000320 05 83 c0 bd d8 bd ed bd 0c 3e cd 3c 4f 7f 2f 3d
       -0.0939999 -0.116084754 0.025054 0.04284602
000330 1b 57 60 bd 05 67 37 bd 1c 6d 76 3b 39 55 87 bc
       -0.05477057 -0.04477598 0.0037601655 -0.01652013
000340 0d 6e 5b bd d3 44 c8 3c 9a da 20 bd a7 59 0c 3b
       -0.05357175 0.02444688 -0.039270975 0.0021415742
000350 7c 13 b4 3c 09 4f c2 bc 6c f4 3f 3d 0d f8 9a bd
       0.021981947 -0.023719328 0.04686396 -0.07566843
000360 22 a2 8b bc 28 46 e5 bc d4 da b3 3c 1b 0d fb 3d
       -0.017045084 -0.027987555 0.021954931 0.12258359
000370 20 b9 be bd a4 b8 fc bd 7f 4d 91 bd 5c 22 17 bb
       -0.093126535 -0.12339905 -0.07094859 -0.0023061251
000380 4b 77 24 bd 61 6d dc bc 87 64 ef 3c 89 4a 86 3c
       -0.04015283 -0.026907625 0.02922274 0.016392963
000390 04 ca 97 bd 03 ae 8f 3c d3 3e 1f 3d 3b d2 0f 3d
       -0.07411578 0.01753903 0.038878273 0.0351126
0003a0 d1 2e 1e be ca 45 eb 3a cb f3 b7 bd 25 1a 63 3d
       -0.15447547 0.0017949876 -0.08982047 0.055444855
0003b0 8f f5 ea bc 9e 27 7a 3d 3c 13 00 3e d2 61 da bd
       -0.028681545 0.06107294 0.12507337 -0.10663189
0003c0 76 13 d3 3d 21 84 6d 3d 65 88 d3 bd 83 c8 c7 bc
       0.10306446 0.057987336 -0.103287496 -0.024387604
0003d0 0d f3 f5 3d ff 59 e3 3d 93 2d 3b bd 95 ab 5e 3d
       0.12009249 0.1110115 -0.04569776 0.054362852
0003e0 83 e0 1c be 43 c1 0b bd 7d f6 f5 bc f5 cb ff 3c
       -0.1532002 -0.034119856 -0.030024761 0.031225184
0003f0 ce 45 db bc b1 b2 ee bc 69 71 d3 3d 4c 40 1e bd
       -0.026766684 -0.029137941 0.10324366 -0.038635537

network_body._body_endoder.seq_layers.0.bias f4 [128]
000000 04 9e d3 3c 28 78 3c bc 14 ee 2f bc 28 cb b1 bc
       0.025832184 -0.011503257 -0.010737915 -0.021703318
000010 b9 54 71 bc 46 4f 76 3c 00 8d ac 39 9b 97 0d 3d
       -0.014729672 0.015033549 0.0003291145 0.03456841
000020 23 50 14 3d 9d 7f bd b9 a2 aa 1d bc 4c 36 6e bc
       0.036209237 -0.00036143968 -0.009623202 -0.014539313
000030 c8 e8 c0 3b 25 88 c4 bc 50 c1 8b 3b cc 9a 18 3c
       0.0058871247 -0.0239907 0.004264988 0.00931425
000040 45 e3 4f bc 5e c3 3f bc 1f 1f c1 3c a1 9b 99 b9
       -0.012688463 -0.011704294 0.02357441 -0.00029298387
000050 eb 15 d8 ba 93 f5 ab 3c cd 2a 24 bc 15 eb 3b 3d
       -0.0016486024 0.020991122 -0.01001997 0.04587849
000060 ae 22 3d 3d 04 49 5c 3c f2 bb a8 3b a7 c0 e5 3b
       0.04617565 0.013445143 0.005149358 0.0070114913
000070 e2 e5 1a 3b 83 54 8e 3c 0b f1 fe bb 05 09 06 bc
       0.0023635556 0.017374283 -0.0077801994 -0.008180861
000080 fb 6b 21 bc a6 31 b9 ba 24 cf 43 bc 59 42 57 3c
       -0.009852405 -0.0014129176 -0.011951242 0.013138377
000090 22 9d 35 3d b5 54 7d 3c 72 53 ac bc fd 10 8d bc
       0.044339307 0.01546209 -0.021035884 -0.017220015
0000a0 d0 38 9a 3b ae 43 b5 bc 2b 5c 94 3a 6a 72 0d 3c
       0.0047064796 -0.022126999 0.0011318972 0.0086332355
0000b0 36 18 84 3d bf ed f1 3c 2b 3d c7 bc 28 d5 11 3c
       0.0644993 0.029532311 -0.02432116 0.008900918
0000c0 c2 de e4 ba b6 e5 69 3b bf 40 17 3c 02 cd 10 bc
       -0.0017461407 0.0035689897 0.009231745 -0.00883794
0000d0 1d 37 6d 3c 06 08 62 3c 95 1b 0e bd 09 02 97 3a
       0.014478472 0.013795858 -0.034694273 0.0011520992
0000e0 02 59 ba 3b 65 03 b1 bb 17 94 65 bc d8 37 f9 bc
       0.00568688 -0.005402016 -0.014012358 -0.030422136
0000f0 1e 5e ce bb 97 77 07 3b ac 11 b7 3c 10 20 35 3b
       -0.0062978407 0.0020670646 0.022347294 0.002763752
000100 a7 74 12 3d b7 e3 8a bc c1 25 4a bc bb 54 ef 3b
       0.03575578 -0.016954286 -0.012338103 0.007303802
000110 35 e2 95 bc 6c a4 f7 3b c6 00 5a 3a 74 dc 1c 3c
       -0.01829634 0.0075574424 0.0008316155 0.0095740445
000120 c6 f5 4c 3d 61 d2 45 3d 5c 41 b0 bb 57 91 d7 bc
       0.050039075 0.048296336 -0.005378885 -0.02631442
000130 1c 7a 1d bb 97 be 23 bc 99 80 13 3c c5 0d d4 bc
       -0.0024029082 -0.009994171 0.009002828 -0.025885472
000140 e0 1c b1 3b 1c b8 43 3b 29 2d 1d 3c d5 21 76 3a
       0.0054050535 0.0029864376 0.009593287 0.00093891966
000150 d6 94 65 3c f1 0b 06 bd 2e f4 82 bc a5 2f 26 3b
       0.014012536 -0.032726232 -0.015985575 0.0025357988
000160 b2 a6 77 bc 22 5a 09 3b 2c 27 a9 bb 89 65 a1 bb
       -0.015115427 0.0020958264 -0.0051621404 -0.004925434
000170 ee 4f 57 bb f0 bf 2a 3b d6 80 8a 3d 8e a8 a5 bc
       -0.0032854038 0.0026054345 0.06762855 -0.020221975
000180 90 43 7b bc be d3 71 3c c2 3b 9a bc e8 61 f1 bc
       -0.015335932 0.014759956 -0.018827323 -0.02946563
000190 8f 4b 3d bc 60 35 32 bc 1a c5 1d 3d 9f df dc bb
       -0.011553659 -0.010876983 0.03851805 -0.006740525
0001a0 30 b2 c4 bc 54 03 4f 3b 41 c3 b6 3b cd 3e 09 3d
       -0.024010748 0.0031587677 0.0055774753 0.033507157
0001b0 c2 4e da 3a 95 47 81 bc a3 a7 50 bc b3 2a da bb
       0.0016655552 -0.015781203 -0.01273528 -0.006657922
0001c0 b4 d6 de bb 6e 78 41 3d 20 41 89 3a 42 bb 9f bc
       -0.006800497 0.04723399 0.0010471679 -0.019498471
0001d0 2e 2e 1f 3d 8f 5a f8 3b d7 df 86 3c ef e6 61 bc
       0.0388624 0.007579155 0.016464157 -0.013787969
0001e0 09 38 b6 3c 5d 7d eb 3c cf ee d3 3b 81 2e 38 3b
       0.022243517 0.028746301 0.006467677 0.002810389
0001f0 60 5b 82 bc 1f a5 c0 3b 96 d3 f3 bb f5 52 c3 3b
       -0.015912712 0.005879059 -0.0074409945 0.005960817

network_body._body_endoder.seq_layers.2.weight f4 [128, 128]
000000 17 1e 67 be 36 e8 10 3d 1f 53 9b 3d 58 7e 32 3e
       -0.22570072 0.035377704 0.075842135 0.17431009
000010 43 90 2f bd 26 0d b4 3d 88 e6 78 3c e6 89 22 3d
       -0.042862188 0.0879157 0.015191682 0.03968229
000020 09 66 ea 3c 57 6f 0a be f6 18 99 3b 10 71 f4 3d
       0.028613107 -0.13519035 0.004672165 0.119356275
000030 ce 5c fb bc ec bb 3c 3e 7d 10 67 bd 4b 67 0a 3c
       -0.030683901 0.18431062 -0.05641221 0.0084474785
000040 14 b7 3a bd 6d a3 9c 3d ec 08 6d 3c 4a 78 1c 3e
       -0.045584753 0.076483585 0.014467459 0.15280262
000050 f2 a6 46 bd ab 6d 9e b9 c8 55 0d bd 3d af b9 3c
       -0.048499055 -0.00030217817 -0.034505635 0.022666568
000060 3a fb 18 3d 79 52 6c bd b3 db 51 bd 04 53 79 3d
       0.037348963 -0.05769584 -0.051234912 0.060870185
000070 b3 1e 22 be 24 10 f5 3c be b8 ef 3d 4d 10 11 3e
       -0.15832023 0.029914923 0.11705159 0.14166375
000080 86 17 0e 3e 17 47 16 bd fb 8a dd bd 3e 88 37 be
       0.13876161 -0.03668889 -0.10817524 -0.17923066
000090 ca cd 71 3d d5 7a d5 bd 36 da 5a bd 1b 25 41 3d
       0.059034146 -0.10423819 -0.05343076 0.047154527
0000a0 17 ef e0 39 11 ff 9d bc e4 3c e7 bb 96 8e 9e 3d
       0.00042902745 -0.019286664 -0.0070568193 0.0774204
0000b0 ea 33 75 bb c4 0a 31 be 21 85 8c bd 1b 86 fb bd
       -0.0037414976 -0.17289263 -0.0686133 -0.12281438
0000c0 a6 ae a6 3c 51 69 1e bc 12 ff 8a 3d 2b dc 5d 3d
       0.02034695 -0.009668664 0.06786932 0.054165047
0000d0 ea a8 37 bd 2b e4 53 bd dc fb b5 3c 84 f7 af 3c
       -0.044838823 -0.05173127 0.022214822 0.02148033
0000e0 a0 26 49 3c fa 89 9a 3c 12 a0 9e bd 7d b7 3e 3e
       0.012277275 0.01886462 -0.07745375 0.18624683
0000f0 2b 0d c9 3d 79 eb 17 3e bc 40 1c 3d d6 2d fd 3d
       0.09816965 0.1483592 0.038147673 0.12362258
000100 e5 af 14 bd 00 8a b3 bd c3 31 5d 3d 04 13 3b 3d
       -0.03630056 -0.08766556 0.054002535 0.04567243
000110 92 2b da 3d 84 38 68 3d 9f fe 30 3e 09 9f ff 3d
       0.10652842 0.056694523 0.1728463 0.124815054
000120 f8 b9 81 3e 86 36 34 bd 99 6a a4 3d e1 25 9f 3d
       0.25337195 -0.04399731 0.080281444 0.07770897
000130 3f d7 85 3d be 5a a1 bd 95 5a 89 bd 18 00 b7 3d
       0.065351956 -0.07878636 -0.0670673 0.08935565
000140 d8 24 5f 3d 7c ba 0d bd 2c 7b b5 bc e8 9b 3d 3e
       0.054478496 -0.034601673 -0.02215346 0.18516505
000150 89 1d 2b 3e 20 43 01 3e f1 4e e3 3d 8c ee 48 3c
       0.16710486 0.12623262 0.11099041 0.012263905
000160 0c a4 96 bd 02 55 cb 3d c6 aa f8 bd a4 80 ae bd
       -0.07355508 0.09928323 -0.121419474 -0.0852063
000170 33 14 76 bd 23 bd 59 3e 58 6d f7 bd 69 ee 08 bc
       -0.060077857 0.21263556 -0.120814025 -0.008357623
000180 e1 c1 d1 bc a7 0d 63 3a 47 86 09 be df 91 8e bd
       -0.025605144 0.0008661397 -0.13430129 -0.069614165
000190 0e cf 56 bc b1 2c e4 3d ef 9f 34 bd 4d 4d 0b 39
       -0.013110889 0.11141337 -0.044097837 0.0001328487
0001a0 69 ef 2f 3e aa 2b 27 be 47 0e 8c 3d 96 d7 d7 bd
       0.17181171 -0.1632525 0.06838661 -0.10539167
0001b0 46 7e 8d bd c0 25 4e bd 7b 36 a5 3d cb a3 c8 3d
       -0.0690885 -0.05032897 0.08067032 0.09796866
0001c0 b4 6a de bd b9 e0 94 3d f3 c5 ce 3d ff 2a 3c bd
       -0.10860196 0.07269425 0.100963496 -0.04593944
0001d0 d6 1c 98 bb 38 50 10 bd d7 b9 7d bb f7 28 2a 3e
       -0.0046421094 -0.035232753 -0.0038715506 0.1661719
0001e0 52 a1 f1 3a 93 60 a9 3c be 42 95 3d 94 78 b8 3d
       0.0018434918 0.020675933 0.07288121 0.090073735
0001f0 81 95 37 be 50 de 3f bd 6c cd 79 bc 79 ce d6 bc
       -0.17928125 -0.046842873 -0.01524673 -0.0262215
000200 f3 a2 ae bd b9 a0 8b 3a 76 bf 88 bd ff b0 c8 3d
       -0.08527174 0.0010652757 -0.06677143 0.09799384
000210 99 6d f7 3b e2 23 12 3d 86 88 d1 3d 06 e5 94 3d
       0.007550907 0.03567875 0.10231118 0.07270245
000220 a7 15 c9 3d d2 40 30 3d 01 4c 3a 3d c4 b5 66 bd
       0.09818583 0.043030567 0.04548264 -0.05632569
000230 3c 7f 49 bc 15 ce 90 bd 3e fe f6 3c b0 39 8f 39
       -0.012298401 -0.07070557 0.030150529 0.00027318066
000240 af d9 6c 3e 6c 02 a9 bd cb a5 38 3d 87 4d f0 bb
       0.23129915 -0.08252415 0.045079987 -0.0073334607
000250 c1 31 41 be 45 03 2b bc 2d 96 c8 3d a4 90 93 3b
       -0.18866636 -0.010437791 0.09794269 0.0045033265
000260 a2 99 57 bd 61 95 66 be 5c 90 a2 3c 11 3c 3c bd
       -0.05263675 -0.22517921 0.019844227 -0.04595572
000270 75 a1 b1 bd d7 7d 15 be 3e e8 44 bc a3 6b 0b 3c
       -0.086733736 -0.14598785 -0.0120182615 0.008509549
000280 1e a3 a8 bc 61 4c d0 3d fc e9 72 3d 91 86 4e 3d
       -0.020585593 0.10170818 0.059305176 0.0504213
000290 9f 0f cf bc df bb 38 bc 89 10 81 bd e8 a9 e2 bc
       -0.025276003 -0.011275261 -0.06301982 -0.027668908
0002a0 8a a6 b9 3d a4 38 1e 3e 10 be f9 3d cf 19 fd 3d
       0.09064968 0.15451294 0.12194455 0.12358438
0002b0 74 f1 e4 bd 1e 1f ac 3d 8b 68 01 be a4 2e 8b 3d
       -0.11178866 0.08404373 -0.12637536 0.06796005
0002c0 f0 d6 18 3d a9 0a a3 bc 39 70 08 3d 17 b8 a7 bd
       0.037314355 -0.019902544 0.03331015 -0.08189409
0002d0 40 c7 7d bd 27 b0 13 3d 83 2b 13 3e 15 b6 e3 3b
       -0.061957598 0.036056664 0.14372067 0.006949196
0002e0 87 9c 39 be a7 39 30 3e 35 f8 36 bb 68 a8 5f bd
       -0.18126117 0.17209493 -0.002791894 -0.054603964
0002f0 bd dd 9d 3d 27 92 37 3e b6 78 f5 bc 1d 1a 02 3b
       0.07708309 0.17926846 -0.029964786 0.001985199
000300 6e 09 0e 3c d6 09 89 bd 87 2b 2a 3c d9 ed 87 3d
       0.00866924 -0.06691329 0.010386354 0.06637163
000310 2d 4a ea 3b ee 44 91 3c 1d 15 09 bc 46 78 c3 3d
       0.0071499557 0.017733064 -0.00836685 0.09544425
000320 40 90 bc bc 7b 19 bb 3c 1e bd bc 3c 53 ba 4c 3d
       -0.023018003 0.022839298 0.023039397 0.04998238
000330 d3 49 1f bd 1a 4a 56 bd ad 5c 94 bd 15 be 9b 3c
       -0.038888764 -0.052316763 -0.07244239 0.019011537
000340 26 62 b3 3d 95 45 b3 bd ba 1a a2 3c 12 34 b9 3d
       0.08758955 -0.08753506 0.019788135 0.09043135
000350 aa 04 ba bd ce 7a 50 3d 61 4f eb bc cb fa 65 3d
       -0.09082921 0.050898366 -0.028724374 0.056147378
000360 d2 cd 89 3b 0a 57 36 3c 52 b7 f8 3d 36 65 60 bd
       0.004205444 0.01112915 0.121443406 -0.054784022
000370 98 68 39 3d 9b e8 3f 3d 5a 07 42 3e b8 61 37 be
       0.045265764 0.04685269 0.18948117 -0.1790837
000380 8c fa 58 3d a5 38 a3 3d 77 c2 7e bb bb bb 5b 3c
       0.052973315 0.079697885 -0.0038873234 0.013411458
000390 9b cd 67 3d c7 63 8e bd 02 40 c6 bd 87 d6 29 3e
       0.056592565 -0.06952625 -0.09680177 0.16585742
0003a0 95 18 d7 bc c4 4d b7 3d 76 a1 16 be 72 84 15 3e
       -0.026256839 0.089503795 -0.1471003 0.14601305
0003b0 e9 81 07 be 0d ea df bd 57 c5 9a bc e8 8c e8 bd
       -0.1323315 -0.109333135 -0.018892927 -0.11355001
0003c0 5f f9 eb bd 99 f0 4b 3d 2b 6d 0b 3e ce 91 90 3d
       -0.11522173 0.04979 0.13615863 0.0705906
0003d0 3b 18 8e be b3 1b da 3d 84 c3 a1 3c 60 c7 27 bd
       -0.2775286 0.106498145 0.01974655 -0.040961623
0003e0 40 c6 75 bd 48 d0 d5 bc 6b 59 b1 3d d0 f1 03 3e
       -0.06000352 -0.026100293 0.08659633 0.12885213
0003f0 4b e8 72 bc 79 21 e5 3c 3f 71 ad 3d 6b f4 2b be
       -0.014825891 0.027970063 0.084688656 -0.16792457

network_body._body_endoder.seq_layers.2.bias f4 [128]
000000 d8 3d 05 bc 1f ce 22 bc 02 6f 4e bb 9d 9a aa 3b
       -0.0081324205 -0.009936838 -0.0031499271 0.0052064196
000010 d9 09 6c bc d2 20 07 bc c6 7b d7 39 18 38 ad bb
       -0.014406645 -0.008247571 0.00041100214 -0.005286228
000020 3b d3 0a bc 85 fa 21 3b 49 50 b2 bc 8a 87 a8 bc
       -0.008473213 0.0024715972 -0.021766799 -0.020572443
000030 fa ae 2d 3c 9f a0 df bc 3e ae 02 bd e2 b7 8b bc
       0.0106008 -0.02729827 -0.03190445 -0.017055456
000040 53 02 9e 3c c8 a1 ed 3c 73 ab 9b bc f9 4f e4 38
       0.019288218 0.029007807 -0.019002652 0.00010886783
000050 38 78 2f 3d 7b 19 56 3c 9f f8 a9 bc 4c 0b 89 3c
       0.04283926 0.013067598 -0.020748435 0.01672902
000060 08 64 88 3b 3e 53 d6 bc 10 fc 9f bb bb d7 1e bc
       0.0041623153 -0.02616274 -0.004882343 -0.009694989
000070 44 e9 48 bc 7e c9 92 bc c4 fa 23 3c ea aa 54 3b
       -0.012262646 -0.017918345 0.010008518 0.0032450506
000080 d3 0a 5f bc 59 cc 16 bc c4 05 71 bb 03 86 a7 3b
       -0.013613421 -0.009203994 -0.0036777118 0.005112411
000090 36 02 6d bc 6a 42 01 bc 80 09 4b 3c 8e 16 97 39
       -0.014465859 -0.0078893695 0.012392402 0.0002881777
0000a0 a3 da 02 bc b5 03 ca bb 03 93 cb bc 97 02 96 bc
       -0.007986697 -0.0061649927 -0.024850374 -0.018311782
0000b0 3f dc a6 bc 29 d6 ac bc 75 17 a7 3c bc 2a b3 bb
       -0.020368693 -0.021098213 0.020396927 -0.005467741
0000c0 08 75 53 3d 32 03 74 bc b9 cd e5 3c 85 62 46 3c
       0.05162528 -0.01489334 0.028052198 0.01210845
0000d0 74 3b 4b 3d a8 f2 35 bc 35 60 14 3b a6 5b bf 3c
       0.049617246 -0.011105217 0.0022640352 0.023359131
0000e0 83 9d c6 bb 10 2e a2 bc 84 bc 45 bc 85 90 47 bc
       -0.0060612573 -0.019797355 -0.012068871 -0.012180452
0000f0 d6 57 23 bc 19 d5 e0 bb b1 10 ec 3b 32 56 e5 3c
       -0.009969672 -0.0068613407 0.007204138 0.027995203
000100 e6 82 39 bc c4 09 9d bc 0a 86 97 bc 1a 88 9f bc
       -0.0113227125 -0.019169696 -0.018496532 -0.019474078
000110 81 8e ae bc 0c f7 c4 bb 1b 5d 11 bc ce 1d c9 3a
       -0.021308186 -0.0060108956 -0.008872296 0.0015343965
000120 78 ea ce 3b 15 17 42 bc df 9c 6c 3d 8c 56 e4 bb
       0.006314572 -0.0118463235 0.05776679 -0.006968325
000130 aa 62 1a bc f6 c2 4f bc df 13 05 bc 58 63 0e bc
       -0.009422937 -0.01268076 -0.008122413 -0.008690678
000140 f8 d2 83 3b f8 04 6b bc 74 28 95 bc f6 38 09 bc
       0.004022952 -0.014344446 -0.018207766 -0.008375397
000150 24 f4 6a bb c4 98 d4 bc 30 cc 1f bc 68 44 57 bc
       -0.0035851086 -0.02595175 -0.009753272 -0.013138868
000160 3c 6d 02 3c 2a c0 0c bc b0 98 c7 bb 19 93 75 bb
       0.007960614 -0.008590737 -0.0060912 -0.003747171
000170 09 1c e5 3b b3 c9 94 b9 63 09 ce 3c b5 a7 ad bb
       0.0069918674 -0.00028379037 0.02515096 -0.0052995333
000180 89 79 54 bc cf 47 bc bc 8f 03 12 bc b6 68 8b bc
       -0.012968429 -0.02298346 -0.008911981 -0.017017704
000190 17 e7 a1 3b 8f 31 6f b9 0b 63 d9 3c a8 1b 98 3c
       0.004940878 -0.00022811278 0.026536485 0.018567875
0001a0 47 7b a6 bc 27 51 62 bc 8a 42 4b 3a 38 f9 1b bc
       -0.020322455 -0.013813294 0.00077537505 -0.009519868
0001b0 95 c8 3c bc 00 1c 9e bb 2e 67 83 bc 06 29 4f 3b
       -0.011522432 -0.004825115 -0.01604041 0.0031610145
0001c0 b2 50 05 3d e0 6f 78 ba aa 06 ee bb 30 05 3f 3b
       0.03254766 -0.000947712 -0.007263978 0.002914738
0001d0 41 1c bc bc cf 54 55 bc d5 3a 05 3c 0a c7 d7 bb
       -0.022962691 -0.013020708 0.008131702 -0.0065850066
0001e0 c1 1e 75 bc 03 9d 21 3d 90 6f 92 3c 44 83 86 bc
       -0.014960946 0.03945638 0.017875463 -0.016420014
0001f0 ba a1 5c bc 4e 07 d9 bb 8b d9 aa 3c d6 ef 7a 3c
       -0.013466293 -0.0066231852 0.020855686 0.01531597

action_model._discrete_distribution.branches.0.weight f4 [7, 128]
000000 01 c4 c8 bb a6 61 68 bb 33 0f 12 3b 8f 37 66 bb
       -0.006126881 -0.0035458594 0.0022286891 -0.003512833
000010 7a 45 69 3c 8c ef 57 bc ff 0d 10 ba 62 77 55 bc
       0.014237756 -0.013179671 -0.00054952496 -0.013028951
000020 cd ae 6d 3c 2a 32 c0 3b 7e e4 64 bc fb f5 60 3b
       0.014507008 0.005865355 -0.013970492 0.0034326303
000030 08 e6 28 bc 97 9a 08 bc e9 f0 44 bb 48 a7 1f 3c
       -0.01030875 -0.008337638 -0.003005082 0.009744473
000040 b1 d9 08 bb c2 9f a6 bc 63 ce ec ba d0 40 42 3c
       -0.0020881707 -0.02033985 -0.0018066879 0.011856273
000050 ab 4f c3 bb 65 b8 be ba 79 a1 34 3a 4d 3b f4 3b
       -0.005960425 -0.0014550803 0.00068905164 0.0074533583
000060 f3 c5 4c bc f8 ab 75 3b 01 ac 01 3c bd 5d e1 bb
       -0.012498367 0.0037486535 0.007914544 -0.0068776296
000070 f8 50 8b bc 25 09 25 3c f8 07 ee bb 25 3e 03 3c
       -0.017006382 0.010072981 -0.0072641335 0.008010422
000080 69 a8 79 bb 60 1c b3 bc 20 0b 9d bc 93 ff c0 bb
       -0.0038094765 -0.021864116 -0.019170344 -0.005889842
000090 1e 87 5b ba fa 7e 79 3b 33 62 96 bb 17 5b e8 3b
       -0.0008374321 0.0038070069 -0.004589343 0.007090937
0000a0 80 80 96 ba a6 c6 2b bc 71 ac f7 3b ef cd b7 ba
       -0.0011482388 -0.010484373 0.0075583984 -0.0014023165
0000b0 1b bc 73 bb 77 f3 f2 bb 56 62 0f 3b 26 72 b2 3b
       -0.0037190977 -0.007414277 0.002187868 0.0054457365
0000c0 12 7e 6d 3c fe 08 d6 3b 44 73 13 3c 56 b2 e8 bb
       0.01449539 0.0065318337 0.008999649 -0.0071013374
0000d0 dd 36 dc 3b 93 b3 64 bb 3c 13 b7 3a 7e b7 4c bc
       0.0067204074 -0.0034897074 0.0013967524 -0.01249492
0000e0 50 80 3f bb 3e 18 22 bc fd bc b1 bb b2 3c 3a bc
       -0.0029220767 -0.009893475 -0.0054241405 -0.01136701
0000f0 45 5c fc bb a8 80 07 3c e2 23 01 3b 22 71 59 3b
       -0.007701429 0.00827042 0.0019705226 0.0033179005
000100 fd e0 ab 3b d2 d2 ea ba e0 28 87 bc a3 ef 6d bb
       0.0052453266 -0.0017915613 -0.016498983 -0.0036306165
000110 e4 a8 1c ba 5f 35 86 bc 92 87 dd bb 9d 2c 64 bc
       -0.00059760944 -0.016382871 -0.006760546 -0.013926652
000120 7c c2 11 bb df 98 84 3b 3d 80 d6 bb 59 2d 4e bc
       -0.0022241166 0.004046544 -0.006546049 -0.012584054
000130 a4 d2 a4 3b b5 19 e8 bb 3d 9f 13 bc 42 cd d9 bb
       0.005029993 -0.0070831426 -0.009010133 -0.006646783
000140 99 02 a4 3b 05 25 91 3b 1e bc 3f bc 74 dc 53 3a
       0.0050051925 0.004429462 -0.0117025655 0.00080818613
000150 c3 39 84 bc 61 7c 58 bb f6 53 80 bb 39 0b 3e bb
       -0.016140824 -0.003303312 -0.003916259 -0.0028998388
000160 7f 28 79 bb 38 5b 1e 3c 52 0e 0b 3c 91 44 97 3a
       -0.0038018522 0.009665303 0.008487301 0.001154082
000170 19 4f 1b bc 7a 13 94 3c 4d 27 a9 ba 56 48 9b 3c
       -0.009479308 0.018075693 -0.0012905389 0.01895539
000180 a1 3a 85 3b 9a 57 27 ba f9 2d 1e 3c 24 b7 3c 3a
       0.004065827 -0.0006383598 0.009654515 0.0007198921
000190 1f 05 56 bc b5 67 b5 3b 3b 5f d8 3b 47 63 37 3c
       -0.013062744 0.0055360445 0.006603149 0.011193103
0001a0 4e 86 1b 3b 34 38 b1 ba 1c a6 85 bb 1a a6 17 bc
       0.0023731175 -0.0013520778 -0.0040786397 -0.00925591
0001b0 d4 7f 34 bc d0 ed 47 bc 26 c1 ae bc 6d e2 33 3c
       -0.011016805 -0.012202695 -0.021332335 0.010979277
0001c0 ae 37 a4 3b 39 55 c7 3a c0 a6 3f bc fe 4e 52 3b
       0.0050115203 0.0015207893 -0.011697471 0.003209054
0001d0 f7 06 a1 bb ec 44 2c bb 2d 18 c8 ba ac 53 84 bc
       -0.0049141604 -0.0026286198 -0.0015265994 -0.01615318
0001e0 a2 5a 8c 3b da 0b c1 3b fb 63 52 bb 19 2d 8b 3c
       0.004283265 0.0058913054 -0.003210305 0.016989278
0001f0 3e 7b b0 bc 91 4b d0 3b 44 fd 57 bb 81 e6 96 ba
       -0.021543141 0.0063566645 -0.0032957355 -0.0011512787
000200 eb cf d2 3b 7d 43 27 3c 31 8a 7f bb cd 7e 0e 3c
       0.006433477 0.010208962 -0.003899228 0.008697224
000210 b9 bc ce bb a2 96 1d bc 5f ec 19 3b e3 82 d0 3c
       -0.0063091186 -0.009618433 0.0023486835 0.025453037
000220 4c 68 2f bb 4e ad 09 bc e9 c5 c3 3c c0 58 4f bc
       -0.0026765047 -0.008403135 0.023898082 -0.012655437
000230 22 ef cc bc 8e 13 fb 3c 6e 67 9e 3c ad f4 92 3b
       -0.025016371 0.030648973 0.019336428 0.004484734
000240 c9 92 11 bc 78 3b b7 bb 7f d4 2f 3d e5 97 94 ba
       -0.008885094 -0.005591806 0.04292726 -0.0011336772
000250 54 ce 90 3c 46 fa 80 bc 18 ae 83 ba 12 cd 8e bc
       0.01767651 -0.01574434 -0.0010046391 -0.01743177
000260 26 f1 db 3c c7 12 13 3d 21 bc bc bb e9 18 81 3c
       0.026848387 0.03590658 -0.0057597314 0.015758948
000270 69 e7 83 3c 9f a6 86 bb 25 4a 98 3c 04 45 1e 3d
       0.016101556 -0.0041092183 0.018590042 0.038640037
000280 64 3e 8d bc 81 9c 0c 3d 03 6f 79 3c 6b fa f9 3c
       -0.017241664 0.03432894 0.015224221 0.030514916
000290 bc 25 32 bc b9 59 b7 ba df ad 00 3c d9 05 d7 3c
       -0.010873254 -0.0013988531 0.007853954 0.026247906
0002a0 42 0d 1b 3c 35 b3 67 bb fe fd 20 3d 6c cf 01 3c
       0.00946361 -0.0035354618 0.039304726 0.007922988
0002b0 63 2c b4 3c 11 3c ec 3c a6 e9 3e bc 65 41 bc bb
       0.021993821 0.028837236 -0.011652386 -0.0057451003
0002c0 6f 5d bb 39 5b 62 a1 bc 51 da a4 bc d6 46 12 bc
       0.00035737033 -0.01970022 -0.020123633 -0.008928021
0002d0 15 75 47 bd 54 c1 fb bc 5e 8e ff bb fa bf 35 bc
       -0.048695643 -0.030731834 -0.007798954 -0.011093134
0002e0 ff ad df 3c b2 61 35 3d 4e 16 0d 3d 85 8b 66 3c
       0.027304647 0.044282623 0.0344451 0.01407135
0002f0 a3 2e 10 3d 54 94 fd bb ba fa 98 bc 17 73 97 bc
       0.035200726 -0.0077386294 -0.018674243 -0.018487496
000300 46 d2 e4 3c 05 e4 38 3d 71 4f 0b 3d 95 6a 18 3d
       0.027932297 0.04513933 0.034011308 0.03721102
000310 f1 28 14 3c 96 f9 e2 ba 23 c1 aa 3b a6 0f 11 3c
       0.009042964 -0.0017316814 0.005211012 0.008853829
000320 46 11 97 bb 97 8e d6 3b c6 00 0e bc 7b 4b 09 3d
       -0.0046102135 0.0065477598 -0.008667177 0.03351925
000330 0f d7 3b 3d b9 73 1f 3c 0b 07 6b 3c ea 65 ee 3c
       0.045859393 0.00973218 0.014344941 0.02910133
000340 0f c4 84 bc ac 12 aa bc ec 1a d9 3c 21 8c cf bb
       -0.01620677 -0.020760857 0.026502095 -0.0063338433
000350 fb 86 ae bb 18 fa e5 3c da dd 11 3d 22 80 d0 3c
       -0.0053261495 0.028073356 0.035611965 0.025451723
000360 82 a5 ab 3b 51 4c 2b bb 6d 9a 53 3c e6 d2 33 bc
       0.005238236 -0.0026138017 0.012915236 -0.010975575
000370 89 d1 55 bc 62 c2 95 bc 17 7e 2c 3c 1e 24 8f bc
       -0.013050445 -0.018281166 0.010528109 -0.017473277
000380 4f 56 34 bb d8 b4 e5 3b c3 20 07 3a 3a 07 0e bc
       -0.0027517264 0.0070100836 0.0005154723 -0.008668715
000390 5f e1 e9 3c 2f ad db 3a c4 3e bd bc 09 27 20 bc
       0.028549848 0.0016759987 -0.023101218 -0.009774932
0003a0 f2 47 13 3d f1 e3 e8 3c 14 54 18 bb 27 98 22 3d
       0.035957284 0.028429003 -0.0023243474 0.039695885
0003b0 8d 2e e0 3c b1 b6 e3 3c 68 09 94 3c b8 f8 61 bc
       0.027365947 0.027797075 0.018070891 -0.013792209
0003c0 9a 4e 5d bc e2 95 30 3a 5e 7f a3 3c b7 d1 c4 bb
       -0.01350751 0.00067362015 0.019958194 -0.0060064453
0003d0 53 60 db 3c db 9b d9 3c 30 7c a6 bc 4b 9c 9d 3c
       0.02677933 0.026563575 -0.02032289 0.019239565
0003e0 0a 78 ee 3c a6 cb b9 bc 74 1a 05 bc 9c 07 2b 3d
       0.029109973 -0.022680115 -0.008123983 0.041755304
0003f0 a9 2f 07 3c 2b a0 03 bc ce 05 5d bc 3f cf e4 3c
       0.008251109 -0.0080337925 -0.0134901535 0.027930854

action_model._discrete_distribution.branches.0.bias f4 [7]
000000 c5 70 a1 3a 93 bf b0 bc ef 93 f4 3b a1 ed 11 3d
       0.0012316933 -0.021575725 0.007463924 0.03562701
000010 43 3e 02 bc 6d 58 9e bb 84 a1 a1 bb
       -0.007949415 -0.0048323185 -0.0049325842
