CCP-main/results/WeightAgent_Training/WeightAgent_Training/WeightAgent_Training-10999965.onnx (onnx, 156336 bytes, 6 tensors)

network_body._body_endoder.seq_layers.0.weight f4 [128, 164]
0	0xbd19ad89	-0.03751901
1	0xbd934874	-0.07191554
2	0xbdcc7c48	-0.09984642
3	0x3dbd9058	0.09256047
4	0x3e0573e2	0.13032487
5	0xbd6a509d	-0.057205785
6	0xbd87e815	-0.06636063
7	0xbe4142b7	-0.18873106
8	0x3df61766	0.12016182
9	0x3a54a00a	0.0008111006
10	0xbcf9e7ef	-0.030506102
11	0xbdc45e1d	-0.09588263
12	0xbd540539	-0.051762793
13	0x3c745c27	0.014914549
14	0x3ddf313f	0.10898065
15	0xbcf2c6d8	-0.029635832
16	0xbda17527	-0.07883673
17	0xbd9d777f	-0.07688808
18	0xbc2e8b55	-0.0106533365
19	0x3e6d3209	0.23163618
20	0xbdc960a4	-0.09832886
21	0xbb6d4eec	-0.0036210371
22	0x3dc2c122	0.095094934
23	0x3e5b44f6	0.21413025
24	0x3dc855cb	0.09781989
25	0x3e0f07b5	0.13967784
26	0xbdf38ccd	-0.1189209
27	0xbd9ce729	-0.07661278
28	0x3dc73167	0.097262196
29	0x3e8c7a6e	0.27437156
30	0xbe6f2efd	-0.23357768
31	0x3e213202	0.15741733
32	0x3ddb4201	0.107059486
33	0xbd433ad4	-0.047663525
34	0xbd33bf65	-0.0438837
35	0x3d270bf7	0.040782895
36	0xbdaef4fa	-0.08542819
37	0xbd42fde8	-0.047605425
38	0x3d800430	0.06250799
39	0x3e44c1ad	0.19214506
40	0x3df53903	0.11973765
41	0xbb5c7bb1	-0.0033643062
42	0x3e242d4b	0.16032903
43	0x3aab31fd	0.0013061162
44	0xbdf6ba13	-0.120472096
45	0x3de93ea1	0.11388899
46	0xbd4b4bb8	-0.049632758
47	0xbda3802a	-0.0798343
48	0x3d3141d8	0.043275684
49	0x3dc203fe	0.09473418
50	0x3d92e7ba	0.071731046
51	0x3dbade2a	0.09124406
52	0x3df25409	0.11832435
53	0xbdcfbe56	-0.101437256
54	0xbdad2d46	-0.08455901
55	0x3cb3e232	0.021958444
56	0x3c97e503	0.018541818
57	0x3e12e8f7	0.14346682
58	0x3d66c7bd	0.05634283
59	0xbd808be4	-0.06276682
60	0x3e3dbcc3	0.18529038
61	0x3e267cd9	0.16258563
62	0x3c1039b8	0.008802824
63	0xbe5cd9d5	-0.21567471
64	0xbcc15390	-0.023599416
65	0x3e746cc4	0.23869616
66	0x3d28273b	0.041053038
67	0x3e61d4c5	0.22053821
68	0xbe1310ae	-0.14361832
69	0x3d96fb3f	0.0737214
70	0x3e190ec0	0.14947033
71	0x3e4515c2	0.19246581
72	0x3d449e2c	0.048002407
73	0xbd47b40c	-0.04875569
74	0xbd2f8aa9	-0.042856846
75	0x3d820411	0.06348432
76	0xbdb75ce0	-0.089532614
77	0x3c3878dc	0.011259284
78	0x3d3f36ff	0.046683308
79	0xbcedd9b1	-0.029034467
80	0x3e4ae7d9	0.19815005
81	0x3e04700b	0.12933366
82	0xbca260d6	-0.019821566
83	0x3e290cf1	0.16508843
84	0xbb96535f	-0.0045875753
85	0x3e30718e	0.17230818
86	0xbdb24983	-0.087054275
87	0x3d14dfc6	0.03634622
88	0x3d86ceb7	0.065823965
89	0xbc9aa857	-0.018879099
90	0x3e14825a	0.1450285
91	0x3e1459a7	0.14487325
92	0xbd06a774	-0.03287454
93	0x3d5307dc	0.051521167
94	0xbd84e4c2	-0.064889446
95	0x3e1a4d54	0.15068561
96	0xbcd7e3a1	-0.02635366
97	0x3da5076b	0.080580555
98	0xbdca9aa9	-0.0989278
99	0x3d590b6a	0.0529894
100	0x3cdd995d	0.027050668
101	0x3d0a7309	0.033801112
102	0xbd3c336b	-0.045947473
103	0xbd1d23e3	-0.038364302
104	0xbd72a426	-0.059238575
105	0x3e5bddb3	0.2147129
106	0xbdcab834	-0.09898415
107	0xbd27e47a	-0.040989377
108	0xbde0a587	-0.10969072
109	0xbc8b03ab	-0.016969522
110	0x3e59ca27	0.21268521
111	0x3c995219	0.018715905
112	0xbdfe3ac9	-0.12413556
113	0xbdc42eb2	-0.09579219
114	0x3dfef875	0.12449733
115	0x3e8190df	0.2530584
116	0xbd354e02	-0.044263847
117	0x3dc305dc	0.09522602
118	0x3d80b9a3	0.062854074
119	0x3ce1829a	0.027528096
120	0x3e421a59	0.18955363
121	0x3dd015a0	0.10160375
122	0xbbfe02c7	-0.007751796
123	0xbde2b844	-0.11070302
124	0x3cdb67b5	0.02678285
125	0x3d93cbf1	0.07216633
126	0xbe27e51d	-0.16395994
127	0x3e71b811	0.23605372
128	0x3d994004	0.07482913
129	0x3a39fa11	0.0007094453
130	0x3ca93540	0.020655274
131	0xbe08b579	-0.13350476
132	0x3d3724ba	0.04471276
133	0x3a4d8913	0.0007840555
134	0x3caa800a	0.020813007
135	0x3cd366bb	0.025805822
136	0xbdcd8009	-0.100341864
137	0x3e429aa4	0.19004303
138	0x3e2f2c96	0.17106852
139	0x3d9821d7	0.074283294
140	0x3e1856dc	0.14876884
141	0x3b9cf4ee	0.00478994
142	0x3cacd231	0.02109632
143	0x3da13338	0.07871097
144	0xbdcea8ac	-0.10090765
145	0x3e02a3af	0.12757753
146	0xbdf9e5f0	-0.1220206
147	0x3d0e9e0b	0.03481869
148	0x3d3e827a	0.04651115
149	0x3d99e3b2	0.075141326
150	0x3e1f5fc8	0.15563881
151	0xbdc8b192	-0.09799494
152	0xbd174d71	-0.03693909
153	0x3e410f61	0.18853523
154	0x3cda18b7	0.026623113
155	0x3e566acb	0.20939176
156	0x3d11793e	0.035516016
157	0x3d0291e0	0.0318774
158	0xbca43d09	-0.020048635
159	0x3e188f3c	0.1489839
160	0x3dadc865	0.08485488
161	0x3dd2f3aa	0.103003815
162	0x3dff0486	0.12452035
163	0x3d4c8443	0.049930822
164	0x3e5e78e2	0.217258
165	0xbe4edc5d	-0.2020125
166	0x3db0e3bb	0.08637186
167	0xbd7e48fe	-0.06208133
168	0x3c711031	0.014713333
169	0x3da98806	0.082778975
170	0x3dd65818	0.10466021
171	0x3d52633f	0.05136418
172	0xbd3a576a	-0.04549352
173	0x3e158799	0.14602508
174	0x3df4bf22	0.11950518
175	0x3cc501bd	0.02404868
176	0x3c814955	0.015782038
177	0xbe371055	-0.17877324
178	0xbcdc66bd	-0.026904458
179	0xbd87c77a	-0.06629844
180	0x3c645e42	0.013938488
181	0xbd78cf44	-0.06074454
182	0xbd86dfc7	-0.06585651
183	0x3de10003	0.1098633
184	0x3e170067	0.14746247
185	0x3cfb587f	0.030681847
186	0x3b841490	0.0040307716
187	0xbca3124c	-0.019906186
188	0x3d5cf2dd	0.05394255
189	0x3c1f6782	0.009729268
190	0x3e193864	0.14962918
191	0xbdb460b7	-0.088075094
192	0x3e1c4bd9	0.15263309
193	0x3db315d1	0.087443955
194	0xbd86504a	-0.06558283
195	0x3c5ef669	0.013608553
196	0x3c7aa54f	0.015298202
197	0x3c422d11	0.011851565
198	0xbcd4a298	-0.025956437
199	0x3dd8eaed	0.105916835
200	0xbd5d6442	-0.05405069
201	0xbe0e4e2d	-0.13897009
202	0xbdb31cd0	-0.0874573
203	0x3e402eeb	0.18767898
204	0xbe3e6a06	-0.18595132
205	0xbe3e6343	-0.18592553
206	0xbdfd19df	-0.1235845
207	0xbc17e767	-0.009271479
208	0xbdf853b2	-0.121253386
209	0xbd43deff	-0.047820088
210	0x3e4a1fdf	0.1973872
211	0xbdbe4c24	-0.092918664
212	0xbcbfcb7c	-0.023412459
213	0xbca1bb5d	-0.019742662
214	0x3c27ac13	0.010233897
215	0xbd14439d	-0.036197294
216	0x3d4c351c	0.049855337
217	0x3d19a471	0.03751034
218	0x3cd1b87f	0.02560067
219	0x3cc44219	0.023957299
220	0x3e613ccb	0.21995847
221	0xbe65799f	-0.22409676
222	0xbb3e51c0	-0.0029040426
223	0xbdfac349	-0.12244279
224	0xbd23668a	-0.03989271
225	0xbe0e971e	-0.13924834
226	0xbe420330	-0.18946528
227	0x3e411103	0.18854146
228	0x3e128a3c	0.14310545
229	0x3c114d85	0.00886858
230	0x3d0e71b0	0.03477639
231	0xbdbc1d1a	-0.09185238
232	0x3d2784c8	0.040898114
233	0x3d045b46	0.032313608
234	0xbbfc0f9e	-0.0076922914
235	0xbcbb7b14	-0.022885837
236	0x3d8a186e	0.06742941
237	0x3e080212	0.1328204
238	0x3d700117	0.05859479
239	0xbdf89183	-0.12137129
240	0x3e0acde6	0.13555107
241	0x3da6a0cd	0.08136139
242	0xbaf5e7b2	-0.0018761067
243	0x3d4b4669	0.049627695
244	0x3e178f9d	0.14800878
245	0xbdf125c0	-0.11774778
246	0x3d7d88c1	0.061897997
247	0x3d7a9724	0.061179295
248	0xbd918854	-0.07106081
249	0xbd8241dd	-0.06360219
250	0x3d035d30	0.032071292
251	0xbac09cf0	-0.0014695209
252	0xbd403994	-0.04692991
253	0xbc10b3e2	-0.00883195
254	0xbcfcbb4a	-0.030851025
255	0xbd0bef04	-0.03416349

network_body._body_endoder.seq_layers.0.bias f4 [128]
0	0x3d6b2636	0.057409488
1	0x3ba3a11f	0.0049935724
2	0x3d2ffde9	0.042966757
3	0x3c408da0	0.011752516
4	0x3cf3ee17	0.029776616
5	0x3d1a5e57	0.037687626
6	0xbce5726c	-0.028008662
7	0x3d11544b	0.03548078
8	0xbd4751f6	-0.04866215
9	0x3cdbbf4c	0.026824616
10	0x3c3d61b5	0.01155894
11	0x3cf80649	0.030276434
12	0x3c6e3124	0.014538083
13	0x3c425504	0.01186109
14	0x3d68cb9c	0.056834802
15	0x3ca4d099	0.020118998
16	0x3d1e5a35	0.038660247
17	0xbc86569b	-0.016398719
18	0xbcfc6216	-0.03080849
19	0x3ccd287c	0.025043719
20	0x3c72b581	0.014813782
21	0x3d183979	0.037164185
22	0x3c89ec30	0.016836256
23	0x3cda989f	0.026684104
24	0x3d4aa786	0.04947617
25	0x3d07dcfb	0.033169728
26	0x3d30011c	0.042969808
27	0x3cd00d9c	0.025397114
28	0x3d0fc5d3	0.03510077
29	0x3cd1ecf4	0.025625683
30	0xbc29c93f	-0.010362922
31	0x3ca6fa3c	0.020382993
32	0x3b91b743	0.0044468953
33	0xbbc5ddf3	-0.0060384213
34	0x3c8c8eb0	0.017157882
35	0x3c6dda10	0.014517322
36	0x3ceb0541	0.028689029
37	0x3c9000be	0.017578479
38	0x3d122f35	0.03568955
39	0x3c821dc1	0.015883328
40	0x3c041181	0.008060814
41	0x3c2b90e5	0.010471557
42	0xbd3b18b0	-0.04567784
43	0x3d015540	0.03157544
44	0xbca366a1	-0.019946398
45	0xbd08aafa	-0.03336618
46	0xbad61233	-0.0016332328
47	0xbd3a39d3	-0.0454653
48	0xbc6dc560	-0.01451239
49	0x3baf9c5b	0.005359215
50	0xbb6b864c	-0.0035938201
51	0x3d184362	0.037173636
52	0x3d4a13e7	0.049335387
53	0xbca40823	-0.020023411
54	0x3d0e0791	0.034675185
55	0x3c2f8c4e	0.010714604
56	0x3ca2c772	0.019870494
57	0x3c7f3699	0.015576982
58	0x3798edd4	1.823056e-05
59	0x3b8bf778	0.004271444
60	0x3c069253	0.008213597
61	0xbca6b608	-0.020350471
62	0x3c912a3f	0.01772034
63	0xbc0cce30	-0.008594081
64	0xbbca40a3	-0.006172256
65	0x3d27266d	0.04080813
66	0x3c0c5c1d	0.008566883
67	0x3c0d19e9	0.0086121345
68	0x3bb487a8	0.0055093355
69	0x3d4e0adf	0.050303336
70	0x3cb6a0a0	0.022293389
71	0xbb518048	-0.003196733
72	0x3b8d3f45	0.004310521
73	0x3c91c176	0.017792445
74	0x3d2ea1c2	0.042634733
75	0x3d324b1a	0.043528654
76	0x3d4b4a43	0.04963137
77	0x3b7b81e6	0.0038376986
78	0x3d43db3c	0.0478165
79	0xbce7301f	-0.028221188
80	0x3d1ab85a	0.037773468
81	0x3c7ae569	0.015313485
82	0x3c0d1ae3	0.008612367
83	0xbb4d3c61	-0.0031316506
84	0xbbcbad63	-0.0062157377
85	0x3ce0d76f	0.027446477
86	0x3d07ebcf	0.03318387
87	0x3c6a1749	0.014287778
88	0x3d1a6db0	0.037702262
89	0x3c39d647	0.011342592
90	0x3c7fdca2	0.015616568
91	0xbc052bfb	-0.008128162
92	0xbd028241	-0.0318625
93	0x3c096d7e	0.008387921
94	0x3c7e4660	0.015519708
95	0x3d315ffc	0.04330443
96	0x3b5c81e7	0.0033646764
97	0x3c3433f3	0.010998714
98	0x3cdbb8d2	0.026821528
99	0x3c6af749	0.014341184
100	0x3bc68f7c	0.006059585
101	0x3ccdd792	0.025127206
102	0x3c512317	0.012764714
103	0xbb3ff9b1	-0.0029293115
104	0x3d3aa857	0.045570698
105	0x3d1450a3	0.036209714
106	0x3c7e9d7b	0.015540476
107	0x3d11c913	0.03559215
108	0x3cdb3dc3	0.026762849
109	0x3cb6f072	0.02233145
110	0x3cbba0cc	0.022903822
111	0x3d114ee4	0.035475627
112	0x3ce96e2c	0.028494917
113	0x3bab2a6f	0.0052235643
114	0x3c2c58a3	0.0105191795
115	0xbcb671b6	-0.022271018
116	0x3cba2012	0.02272037
117	0x3cecec2b	0.028921207
118	0x3d21e621	0.03952611
119	0x3c62f668	0.013852693
120	0x3d3d8de1	0.046277884
121	0x3ccd0fa8	0.02503188
122	0xbb5008dc	-0.0031743562
123	0x3b51dc8f	0.0032022332
124	0x3d403b07	0.046931293
125	0x3c87cc8d	0.01657703
126	0xbc275fd7	-0.010215721
127	0x3c33ca37	0.010973505

network_body._body_endoder.seq_layers.2.weight f4 [128, 128]
0	0x3d4888af	0.048958477
1	0xbd9c4615	-0.076305546
2	0x3e2c5a62	0.16831353
3	0xbe0b715c	-0.13617462
4	0x3aee285e	0.0018169989
5	0xbd0144f2	-0.031559892
6	0x3e2f33a9	0.1710955
7	0xbd7f5278	-0.062334508
8	0xbe39b247	-0.18134414
9	0xbe89362d	-0.26799145
10	0xbd2b27bb	-0.041785937
11	0xbd625305	-0.055254955
12	0x3d40459b	0.04694138
13	0xbd85c174	-0.06531039
14	0x3e8616f6	0.26189393
15	0x3e104280	0.14087868
16	0x3dbc9056	0.092072174
17	0xbead6f62	-0.3387404
18	0x3d60ae0a	0.054853477
19	0x3def895e	0.116961226
20	0xbd544138	-0.05182001
21	0x3da2c00f	0.079467885
22	0x3cd537b9	0.026027547
23	0x3dc9ad18	0.09847468
24	0x3c1e9b00	0.00968051
25	0x3db7ddc5	0.08977846
26	0x3d40cd24	0.047070637
27	0x3d843395	0.06455151
28	0x3daff228	0.085911095
29	0x3d46eaa7	0.048563626
30	0x3c945de1	0.018111171
31	0x3a734eb0	0.00092814397
32	0xbe827753	-0.25481662
33	0xbd76b372	-0.060229726
34	0xbdcd3ba3	-0.100211404
35	0xbdb2d0e8	-0.08731252
36	0xbde6e4a4	-0.112740785
37	0x3cdc8518	0.026918933
38	0xbe4351f5	-0.19074233
39	0xbe597454	-0.21235782
40	0xbe11aa70	-0.14225173
41	0x3e21b8e6	0.1579319
42	0xbda3063a	-0.07960172
43	0x3e31468a	0.17312065
44	0xbe649947	-0.22324096
45	0x3cd5eba9	0.026113348
46	0xbe9592c7	-0.29213545
47	0xbd960496	-0.073250934
48	0x3e0c6c35	0.13713153
49	0xbd76ac6b	-0.060223024
50	0xbe442a9c	-0.19156879
51	0xbe05b72b	-0.13058154
52	0x3d6ad950	0.05733615
53	0xbdba9fd0	-0.09112513
54	0x3dc82f30	0.09774625
55	0xbe54673d	-0.20742507
56	0xbe9ffca9	-0.31247452
57	0xbe1ff02c	-0.15618962
58	0xbc8ccb1f	-0.0171867
59	0xbd3f91f0	-0.046770036
60	0xbc3c7ec1	-0.01150483
61	0xbe11da97	-0.14243542
62	0x3db710c8	0.08938748
63	0x3c284f15	0.010272761
64	0xbc3d0166	-0.011535978
65	0x3b4e82f8	0.003151117
66	0xbdbe4c80	-0.09291935
67	0x3ce9b910	0.028530627
68	0x3dc9649e	0.09833644
69	0x3ca59e5c	0.020217113
70	0xbe2835f0	-0.16426826
71	0xbda24fe7	-0.079253964
72	0x3e06702b	0.13128726
73	0x3e55f91b	0.20895807
74	0x3dfcacc5	0.12337641
75	0x3dcb67d5	0.09931914
76	0xbe35b492	-0.17744663
77	0x3da4c85b	0.08046027
78	0x3dac2785	0.08405975
79	0xbe5ecbaf	-0.21757387
80	0x3d0ada39	0.03389952
81	0x3dbd14be	0.09232472
82	0xbd3c87de	-0.04602801
83	0xbdd14c12	-0.102195874
84	0xbe2f02f1	-0.17090966
85	0x3e11b593	0.14229421
86	0x3d67b92b	0.056573074
87	0x3e393c20	0.18089342
88	0x3e0c9af5	0.13730986
89	0x3e7355f1	0.23763253
90	0xbdd3caa5	-0.10341386
91	0x3d8d7b1d	0.069082476
92	0xbe0162de	-0.12635371
93	0xbe2ab342	-0.16669944
94	0xbc3be632	-0.011468457
95	0x3d93aab1	0.07210291
96	0x3d97d364	0.074133664
97	0xbd185b8d	-0.037196685
98	0xbcc01fb8	-0.023452625
99	0x3d30a46c	0.043125555
100	0x3e04bc3d	0.12962432
101	0x3d6c2bdf	0.057659026
102	0x3c20e9e1	0.009821386
103	0x3e093bcc	0.13401717
104	0x3ca5d173	0.020241475
105	0xbda912bb	-0.08255526
106	0xbd77ae57	-0.060468998
107	0xba4cef01	-0.0007817597
108	0x3cd5f923	0.026119774
109	0x3d9e5164	0.07730368
110	0xbdc79b75	-0.09746448
111	0x3d387e56	0.04504236
112	0xbdf9ddac	-0.12200484
113	0xbdabab35	-0.083822645
114	0x3ce922e1	0.028459014
115	0xbe25d294	-0.1619361
116	0xbca972af	-0.020684568
117	0xbd4f9dc5	-0.05068757
118	0x3da4270f	0.08015262
119	0x3e9da1d4	0.30787528
120	0x3e1089be	0.14115044
121	0xbce7c344	-0.028291352
122	0xbcd5f4f7	-0.026117785
123	0xbe1ccd9d	-0.1531281
124	0x3d2711ee	0.040788583
125	0xbe065dca	-0.13121715
126	0xbd65d5f3	-0.05611224
127	0xbe750b4f	-0.23930095
128	0xbd83828f	-0.064213865
129	0xbe200c3b	-0.15629666
130	0x3d1e0ae7	0.038584616
131	0x3e4b344d	0.1984417
132	0x3dcd8c75	0.10036556
133	0xbdbb2f72	-0.09139909
134	0xbdc3cb60	-0.09560275
135	0x3c747bc6	0.014922088
136	0xbe1ceb0d	-0.1532404
137	0x3d7d675c	0.06186615
138	0x3e89ba4d	0.2689995
139	0x3d552d8b	0.052045386
140	0xbd88be90	-0.06676972
141	0x3d5f93f9	0.054584477
142	0x3cb9c00f	0.022674588
143	0x3e3a6ced	0.18205614
144	0x3dc9747a	0.09836669
145	0x3d46d981	0.04854727
146	0xbd9605d7	-0.073253326
147	0xbcd0bf47	-0.025481833
148	0xbe73aa29	-0.2379538
149	0x3ccbc51a	0.024874259
150	0x3d111b59	0.03542647
151	0x3d67b5c0	0.056569815
152	0x3df0ed09	0.11763961
153	0xbe522575	-0.20522101
154	0x3daf6e4d	0.0856596
155	0x3d7a6376	0.06113001
156	0x3c9232c9	0.017846482
157	0x3d31bdae	0.043393783
158	0x3d7de2c2	0.06198383
159	0x3cf48665	0.02984924
160	0x3e84593f	0.2584934
161	0x3e17798a	0.14792457
162	0xbdc4162c	-0.095745414
163	0x3d02c3ee	0.031925134
164	0x3d6c6c2e	0.057720356
165	0x3d97b388	0.0740729
166	0xbd830df0	-0.06399143
167	0xbde98b4b	-0.11403521
168	0x3e55fc95	0.20897134
169	0xbc63161d	-0.013860253
170	0xbdd22a04	-0.1026192
171	0x3d15142f	0.0363962
172	0xbca87911	-0.020565541
173	0xbd2cd20a	-0.042192496
174	0xbe0bb7af	-0.13644288
175	0xbe2c94fe	-0.16853711
176	0x3e3e1b33	0.18565063
177	0xbe0f5349	-0.13996615
178	0xbcb558a9	-0.022137003
179	0x3c3eb2a1	0.011639268
180	0x3bee97ae	0.007281265
181	0xbda09ed3	-0.07842793
182	0x3c85ce3a	0.016333688
183	0xbe6da366	-0.23206863
184	0xbddc9bf1	-0.10771931
185	0x3d035183	0.032060158
186	0xbdb243c0	-0.087043285
187	0x3dfc72b6	0.12326567
188	0xbde3175f	-0.11088442
189	0xbd6aad3e	-0.057294123
190	0x3bcc0515	0.0062261918
191	0x3d11c851	0.035591427
192	0xbd8432eb	-0.06455024
193	0x3df56477	0.11982053
194	0x3df4463a	0.11927457
195	0x3bb5633e	0.005535512
196	0x3b80a5b6	0.0039260043
197	0x3cf8553e	0.030314084
198	0x3dafeb61	0.08589817
199	0x3e0999b1	0.13437535
200	0x3c3d4f9e	0.011554627
201	0xbdd5579b	-0.104171
202	0xbdb59562	-0.08866383
203	0x3dee5cff	0.11638831
204	0x3e86ba0e	0.26313823
205	0xbcd8e3bd	-0.026475782
206	0xb9f86cc4	-0.00047383283
207	0xbe36ac29	-0.17839111
208	0x3dbe7373	0.09299364
209	0x3e126bfd	0.14299007
210	0x3c967f1d	0.01837116
211	0x3d43c1b0	0.047792137
212	0xbdb0f405	-0.08640293
213	0x3d677f75	0.056518037
214	0x3e14155b	0.14461271
215	0xbd92b2a2	-0.07162978
216	0xbdd2c21b	-0.10290929
217	0x3e1fa745	0.15591152
218	0xbd87bc14	-0.0662767
219	0x3be28361	0.0069126342
220	0xbe08f085	-0.13373001
221	0xbdb2c725	-0.0872939
222	0x3da94bcd	0.08266411
223	0xbd4ecb51	-0.050486866
224	0xbd80aa56	-0.06282489
225	0xbc4abcaa	-0.012374083
226	0xbe9ad4da	-0.30240518
227	0xbd5a2085	-0.05325367
228	0xbd4f4b41	-0.050608877
229	0xbd75257d	-0.059850205
230	0x3d6f703a	0.058456637
231	0xbd5d222d	-0.05398767
232	0xbd552e6a	-0.052046217
233	0x3d885ada	0.066579536
234	0x3ccdb42e	0.02511033
235	0x3c3e5d91	0.011618988
236	0x3e131688	0.14364064
237	0x3d34fbe9	0.044185553
238	0xbdb24b05	-0.08705715
239	0x3e33292b	0.17496173
240	0x3e0727b5	0.13198741
241	0xbcfe0195	-0.031006614
242	0xbdaf7012	-0.085662976
243	0x3c7f9c76	0.015601268
244	0xbe3e649f	-0.18593071
245	0x3ad93f3e	0.0016574634
246	0xbcbf2846	-0.023334634
247	0x3e41628f	0.18885253
248	0x3d5f571a	0.054526426
249	0xbd611b4c	-0.054957673
250	0x3cf5621d	0.02995401
251	0xbca16517	-0.019701524
252	0x3e3d79d4	0.18503505
253	0x3ddeb880	0.10875034
254	0xbd07ef07	-0.03318694
255	0x3e21002c	0.15722722

network_body._body_endoder.seq_layers.2.bias f4 [128]
0	0x3d5ff59b	0.054677587
1	0x3da61529	0.08109505
2	0xbd84c222	-0.064823404
3	0xbc51b760	-0.012800068
4	0xbc8f0821	-0.01745993
5	0xbce78341	-0.028260829
6	0x3d148384	0.036258236
7	0xbcc60861	-0.024173917
8	0x3d12e5ca	0.035863675
9	0x3d215804	0.03939058
10	0x3d28361b	0.041067224
11	0xbc3fdc51	-0.011710242
12	0x3bbfe467	0.005856085
13	0x3c1be1a4	0.009514246
14	0x3d5afcbc	0.053463683
15	0x3d1562e4	0.036471263
16	0xbcb005e9	-0.021487193
17	0x3d2ebec6	0.042662404
18	0x3d815f07	0.06316953
19	0x3c7666b2	0.015039133
20	0x3b18d393	0.0023319467
21	0x3c782554	0.0151456185
22	0xbc605e4b	-0.013694356
23	0x3cd62ba9	0.026143866
24	0xbd3d9007	-0.046279933
25	0xbc18ed2f	-0.009333893
26	0xbc0984c9	-0.008393475
27	0xbce979d3	-0.028500473
28	0xbcb5ca2a	-0.022191126
29	0x3c956cc0	0.018240333
30	0xbb54ffb8	-0.0032501053
31	0x3d0187a4	0.031623498
32	0x3d5366c1	0.051611666
33	0xbc1825ee	-0.009286387
34	0x3ce08f31	0.027412029
35	0x3cd4e2a2	0.025986973
36	0xbc788415	-0.01516821
37	0xbd0183ce	-0.03161984
38	0x3c8836fd	0.016627783
39	0xbc18356f	-0.009290083
40	0x3d4903a0	0.049075723
41	0x3d26faf3	0.040766668
42	0x3ce6da0f	0.02818015
43	0xbb9d0626	-0.0047919927
44	0x3c8b92a5	0.017037699
45	0x3c9dfdfe	0.019286152
46	0xbc84b8d8	-0.016201422
47	0x3baac164	0.0052110422
48	0xbcdf94e0	-0.027292669
49	0xbcb1de83	-0.021712547
50	0xbbb39748	-0.0054806806
51	0x3cca5b7c	0.024701826
52	0x3c78acb2	0.0151778925
53	0x3d3065fa	0.043066002
54	0xbd3b2df3	-0.045698117
55	0xbb810dac	-0.0039383974
56	0x3c9817fd	0.018566126
57	0x3bc60c6a	0.0060439603
58	0x3d6a98cf	0.057274636
59	0xbcf0f509	-0.029413717
60	0xbd2a4a8a	-0.041574992
61	0xbd9e680b	-0.07734688
62	0x3d0db703	0.03459836
63	0xbc697d16	-0.014251014
64	0x3cb76b7b	0.022390118
65	0xbbb03704	-0.005377652
66	0x3d86d643	0.06583836
67	0x3d80d7a6	0.06291132
68	0xbd88131e	-0.06644271
69	0xbc3815c0	-0.011235654
70	0x3c7ac1e9	0.015305021
71	0xbcb3e96f	-0.021961896
72	0x3acbb5d6	0.0015541862
73	0xbc626369	-0.013817647
74	0xbcdd2f25	-0.02700002
75	0x3c1f5539	0.0097249085
76	0xbc8dba08	-0.01730062
77	0xbc4a735f	-0.012356608
78	0x3bd4c850	0.0064936057
79	0xbc2614fa	-0.010136837
80	0x3d689707	0.056784656
81	0x3c74109d	0.014896539
82	0xbc2a5423	-0.010396036
83	0x3d4a8460	0.04944265
84	0xbb7adcd7	-0.0038278603
85	0x3b2e88d1	0.0026631842
86	0x3c859ba4	0.016309567
87	0x3c7e1b5f	0.015509455
88	0xb9b6870d	-0.00034814366
89	0x3c064fc1	0.008197726
90	0x3ce97af4	0.028501011
91	0xbbb76a55	-0.0055973926
92	0x3c96d5fb	0.01841258
93	0x3cc0ffdb	0.023559501
94	0x3cccd44c	0.025003575
95	0x3d35edec	0.044416353
96	0x3d16c5e0	0.036809802
97	0xbd87b7cb	-0.066268526
98	0x3d0e1e0b	0.03469662
99	0xbd065d8c	-0.032804057
100	0x3d3e5565	0.046468157
101	0xbd390e10	-0.045179427
102	0xbcb42cba	-0.021993984
103	0xbd6b3e1b	-0.057432275
104	0x3ca6f12b	0.02037867
105	0x3bd82da4	0.0065972377
106	0x3cc86972	0.024464343
107	0x3c1645b5	0.009171893
108	0x3c671324	0.014103685
109	0xbca66e9d	-0.020316416
110	0x3c05a578	0.008157127
111	0x3d06ba60	0.032892585
112	0xba5d5876	-0.00084436627
113	0x3ccb83e8	0.024843171
114	0xbb750849	-0.0037388972
115	0x3c8e629c	0.017381005
116	0x3c923726	0.017848562
117	0x3c8a646b	0.016893586
118	0x3d3a1e60	0.045439124
119	0xbc46642e	-0.012108846
120	0x3d06ecda	0.032940723
121	0x3d2e3561	0.042531375
122	0x3d1f5ca4	0.03890671
123	0x3ce53bbe	0.027982589
124	0x3ce166be	0.027514812
125	0x3cf9d6a3	0.030497855
126	0x3ba0cbfa	0.0049071284
127	0xbcf7ca76	-0.030247908

action_model._discrete_distribution.branches.0.weight f4 [7, 128]
0	0x3d1f7f49	0.038939748
1	0xbac5aae9	-0.0015080842
2	0x3be5239c	0.0069927704
3	0x3a9e5908	0.0012080977
4	0x3c1cf97c	0.009580966
5	0x3a6ebd36	0.0009107174
6	0xbcbb2492	-0.022844587
7	0x3c69dd65	0.014273976
8	0xbd44612e	-0.04794424
9	0x3d4dd075	0.05024763
10	0x3d54f1eb	0.051988523
11	0x3b509902	0.003182948
12	0xba789e43	-0.0009484032
13	0xbd8933d9	-0.06699342
14	0x3d83ae5a	0.06429739
15	0xbd1ba3a8	-0.03799787
16	0x3b4cdd1c	0.003125972
17	0x3d987987	0.074450545
18	0xbdcfad2d	-0.101404525
19	0x3ccc5317	0.024941964
20	0xba104828	-0.0005503916
21	0x3c1bfc2c	0.009520572
22	0xbd60a930	-0.05484885
23	0xbc0f70ea	-0.008754948
24	0x3cc25157	0.023720426
25	0xbde13819	-0.10997028
26	0x3c77d463	0.0151263205
27	0xbd284ca6	-0.041088723
28	0xbcd0ce94	-0.02548913
29	0x3d2d7eb0	0.042357147
30	0x3c3cfd53	0.011535007
31	0xbcae74bb	-0.021295896
32	0x3d5b1607	0.053487804
33	0x3c025c95	0.007956644
34	0x3d37268a	0.044714488
35	0xbd4b8928	-0.04969135
36	0xbc7bae47	-0.015361375
37	0xbc255162	-0.010090204
38	0xbd4fa0f7	-0.050690617
39	0x3ce78ef4	0.028266408
40	0x3c0ee946	0.008722609
41	0xbd66a61d	-0.05631076
42	0x3d1a97ea	0.037742533
43	0xbd17a9d4	-0.037027195
44	0x3d1fba1d	0.03899585
45	0x3d498bac	0.049205467
46	0xbc346b7b	-0.011011953
47	0x3ac12830	0.0014736708
48	0xbcde669b	-0.027148535
49	0xba873aa8	-0.0010317164
50	0x3cdad575	0.026713112
51	0xbca96b3e	-0.02068102
52	0xbdad78cc	-0.08470306
53	0x3d067958	0.032830566
54	0x3c16662a	0.009179631
55	0x3ba7eb00	0.0051244497
56	0xbb112a82	-0.002215058
57	0xbd664e38	-0.05622694
58	0x3d77d584	0.06050636
59	0xbd083da4	-0.03326191
60	0xbcaab5e7	-0.02083869
61	0x3b75b056	0.0037489138
62	0xbd8c98a3	-0.06865051
63	0x3d1af3d4	0.03783019
64	0x3c66e7d3	0.014093357
65	0xbd9660f6	-0.073427126
66	0x3d15f830	0.036613643
67	0x3d1b830a	0.037966765
68	0x3cb1ac5e	0.021688636
69	0x3cdca65c	0.026934795
70	0xbbd41223	-0.0064718886
71	0xbd7817f2	-0.06056971
72	0x3d12edfa	0.035871483
73	0xbce02f05	-0.02736617
74	0x3d7a9481	0.06117678
75	0x3ab01150	0.0013432894
76	0x3a106255	0.00055078167
77	0x3d039fc3	0.032134783
78	0xbc037e61	-0.008025737
79	0x3bec2ecf	0.0072077285
80	0x3d23a3ac	0.03995101
81	0xbd8c9306	-0.0686398
82	0xbc595f17	-0.0132673
83	0x3d46e3e6	0.048557185
84	0xbb9c22a9	-0.004764874
85	0xbc99f7a9	-0.018794851
86	0x3d00dcfa	0.03146074
87	0x3b43f366	0.0029899715
88	0xbd9e991a	-0.077440456
89	0xbd380f41	-0.044936422
90	0xbc2b3334	-0.0104492195
91	0x3c1a40a6	0.009414827
92	0xbcc3bc91	-0.023893626
93	0x3d1f3e16	0.03887757
94	0x3d1ef593	0.038808417
95	0x3d51f2f8	0.051257104
96	0x3d51ca1d	0.05121814
97	0xbca0ac6a	-0.019613463
98	0x3d01d12a	0.031693615
99	0x3c3690bb	0.011142905
100	0xbbb78ee9	-0.005601753
101	0xbc618ce5	-0.013766502
102	0xbd165e7b	-0.036711197
103	0x3c6b902c	0.014377635
104	0x3d961683	0.073285125
105	0x3c1a7b8a	0.009428868
106	0xbc8d3834	-0.017238714
107	0xbda746a2	-0.08167769
108	0x3d4999e8	0.049219042
109	0xbb938b11	-0.004502662
110	0x3c03907a	0.008030051
111	0x3c38b582	0.011273744
112	0x3cac1d2c	0.021010004
113	0x3b448507	0.0029986517
114	0xbaee8e7c	-0.0018200423
115	0x3d2d8d33	0.042370986
116	0xbd8e9e10	-0.06963742
117	0x3d62598a	0.055261172
118	0x3d040e24	0.032240048
119	0xbcaaf256	-0.020867508
120	0x3d272e77	0.040815797
121	0x3d228a01	0.039682392
122	0x3cdcf99c	0.026974492
123	0x3ce41420	0.027841628
124	0xbca91648	-0.020640507
125	0xbd6581fe	-0.056032173
126	0xbcd96de1	-0.026541652
127	0xbc334b79	-0.010943287
128	0xbda613d9	-0.081092544
129	0x3b015a28	0.0019737575
130	0x3c25caba	0.010119135
131	0xbd660bae	-0.056163482
132	0x3d7a8119	0.061158273
133	0xbce47ed2	-0.027892504
134	0xbd830bb8	-0.063987195
135	0x3d774ac0	0.06037402
136	0x3b828cc7	0.003984067
137	0x3cc068fe	0.023487564
138	0x3d2b0914	0.041756704
139	0x3d59f91d	0.05321609
140	0x3cde02cb	0.027100941
141	0xbd83ada1	-0.064296015
142	0xbd4fe774	-0.05075784
143	0xbdeb4fc0	-0.114898205
144	0x3d3037c7	0.043021943
145	0xbd8cd22f	-0.06876027
146	0xbd9ee4b7	-0.07758468
147	0xbdbb854b	-0.09156283
148	0x3d206f8d	0.039168883
149	0xbdc666bb	-0.09687563
150	0x3d703f02	0.05865384
151	0xbc87887a	-0.01654457
152	0x3ce67476	0.028131705
153	0x3d1d9c6f	0.038479265
154	0xbce25da2	-0.027632538
155	0x3d8f993c	0.07011649
156	0x3ca7df74	0.020492293
157	0x3d634427	0.055484917
158	0xbd922237	-0.07135432
159	0xbd85b040	-0.06527758
160	0xbd4243db	-0.047427993
161	0xbd434f94	-0.047683313
162	0x3d199169	0.03749219
163	0x3d9c4155	0.076296486
164	0xbc831c15	-0.016004601
165	0x3cc80352	0.024415646
166	0x3d413c79	0.04717681
167	0xbcfdaed3	-0.030967152
168	0xbd3a1dea	-0.045438685
169	0xbd49ad79	-0.049237702
170	0x3cd14922	0.025547568
171	0xbace6fc1	-0.0015749858
172	0xbc83eccd	-0.016104126
173	0x3c76c309	0.015061148
174	0x3b7d842f	0.0038683524
175	0xbd005e0f	-0.0313397
176	0x3db6a62d	0.08918414
177	0xbc8d3530	-0.017237276
178	0x3d8374ba	0.06418748
179	0x3d89bf66	0.067259595
180	0x3d1a3ed1	0.037657563
181	0xbe157fa3	-0.14599471
182	0xbc334d29	-0.010943689
183	0x3ce84bdf	0.02835649
184	0xbbac544c	-0.0052590724
185	0x3d362c04	0.04447557
186	0xbd365f33	-0.044524383
187	0x3d85469e	0.0650761
188	0xbced0b2b	-0.02893599
189	0x3bbfdc9f	0.0058551575
190	0x3da85cd6	0.08220832
191	0xbc2133a7	-0.009838975
192	0xbd918651	-0.07105697
193	0x3d65591a	0.055993177
194	0xbcc4cb3f	-0.024022697
195	0xbc108f4e	-0.008823229
196	0x3c8f711c	0.01750999
197	0x3cdb43f8	0.026765808
198	0x3d3d8041	0.04626489
199	0x3d2cddc4	0.04220368
200	0x3d5079d8	0.05089745
201	0xbcdefa8d	-0.027219081
202	0x3d13ed65	0.03611507
203	0x3cfc6288	0.030808702
204	0x3d86e7e5	0.06587199
205	0x3cc34585	0.02383686
206	0x3d2f9d82	0.04287482
207	0x3d092e15	0.033491213
208	0x3cc4138a	0.023935098
209	0x3c272957	0.010202727
210	0x3b525354	0.0032093124
211	0xbc1cd14f	-0.009571387
212	0xbdec6d0d	-0.11544237
213	0xbbfcd38d	-0.0077156485
214	0x3da21a72	0.079152
215	0x3dce5e04	0.10076526
216	0x3d37a9d6	0.044839703
217	0xbccfadff	-0.025351522
218	0xbd460003	-0.048339855
219	0xbddec511	-0.10877431
220	0x3e164900	0.14676285
221	0xbc9e6499	-0.019335078
222	0xbdb0852c	-0.086191505
223	0x3c85b101	0.016319754
224	0xbd4584b3	-0.048222255
225	0x3c7915e9	0.015202978
226	0x3bfcd27a	0.0077155204
227	0x3d6882fe	0.05676555
228	0x3d504e30	0.050855815
229	0x3d023146	0.031785272
230	0x3da8dd3c	0.08245322
231	0xbc1c5084	-0.009540681
232	0x3c317490	0.010831013
233	0xbda1c165	-0.07898215
234	0xbd586c07	-0.052837398
235	0xbcdee7b7	-0.0272101
236	0x3cbd4348	0.023103371
237	0x3a679166	0.0008833617
238	0xbdee0da1	-0.11623693
239	0xbdecaf37	-0.11556857
240	0x3c7bf502	0.015378239
241	0xbcf7129e	-0.030160245
242	0xbc5722a0	-0.013130814
243	0xbd808f22	-0.062773004
244	0x3d854938	0.06508106
245	0x3cb0b633	0.021571254
246	0xbda86101	-0.08221627
247	0x3d11c95a	0.035592414
248	0x3d2724c6	0.040806554
249	0xbc50b520	-0.012738496
250	0xbe06b8ae	-0.13156387
251	0x3c75c739	0.015001112
252	0xbd1ab70a	-0.037772216
253	0x3b5bb7bd	0.0033526265
254	0x3ddf7250	0.10910475
255	0x3ca366f5	0.019946555

action_model._discrete_distribution.branches.0.bias f4 [7]
0	0xbba4d2c8	-0.00503001
1	0xbc6c56ec	-0.014425021
2	0xbc7a3130	-0.015270516
3	0xbd84c284	-0.064824134
4	0xbc33b364	-0.010968063
5	0x3c67ad49	0.0141404355
6	0x3ce456ac	0.02787336
