CCP-main/results/WeightAgent_Training/WeightAgent_Training/WeightAgent_Training-9638.pt (torch, 344748 bytes, 11 tensors)

network_body._body_endoder.seq_layers.0.weight f4 [128, 195]
00000000: 5b35 da3d 2626 b93a 81b7 9f3d 1341 88bb
00000010: 5f7e f83c 8d8c adbd c837 323e 30c5 e83d
00000020: 2099 96bd e8cc 513d 38fc 003d 6239 cbbc
00000030: bc64 1b3c 3065 d83c 7974 b13d 247f acbd
00000040: 683b a63c bb32 68bb 276a 623d 4ea9 20bd
00000050: 54cc cd3c 087a 96bc da26 0bbd 10cd 8fbc
00000060: 461e ef3d 9ef1 1cbd 7af4 4dbb 2e5e 8d3c
00000070: 5acf 5a3d 6acc 74bc 799a 05bd 8492 06be
00000080: b984 70bd 0baa 53bd 3ec6 3d3d a15d 883d
00000090: 7a4d a93d 6642 8cbc c789 8cbb 8cd6 a2bd
000000a0: c167 9abd 0715 68bd 2282 74bb 856c c63c
000000b0: 3d2d 3e3d 38cb b0bd 13fa a73a c2fb cfbc
000000c0: 01b0 903c 14cb 643d 1f41 07bc af99 a0bd
000000d0: 62b7 453c 4142 c1bb 8b60 46bc 1c8b 063b
000000e0: 5dfa 56bc 1e53 cfbd 152f 243e 8747 803d
000000f0: 24b8 d6bd e7df 2a3d 2d33 46bb 4881 fd3d
00000100: 0207 46bd 0632 aabc dbd2 493d 6883 a93d
00000110: 0813 a2bc 85b0 b3bc fc64 263d 44d3 00be
00000120: 0595 903d e73c 45bc 93a3 593d 85f9 b2bd
00000130: bbbf e2bc 6e43 463d 2fae 96bd 08b0 cebc
00000140: c17f d4bc ddb0 c03d a637 ba3d 1eed 5a3c
00000150: 1c27 07be 0d00 813d fb7c cc3c 8cc3 c33b
00000160: ac09 9c3c f971 0f3e a216 3f3d 7076 2d3d
00000170: dce0 5e3d 2800 f3bc 7277 a93d 2b96 803c
00000180: fb7e 6ebc 23b2 0d3d 2147 f0bd b7c4 22bd
00000190: 45fd 0b3d b231 4c3c ab59 f9bd 0c0c e6bd
000001a0: ff69 df3c afe2 243e 3a9e 803d a8ac 0b3d
000001b0: cc7c 3bbd d2ad 2c3c 8799 353d 83a0 c9bc
000001c0: 93a9 6bbd f9a8 c73d 147a 67bd 512c 0a3d
000001d0: 87b5 2dbc cb85 783c ef57 0fbb b4f8 643d
000001e0: ccc8 b63d 8e46 cebd 04a0 e5bb 4075 0e3d
000001f0: 8109 06bd cd0d d43d 0ee0 853d 37df 07bb
00000200: 61bb f8bb b861 823d fa84 143e e7af 8dbc
00000210: f4d1 cebb 1b04 623d f601 43bd 67f9 863d
00000220: 51cc 1dbd bd14 573b e4e2 323d 2555 823d
00000230: f28a 0a3d 5603 af3c 9820 f53b 5a8f be3c
00000240: 9066 023e d319 ba3d 809f 343c ccf2 9b3d
00000250: 73eb 5d3d bc33 8f3c d981 00be 4473 4abd
00000260: dd02 ad3d d59d 863c bbc7 bdbd ce74 863d
00000270: 6a86 703d b02f 0ebc a229 86bd 5b34 c0bd
00000280: 27ec 5c3d 030f cc3c 2979 213d 11df 17be
00000290: 2e05 ab3d 62e2 a03d 998b cebd 2595 a33c
000002a0: fc43 5f3d 6361 fc3c 93e6 87bd 76e8 5c3d
000002b0: 867c a63d b616 643d c0d2 9a3b 96e3 bc3d
000002c0: bfc0 cb3d 66b0 6c3b 094e 44bb 0c46 c8bc
000002d0: 50cc 793d 71cb 76bd 1c78 073d d1f1 87bd
000002e0: 13cf 55bd 5aed a33d de74 823c c8a4 a63d
000002f0: 5061 923d c43b eb3d 3c93 833d 05cb 033c
00000300: 379a d8bb 0d65 6b3d cd38 d1bd 64cf c43c
00000310: af40 b3bc 6e3f 5bbd 462d bdbd 6922 0d3d
00000320: 0d5b 9dbc 9f37 06bd 0753 de3d 304f a33d
00000330: c719 11bd 8046 b2bd d87c 213d 077c 7e3d
00000340: 12b4 d63c 8483 0b3d 0151 bd3b a462 1dbd
00000350: 217e d4bd 1e96 f23c e929 303d f633 8ebc
00000360: de11 49bb bfd7 883d dc0e 00bd 2a7b e53d
00000370: cfdf be3d f8d7 8bbd 0632 ffbd 3c7e b33d
00000380: 8ccd 5ebe 001d 4cbd 021c 3abd 073e a43c
00000390: 95f7 c33c f0a5 573d 9345 903d 6b31 b93c
000003a0: 4b33 95bd 1820 af3d 50b5 033e e856 fe3d
000003b0: 1669 57bc 26b2 9f3d 274a e43d d245 91bd
000003c0: 6fda 833d dd46 413c 4123 efbd 10c6 b7bd
000003d0: 6345 90bd f326 e93c 6491 a83c 2de6 853c
000003e0: b124 9dbd 30b8 4e3d 8515 edbd 939c 64bc
000003f0: 3595 d0bc 71a1 3fbd 7218 873d a2f9 a03d
0.10654708 0.0014125749 0.077986725 -0.004158148 0.030333696 -0.084740736 0.17404091 0.113657355
-0.07353425 0.051220804 0.031490535 -0.024807636 0.009484466 0.026415437 0.086647935 -0.08422688
0.020291999 -0.0035430628 0.055277016 -0.03922396 0.025121845 -0.018368736 -0.0339726 -0.017553836
0.11675696 -0.03831636 -0.0031426237 0.017256822 0.053420402 -0.014941314 -0.03261802 -0.13141829
-0.058720324 -0.051675837 0.046331637 0.06658483 0.082667306 -0.017121505 -0.0042888853 -0.07951078
-0.07539321 -0.05666068 -0.003730901 0.024221668 0.04642986 -0.08632511 0.0012815617 -0.025388602
0.01766205 0.055857733 -0.008255272 -0.07841813 0.012067648 -0.0058977907 -0.012107979 0.0020529693
-0.013121215 -0.10123275 0.16033585 0.06263643 -0.10484341 0.041717436 -0.0030242905 0.12378174
-0.048346527 -0.020775806 0.049273353 0.08277017 -0.019784465 -0.021934757 0.04062365 -0.12580591
0.07059673 -0.012038446 0.053134512 -0.08738998 -0.027679315 0.04840415 -0.07357442 -0.025230423
-0.025939824 0.09408734 0.09092645 0.013362197 -0.13198513 0.06298838 0.02496194 0.0059742387
0.01904758 0.14008321 0.046652444 0.04234928 0.05441366 -0.02966316 0.082747355 0.015696606
-0.014556642 0.034593713 -0.11732317 -0.039738383 0.034177084 0.01246302 -0.12175306 -0.112327665
0.027272223 0.16102098 0.06280179 0.034100205 -0.045773312 0.010539489 0.04433587 -0.02461267
-0.057534765 0.09749026 -0.056512907 0.03373367 -0.0106023615 0.0151686175 -0.002187248 0.055901244
0.08925018 -0.10072051 -0.0070076007 0.034779787 -0.032723907 0.10354195 0.06536876 -0.0020732412
-0.0075906967 0.063662946 0.14503852 -0.01729579 -0.0063116495 0.055179697 -0.047609292 0.065905385
-0.03852493 0.0032818757 0.04367341 0.06363896 0.033823915 0.021363895 0.007480692 0.023261715
0.12734437 0.09086957 0.011024356 0.07614669 0.05417962 0.017480724 -0.12549533 -0.049426332
0.08447812 0.016432682 -0.09266611 0.065652475 0.058721937 -0.008678362 -0.065509096 -0.09384986
0.05393615 0.024909502 0.039422188 -0.14831187 0.08350597 0.07855679 -0.1008522 0.019968579
0.054508194 0.030808156 -0.066357754 0.05393263 0.0812922 0.05568572 0.0047248304 0.09223096
0.09948873 0.0036115884 -0.002995374 -0.024447463 0.060985863 -0.06025261 0.03307353 -0.0663792
-0.052199434 0.080042556 0.015924867 0.08136898 0.07147467 0.11486009 0.06424567 0.008044009
-0.0066101807 0.057469416 -0.10215912 0.024024673 -0.02188143 -0.05352729 -0.09237151 0.034456644
-0.019208455 -0.03276789 0.1085568 0.07974088 -0.035424974 -0.08704853 0.0394257 0.06213
0.026208911 0.03406097 0.0057774787 -0.03842415 -0.1037562 0.029612597 0.04300872 -0.017358761
-0.0030680816 0.06681775 -0.03126417 0.11205132 0.09320032 -0.06828302 -0.12460713 0.08764312
-0.21758097 -0.049832344 -0.045436867 0.020049108 0.023921767 0.052648485 0.0704452 0.022606572
-0.07285174 0.08551043 0.12862134 0.1241892 -0.013147613 0.07797651 0.11146956 -0.07093395
0.06438147 0.01179668 -0.11676646 -0.08973324 -0.070444845 0.028460955 0.02057714 0.016345108
-0.07673014 0.050468624 -0.1157637 -0.013953346 -0.025461772 -0.046784822 0.065964594 0.07860114

network_body._body_endoder.seq_layers.0.bias f4 [128]
00000000: 0000 0000 0000 0000 0000 0000 0000 0000
00000010: 0000 0000 0000 0000 0000 0000 0000 0000
00000020: 0000 0000 0000 0000 0000 0000 0000 0000
00000030: 0000 0000 0000 0000 0000 0000 0000 0000
00000040: 0000 0000 0000 0000 0000 0000 0000 0000
00000050: 0000 0000 0000 0000 0000 0000 0000 0000
00000060: 0000 0000 0000 0000 0000 0000 0000 0000
00000070: 0000 0000 0000 0000 0000 0000 0000 0000
00000080: 0000 0000 0000 0000 0000 0000 0000 0000
00000090: 0000 0000 0000 0000 0000 0000 0000 0000
000000a0: 0000 0000 0000 0000 0000 0000 0000 0000
000000b0: 0000 0000 0000 0000 0000 0000 0000 0000
000000c0: 0000 0000 0000 0000 0000 0000 0000 0000
000000d0: 0000 0000 0000 0000 0000 0000 0000 0000
000000e0: 0000 0000 0000 0000 0000 0000 0000 0000
000000f0: 0000 0000 0000 0000 0000 0000 0000 0000
00000100: 0000 0000 0000 0000 0000 0000 0000 0000
00000110: 0000 0000 0000 0000 0000 0000 0000 0000
00000120: 0000 0000 0000 0000 0000 0000 0000 0000
00000130: 0000 0000 0000 0000 0000 0000 0000 0000
00000140: 0000 0000 0000 0000 0000 0000 0000 0000
00000150: 0000 0000 0000 0000 0000 0000 0000 0000
00000160: 0000 0000 0000 0000 0000 0000 0000 0000
00000170: 0000 0000 0000 0000 0000 0000 0000 0000
00000180: 0000 0000 0000 0000 0000 0000 0000 0000
00000190: 0000 0000 0000 0000 0000 0000 0000 0000
000001a0: 0000 0000 0000 0000 0000 0000 0000 0000
000001b0: 0000 0000 0000 0000 0000 0000 0000 0000
000001c0: 0000 0000 0000 0000 0000 0000 0000 0000
000001d0: 0000 0000 0000 0000 0000 0000 0000 0000
000001e0: 0000 0000 0000 0000 0000 0000 0000 0000
000001f0: 0000 0000 0000 0000 0000 0000 0000 0000
0.0 0.0 0.0 0.0 0.0 0.0 0.0 0.0
0.0 0.0 0.0 0.0 0.0 0.0 0.0 0.0
0.0 0.0 0.0 0.0 0.0 0.0 0.0 0.0
0.0 0.0 0.0 0.0 0.0 0.0 0.0 0.0
0.0 0.0 0.0 0.0 0.0 0.0 0.0 0.0
0.0 0.0 0.0 0.0 0.0 0.0 0.0 0.0
0.0 0.0 0.0 0.0 0.0 0.0 0.0 0.0
0.0 0.0 0.0 0.0 0.0 0.0 0.0 0.0
0.0 0.0 0.0 0.0 0.0 0.0 0.0 0.0
0.0 0.0 0.0 0.0 0.0 0.0 0.0 0.0
0.0 0.0 0.0 0.0 0.0 0.0 0.0 0.0
0.0 0.0 0.0 0.0 0.0 0.0 0.0 0.0
0.0 0.0 0.0 0.0 0.0 0.0 0.0 0.0
0.0 0.0 0.0 0.0 0.0 0.0 0.0 0.0
0.0 0.0 0.0 0.0 0.0 0.0 0.0 0.0
0.0 0.0 0.0 0.0 0.0 0.0 0.0 0.0

network_body._body_endoder.seq_layers.2.weight f4 [128, 128]
00000000: 5960 0dbc d793 cc3d 578c 1b3e c1a4 8c3d
00000010: d461 853c a42d 30bd a136 0fbe 1aeb 013d
00000020: 59d2 1ebd 7ccb 9a3c 13dd 35bc e2ca c63c
00000030: 29b0 fcbd 89ce c5bd 7fcb a3bd aacb 31bd
00000040: d083 8b3d db7e 7fbd ddc2 733d 087f 37be
00000050: 0298 373c 074c 2fbd ae41 213b c14c dd3d
00000060: 78ce adbb c436 05be 71ff 57bd 16cf 89bd
00000070: e792 f43c f1be 35bb 0b9e 1abe 0f49 93bc
00000080: 1ca8 9d3d 8c61 1dbd 8bb9 9e3d 24f0 0ebb
00000090: 2b98 c43d b03d 49be 21cc 4c3c 91f2 ea3c
000000a0: b6e0 d9bd 3309 f63d 3e4a 3cbd 634a 063e
000000b0: 5c42 bdbd d5b8 0e3e 7280 273d 2547 92bd
000000c0: ff3e 343e 5825 ee3c 45fb 9ebd b919 04be
000000d0: 4a64 e9bd 7d57 0bbe 259d f93d b30f 3a3d
000000e0: de30 1ebe 35e3 5d3d 9d3f e9bd 4c48 71bd
000000f0: 9740 3cbe e05f 673d 373b b93d 1a4f 353c
00000100: 9c31 1f3e f006 2f3d 927d c33c be77 283d
00000110: 6dde f73d 3b9b 5fbd bc0d ac3c 46f3 513b
00000120: fa69 90bc f949 073e 0985 abbd 1487 2a3c
00000130: 7dff e83c 87a5 473d b3e5 e03b 72e9 0abd
00000140: 877d 15bd cfcb a53d be73 9d3d ac81 3d3c
00000150: e1fe 07be dd30 8dbd 8bec f3bd 23a6 503d
00000160: ddc6 0cbe 1135 77bb 4fc4 ad3b 7df0 27be
00000170: 3284 b1bd ecd7 9a3d fdb3 693d 2818 ff3d
00000180: 7bd0 8fbd 083c b13c d1b2 1b3e 2f51 c63d
00000190: 86e9 e03d 33d4 403d a77e 30be c388 23be
000001a0: 5e34 93bd 4940 19be d0b9 98bb 83ba f73d
000001b0: acee 0cbd 529b bc3d 0678 d3bd 84e2 353d
000001c0: 81fb bfbd 9a5a 9dbd 32f5 773d c882 4abd
000001d0: abe3 9abd ae87 dabd f6e0 fa3d 04da 19bc
000001e0: f281 0bbe 648a 17be 7093 f8bc fe6a 98bd
000001f0: 1175 f9bd 5263 a03d 03db bcbd 8d9a d3bd
00000200: 256f b03d d3d5 cc3c 81e4 153d beb6 98bd
00000210: aff4 943c b878 fbbd 90c2 453d 27f2 e8bc
00000220: eb05 d6bc 94d2 17bd b133 903d bde9 79bd
00000230: 1bea d6bd abdd 523c f364 a03d 6917 403d
00000240: 8b98 4bbc 967a 313e 0808 493c 8205 28bd
00000250: d522 053d 0786 073e 5ced bfbd 5ffc 6f3d
00000260: e5ca 98bd 684c 9f3d d696 d0bd 105f d53d
00000270: 788f 983b 5122 26bd 9b9a febd 3459 523e
00000280: 6769 473d a5b0 203d a606 34bd 409f 06bd
00000290: 7d4b f13d beeb 91bd 7e47 aa3d 462f a2bd
000002a0: 94cb 6d3d 7476 fa3c 4042 c7bd 726a ecbd
000002b0: e502 933d 49b9 38bd 50c8 023d d43a ddbd
000002c0: 28ee ca3d 21f2 e23d ec51 823d 1585 aa3d
000002d0: 64a6 333e 557f 6a3c 5bc1 2d3e bc3e 1e3e
000002e0: d54b b4bc 0d49 23be a7d6 5fbd 045d 55bd
000002f0: 9c8f 863d d368 b9bc 4810 eabb 4710 bbbc
00000300: e283 073c 6876 6d3d e07c c7bd 4865 57bc
00000310: 9730 18bc 6a7a 4b3d 9ab7 67bd 1610 083d
00000320: 7203 49bd c78b 333d c57f c8bd 28bc 35bd
00000330: c34c b73b d1ea 65bd 6811 433d e6db 43bd
00000340: a2f3 68bd d73b 75bd 6ae0 893b 00e9 f93d
00000350: 29ec c23c 9337 6f3d 3d15 08bd 4c6f 943d
00000360: 6812 8b3d 5b5e c13d 3774 c7bc f2f5 ba3c
00000370: e199 99bd d1b3 043e 7a56 1dbd 2f1b 213e
00000380: ffd1 0c3e ccd8 c53d 93bc bd3b 5f99 a4bd
00000390: c872 acbc e1f8 03be feb6 493b 5738 d6bd
000003a0: 22cc c53d 8068 cfbc bcbc f13d b1be 06bd
000003b0: 26eb a4bd 3489 283e 8b2f babd f8d4 ee3c
000003c0: fb0f b93d 3e7e 303c ce48 5d3d f7f3 c1bc
000003d0: ad25 153e 48aa 89bd 8df8 ba3c 3061 ef3d
000003e0: c88a 52bd b6fd c2bc 2c45 a8bd f4d9 2cbe
000003f0: b248 e3bc 44b1 da3d 4e0f 683d 5762 0ebb
-0.008628928 0.09989136 0.15190254 0.06867362 0.016282 -0.043012276 -0.13985683 0.03171835
-0.038774822 0.018895857 -0.0111000715 0.024266664 -0.123382874 -0.09658534 -0.07997798 -0.04340712
0.068122506 -0.06237684 0.059512008 -0.17919552 0.011205675 -0.042797115 0.0024605799 0.10805655
-0.005304154 -0.13009173 -0.052733842 -0.06728952 0.029855205 -0.0027732218 -0.15099351 -0.017979173
0.0769808 -0.038423106 0.07750233 -0.0021810615 0.09599336 -0.19652438 0.01249984 0.028680118
-0.10638563 0.12013473 -0.04596924 0.13114314 -0.09241173 0.13937695 0.04089398 -0.07142476
0.17602156 0.029070541 -0.077627696 -0.12900437 -0.11396082 -0.13607593 0.12188176 0.04542513
-0.15448329 0.05417176 -0.113890864 -0.05890684 -0.18384014 0.056487918 0.090444975 0.011066223
0.15546268 0.042731225 0.023863588 0.04112982 0.12102971 -0.0545914 0.021002643 0.0032035871
-0.017628659 0.13211812 -0.08374984 0.010408182 0.028442139 0.048741844 0.00686332 -0.033914037
-0.036496665 0.08095514 0.07688092 0.011566561 -0.13280822 -0.068940856 -0.11910351 0.05093969
-0.13747735 -0.003772084 0.005302943 -0.16400333 -0.086677924 0.07560715 0.057056416 0.12455779
-0.07022186 0.02163507 0.15204932 0.09683453 0.10982041 0.04707737 -0.17235814 -0.15970139
-0.071877226 -0.14965929 -0.0046608225 0.12096121 -0.034407303 0.092093125 -0.10325627 0.044405475
-0.093741424 -0.076832965 0.06053657 -0.04944113 -0.075629555 -0.1067041 0.12249939 -0.009390358
-0.13623789 -0.14798886 -0.030343741 -0.07442282 -0.12180532 0.07831444 -0.09221461 -0.103322126
0.08614949 0.025004303 0.03659487 -0.0745673 0.01818308 -0.12278885 0.048281252 -0.02843578
-0.026125869 -0.037066057 0.07041109 -0.061013926 -0.10493871 0.012870233 0.078317545 0.046897326
-0.012426506 0.17331919 0.012269981 -0.041020878 0.03250392 0.13234721 -0.093714446 0.05859029
-0.07460574 0.07778245 -0.1018502 0.10418522 0.0046557747 -0.04056007 -0.124318324 0.20541841
0.048684504 0.03923096 -0.043951653 -0.032866716 0.11781976 -0.071250424 0.08314417 -0.07919173
0.058055475 0.030574061 -0.09729433 -0.1154374 0.071782865 -0.045098577 0.031929314 -0.10802236
0.09908706 0.11081339 0.063632816 0.08326165 0.17543942 0.014312585 0.1696829 0.15453619
-0.022008816 -0.15945835 -0.054648068 -0.05209066 0.0657036 -0.022632992 -0.007143054 -0.02283491
0.008271189 0.05797425 -0.09740615 -0.013146706 -0.0092889285 0.04967729 -0.05657158 0.033218466
-0.04907555 0.043834474 -0.09789995 -0.044368893 0.0055938675 -0.05613214 0.04762402 -0.047817133
-0.05687297 -0.05987152 0.0042076604 0.12202644 0.02379425 0.05840261 -0.03322338 0.07247791
0.0679062 0.09441825 -0.024347408 0.022822354 -0.07500053 0.1295922 -0.03841255 0.15733026
0.13751982 0.09660491 0.005790302 -0.08037066 -0.021050826 -0.12887909 0.0030779238 -0.10459965
0.09658076 -0.025318384 0.11803576 -0.0328967 -0.080526635 0.16458589 -0.09091099 0.029154286
0.09036251 0.010772286 0.05402451 -0.023675902 0.14565153 -0.06721932 0.022823596 0.11688459
-0.051401883 -0.02380262 -0.082163185 -0.16880018 -0.027744625 0.10678342 0.05665522 -0.0021726096

network_body._body_endoder.seq_layers.2.bias f4 [128]
00000000: 0000 0000 0000 0000 0000 0000 0000 0000
00000010: 0000 0000 0000 0000 0000 0000 0000 0000
00000020: 0000 0000 0000 0000 0000 0000 0000 0000
00000030: 0000 0000 0000 0000 0000 0000 0000 0000
00000040: 0000 0000 0000 0000 0000 0000 0000 0000
00000050: 0000 0000 0000 0000 0000 0000 0000 0000
00000060: 0000 0000 0000 0000 0000 0000 0000 0000
00000070: 0000 0000 0000 0000 0000 0000 0000 0000
00000080: 0000 0000 0000 0000 0000 0000 0000 0000
00000090: 0000 0000 0000 0000 0000 0000 0000 0000
000000a0: 0000 0000 0000 0000 0000 0000 0000 0000
000000b0: 0000 0000 0000 0000 0000 0000 0000 0000
000000c0: 0000 0000 0000 0000 0000 0000 0000 0000
000000d0: 0000 0000 0000 0000 0000 0000 0000 0000
000000e0: 0000 0000 0000 0000 0000 0000 0000 0000
000000f0: 0000 0000 0000 0000 0000 0000 0000 0000
00000100: 0000 0000 0000 0000 0000 0000 0000 0000
00000110: 0000 0000 0000 0000 0000 0000 0000 0000
00000120: 0000 0000 0000 0000 0000 0000 0000 0000
00000130: 0000 0000 0000 0000 0000 0000 0000 0000
00000140: 0000 0000 0000 0000 0000 0000 0000 0000
00000150: 0000 0000 0000 0000 0000 0000 0000 0000
00000160: 0000 0000 0000 0000 0000 0000 0000 0000
00000170: 0000 0000 0000 0000 0000 0000 0000 0000
00000180: 0000 0000 0000 0000 0000 0000 0000 0000
00000190: 0000 0000 0000 0000 0000 0000 0000 0000
000001a0: 0000 0000 0000 0000 0000 0000 0000 0000
000001b0: 0000 0000 0000 0000 0000 0000 0000 0000
000001c0: 0000 0000 0000 0000 0000 0000 0000 0000
000001d0: 0000 0000 0000 0000 0000 0000 0000 0000
000001e0: 0000 0000 0000 0000 0000 0000 0000 0000
000001f0: 0000 0000 0000 0000 0000 0000 0000 0000
0.0 0.0 0.0 0.0 0.0 0.0 0.0 0.0
0.0 0.0 0.0 0.0 0.0 0.0 0.0 0.0
0.0 0.0 0.0 0.0 0.0 0.0 0.0 0.0
0.0 0.0 0.0 0.0 0.0 0.0 0.0 0.0
0.0 0.0 0.0 0.0 0.0 0.0 0.0 0.0
0.0 0.0 0.0 0.0 0.0 0.0 0.0 0.0
0.0 0.0 0.0 0.0 0.0 0.0 0.0 0.0
0.0 0.0 0.0 0.0 0.0 0.0 0.0 0.0
0.0 0.0 0.0 0.0 0.0 0.0 0.0 0.0
0.0 0.0 0.0 0.0 0.0 0.0 0.0 0.0
0.0 0.0 0.0 0.0 0.0 0.0 0.0 0.0
0.0 0.0 0.0 0.0 0.0 0.0 0.0 0.0
0.0 0.0 0.0 0.0 0.0 0.0 0.0 0.0
0.0 0.0 0.0 0.0 0.0 0.0 0.0 0.0
0.0 0.0 0.0 0.0 0.0 0.0 0.0 0.0
0.0 0.0 0.0 0.0 0.0 0.0 0.0 0.0

action_model._discrete_distribution.branches.0.weight f4 [7, 128]
00000000: 35fa 443c 70d1 adb9 ee3e 3ebb 2bb2 6d3c
00000010: 077a e1ba 5315 71bc 352b 7e3c e63b 9d3a
00000020: 4af3 45ba fa34 3fbc 2f4d 4fbb ed96 83bc
00000030: 549a 833b 5031 94bc 35a2 13bc 0b63 bd3c
00000040: 485b f73a 27bb 4c3c 7afa f7ba cab1 4c3b
00000050: 4db1 fbba 402a d5bb 12b0 26bc 1ad1 ed3b
00000060: 62ab f7b9 c8b4 d2bb b667 bcbb bbe2 c8bb
00000070: 8768 1d3a 6465 1e3c 82f8 93bb 5f78 643c
00000080: 01c9 86bb deed bf39 7762 28bc afc7 89bb
00000090: d944 c73b 4126 b0bb 3286 4cbc 62a6 4bbb
000000a0: 8b07 4ebc 67e3 523c ea74 673c b35f 223b
000000b0: 0be6 a1bb 9385 693a cf37 2b3a a726 32bb
000000c0: a6ce 083c 535e 063c 5cae 183c 8d0c 05bb
000000d0: 5019 483b b851 213b deb9 233c 495a bebb
000000e0: 93b7 783c 8079 333c 0912 97bb 67b3 70bc
000000f0: 1d74 ff39 ef45 87bc bc90 0dbc 8f25 133b
00000100: fb05 013b 09f2 bd3a a782 f43b 1558 d7ba
00000110: cf5c 61bc 7334 513c 3b95 5f3b fb0e abbb
00000120: 80ab d1ba 7f85 b5bb 43e0 f5ba e320 e73b
00000130: 147a 2dbc e5e1 f63b 2824 dc3b 332b 6d3b
00000140: c09c 1b3c 22de 5f3b db8a edbb 6f73 6b3c
00000150: 3b73 a7bb cab3 dcba 0b9c 0bbc 0aa4 013c
00000160: 347f 1a3b b612 0a3c e0aa 3a3c 45a9 cab9
00000170: 55d3 3639 8b9a f7bb d9c4 b23b 8daf 5fbb
00000180: cf82 55bc fb05 b6bb fa89 a73b 3fb4 86bb
00000190: 7fdb 353b 7b35 873b 4c75 09bc 3be1 ca3b
000001a0: ffdb ab3b fc8f a5b8 374d 113b 4aed d8bb
000001b0: a3dc f4bb 8354 62bc 044b 133c ed09 85bb
000001c0: cb3a 463c e305 3e3c 33be c1bb cd84 1d3c
000001d0: 440c a9bb 15fa f8bb 7860 7fbb 3898 83bb
000001e0: 0c88 a93a 5b7f 85ba 773d 93bc 17e5 983c
000001f0: 3dd4 173c a3a8 90bb bcdd b43b 6059 673a
00000200: 075e a83c 7be1 b23a 39a3 a5bb df9f 24bb
00000210: 2b9f 3dbb 1f65 bc3b ca61 fd3b d15e afb9
00000220: cd05 72ba 428f 25bc dbff 123b eab8 96bc
00000230: 2bda b33a 1753 34bb 2feb adbb 93fe 4b3c
00000240: 8509 d2bb 2438 00bc 632d 1fbb efb0 97bb
00000250: 65cf 2ebc 62d0 003c d898 57bc 6000 6c3c
00000260: 6dd2 7939 cffd bcba 56c0 4cbc a799 8c3c
00000270: fc69 17b9 1db7 05bc 4422 cc3b cd95 6cba
00000280: bc35 1fbb 3960 0f3b 5581 d23c 3211 72bb
00000290: 83ee 4cbc dae3 d93b aadf e13a eb1f 95bb
000002a0: fa55 33bb ff66 e53b f365 21bb 5bd1 0dbc
000002b0: 5639 05bc 1529 6ebb 3285 6ebc f15e 083b
000002c0: fe8b a7bc df17 c13c f7b6 8ebb 238e 133c
000002d0: 579b 92bb a8ce 0ebc c2b8 483c ffe5 813b
000002e0: ccf0 a33b a249 6dbc 4351 40bb e257 6bbb
000002f0: 5f08 74bc e332 183b b196 b2bb f77a 04bb
00000300: 2a2c a03b ca17 a83b 444a cc3c d280 c9b9
00000310: 1c97 943c bd59 993c e28c 253c d0c5 543b
00000320: afa2 adbb f7a0 cb3b d32e 8abc ce41 b33b
00000330: 1f65 573c adc3 b5ba 0f42 503b f258 e9bb
00000340: fbfc c2bb f5c4 d339 1884 643a bfae 20bc
00000350: 5436 26ba 4298 5cbc 9c87 c1bb 5212 3f3b
00000360: 6df1 4ebb a374 763c 307d 553b 72b7 7a3c
00000370: 6ee8 c8bb 5523 51bc 3203 9abb 5847 83bb
00000380: 51f6 84bc 3a38 5fbc f8b5 01bc e0fc a4bb
00000390: ef22 b43b 586b c93b 54d9 1bbb ec54 b5bb
000003a0: 0fb7 dd3b 87e0 8fba 3ab2 ebbb 57ae 71bb
000003b0: 9ba0 173c bf8a 733a 1d69 97bc 0d46 0c3c
000003c0: 78e5 3fbc 4d5b 50bc 0593 60bc 9527 3fbb
000003d0: 4fa0 3b3c 4244 c2bb a060 dc3b e873 78bc
000003e0: 1f12 c33b 6f8b f03b f716 d33b e8e8 af3a
000003f0: 1d1a fdbb d53f 78ba 4435 8b3c 8ccb 373c
0.012022545 -0.00033153174 -0.0029029208 0.014507811 -0.0017202505 -0.014714557 0.015513231 0.0011996
-0.00075512065 -0.011670345 -0.0031631698 -0.016063178 0.0040162 -0.01808992 -0.009010841 0.023118516
0.0018871808 0.0124957925 -0.0018919252 0.00312339 -0.001920262 -0.0065052807 -0.010173814 0.007257593
-0.000472392 -0.006430242 -0.005749668 -0.006130544 0.00060046505 0.009667728 -0.0045157084 0.013944714
-0.004113317 0.00036607584 -0.010277382 -0.0042047123 0.0060812053 -0.005375654 -0.0124831665 -0.0031074514
-0.012575041 0.0128716 0.014126996 0.002477628 -0.0049407533 0.0008908149 0.00065314485 -0.0027183683
0.00835005 0.0082012 0.009318914 -0.002030167 0.0030532666 0.0024615359 0.009993045 -0.0058091027
0.015180486 0.010954261 -0.0046103043 -0.01469121 0.000487239 -0.01651284 -0.008640464 0.0022452807
0.0019687403 0.0014491688 0.007461864 -0.0016429449 -0.013755037 0.0127688525 0.0034116048 -0.0052202917
-0.0015996546 -0.0055395956 -0.0018758852 0.007053481 -0.010588188 0.007534253 0.0067181773 0.0036189079
0.009497821 0.00341595 -0.007249219 0.014370783 -0.005110172 -0.0016838249 -0.00852109 0.007912645
0.0023574354 0.008427313 0.011393279 -0.00038654558 0.000174356 -0.0075562648 0.005455595 -0.0034131736
-0.0130316755 -0.005554912 0.0051128836 -0.0041108425 0.0027749238 0.0041262484 -0.008389782 0.0061914003
0.0052447314 -7.894632e-05 0.0022171268 -0.006620084 -0.007472591 -0.0138140945 0.008990053 -0.004060021
0.012098978 0.011598083 -0.005912566 0.009614182 -0.005158933 -0.0075981715 -0.0038967412 -0.0040159486
0.0012934222 -0.001018505 -0.017973645 0.018663926 0.00926691 -0.0044146343 0.005519597 0.00088252686
0.020552648 0.0013647521 -0.005054858 -0.0025119705 -0.0028933983 0.0057493593 0.0077326046 -0.00033449245
-0.0009232432 -0.010104956 0.0022430334 -0.01839872 0.0013721635 -0.0027515346 -0.005307577 0.012450832
-0.006409826 -0.007825885 -0.0024288527 -0.0046292464 -0.010669564 0.007862182 -0.013158999 0.014404386
0.0002382488 -0.0014418903 -0.012497028 0.01716311 -0.00014439964 -0.008161333 0.0062296707 -0.00090250076
-0.0024293503 0.0021877422 0.025696436 -0.0036936519 -0.0125080375 0.0066494765 0.0017232795 -0.004550924
-0.0027364478 0.0070008035 -0.0024627417 -0.008655871 -0.008131346 -0.0036340405 -0.014558123 0.0020808543
-0.020452496 0.023570953 -0.004355307 0.009006056 -0.0044740844 -0.008716263 0.012251081 0.0039641852
0.0050030705 -0.014482887 -0.002934531 -0.0035910537 -0.014894574 0.002322369 -0.0054500927 -0.0020214894
0.0048880773 0.005129789 0.024937756 -0.00038433686 0.01813846 0.018719548 0.01010439 0.0032466538
-0.0052989344 0.006214257 -0.01686803 0.005470491 0.013146668 -0.001386752 0.0031777655 -0.007121199
-0.005950568 0.000403918 0.0008717193 -0.009807288 -0.0006340493 -0.0134640355 -0.0059060585 0.0029155207
-0.0031577006 0.015042457 0.0032575838 0.015302526 -0.0061312234 -0.0127647715 -0.004700088 -0.0040063076
-0.016230734 -0.013624245 -0.00791692 -0.005035028 0.0054973285 0.0061468296 -0.002378066 -0.005533805
0.006766207 -0.0010976949 -0.007192877 -0.0036877596 0.0092546 0.0009290389 -0.01848274 0.008561623
-0.011712424 -0.01271708 -0.013706927 -0.002916788 0.011451795 -0.005928547 0.006725386 -0.015164353
0.005953088 0.0073408405 0.0064419466 0.0013420852 -0.00772406 -0.0009469961 0.016993172 0.011217963

action_model._discrete_distribution.branches.0.bias f4 [7]
00000000: 0000 0000 0000 0000 0000 0000 0000 0000
00000010: 0000 0000 0000 0000 0000 0000
0.0 0.0 0.0 0.0 0.0 0.0 0.0

network_body._body_endoder.seq_layers.0.weight f4 [128, 195]
00000000: b1ee 1abd ec80 923d fb25 f439 61d8 d83c
00000010: 7bec 06bb cae5 80bd 8249 3c3d c108 a93c
00000020: a91d ccbd c7ac 82bc fef1 87bd 2d21 4fb9
00000030: 7c74 8f3d d088 54bd 1c76 393c cd7a ca3c
00000040: ded4 383e 1ca5 01bb 1cee ccbc 9b64 56bc
00000050: 2c5b 083e 57c7 95bd ae3e 6abc 7f68 2cbc
00000060: 5547 123d c4e9 773c 60a7 1cbe 526c c83b
00000070: 7768 6e3c 68aa 7bbd 1ce4 aabd c0c8 db3b
00000080: 15bc 9f3d d427 bfbc 3440 3e3d d2e7 a6bc
00000090: 0036 103e 5347 1b3d c978 92bd 651e 14bd
000000a0: ee44 a7bd bee2 f2bc 3411 483c a893 1ebc
000000b0: cba5 b03d 3142 9c3c 009e 6cbc 0ee7 a5bd
000000c0: 9d98 2a3c ad36 c5bd 8c56 a5bd 8da2 8a3c
000000d0: 86e9 10bd ffcc c23c 8431 673d f22d b13d
000000e0: 776d 01bd bcb9 25bd 9ab1 233d 957e 273d
000000f0: 7e89 cb3d 35b6 e3bc e60a a13d b009 0abd
00000100: 6739 c03c 8f41 803d 864e e03d f897 d13d
00000110: d6b1 47bd 45d6 31bc a1f7 3b3c 8b85 b0bc
00000120: db31 963c f2cc 133d 2534 2d3c 8891 50bd
00000130: fa30 e23d 0432 52bd 8322 693d 1716 0c3d
00000140: 9d1b 04be f2ec 02bd 2530 bc3d e53c 86bd
00000150: 4088 4bbb fef0 35bc 48c5 4ebd a556 febd
00000160: b2f3 b23d dd03 31bd efd5 463d 66a1 bfbd
00000170: dabd e8bc 2c46 29bd a02b 463d 32f9 43bb
00000180: 5581 a4bc 5e7b 23bb a3f0 05bb 0427 67bd
00000190: 4e75 82bc 7c11 87bd 931c b03d a73b 923d
000001a0: 5883 e9bc 4645 ef3c 5572 af3c ccac 8d3d
000001b0: 34dd 523d 49c0 8cbc bd6d b2bc 4300 653d
000001c0: cddb 2abe 4da6 d1bd b724 3d3e f4e0 5ebc
000001d0: 6d06 30bd 70a3 a7bd 5cbc 31bd 2d44 ae3d
000001e0: ef42 f93c abae f63d 827e 2bbd cfab 60bd
000001f0: 056f d0bb 942e 8b3d d167 bbbc 304b 96bd
00000200: 83ab 8cbc 4580 023e daf1 8d3c 0db1 11bc
00000210: 8409 b6bd aafa d4bd 5846 d73d ea56 e2bc
00000220: e007 01be 1032 77bd ce3a 273c 4742 d53b
00000230: 5ba9 a93d ae5a 1abc 1e9b cabd c2b9 333e
00000240: e292 e7bd 3f32 4e3d 78ed 90bd 4495 7cbd
00000250: 9a67 74bd 3772 56bd 540e f33c 83b6 0d3d
00000260: 2792 ce3d 1cb6 e93c 5acc 473d d1b2 643e
00000270: 36bd 39be d1bc c63d 93ad bebc 0f66 96bc
00000280: 70d8 bf3d 9bb5 91bd b63a 89bd 1a66 0a3d
00000290: 8508 db3d 9db2 a23d 8f38 dbbc 8294 b4bd
000002a0: 9047 9abc 61e9 3b3d 74a1 7e3d a62c 0b3c
000002b0: fb4f d7bb dea3 b6bc 6e07 abba 3c52 a53b
000002c0: b1c4 1ebd 2971 5f3d 1c58 98bd 1976 b3bd
000002d0: a02c 9a3c 91d8 f13d 1849 32bd 57d8 8e3d
000002e0: d0dc 92bb f6ce c93d f337 80ba acab 8ebd
000002f0: d2a9 d5bb f7cc dc3d 8919 b93c 0ca8 cd3c
00000300: 7993 b53d 673b b5bc 2a0f 3f3b 7a3b ed3c
00000310: 4296 c83d e624 9dbd e637 a3bd a791 e33b
00000320: cadd 003e ceed 94bd 417d 7e3d 7ab9 7ebd
00000330: 04e4 803b 6549 1abd ea5f 63bd 5ebf 743d
00000340: 5176 2cbd 0dce 12be 17b2 963d cad0 763d
00000350: 43ff 50bc 8c3c 1dbd 1129 bfbd f249 22bd
00000360: 34c7 9bbd b47e b0bd d1ea 6dba 90f8 093d
00000370: d3b7 003d 16e1 c93d 2604 2bbd 995d d4bc
00000380: 8ea7 793c 8be7 7cbd 66f4 263d 931b a0bd
00000390: a639 9c3d e3e8 e4bc 1dce 71be c445 1e3d
000003a0: 8447 babd 520c 273d fee8 823c 3ff5 de3d
000003b0: e00d 863d 17d8 44bd 1d94 a1bc 55e0 45bd
000003c0: ac9f a2bc bbfa a6bd 3527 f6bd a53b c83c
000003d0: a787 3dbe 289b 2fbd 3f8b 2abd 7bea 653c
000003e0: e7bf 48bc 72f8 163d 19f8 6d3d 22e4 63bd
000003f0: 5c0a 59bd 66db 80bd 41d7 84bc 6a8f 10be
-0.03782529 0.07153496 0.00046567604 0.026470365 -0.002058773 -0.06293829 0.04596854 0.020634057
-0.09966595 -0.015951527 -0.06637953 -0.00019753417 0.070046395 -0.051888287 0.011319663 0.02471676
0.18049952 -0.001978225 -0.025015883 -0.01308551 0.1331603 -0.07313412 -0.014297171 -0.010522961
0.03571256 0.015131418 -0.15298223 0.0061164284 0.014551274 -0.06144181 -0.0834429 0.006707281
0.07799546 -0.023334421 0.046447948 -0.020374212 0.140831 0.037909817 -0.07151944 -0.0361618
-0.08167444 -0.029649135 0.012211133 -0.009678759 0.086253725 0.019074531 -0.014441967 -0.08100711
0.010412362 -0.09629569 -0.08073148 0.016923213 -0.035378955 0.02377939 0.056443706 0.086513415
-0.031598534 -0.040460333 0.039964296 0.040892202 0.09938334 -0.027796844 0.07863407 -0.033700645
0.023464872 0.06262504 0.10952477 0.10234064 -0.048753582 -0.0108543085 0.011472614 -0.021548053
0.01833432 0.036084123 0.010571514 -0.05092004 0.11044498 -0.05131723 0.05691768 0.034200754
-0.12901159 -0.03196425 0.0918887 -0.065545835 -0.0031056553 -0.01110482 -0.05048111 -0.1241887
0.087378874 -0.043216575 0.048543867 -0.09356956 -0.02841084 -0.041326687 0.048381448 -0.002990317
-0.020081202 -0.0024945359 -0.002043762 -0.056433693 -0.015925076 -0.06595132 0.085992 0.07140284
-0.028505012 0.029207837 0.021416822 0.06917724 0.051480487 -0.017181532 -0.021780843 0.055908453
-0.1668541 -0.102367975 0.18471037 -0.013603438 -0.042974878 -0.0818547 -0.043392524 0.08509097
0.030427424 0.12045034 -0.041868694 -0.05485135 -0.006360891 0.067959934 -0.022876652 -0.0733856
-0.017171627 0.12744243 0.017327238 -0.00889231 -0.08888534 -0.10399373 0.10511464 -0.027629334
-0.1260066 -0.060350478 0.010206891 0.006508145 0.08284255 -0.009421034 -0.098928675 0.1755133
-0.113073125 0.050340887 -0.070765436 -0.06166579 -0.059669115 -0.052355018 0.029669918 0.034597885
0.1008647 0.02852922 0.04877887 0.22333838 -0.18138584 0.097039826 -0.023276126 -0.018359212
0.09367454 -0.071147166 -0.06700651 0.033788778 0.10694984 0.07944224 -0.026760368 -0.08817388
-0.018832952 0.045876864 0.062165692 0.008494532 -0.0065708137 -0.022294935 -0.0013048479 0.0050452035
-0.0387618 0.054551277 -0.074386805 -0.0876276 0.018820107 0.11808885 -0.04352674 0.06974857
-0.0044818893 0.09853928 -0.0009782299 -0.069663376 -0.0065204883 0.107812814 0.022595184 0.025104545
0.08866019 -0.022123052 0.0029153326 0.028959025 0.097942844 -0.076730534 -0.07969646 0.0069448533
0.12584606 -0.0727192 0.06213117 -0.062188603 0.0039334316 -0.03766765 -0.055511393 0.059752814
-0.042105023 -0.14336415 0.07358187 0.06025771 -0.012756172 -0.03838782 -0.09334005 -0.0396213
-0.07606354 -0.08617917 -0.0009075823 0.033684313 0.03142531 0.09857385 -0.041752003 -0.025923537
0.015237702 -0.061744254 0.04076042 -0.07817759 0.07628183 -0.02794308 -0.23613782 0.038640752
-0.09095672 0.040783234 0.01598024 0.10886621 0.06545615 -0.04805764 -0.019723946 -0.048309643
-0.019851528 -0.08153292 -0.12019197 0.024442503 -0.18508779 -0.042872578 -0.0416367 0.014032955
-0.012252784 0.03685803 0.058097932 -0.055637486 -0.052988395 -0.06291847 -0.016215922 -0.14117208

network_body._body_endoder.seq_layers.0.bias f4 [128]
00000000: 0000 0000 0000 0000 0000 0000 0000 0000
00000010: 0000 0000 0000 0000 0000 0000 0000 0000
00000020: 0000 0000 0000 0000 0000 0000 0000 0000
00000030: 0000 0000 0000 0000 0000 0000 0000 0000
00000040: 0000 0000 0000 0000 0000 0000 0000 0000
00000050: 0000 0000 0000 0000 0000 0000 0000 0000
00000060: 0000 0000 0000 0000 0000 0000 0000 0000
00000070: 0000 0000 0000 0000 0000 0000 0000 0000
00000080: 0000 0000 0000 0000 0000 0000 0000 0000
00000090: 0000 0000 0000 0000 0000 0000 0000 0000
000000a0: 0000 0000 0000 0000 0000 0000 0000 0000
000000b0: 0000 0000 0000 0000 0000 0000 0000 0000
000000c0: 0000 0000 0000 0000 0000 0000 0000 0000
000000d0: 0000 0000 0000 0000 0000 0000 0000 0000
000000e0: 0000 0000 0000 0000 0000 0000 0000 0000
000000f0: 0000 0000 0000 0000 0000 0000 0000 0000
00000100: 0000 0000 0000 0000 0000 0000 0000 0000
00000110: 0000 0000 0000 0000 0000 0000 0000 0000
00000120: 0000 0000 0000 0000 0000 0000 0000 0000
00000130: 0000 0000 0000 0000 0000 0000 0000 0000
00000140: 0000 0000 0000 0000 0000 0000 0000 0000
00000150: 0000 0000 0000 0000 0000 0000 0000 0000
00000160: 0000 0000 0000 0000 0000 0000 0000 0000
00000170: 0000 0000 0000 0000 0000 0000 0000 0000
00000180: 0000 0000 0000 0000 0000 0000 0000 0000
00000190: 0000 0000 0000 0000 0000 0000 0000 0000
000001a0: 0000 0000 0000 0000 0000 0000 0000 0000
000001b0: 0000 0000 0000 0000 0000 0000 0000 0000
000001c0: 0000 0000 0000 0000 0000 0000 0000 0000
000001d0: 0000 0000 0000 0000 0000 0000 0000 0000
000001e0: 0000 0000 0000 0000 0000 0000 0000 0000
000001f0: 0000 0000 0000 0000 0000 0000 0000 0000
0.0 0.0 0.0 0.0 0.0 0.0 0.0 0.0
0.0 0.0 0.0 0.0 0.0 0.0 0.0 0.0
0.0 0.0 0.0 0.0 0.0 0.0 0.0 0.0
0.0 0.0 0.0 0.0 0.0 0.0 0.0 0.0
0.0 0.0 0.0 0.0 0.0 0.0 0.0 0.0
0.0 0.0 0.0 0.0 0.0 0.0 0.0 0.0
0.0 0.0 0.0 0.0 0.0 0.0 0.0 0.0
0.0 0.0 0.0 0.0 0.0 0.0 0.0 0.0
0.0 0.0 0.0 0.0 0.0 0.0 0.0 0.0
0.0 0.0 0.0 0.0 0.0 0.0 0.0 0.0
0.0 0.0 0.0 0.0 0.0 0.0 0.0 0.0
0.0 0.0 0.0 0.0 0.0 0.0 0.0 0.0
0.0 0.0 0.0 0.0 0.0 0.0 0.0 0.0
0.0 0.0 0.0 0.0 0.0 0.0 0.0 0.0
0.0 0.0 0.0 0.0 0.0 0.0 0.0 0.0
0.0 0.0 0.0 0.0 0.0 0.0 0.0 0.0

network_body._body_endoder.seq_layers.2.weight f4 [128, 128]
00000000: 0dcd 813c fcd9 c0bc 42c0 45bc 37cd a33d
00000010: 7f79 5d3c e763 f6bd 8a6b 8dbd 0510 043d
00000020: 89ec 52bd ac65 59bd 7b71 023d 800a 88bd
00000030: af62 c5bd 5067 b53c 04fd 36be cbb1 503c
00000040: 4193 a8bd e2ed b03d 1b45 41bc 5822 743d
00000050: b7e0 083d 4dd6 8abd c7e8 653d 0845 82bd
00000060: 217f 02bd 93c8 2a3d 403c c03c 4cfe 59bd
00000070: 57b4 4cbd 731f e03c 0709 253d 1a61 adbd
00000080: 545d 713d 719c 433c bb60 0abd 07ef 2ebc
00000090: 1514 72bc 97dd e4bc a079 e53d 026e 443d
000000a0: 06cd a4bd 3f99 ea3d 774b 293e f7c3 d1bd
000000b0: c264 1ebe 5f9d f6bd 7f3e 1b3d defa f5bc
000000c0: dfb9 10bd b34d 6ebc c872 87be 5ff1 903d
000000d0: 2ed3 30bd 32a6 89bd b8c9 ad3d 7a3e a9bd
000000e0: 22bf 543b 6362 b7bc 08ba e2bd aae4 b4bd
000000f0: af6b cbbd af24 87bc fab2 053e 2d0c 0cbd
00000100: 9edb f3bc a58a 583d b4b1 11be 27a7 febc
00000110: e478 f03b 7472 d2bd 1e71 8bbc 536a ca3d
00000120: c5d0 643e 7a0e c1bd 0735 b3bd ac04 e0bc
00000130: c8eb 863d 2870 d93d dc39 efbd 8f59 d93d
00000140: 6e9f 30bd c9e1 3c3d 415e 5e3d 0bb9 313d
00000150: c945 c23a b6a7 37bc faf3 fa3d 348d 303d
00000160: 4927 bebd 5e2d f4bd b3a1 56bd 2fe6 993c
00000170: a923 213b 780a c8bd 8bd5 52bd ad96 cd3d
00000180: c269 febd 4b55 d4bd 9a28 463d 64fc 00be
00000190: 95e8 f53d 5909 84bc 822c 423c 938d 4abd
000001a0: 90ee 323c 6e82 223e 55de bbba 02dc 913c
000001b0: f258 8dbd 64fe 813d 323b 0bbe b742 a4bc
000001c0: c94c 22bd ae74 e23c c58b 98bd 0297 93bd
000001d0: 9f6c 48bc 7038 5fbb c951 43be 75ff 22bd
000001e0: a396 5f3c 724e 4cbd f5b3 c7ba cd1c 65bd
000001f0: 6e29 15bc bd0d adbc dc4f 5f3d 05ce 0fbe
00000200: 36bb 06be 7921 80bc fc9c 113e 575f 6e3b
00000210: 789f 6ebd cbe1 f2bd 08ef f6bc 540b 483d
00000220: b074 68bd f931 0b3d 89b3 99bc 622e bd3d
00000230: 99da 40bd 41dd e83b 5cd9 22be 0774 8c3c
00000240: e220 c63b 2aa6 9bbb 0a69 dcbb 33f0 b43d
00000250: f908 2cbd 8ec5 363e 1a1a ddbd cc01 77bb
00000260: 6251 0e3b d2cd 57be ea21 fdbd 6208 bdbc
00000270: 1188 4bbb 7229 893c 6f7e 293d e665 0dbc
00000280: ba06 1fbd d99d 8a3d 744c ae3d 3534 943d
00000290: 16b2 85bd 2e0c 253e 6f69 243e af25 a7bc
000002a0: a0f3 9abd ec01 b8bd a178 29bd be93 0ebd
000002b0: 3e6a cd3d 8134 3dbd 1724 11be f74e d23d
000002c0: 5306 77bd e6d9 ad3c c69b 993d 195a 52be
000002d0: f66f efbd 9e6f 1abe 0425 e63d 9a1e 8dbd
000002e0: 2159 ef3c b927 47be c140 a33b 922e 9b3c
000002f0: e279 4fbd dc30 cfbd 73ed 4fbc 232e 95bb
00000300: 3090 dc3d 1641 b5bc c34e a1bd 18f5 423d
00000310: 2e5f eb3d 3a2f 87bd 8abe 223e a9ff d0bd
00000320: a9af dcbd 7890 0dbd 754b 0b3d e991 87bd
00000330: e86a 82bd 8a8d f83d a24d bb3d 5f71 6dbe
00000340: 934d 553e 32d3 13bd 7213 df3c 434e f13d
00000350: ccdc 823d 179f 06be a001 173e 23a0 43bc
00000360: 0783 ed3c 70e3 e6bb 6b5e ef3d 1c39 93bd
00000370: 63a8 babd 85cc 07be 5e6d 8b3c c49a 3cbb
00000380: 5ea5 103c d8a8 36bd bc31 a43d c45b 6cbc
00000390: e481 68bd ddd8 bb3d 88af 233d 53eb 40be
000003a0: 2919 99bc 653b 1d3e 5b7f 563d 37dd 03bc
000003b0: 2558 9a3d 65a1 7bbd a51b 53bd 43e1 873d
000003c0: c16e ecbd f7c1 303e cd08 0a3d a40d a2bd
000003d0: c51f dbbc bdfb 1f3e a02d 4d3d 22e3 d2bd
000003e0: 9481 9d3d b837 78bd b3ca a6bc 4e94 4d3d
000003f0: e939 9cbd 200c cd3d 2ee4 08bd b8eb 29be
0.015844846 -0.023541443 -0.012069764 0.07998126 0.013517736 -0.120307736 -0.06905277 0.03224184
-0.05149511 -0.053075477 0.031846505 -0.06642628 -0.09637963 0.02214399 -0.17869955 0.012737702
-0.082312115 0.086391225 -0.011796261 0.059603065 0.03341743 -0.06779156 0.056130197 -0.06360823
-0.03185952 0.04169519 0.02346623 -0.053221032 -0.049976673 0.027358746 0.040291812 -0.08465786
0.058926895 0.011939154 -0.033783656 -0.010677106 -0.014775296 -0.027937694 0.11204839 0.047956474
-0.080469176 0.114550106 0.16532694 -0.102424555 -0.15468124 -0.12041735 0.037901398 -0.03002685
-0.03533351 -0.014544892 -0.2645476 0.07077288 -0.043170147 -0.06721152 0.084857404 -0.082638696
0.0032462557 -0.022385782 -0.11070639 -0.08832677 -0.099326484 -0.016496984 0.13056555 -0.0341913
-0.029767808 0.052866597 -0.14227945 -0.031085564 0.00733863 -0.102757365 -0.017021712 0.09883561
0.22345264 -0.09426589 -0.087503485 -0.027345978 0.065879405 0.10617095 -0.11680958 0.10612785
-0.043120794 0.046113763 0.054289106 0.04338936 0.0014821823 -0.011209419 0.12253566 0.04310341
-0.09284837 -0.119227156 -0.052400302 0.018786518 0.0024587906 -0.09767622 -0.05147318 0.10038505
-0.124225155 -0.10367831 0.048378564 -0.1259628 0.12007252 -0.016117739 0.011851432 -0.049451422
0.010921136 0.15870067 -0.0014333228 0.017805103 -0.069017306 0.06347349 -0.135968 -0.020051343
-0.03962401 0.027643528 -0.07448534 -0.07206537 -0.012232929 -0.003406074 -0.19074167 -0.039794404
0.013646754 -0.0498795 -0.0015236126 -0.05593567 -0.009104116 -0.021124715 0.05451952 -0.14043434
-0.13157353 -0.015640961 0.14220041 0.0036372745 -0.05825755 -0.11859473 -0.030143276 0.04883893
-0.056751907 0.033983205 -0.018762367 0.092373624 -0.04708347 0.0071064536 -0.15903229 0.01714517
0.0060464004 -0.004750033 -0.006726389 0.08834877 -0.042000744 0.17848799 -0.10795994 -0.003769028
0.0021715988 -0.21074608 -0.12359984 -0.023075286 -0.0031056444 0.016743395 0.041380342 -0.0086302515
-0.038824774 0.06768388 0.08510676 0.0723652 -0.06528108 0.16117927 0.16055845 -0.020403711
-0.07565999 -0.089847416 -0.041374806 -0.034808867 0.1003003 -0.04619265 -0.14173923 0.102689676
-0.060308766 0.021222066 0.075004146 -0.20542182 -0.11691277 -0.15081641 0.11237529 -0.068906024
0.029217305 -0.19448747 0.0049820845 0.018943105 -0.050653346 -0.10116741 -0.01269089 -0.004552619
0.10769689 -0.022125762 -0.07876351 0.04759702 0.114927635 -0.066008046 0.15892997 -0.10205013
-0.10775692 -0.034561604 0.03400751 -0.06619627 -0.06368047 0.121363714 0.09145667 -0.23187779
0.20830373 -0.036090083 0.027230952 0.11782505 0.0638977 -0.13146625 0.14746714 -0.011940035
0.028993143 -0.0070461556 0.11687931 -0.07188627 -0.091141485 -0.13261612 0.017019924 -0.002877877
0.008828489 -0.044594616 0.080172986 -0.0144261755 -0.0567645 0.09172223 0.03996232 -0.18839769
-0.018688755 0.15354688 0.05236755 -0.008048347 0.075363435 -0.061433215 -0.051540036 0.06634762
-0.11544562 0.17261492 0.0336998 -0.07912758 -0.026748547 0.15623374 0.05009234 -0.102972284
0.07690731 -0.060600013 -0.020360326 0.050190262 -0.07628233 0.10012078 -0.033420734 -0.16593826

network_body._body_endoder.seq_layers.2.bias f4 [128]
00000000: 0000 0000 0000 0000 0000 0000 0000 0000
00000010: 0000 0000 0000 0000 0000 0000 0000 0000
00000020: 0000 0000 0000 0000 0000 0000 0000 0000
00000030: 0000 0000 0000 0000 0000 0000 0000 0000
00000040: 0000 0000 0000 0000 0000 0000 0000 0000
00000050: 0000 0000 0000 0000 0000 0000 0000 0000
00000060: 0000 0000 0000 0000 0000 0000 0000 0000
00000070: 0000 0000 0000 0000 0000 0000 0000 0000
00000080: 0000 0000 0000 0000 0000 0000 0000 0000
00000090: 0000 0000 0000 0000 0000 0000 0000 0000
000000a0: 0000 0000 0000 0000 0000 0000 0000 0000
000000b0: 0000 0000 0000 0000 0000 0000 0000 0000
000000c0: 0000 0000 0000 0000 0000 0000 0000 0000
000000d0: 0000 0000 0000 0000 0000 0000 0000 0000
000000e0: 0000 0000 0000 0000 0000 0000 0000 0000
000000f0: 0000 0000 0000 0000 0000 0000 0000 0000
00000100: 0000 0000 0000 0000 0000 0000 0000 0000
00000110: 0000 0000 0000 0000 0000 0000 0000 0000
00000120: 0000 0000 0000 0000 0000 0000 0000 0000
00000130: 0000 0000 0000 0000 0000 0000 0000 0000
00000140: 0000 0000 0000 0000 0000 0000 0000 0000
00000150: 0000 0000 0000 0000 0000 0000 0000 0000
00000160: 0000 0000 0000 0000 0000 0000 0000 0000
00000170: 0000 0000 0000 0000 0000 0000 0000 0000
00000180: 0000 0000 0000 0000 0000 0000 0000 0000
00000190: 0000 0000 0000 0000 0000 0000 0000 0000
000001a0: 0000 0000 0000 0000 0000 0000 0000 0000
000001b0: 0000 0000 0000 0000 0000 0000 0000 0000
000001c0: 0000 0000 0000 0000 0000 0000 0000 0000
000001d0: 0000 0000 0000 0000 0000 0000 0000 0000
000001e0: 0000 0000 0000 0000 0000 0000 0000 0000
000001f0: 0000 0000 0000 0000 0000 0000 0000 0000
0.0 0.0 0.0 0.0 0.0 0.0 0.0 0.0
0.0 0.0 0.0 0.0 0.0 0.0 0.0 0.0
0.0 0.0 0.0 0.0 0.0 0.0 0.0 0.0
0.0 0.0 0.0 0.0 0.0 0.0 0.0 0.0
0.0 0.0 0.0 0.0 0.0 0.0 0.0 0.0
0.0 0.0 0.0 0.0 0.0 0.0 0.0 0.0
0.0 0.0 0.0 0.0 0.0 0.0 0.0 0.0
0.0 0.0 0.0 0.0 0.0 0.0 0.0 0.0
0.0 0.0 0.0 0.0 0.0 0.0 0.0 0.0
0.0 0.0 0.0 0.0 0.0 0.0 0.0 0.0
0.0 0.0 0.0 0.0 0.0 0.0 0.0 0.0
0.0 0.0 0.0 0.0 0.0 0.0 0.0 0.0
0.0 0.0 0.0 0.0 0.0 0.0 0.0 0.0
0.0 0.0 0.0 0.0 0.0 0.0 0.0 0.0
0.0 0.0 0.0 0.0 0.0 0.0 0.0 0.0
0.0 0.0 0.0 0.0 0.0 0.0 0.0 0.0

value_heads.value_heads.extrinsic.weight f4 [1, 128]
00000000: 70e5 583d bc74 cf3d f233 48be 00ba eb3a
00000010: 48b9 143e 0b9a d7bd 669b 3b3e 7855 8abc
00000020: f045 25bd 383c f7bc 08ec fe3c 08d9 523d
00000030: d850 b8bd ec9d 42be 53c4 cdbd 4033 053d
00000040: de38 57be 842d b63d 5e8a c7bd 7c9f ee3d
00000050: 0ea0 173e d996 27be eca2 32be 0c51 503e
00000060: b858 17bd 48e3 38bd 69ce ccbd 98a8 f63d
00000070: dcc2 083e 14c7 44bd dd56 19be f8d9 c3bd
00000080: 029b 223e 6426 813d 6064 70bc 868b 383e
00000090: e6b8 383e ca14 4c3e b462 4e3e 167e 073e
000000a0: f839 02be 68d4 4a3d 4218 b3bd dc0c 303e
000000b0: 581f e8bc aad0 cebd ae2e 4f3e 8abf 4f3e
000000c0: 8038 703c 6c84 073e 30f2 ca3d bc8c d3bd
000000d0: 42d1 323e 2e63 b0bd 8865 b23d 7cac 40bd
000000e0: 5c5a ce3d 719c 23be 6d79 57be aaa6 90bd
000000f0: 3c85 d83d 3c13 3a3e 9875 ab3c ae10 1bbe
00000100: b096 bd3d c067 513c 3add 4ebe 6c95 5bbe
00000110: 9ed3 90bd 9c01 50bd 302c 06bd d04a d43d
00000120: 100c 5a3d 4a2d 2abe eeca 51be 105b fb3d
00000130: 20f6 393c 00b0 eb3d 082a 993c 085a ba3d
00000140: 187c ad3d e01e 4e3d 94d5 2abd 0c4e cfbd
00000150: c0a4 afbb 0f3a 53be e8e4 77bd f838 ac3d
00000160: 421a 16be 4054 b63d 8491 04be 78eb 573d
00000170: 3b61 e7bd 7004 8cbd 70f3 5dbd 2e1e 203e
00000180: d02a 4bbe 24a4 0abe 50c1 463c fc3b cc3d
00000190: 48e9 793d 00cd 76bd 0af8 433e 5e3c 013e
000001a0: 9457 03be 1a87 2f3e 600e 60bd ad61 2dbe
000001b0: 801c 073b 5860 12bd c0cb a4bd f035 bfbc
000001c0: e832 353e 92b5 153e 6828 3ebe 0894 83bd
000001d0: 10fb 653c c03c f1bb 4431 0ebe 2a1b fabd
000001e0: 4085 77bc 404b 68bb a847 7dbd 7c43 203e
000001f0: 30b5 c53c 2027 193d c09e 3d3c ac77 35be
0.052953184 0.10129687 -0.19551066 0.001798451 0.14523804 -0.10527428 0.18320999 -0.016886458
-0.0403499 -0.030180082 0.031118408 0.05147651 -0.08999795 -0.19005555 -0.100472115 0.03251958
-0.21017787 0.088954 -0.09743188 0.11651513 0.1480715 -0.16366138 -0.17444962 0.20343417
-0.036949843 -0.045138627 -0.10000307 0.120438755 0.13355583 -0.04804142 -0.14974542 -0.095630586
0.15879443 0.063061506 -0.014672369 0.18021974 0.18039283 0.19929805 0.2015484 0.13231692
-0.12717426 0.049518973 -0.08744861 0.17192405 -0.028335258 -0.10098393 0.2023265 0.2028791
0.014661908 0.13234109 0.09909475 -0.10329577 0.17462638 -0.08612667 0.08710772 -0.047039494
0.100758284 -0.15977646 -0.21042414 -0.07063039 0.105722874 0.181714 0.020930097 -0.15143082
0.09257257 0.012781084 -0.20201579 -0.21443719 -0.07071613 -0.050782785 -0.032756984 0.10365832
0.05323416 -0.16618839 -0.20487568 0.12273228 0.011350185 0.11508179 0.0186968 0.09099203
0.08470935 0.050322413 -0.04170759 -0.10122308 -0.005360216 -0.20627616 -0.060521036 0.084093034
-0.14658454 0.08902788 -0.12946135 0.052714795 -0.11297842 -0.06836784 -0.05418724 0.15636513
-0.1984055 -0.13539177 0.01213105 0.099723786 0.06101349 -0.060254097 0.19137588 0.12620685
-0.12826377 0.17141381 -0.05470121 -0.16931792 0.0020616353 -0.03573641 -0.08046675 -0.02334115
0.176952 0.14620045 -0.18570101 -0.06424719 0.014036909 -0.0073619783 -0.13885981 -0.122122124
-0.015107453 -0.0035445243 -0.061835915 0.15650743 0.024134248 0.037390828 0.0115734935 -0.17721432
