CCP-main/results/WeightAgent_Training/WeightAgent_Training/WeightAgent_Training-26999957.onnx (onnx, 174256 bytes, 6 tensors)

network_body._body_endoder.seq_layers.0.weight f4 [128, 199]
0	0x3df13f17	0.117796116
1	0x3d1053f9	0.035236333
2	0x3d9a012c	0.07519755
3	0xbc6051e6	-0.013691401
4	0xbe80b8ab	-0.2514089
5	0x3eb68beb	0.35653624
6	0x3e227147	0.15863524
7	0xbd2b5823	-0.0418321
8	0x3d31a2b8	0.04336807
9	0xbdca76db	-0.09885951
10	0x3d5eea83	0.054422867
11	0x3ea89c23	0.32931623
12	0x3e31cb75	0.17362769
13	0xbd903062	-0.07040478
14	0x3d9866c9	0.0744148
15	0xbdbc741c	-0.092018336
16	0x3c118809	0.008882531
17	0x3e91b7b6	0.28460473
18	0x3ce301a3	0.027710741
19	0x3d269dea	0.040677942
20	0xbd94376a	-0.07237132
21	0xbd66bd8d	-0.056333113
22	0x3d9a03db	0.075202666
23	0x3e582546	0.21107969
24	0x3d79c219	0.06097612
25	0xb952c2fb	-0.00020099797
26	0x3dd35bdb	0.103202544
27	0xbe4f124b	-0.20221822
28	0xbd8bdc1b	-0.06829091
29	0x3e0b54dd	0.13606592
30	0xbdfa8b27	-0.122335725
31	0x3ddaf928	0.10692054
32	0xbdfde49e	-0.12397121
33	0x3cc80478	0.024416193
34	0x3d57686d	0.052589823
35	0x3dcb8731	0.09937895
36	0x3d530b2a	0.05152432
37	0xbce01f68	-0.027358726
38	0xbdb6d04d	-0.08926449
39	0x3da9b699	0.08286781
40	0x3bf31a22	0.0074188868
41	0x3eb05fa9	0.34447983
42	0xbd8c6104	-0.06854442
43	0xbca09164	-0.019600578
44	0xbdf0097b	-0.11720558
45	0x3dc9c132	0.09851302
46	0xbc7d83bb	-0.0154733015
47	0x3e845e84	0.2585336
48	0x3d1681b4	0.03674479
49	0xbd978af5	-0.07399551
50	0xbdd1c7c9	-0.10243184
51	0x3e8a3672	0.26994663
52	0x3deb502a	0.114898995
53	0x3df580eb	0.1198748
54	0x3bbb2f0a	0.0057123946
55	0x3c58d295	0.0132338
56	0xbdbdf119	-0.09274501
57	0x3ded894d	0.11598454
58	0x3e53ed0b	0.20695893
59	0x3d79b2fa	0.0609617
60	0x3dd2104c	0.10257015
61	0xbdc6fc67	-0.09716111
62	0xbe9ab4d3	-0.30216083
63	0x3e284550	0.1643269
64	0x3e3814d4	0.17976695
65	0x3e3fd4c9	0.18733515
66	0x3d780783	0.06055404
67	0xbcc628de	-0.024189409
68	0xbe7047c6	-0.2346488
69	0x3dad6ad9	0.08467645
70	0xbc0788f0	-0.008272395
71	0x3df378d7	0.11888283
72	0x3d17e0f1	0.037079755
73	0xbd148d3c	-0.036267504
74	0xbe2cb296	-0.16865
75	0x3c880f4e	0.01660886
76	0x3d6db373	0.058032464
77	0x3da41126	0.08011083
78	0x3c429748	0.011876889
79	0x3d4dc37f	0.050235268
80	0xbe81d62f	-0.25358722
81	0x3e79876f	0.2436807
82	0xbdb20947	-0.08693176
83	0x3da1cc44	0.07900289
84	0x3d9e835f	0.07739901
85	0x3c96b650	0.01839748
86	0xbe6cb740	-0.2311678
87	0x3e0b1e9a	0.13585892
88	0xbdc42229	-0.09576828
89	0x3e170700	0.14748764
90	0xbe11668e	-0.14199278
91	0x3e224e85	0.15850265
92	0xbdcfb330	-0.10141599
93	0x3a4f7f0a	0.00079153536
94	0x3dd93edc	0.106076926
95	0x3dcac7a7	0.09901362
96	0xbde19b84	-0.110159904
97	0x3d07683b	0.033058386
98	0xbd5162df	-0.05111968
99	0x3d051c3a	0.032497622
100	0xbd961c0c	-0.07329568
101	0xbd2e7785	-0.04259445
102	0xbdc7799c	-0.09739992
103	0x3e2d5b27	0.16929303
104	0xbe22a472	-0.15883043
105	0x3e036ecf	0.12835239
106	0xbd98a90d	-0.07454119
107	0x3da63246	0.08115058
108	0xbdc0a369	-0.09406168
109	0xbc89d69d	-0.016825968
110	0xbd0b4747	-0.034003522
111	0x3d49096a	0.049081244
112	0x3e1a377e	0.15060231
113	0xbcb0b77d	-0.021571869
114	0xbdc84540	-0.097788334
115	0xbcb9e91a	-0.02269416
116	0xbd22aba7	-0.03971448
117	0x3d6e8d58	0.058240265
118	0x3dc5fb33	0.09667053
119	0xbdd2434a	-0.102667406
120	0xbcc48a37	-0.023991687
121	0xbc853ef6	-0.016265374
122	0xbe32dcbd	-0.17467017
123	0x3e10323c	0.14081663
124	0x3d4c8bcc	0.04993801
125	0x3b70be61	0.0036734568
126	0x3d562281	0.052279
127	0x3cede134	0.02903805
128	0x3cb76a40	0.022389531
129	0x3d747257	0.059679355
130	0x3d6a599f	0.057214376
131	0xbd672959	-0.056435917
132	0xbda2a04c	-0.079407305
133	0x3e220f4f	0.15826152
134	0xbe1af783	-0.1513348
135	0x3ce33590	0.027735502
136	0xbd568734	-0.052375033
137	0xbd88185c	-0.06645271
138	0xbdb2d526	-0.08732061
139	0xbda518da	-0.08061381
140	0x3cefd3be	0.029275771
141	0x3e6dc0fe	0.23218152
142	0x3d2e6d46	0.04258468
143	0xbe1e12ed	-0.15436907
144	0xbc146bc1	-0.009058894
145	0x3d2fca77	0.042917695
146	0xbcbd35e3	-0.023096984
147	0x3d4e0ae6	0.050303362
148	0xbd71f592	-0.059072085
149	0xbd97f056	-0.07418887
150	0xbc597b7c	-0.01327407
151	0x3bb51690	0.0055263713
152	0xbda5d892	-0.08097948
153	0x3d4fda4d	0.050745297
154	0xbda39018	-0.07986468
155	0x3d57926c	0.052629873
156	0x3d32b042	0.043625124
157	0xb990b158	-0.00027597952
158	0xbdfef971	-0.12449921
159	0x3d3a0e62	0.045423873
160	0x3db1f8ca	0.08690031
161	0x3d34465d	0.044012416
162	0xbba616ff	-0.0050686593
163	0xbdc76eaf	-0.09737908
164	0xbe58f330	-0.21186519
165	0x3dc3d2c5	0.095616855
166	0xbd9194ee	-0.07108484
167	0x3dac8f3b	0.084257565
168	0x3d9accf2	0.075586215
169	0x3c10ea43	0.008844915
170	0x3c753788	0.014966853
171	0x3e1921ed	0.14954348
172	0xbda8df65	-0.08245734
173	0x3b32d1b0	0.0027285628
174	0xbc009c6c	-0.007849794
175	0xbcd2de1f	-0.025740681
176	0xbc42880f	-0.011873259
177	0x3dcdf71c	0.10056898
178	0x3e2f91aa	0.1714541
179	0xbe2f22c4	-0.17103106
180	0x3c8be934	0.017078973
181	0x3c550ac3	0.013003054
182	0x3dcb65b9	0.099315114
183	0x3e23977c	0.15975755
184	0x3d9396aa	0.07206471
185	0xbb12aa64	-0.0022379393
186	0xbe0329a6	-0.12808856
187	0xbd287495	-0.041126806
188	0xbc9f459b	-0.01944237
189	0x3c35fa84	0.011107091
190	0x3d22e94d	0.039773274
191	0x3c9a63fd	0.018846506
192	0xbd68af79	-0.05680797
193	0xbda2fc23	-0.079582475
194	0xbdac5be7	-0.084159665
195	0x3e651a95	0.22373421
196	0xbe57c8ea	-0.21072736
197	0x3dc541d4	0.09631696
198	0xbe41d1b9	-0.18927659
199	0x3d827804	0.063705474
200	0x3c7e6cb5	0.015528847
201	0xba495e99	-0.00076816377
202	0xbe56ac62	-0.20964196
203	0xbe287835	-0.16452105
204	0x3e3cbf2a	0.18432298
205	0xbe52ad3c	-0.20573896
206	0x3e44b1f2	0.19208506
207	0xbdddb38c	-0.108252615
208	0xbd3c7ffa	-0.046020485
209	0xbb816bb7	-0.003949608
210	0x3e5d1b91	0.21592547
211	0x3d041a9d	0.032251943
212	0xbd8b5f43	-0.06805279
213	0x3e74a1e4	0.23889881
214	0xbe5c94a2	-0.21541074
215	0xbd058fe5	-0.03260793
216	0x3e1e6b53	0.15470628
217	0xbe295e2a	-0.16539827
218	0x3e256b30	0.1615417
219	0xbcc669fd	-0.024220461
220	0xbdd38662	-0.10328366
221	0x3cf25e31	0.02958593
222	0x3daebaec	0.08531746
223	0xbddfe8a8	-0.109330475
224	0x3d87ec2f	0.06636845
225	0xbc4d77ac	-0.012540739
226	0xbd9433d7	-0.0723645
227	0xbe1950b8	-0.14972198
228	0x3d871a81	0.06596852
229	0x3e18b1b3	0.14911537
230	0x3e3c7794	0.1840499
231	0xbdddb5b2	-0.10825671
232	0xbd2d88ca	-0.04236678
233	0x3d662e7d	0.05619668
234	0xbcc49096	-0.023994725
235	0xbdeced89	-0.11568744
236	0x3dcba97b	0.09944435
237	0xbda02133	-0.07818832
238	0x3d11f4ec	0.035633966
239	0xbd25a4fc	-0.040440544
240	0x3dd8bb92	0.10582651
241	0xbdc6d3e1	-0.097083814
242	0x3dec4b6b	0.11537822
243	0xbdcfcf5a	-0.10146971
244	0xbca6058d	-0.020266319
245	0xbd9f24a8	-0.077706635
246	0x3dbe17ba	0.09281869
247	0xbc865acb	-0.016400715
248	0xba09a668	-0.0005250932
249	0x3d045ab8	0.03231308
250	0x3e442f6e	0.19158718
251	0x3d24c324	0.040225163
252	0xbd3bb0c8	-0.04582289
253	0xbd8b03e2	-0.0678785
254	0x3d387315	0.045031626
255	0x3d8565f6	0.06513588

network_body._body_endoder.seq_layers.0.bias f4 [128]
0	0x3c28d883	0.010305527
1	0xbd4a5323	-0.04939569
2	0xbd82a663	-0.06379392
3	0xbd638405	-0.055545826
4	0xba0bd4a8	-0.00053341174
5	0x3a04fc31	0.000507298
6	0xbbaf91eb	-0.005357971
7	0x3cf7659f	0.030199824
8	0xbc1c58bb	-0.009542639
9	0xbc8a0fe9	-0.01685329
10	0xbca04c7c	-0.01956772
11	0xba30dc08	-0.00067466544
12	0x3ca8451d	0.020540768
13	0xbd9e5848	-0.07731682
14	0xbc008d75	-0.007846226
15	0x3d7b3aa8	0.061335236
16	0x3d1e32d5	0.038622696
17	0x3d9cf4a2	0.076638475
18	0xbaa6d9aa	-0.0012729664
19	0xbc371f88	-0.011176951
20	0x3b824b7a	0.0039762827
21	0x3d06cdd7	0.032911148
22	0x3dc3cf96	0.09561078
23	0xbbdf39fc	-0.006812332
24	0x3cabf3c5	0.020990262
25	0x3d1b6290	0.037935793
26	0xbc912e65	-0.017722318
27	0xbc97104e	-0.018440392
28	0x3cb2c53b	0.021822562
29	0x3a98a593	0.0011646025
30	0x3d95a752	0.073073044
31	0x3d194a83	0.037424576
32	0x3d32bf97	0.043639746
33	0x3c3735dc	0.011182275
34	0x3d315bcf	0.043300446
35	0xba6c12af	-0.00090054696
36	0x3d1108f8	0.035408944
37	0x3cdc2e1f	0.026877461
38	0xbd863be9	-0.06554396
39	0xbd32ea2a	-0.043680348
40	0xbc3f470f	-0.0116746565
41	0x3d0e0e2f	0.034681495
42	0x3ca31f3b	0.019912353
43	0x3d8c1012	0.06839003
44	0x3d2fe4f1	0.042942945
45	0x3a01bb96	0.0004948912
46	0x3b439160	0.002984129
47	0x3d43c50d	0.047795344
48	0x3c5deb94	0.013544936
49	0xba54cb49	-0.000811745
50	0x3da10bc9	0.07863576
51	0x3d248487	0.04016545
52	0x3c71638d	0.014733207
53	0xbd0acd7b	-0.033887368
54	0x3d5a55f5	0.05330463
55	0x3c1dda09	0.009634503
56	0x3c5f2fe0	0.013622254
57	0xbcb69d22	-0.022291724
58	0x3d70755a	0.058705665
59	0x3cd5d73e	0.026103612
60	0xbc8e6b11	-0.017385038
61	0x3cdf36ae	0.027247753
62	0x3d4047c0	0.046943426
63	0x3d14113f	0.03614926
64	0x3a1504ee	0.00056846335
65	0xbc3a4ccb	-0.011370848
66	0xbcab04c4	-0.020876296
67	0x3bc7d26e	0.006098083
68	0x3c5467d1	0.012964205
69	0x3c36d7fd	0.011159894
70	0xbd9c8b80	-0.07643795
71	0x3d1ab891	0.037773672
72	0xba35d856	-0.00069368386
73	0x3bd78a14	0.0065777395
74	0xbcca9475	-0.024728993
75	0x3d0d5f31	0.03451461
76	0xbdbfed32	-0.09371413
77	0xbce9bd32	-0.028532598
78	0xbb278667	-0.0025562288
79	0x3cad7f4d	0.021178866
80	0x3ce93049	0.028465407
81	0xbc9ce8b0	-0.019153923
82	0xbca37c2f	-0.019956676
83	0xbd10af3a	-0.03532336
84	0x3c712404	0.014718059
85	0xbc229922	-0.009924205
86	0x3d3bc267	0.045839693
87	0x3d08d0a5	0.033402104
88	0x3d5fa089	0.054596458
89	0x3af84aaf	0.0018943156
90	0x3d4dcf0c	0.050246283
91	0xbaefbc9a	-0.001829046
92	0x3c2ad8ec	0.010427695
93	0x3c040cdf	0.008059709
94	0xbdc78a41	-0.09743167
95	0x3c3af304	0.0114104785
96	0x3c311c5b	0.010809983
97	0x3ccfc385	0.025361786
98	0x3cfebb76	0.031095248
99	0x3ba83caf	0.005134187
100	0x3bf959ee	0.0076095974
101	0x3cbe546a	0.023233611
102	0x3bebf026	0.007200259
103	0x3c27245e	0.010201542
104	0xbcdecf5b	-0.027198484
105	0x3c9c44e6	0.019075822
106	0x3d6c6b0c	0.057719275
107	0xbd56af42	-0.052413233
108	0xbc948713	-0.018130815
109	0x3d255609	0.040365253
110	0xbccbdc5d	-0.02488535
111	0x3d7274b4	0.059193328
112	0x3c8270b7	0.015922887
113	0x3c90b3bc	0.017663829
114	0xbb2dbf23	-0.0026511631
115	0x3ce6e94f	0.028187422
116	0x3d716358	0.058932632
117	0xbd44138d	-0.047870208
118	0x3d1b930f	0.037982043
119	0x3c818f1b	0.015815308
120	0xbc9523d6	-0.018205564
121	0x3be3d71e	0.006953134
122	0x3d3e8603	0.046514522
123	0x3c38cc16	0.011279127
124	0x3c9b6b3f	0.018972037
125	0xbad714c4	-0.0016409387
126	0x3d9c6815	0.076370396
127	0x3d56cff7	0.052444424

network_body._body_endoder.seq_layers.2.weight f4 [128, 128]
0	0x3d4a532c	0.049395725
1	0xbdf18d81	-0.11794568
2	0xbd80c87a	-0.06288238
3	0x3defc62b	0.117077194
4	0xbd61cd73	-0.055127572
5	0x3e0f2140	0.13977528
6	0xbdfe511b	-0.124178134
7	0x3c3ec214	0.0116429515
8	0xbe04936c	-0.12946862
9	0x3c9a021c	0.018799834
10	0xbdbc8012	-0.09204115
11	0xbdf07ab9	-0.117421575
12	0x3d8b4573	0.06800356
13	0x3c9b76bb	0.018977514
14	0xbca9f9e1	-0.020749034
15	0x3e5f9a74	0.21836263
16	0x3d697e6d	0.057005335
17	0x3e9988da	0.29987222
18	0x3e16f66c	0.1474244
19	0xbd2991c4	-0.04139878
20	0x3e6d7563	0.2318931
21	0xbe383c9b	-0.17991869
22	0x3d9b483c	0.07582137
23	0xbd492be2	-0.049114116
24	0xbe01043d	-0.12599273
25	0xbcafda35	-0.021466354
26	0x3cf7cb28	0.03024824
27	0x3db9b85f	0.09068369
28	0x3e04ec08	0.12980664
29	0xbdc11d08	-0.094293654
30	0x3d988b90	0.074484944
31	0xbdef494a	-0.11683901
32	0xbd5ee877	-0.054420915
33	0xbde58e36	-0.11208765
34	0x3e054a78	0.13016689
35	0xbd0ec127	-0.034852173
36	0x3ecf600a	0.4050296
37	0x3cb89f38	0.022536859
38	0x3d21b3ea	0.03947822
39	0x3e007a57	0.12546669
40	0xbdef5e73	-0.11687937
41	0x3bb8d8ed	0.005641094
42	0x3b2396ea	0.0024961778
43	0xbe94362a	-0.28947574
44	0x3baf95ce	0.0053584343
45	0x3dc30396	0.09522168
46	0x3c69ba0b	0.0142655475
47	0x3e8c5425	0.27407947
48	0x3dda37ac	0.1065515
49	0x3e490da6	0.19634113
50	0xbdf8e5ab	-0.12153181
51	0xbdf8661e	-0.12128852
52	0x3db52934	0.088457495
53	0xbe00f7c6	-0.12594518
54	0xbd67a30d	-0.05655198
55	0x3e9cac95	0.3060042
56	0xbea0f6de	-0.31438345
57	0x3e048282	0.1294041
58	0x3e138b51	0.14408614
59	0xbd908020	-0.07055688
60	0xbc875298	-0.016518876
61	0xbe89cba0	-0.26913166
62	0xbe053938	-0.13010108
63	0xbde98547	-0.11402374
64	0xbc92cbb1	-0.017919393
65	0x3d3ab631	0.045583908
66	0x3d842f0e	0.064542875
67	0xbde232eb	-0.11044868
68	0xbe1fae9c	-0.15593952
69	0xbdc58108	-0.096437514
70	0xbdf8c418	-0.12146777
71	0x3d8fe320	0.070257425
72	0x3cfdb5c0	0.030970454
73	0xbd64af0a	-0.055830993
74	0xbabfc1a0	-0.0014629848
75	0xbe38f18a	-0.1806089
76	0xbe91d3a2	-0.28481776
77	0xbd8b4a3e	-0.0680127
78	0xbe129621	-0.14315082
79	0x3cc332a5	0.02382786
80	0x3e1fd007	0.156067
81	0x3e3112ba	0.172923
82	0x3e68f37a	0.22749129
83	0x3d82e441	0.06391192
84	0x3e899c18	0.26876903
85	0x3df43744	0.119246036
86	0xbd9a23bd	-0.07526348
87	0x3db9a048	0.09063774
88	0xbd99c067	-0.07507401
89	0xbdbc86a2	-0.09205367
90	0x3ce9a305	0.028520117
91	0x3dc7e885	0.097611465
92	0xbd1ffed1	-0.03906137
93	0x3b951487	0.004549566
94	0xbdf9fafc	-0.122060746
95	0x3db48b92	0.088156834
96	0xbc82a9a7	-0.015950037
97	0x3e89fc1b	0.26950154
98	0xbe172f2d	-0.1476409
99	0xbde16fd1	-0.110076554
100	0x3e16f5a3	0.1474214
101	0xbe5eb735	-0.21749575
102	0xbc1dc950	-0.009630516
103	0xbd6f6532	-0.058446117
104	0xbc0dee29	-0.008662739
105	0x3e2c20bf	0.16809367
106	0xbe09b326	-0.13447246
107	0xbd3f4c31	-0.04670352
108	0x3d568c10	0.052379668
109	0x3e4e201e	0.20129439
110	0xbe18e8c9	-0.1493255
111	0x3cfcae2f	0.030844776
112	0x3d8fae64	0.07015684
113	0x3db571fc	0.088596314
114	0x3d8e8d0a	0.06960495
115	0xbc766c7c	-0.015040513
116	0xbd96f16a	-0.07370265
117	0x3c1f24fa	0.009713406
118	0x3e309f12	0.1724818
119	0xbdfd5072	-0.12368859
120	0xbde38406	-0.11109166
121	0x3e7680c9	0.24072565
122	0xbdccdd91	-0.10003198
123	0x3c197657	0.009366593
124	0xbdbc1b2f	-0.09184872
125	0xbc4bd4f1	-0.012440906
126	0xbdd0f41b	-0.102028094
127	0x3df28e87	0.11843591
128	0xbda981c3	-0.08276703
129	0xbc6f397f	-0.0146011105
130	0xbd04cf52	-0.03242428
131	0xbe0d04e6	-0.137714
132	0xbe364bae	-0.17802307
133	0x3d8fb015	0.07016007
134	0x3c9093d0	0.017648607
135	0x3e2c823a	0.16846552
136	0xbdfd64ad	-0.12372718
137	0x3db436a6	0.08799486
138	0xbe3d94a6	-0.18513736
139	0xbe81fb27	-0.25386927
140	0xbbdc7a98	-0.0067284815
141	0xbe06020b	-0.13086717
142	0xbc6cef8e	-0.014461411
143	0x3c3ce121	0.011528284
144	0xbdbe915a	-0.09305067
145	0xbe2d7e5d	-0.16942735
146	0x3dc4f2fa	0.096166566
147	0xbed26a2b	-0.41096625
148	0x3d5098bd	0.050926913
149	0x3c2b9c37	0.010474256
150	0x3de76702	0.11298944
151	0x3de4bff7	0.11169427
152	0x3cdf7c57	0.02728097
153	0xbd9ad13a	-0.07559438
154	0xbd2359a9	-0.03988043
155	0x3bb24fd6	0.005441646
156	0xbd03ef93	-0.032210898
157	0x3dbf0f16	0.09329049
158	0xbe07119b	-0.1319031
159	0xbdd1af2d	-0.1023849
160	0x3e6bce52	0.23027924
161	0xbc0b0b34	-0.008486558
162	0x3d00bc5c	0.031429633
163	0x3deffd83	0.117182754
164	0xbde93fcf	-0.11389124
165	0x3e0ec230	0.13941264
166	0x3e08bc3c	0.13353056
167	0xbc9b4600	-0.018954277
168	0x3e3a5bd2	0.18199089
169	0x3e134772	0.14382723
170	0xbe904e27	-0.28184626
171	0xbe0e4b96	-0.13896021
172	0x3e24064a	0.16018024
173	0xbde3e410	-0.11127484
174	0xbb90baaa	-0.0044167833
175	0x3df2b8a7	0.11851626
176	0x3db1dc3b	0.08684584
177	0xbdee079e	-0.116225466
178	0xbd07a51f	-0.033116456
179	0x3d0e9b71	0.03481621
180	0x3d72efa8	0.059310585
181	0xbcfc666d	-0.03081056
182	0x3dd0e213	0.1019937
183	0x3cd79fff	0.02632141
184	0xbe9d22c6	-0.30690593
185	0xbceda718	-0.02901034
186	0x3b836e6a	0.004010965
187	0x3d2a2491	0.04153878
188	0xbe87a267	-0.2649109
189	0xbe0ca927	-0.13736401
190	0xbe18c79a	-0.14919892
191	0xbe94c72f	-0.29058215
192	0x3d88120e	0.06644069
193	0xbcc80210	-0.024415046
194	0x3e7dbe46	0.24779615
195	0x3b98e3ad	0.004665813
196	0xbe344f9a	-0.1760849
197	0xbdf7a7e6	-0.12092571
198	0x3e132cd2	0.14372566
199	0xbe6729c4	-0.22574526
200	0x3de1429c	0.10999033
201	0xbdeacdf4	-0.11465064
202	0x3e398763	0.18118052
203	0xbe2cfad5	-0.1689256
204	0xbc9822ad	-0.018571222
205	0x3d08fe3e	0.03344559
206	0xbe781d51	-0.24229933
207	0xbe10c0da	-0.14136067
208	0x3e0281c0	0.12744808
209	0xbd5ed368	-0.05440083
210	0xbe4cb6f3	-0.19991665
211	0xbd874927	-0.066057496
212	0x3e5fedc5	0.21868046
213	0x3df27221	0.118381746
214	0x3dcb741b	0.09934255
215	0x3d678633	0.056524467
216	0xbe15fab7	-0.14646421
217	0xbe5bccea	-0.21464887
218	0x3dcdb244	0.10043767
219	0x3dc5c2be	0.09656285
220	0xbe3c3118	-0.18378103
221	0x3c88c477	0.016695244
222	0xbd79618a	-0.060884036
223	0x3b265053	0.0025377467
224	0xbdcc8e5b	-0.0998809
225	0xbdb70356	-0.08936183
226	0xbe269bdb	-0.16270392
227	0xbdd65d81	-0.10467053
228	0xbb2b9dfe	-0.00261867
229	0x3c9a9412	0.018869434
230	0xbe1e4df0	-0.15459418
231	0xbd9e0497	-0.07715719
232	0xbdca28fb	-0.09871098
233	0xbdb78805	-0.089614905
234	0xbd9f0948	-0.07765442
235	0xbe1a0e8e	-0.15044615
236	0x3e273358	0.1632818
237	0x3df6d76a	0.12052806
238	0x3d6d4851	0.057930294
239	0xbe1d2307	-0.15345393
240	0x3e9fcefd	0.31212607
241	0xbdcc80eb	-0.09985527
242	0x3d6b6a7e	0.057474606
243	0xbe5c98ed	-0.21542712
244	0x3d64936a	0.055804648
245	0xbda379fc	-0.07982251
246	0x3e843369	0.25820473
247	0x3b6863d0	0.0035459884
248	0xbc4251de	-0.011860339
249	0xbe2095d6	-0.15682158
250	0xbcbf30e0	-0.023338735
251	0xbc06ee59	-0.008235537
252	0xbe323e91	-0.1740668
253	0xbdd57896	-0.104233906
254	0xbd2547f5	-0.040351827
255	0x3cae8f1f	0.02130848

network_body._body_endoder.seq_layers.2.bias f4 [128]
0	0x3d6952ea	0.05696384
1	0xbd008208	-0.031374007
2	0xbdefaffd	-0.11703489
3	0x3cf53763	0.029933637
4	0xbbce447f	-0.0062947865
5	0xbc24a8bc	-0.010049995
6	0x3d10d36c	0.035357878
7	0x3ba50635	0.0050361403
8	0x3c1bf454	0.009518702
9	0x3d457ecb	0.048216622
10	0x3cc6eb31	0.02428207
11	0x3da44b86	0.080222175
12	0x3c074a5f	0.008257478
13	0x3c25a401	0.010109902
14	0xbd7b8c62	-0.061413176
15	0x3d0c959d	0.03432237
16	0x3c40c5e0	0.011765927
17	0xbc57c8f2	-0.013170468
18	0x3d2a3b6b	0.04156057
19	0xbc95388f	-0.018215446
20	0x3bb435d2	0.00549958
21	0x3cfca08d	0.030838275
22	0x3c7df497	0.015500209
23	0x3c9dc1bb	0.019257417
24	0x3c4d1938	0.01251822
25	0x3d2c1aaa	0.042017616
26	0x3ce1f303	0.027581697
27	0xbd5accca	-0.05341796
28	0x3c84fd8f	0.016234187
29	0x3d2da08c	0.042389438
30	0x3da2be02	0.07946397
31	0x3d2fdb27	0.04293361
32	0xbbaf6656	-0.0053527756
33	0x3d2faa34	0.042886928
34	0xbcf070a1	-0.02935058
35	0x3d1b344b	0.037891667
36	0x3db2b9a7	0.087268166
37	0x3d7d4850	0.06183654
38	0xbc070f3a	-0.008243376
39	0xbb9a46fa	-0.004708168
40	0xbdb9615b	-0.09051772
41	0x3d83eada	0.06441279
42	0xba814905	-0.000986368
43	0x3c9dad9d	0.019247824
44	0x3cf05ce7	0.029341174
45	0x3d8e2a5b	0.069416724
46	0x3cfe6441	0.031053664
47	0x3c3cf2be	0.011532484
48	0x3d20559d	0.039144147
49	0x3c856e65	0.016287992
50	0x3d2770d8	0.0408791
51	0x3d514d84	0.051099315
52	0x3d72ef36	0.05931016
53	0xbd7f8215	-0.062379915
54	0xbc34976b	-0.011022429
55	0xbcf41531	-0.029795261
56	0x3d2c8725	0.04212107
57	0x3d88bda2	0.066767946
58	0x3d2e8a0a	0.042612113
59	0x3b962060	0.004581496
60	0x3bc1047b	0.0058904267
61	0x3d84102a	0.064483956
62	0xbd79a69f	-0.060949918
63	0x3d581953	0.052758526
64	0x3d134f7c	0.035964474
65	0x3d743112	0.05961711
66	0xbc908f6c	-0.017646514
67	0x3da9ab5f	0.082846396
68	0xbcbf2150	-0.023331314
69	0x3de89087	0.113556914
70	0xbae32be7	-0.001733181
71	0x3d7e718f	0.062120017
72	0x3cbb747c	0.022882693
73	0x3d0c22e7	0.034212973
74	0x3d51405c	0.05108677
75	0x3defe3f5	0.11713401
76	0xbca4c32e	-0.0201126
77	0x3d227d82	0.039670475
78	0x3c800e8e	0.01563194
79	0x3c3939ca	0.011305282
80	0x3d8e0446	0.06934409
81	0xbd01b711	-0.031668726
82	0xbd085503	-0.0332842
83	0x3d3107af	0.04322022
84	0x3c1220a2	0.008918913
85	0x3d118f3c	0.03553699
86	0x3da28dc6	0.079371974
87	0xbd6323ed	-0.055454183
88	0xbcc611b6	-0.024178367
89	0x3d0f3a76	0.034967862
90	0x3b823e39	0.0039747027
91	0xbc8339da	-0.016018797
92	0x3d2da23f	0.042391058
93	0x3d9899bf	0.074512
94	0xbd21fada	-0.03954587
95	0xbd185d92	-0.03719861
96	0x3d600367	0.054690745
97	0x3d9a6fd7	0.07540863
98	0xba7fbc0d	-0.00097555
99	0xbd2a05ff	-0.041509625
100	0x3d376853	0.044777226
101	0x3dee35cf	0.11631357
102	0x3c97c6b8	0.018527374
103	0x3da894ea	0.08231528
104	0x3d5fda77	0.054651704
105	0x3da6b111	0.081392415
106	0xbd14f05c	-0.036362037
107	0x3cad00f8	0.021118626
108	0x3dfe5aed	0.124196865
109	0x3d0f3631	0.03496379
110	0x3be2791c	0.00691141
111	0xbc214aa4	-0.009844456
112	0xba9609fc	-0.0011447067
113	0xbd8d44a0	-0.06897855
114	0x3aada3dd	0.0013247688
115	0x3d996da9	0.07491619
116	0x3de392e5	0.11112002
117	0xbc400f69	-0.011722424
118	0x3da38d33	0.07985916
119	0x3cf67416	0.030084651
120	0x3c97328b	0.018456718
121	0x3d5f588e	0.05452781
122	0x3c8dae4e	0.017295029
123	0x3cd6bd7f	0.026213406
124	0x3bf816d8	0.0075710826
125	0x3d43b501	0.04778004
126	0xbce69e55	-0.02815167
127	0x3d730da2	0.059339173

action_model._discrete_distribution.branches.0.weight f4 [7, 128]
0	0xbe152519	-0.14564933
1	0x3cfd5fb0	0.030929416
2	0x3c9fe1f7	0.019516928
3	0x3da53175	0.08066074
4	0x3da54ff5	0.08071891
5	0xbc634502	-0.013871433
6	0x3d905402	0.07047273
7	0x3d02bf0d	0.03192048
8	0x3d8bbced	0.06823144
9	0xbdc624dd	-0.09675
10	0x3d73cba2	0.05952037
11	0xbdbfd074	-0.09365931
12	0x3cf609b4	0.030033924
13	0x3d757726	0.059928082
14	0x3ceb02c4	0.028687842
15	0x3d3cdea2	0.046110757
16	0x3c860f63	0.016364759
17	0x3cd8f276	0.026482802
18	0x3d833308	0.06406218
19	0x3ccd7c50	0.02508369
20	0x3d932c27	0.07186156
21	0xbd839f1c	-0.06426832
22	0x3d8cc49d	0.068734385
23	0x3a061b56	0.00051157677
24	0xbc19db05	-0.009390597
25	0x3cba9a15	0.02277855
26	0x3d565ed2	0.05233652
27	0xbce13abf	-0.027493833
28	0x3d59a424	0.053135052
29	0x3dace4ab	0.084420525
30	0x3cc58163	0.024109548
31	0x3da7aeea	0.08187659
32	0x3dbe5715	0.09293953
33	0xbe0d97d2	-0.13827446
34	0x3d7509b1	0.059823696
35	0x3dcf191d	0.10112212
36	0xbe19c8c8	-0.15017998
37	0x3d93495f	0.07191729
38	0x3c17bd78	0.009261481
39	0xbdd718ba	-0.10502763
40	0x3d4e306d	0.05033915
41	0x3d02e902	0.031960495
42	0x3d97d0e5	0.0741289
43	0x39e9641b	0.00044515808
44	0xbd956323	-0.072942995
45	0x3d521786	0.051291965
46	0xbe0f5a3f	-0.1399927
47	0x3d5bf196	0.05369719
48	0xbda20aa4	-0.07912186
49	0xbd655957	-0.055993404
50	0xbdf9d046	-0.12197928
51	0x3d61b99b	0.055108648
52	0x3cf6d006	0.03012849
53	0xbbf79b81	-0.0075563793
54	0x3dd4a99e	0.103839144
55	0xbd214364	-0.03937091
56	0xbd2a8994	-0.04163511
57	0xbdf6bcb6	-0.120477125
58	0xbe1a6423	-0.15077262
59	0x3db3b1ac	0.087741226
60	0x3ca0ae3b	0.01961433
61	0x3dca1161	0.09866596
62	0x3d39abbd	0.045329798
63	0x3d27f27e	0.041002743
64	0x3d92fc05	0.07176975
65	0xbca0c6f7	-0.019626124
66	0x3d99df73	0.07513323
67	0x3d003be6	0.031307124
68	0x3b9fc8d0	0.0048762336
69	0x3bcfeccc	0.006345367
70	0xbda8e512	-0.08246817
71	0xbd09c643	-0.033636343
72	0x3d53e614	0.05173309
73	0x3d2bc5d7	0.04193672
74	0x3cd017ba	0.025401939
75	0xbdeeafb8	-0.116546094
76	0xbd4f345f	-0.050587054
77	0xbe0f1012	-0.13970974
78	0x3dd42794	0.103591114
79	0x3d2b2f2c	0.041793033
80	0x3c638533	0.013886738
81	0xbcee5dfc	-0.02909755
82	0x3da18df1	0.07888401
83	0x3d08f34a	0.033435144
84	0xba080f04	-0.0005190226
85	0xbdbcfd78	-0.09228033
86	0x3d8150e5	0.063142575
87	0x3d227a80	0.039667606
88	0x3cb77fdc	0.022399835
89	0x3ddde610	0.108348966
90	0x3d74fdd4	0.059812382
91	0x3d71c466	0.05902519
92	0x3d9b47c0	0.075820446
93	0xbd320777	-0.04346415
94	0x3d9d18e7	0.07670765
95	0x3c21bbc2	0.009871425
96	0x3d8f77fb	0.07005306
97	0x3bfeda34	0.0077774767
98	0x3dcd2f0d	0.1001874
99	0x3d53ae2e	0.051679783
100	0xbd9547de	-0.07289098
101	0xbc400a22	-0.011721166
102	0x3da29ed7	0.079404525
103	0xbdaec1c1	-0.085330494
104	0x3d8662a6	0.065617844
105	0xbced1c37	-0.028944118
106	0x3d49409f	0.049133893
107	0xbd88fac6	-0.06688456
108	0xbdf35332	-0.118811026
109	0xbcbab3b2	-0.022790764
110	0x3cb95287	0.02262236
111	0x3c7b14f7	0.015324823
112	0x3b91d671	0.0044506122
113	0x3d86f52f	0.06589734
114	0xbd394621	-0.045232896
115	0xbdf74db2	-0.12075366
116	0xbd5d90cf	-0.05409318
117	0x3d69a2dd	0.057040084
118	0xbc5d8767	-0.013521052
119	0xbe0c22cc	-0.13685149
120	0x3e033dd2	0.12816551
121	0x3caef408	0.021356598
122	0xbdc2a21a	-0.09503575
123	0x3d4f8fc9	0.050674234
124	0xbc939e23	-0.018019741
125	0xbe17fdf3	-0.14842968
126	0x3d71ba24	0.05901541
127	0x3d57cabb	0.052683573
128	0xbbfee017	-0.0077781784
129	0xbd3da2bc	-0.046297774
130	0x3d76b979	0.060235474
131	0xbdcaeccc	-0.09908447
132	0x3de274e0	0.110574484
133	0x3c89effb	0.016838064
134	0xbe1c5199	-0.15265502
135	0xbe1c5a7c	-0.15268892
136	0x3dc94339	0.09827275
137	0x3e1ae3cb	0.15125959
138	0xbcc6c4fc	-0.024263851
139	0xbd51b204	-0.05119516
140	0x3c2bb99a	0.010481263
141	0xbdbbd31c	-0.09171125
142	0x3da4fb6d	0.08055768
143	0xbe380b1e	-0.17972991
144	0xbd9faf43	-0.077971004
145	0x3bd8a0db	0.0066109723
146	0xbd9271f3	-0.0715064
147	0x3e2d292a	0.16910234
148	0xbdab7b10	-0.08373082
149	0xbdb43fda	-0.08801241
150	0xbdb846e7	-0.089978985
151	0x3d168823	0.036750924
152	0x3dff615e	0.12469743
153	0x3d1e51b6	0.038652144
154	0xbe0027fc	-0.12515253
155	0x3da560d2	0.08075108
156	0x3d8927ff	0.06697082
157	0xbe7a1c79	-0.24424924
158	0xbe83b5f0	-0.25724745
159	0x3dd271e3	0.102756284
160	0xbe1f182e	-0.15536568
161	0x3d803a39	0.06261105
162	0x3e232734	0.15932924
163	0xbddcd330	-0.10782468
164	0xbe197586	-0.14986238
165	0xbd61d360	-0.055133224
166	0xbdc81843	-0.097702526
167	0x3e22dc64	0.15904385
168	0x3dea317b	0.11435219
169	0xbe534690	-0.20632386
170	0x3d60f8f6	0.054924928
171	0xbd384f73	-0.044997644
172	0xbe09eb72	-0.13468722
173	0xbd0a1108	-0.03370765
174	0xbc0bce58	-0.008533083
175	0x3d98821d	0.07446692
176	0x3d94c264	0.072636396
177	0x3d3a4d56	0.04548391
178	0x3e01d4c9	0.12678827
179	0xbbd092fa	-0.006365177
180	0xbe002a89	-0.12516226
181	0x3e250823	0.16116385
182	0xbd886b82	-0.066611305
183	0x3d005f6b	0.031340998
184	0x3dbb1a84	0.09135917
185	0xbe24bb92	-0.16087177
186	0x3c1cc807	0.009569175
187	0x3da8fe05	0.082515754
188	0x3dbea544	0.09308866
189	0x3d5f4175	0.054505784
190	0x3d18d2cc	0.037310407
191	0xbd914736	-0.070936605
192	0xbe2bb5ee	-0.1676862
193	0xbdd8ca1f	-0.105854265
194	0x3dd202c7	0.10254436
195	0xbdc219a9	-0.094775505
196	0x3d92aa66	0.07161407
197	0xbd98386d	-0.07432637
198	0x3de49c39	0.111626096
199	0x3d48671f	0.04892647
200	0x3c4b104b	0.012394021
201	0xbdc9846f	-0.09839713
202	0xbe411125	-0.18854196
203	0x3d999886	0.07499795
204	0xbd4693e3	-0.04848088
205	0x3e1f51b2	0.15558508
206	0x3dd478e2	0.10374619
207	0x3db7a7a4	0.08967522
208	0x3db92c8b	0.09041699
209	0x3e09fa86	0.13474473
210	0x3c518070	0.01278697
211	0xbd06dd67	-0.03292599
212	0x3dabb603	0.08384325
213	0x3e33e01c	0.1756596
214	0xbe276662	-0.1634765
215	0x3dd99214	0.10623565
216	0x3d57b9c2	0.052667387
217	0xbd1e7cbd	-0.03869318
218	0xbde9aeb3	-0.11410274
219	0x3df0e778	0.11762899
220	0x3da2fd5c	0.07958481
221	0xbe0b32c5	-0.13593586
222	0x3db17a97	0.0866596
223	0x3d442c50	0.047893822
224	0xbe7d09f8	-0.24710834
225	0xbdef4f05	-0.11684994
226	0x3dd7ff3e	0.105467305
227	0x3e1d5d36	0.15367588
228	0x3d5ee5c6	0.054418348
229	0xbcbe9525	-0.023264477
230	0xbc92faae	-0.017941799
231	0xbe1b8643	-0.15187936
232	0xbe1ec42f	-0.15504526
233	0xbe59b5c7	-0.21260749
234	0x3e3a7fff	0.18212889
235	0xbc35bc60	-0.011092275
236	0xbdf532be	-0.11972569
237	0xbe16aa7f	-0.14713477
238	0x3da85fda	0.08221407
239	0x3c82e95a	0.015980411
240	0x3daea92b	0.0852836
241	0x3d9da01b	0.07696553
242	0x3d34b5bb	0.044118624
243	0x3cf931f0	0.03041932
244	0x3b42da43	0.0029732145
245	0x3e6058b2	0.21908835
246	0xbd4d517e	-0.050126545
247	0x3cd29b62	0.025708858
248	0x3d603d6f	0.054746088
249	0xbe39d353	-0.1814702
250	0x3c621b5a	0.013800466
251	0x3e5ba8b0	0.21451068
252	0x3e0c0238	0.13672721
253	0x3e7a7944	0.24460322
254	0x3e1acb1f	0.15116547
255	0xbe21abd8	-0.1578821

action_model._discrete_distribution.branches.0.bias f4 [7]
0	0xba9266cf	-0.0011169555
1	0xbd81d65b	-0.06339713
2	0x3d17ada6	0.03703084
3	0x3c51359a	0.012769127
4	0xbbbcc6a9	-0.005760987
5	0x3c5a1727	0.013311184
6	0x3d0b2e48	0.033979684
