CCP-main/results/WeightAgent_Training/WeightAgent_Training/WeightAgent_Training-9499991.pt (torch, 929636 bytes, 33 tensors)

network_body._body_endoder.seq_layers.0.weight f4 [128, 164]
-0.028423049 -0.09374338 -0.10917746 0.086897604 0.1243101 -0.062424157 -0.07315863 -0.18317479
0.117761485 0.0025069364 -0.01089682 -0.0953995 -0.07509514 0.011615162 0.10147705 -0.04739609
-0.05920567 -0.054514214 -0.006021737 0.23750514 -0.07603414 -0.029591829 0.07393096 0.21726103
0.0954092 0.12157569 -0.1325583 -0.051684175 0.10351144 0.2814428 -0.21720597 0.12784274
0.09392338 -0.043195724 -0.04271109 0.02400254 -0.09370169 -0.04247806 0.07310608 0.20460807
0.133696 -0.028841622 0.14601158 0.008187585 -0.1181439 0.1056573 -0.033694807 -0.092293955
0.04712409 0.10031493 0.08842281 0.09476207 0.09838465 -0.09944153 -0.08676937 0.0054436885
0.02582091 0.1293304 0.064475276 -0.056476325 0.19579095 0.16444774 -0.006432336 -0.21555972
-0.027157463 0.22519898 0.045375094 0.21364589 -0.13773502 0.0798338 0.1585537 0.16026595
0.043726183 -0.055872817 -0.04932805 0.046008673 -0.076293625 0.029612215 0.054338742 -0.024092447
0.22684328 0.14122094 -0.016393123 0.14921819 -0.017726822 0.14094087 -0.10599063 0.046608746
0.079279535 -0.0077049113 0.15490523 0.11676904 -0.042287268 0.04538921 -0.07077721 0.13869251
-0.052363552 0.08561296 -0.09716305 0.055011064 0.016458012 0.008948 -0.029631246 -0.03828699
-0.062015187 0.2237849 -0.09036977 -0.04378288 -0.11698057 -0.021276243 0.21304144 0.0020360965
-0.108322665 -0.09975095 0.11919314 0.25734404 -0.04277715 0.09235558 0.05626958 0.021225695
0.18820073 0.082914636 0.014663868 -0.11290396 0.021300023 0.07751037 -0.15033613 0.228799
0.06764692 -0.0039622253 0.014436638 -0.10337578 0.03688211 -0.00041964467 0.0163159 0.035262667
-0.094145425 0.1848238 0.16368276 0.067611404 0.16167083 0.027863326 0.029247848 0.070335716
-0.10750974 0.14104882 -0.094091274 0.029091017 0.037171997 0.06626722 0.16911018 -0.07006545
-0.0426668 0.1791961 0.01774884 0.24802125 0.07334319 0.036250126 -0.012310359 0.14613006
0.084540576 0.098328955 0.1221831 0.045050286 0.21250539 -0.19499825 0.1155739 -0.06440904
0.015772492 0.09001941 0.10183698 0.06011545 -0.046516795 0.14098248 0.110171065 0.024828905
0.049895212 -0.18494499 -0.027314072 -0.046169654 0.0057396246 -0.08969795 -0.06680373 0.104371995
0.1366432 0.05146463 0.027534846 -0.021762159 0.052020006 0.029163122 0.17628667 -0.106151
0.14804523 0.08161509 -0.07358091 0.037404086 0.033605475 0.008691361 -0.029840732 0.122703806
-0.038351763 -0.13593194 -0.09617055 0.17690153 -0.19386725 -0.16130765 -0.101579644 -0.01736631
-0.12818015 -0.037320808 0.17940927 -0.08097265 -0.024325294 -0.023721747 0.0002737184 -0.026486104
0.079241544 0.028769018 0.020308958 0.042650975 0.21973328 -0.2102813 -0.008830722 -0.12831774
-0.036214814 -0.13898288 -0.16756749 0.18118186 0.14208438 0.02441996 0.03637558 -0.09034989
0.038257133 0.026383677 -0.0024421464 0.0064694732 0.07920428 0.13589157 0.062194753 -0.09859239
0.12586471 0.069012485 -0.008571209 0.041135017 0.13186719 -0.12979122 0.075998224 0.07275792
-0.06182819 -0.027585225 0.024965035 -0.0088284025 -0.05785291 -0.019407658 -0.028460672 -0.029089492
00000000: 74d7 e8bc 87fc bfbd 6f98 dfbd 5ff7 b13d
00000010: 4b96 fe3d 79b0 7fbd 31d4 95bd 2c92 3bbe
00000020: ef2c f13d 6a4b 243b 9388 32bc d060 c3bd
00000030: 7bcb 99bd 854d 3e3c 33d3 cf3d 6722 42bd
00000040: a581 72bd 4c4a 5fbd fe51 c5bb 8c34 733e
00000050: cab7 9bbd 906a f2bc 1d69 973d ad79 5e3e
00000060: e665 c33d adfc f83d 5dbd 07be c9b2 53bd
00000070: cefd d33d 4519 903e 3e6b 5ebe 35e9 023e
00000080: e75a c03d 00ee 30bd d3f1 2ebd faa0 c43c
00000090: ace6 bfbd 79fd 2dbd a4b8 953d c784 513e
000000a0: 9be7 083e 4445 ecbc 0f84 153e 3825 063c
000000b0: 6ef5 f1bd db62 d83d 9103 0abd 9d04 bdbd
000000c0: 3105 413d ea71 cd3d 0517 b53d 9e12 c23d
000000d0: e47d c93d 00a8 cbbd 24b4 b1bd f860 b23b
000000e0: 6086 d33c 306f 043e 9d0b 843d b853 67bd
000000f0: 6c7d 483e fd64 283e 58c6 d2bb b0bb 5cbe
00000100: 5479 debc 909a 663e 3cdb 393d fdc5 5a3e
00000110: 690a 0dbe e77f a33d e75b 223e c21c 243e
00000120: 3a1a 333d e5da 64bd 360c 4abd 9773 3c3d
00000130: d53f 9cbd 5195 f23c 4d92 5e3d 865d c5bc
00000140: 9b49 683e 399c 103e df4a 86bc a7cc 183e
00000150: d737 91bc ce52 103e 9e11 d9bd d0e8 3e3d
00000160: 4f5d a23d 7b79 fcbb 7a9f 1e3e 9b24 ef3d
00000170: 6a35 2dbd 09ea 393d a4f3 90bd 6905 0e3e
00000180: 2a7b 56bd d955 af3d 6cfd c6bd 4853 613d
00000190: f4d2 863c a29a 123c 3abd f2bc d2d2 1cbd
000001a0: a303 7ebd de27 653e c913 b9bd ad55 33bd
000001b0: 8293 efbd 844b aebc 8927 5a3e 0870 053b
000001c0: 46d8 ddbd 3a4a ccbd 881b f43d 99c2 833e
000001d0: 1837 2fbd ec24 bd3d ee7a 663d 82e1 ad3c
000001e0: b1b7 403e 26cf a93d b840 703c 313a e7bd
000001f0: 637d ae3c c2bd 9e3d b7f1 19be 494a 6a3e
00000200: 788a 8a3d 8ed5 81bb a687 6c3c aeb6 d3bd
00000210: b211 173d c103 dcb9 eca8 853c 966f 103d
00000220: 51cf c0bd 7342 3d3e 749c 273e d977 8a3d
00000230: 0a8d 253e a141 e43c 2f99 ef3c 2c0c 903d
00000240: 112e dcbd 1a6f 103e edb2 c0bd 4950 ee3c
00000250: aa41 183d 1cb7 873d 382b 2d3e 7a7e 8fbd
00000260: 62c3 2ebd 2f7f 373e 0466 913c 48f9 7d3e
00000270: f434 963d 037b 143d 63b1 49bc 1ea3 153e
00000280: 9c23 ad3d b160 c93d 223b fa3d a686 383d
00000290: 039b 593e 9fad 47be 02b2 ec3d e3e8 83bd
000002a0: 5035 813c 195c b83d e88f d03d 9e3b 763d
000002b0: 6588 3ebd b65d 103e 5ea1 e13d fd65 cb3c
000002c0: ec5e 4c3d 3862 3dbe c3c1 dfbc 641c 3dbd
000002d0: 7613 bc3b 8fb3 b7bd 65d0 88bd fcc0 d53d
000002e0: 32ec 0b3e 93cc 523d c290 e13c 8e46 b2bc
000002f0: ee12 553d 80e7 ee3c 7e84 343e b265 d9bd
00000300: 2b99 173e d025 a73d 97b1 96bd 0735 193d
00000310: e5a5 093d 3666 0e3c 8d74 f4bc 224c fb3d
00000320: bd16 1dbd be31 0bbe 11f5 c4bd ad25 353e
00000330: 2385 46be d52d 25be fd08 d0bd cb43 8ebc
00000340: a841 03be b4dd 18bd 10b7 373e fdd4 a5bd
00000350: d745 c7bc 1c54 c2bc dd81 8f39 63f9 d8bc
00000360: 6449 a23d 01ad eb3c f95e a63c cab2 2e3d
00000370: c301 613e fb53 57be bcae 10bc ba65 03be
00000380: fc55 14bd 8751 0ebe d096 2bbe bd87 393e
00000390: 917e 113e 5e0c c83c 8ffe 143d 5d09 b9bd
000003a0: 83b3 1c3d 9522 d83c 6b0c 20bb e0fd d33b
000003b0: db35 a23d 2927 0b3e edbf 7e3d cfea c9bd
000003c0: aee2 003e 6b56 8d3d 426e 0cbc 317d 283d
000003d0: 3108 073e fde7 04be f5a4 9b3d 1b02 953d
000003e0: 8e3f 7dbd 69fa e1bc 7983 cc3c 01a5 10bc
000003f0: 2cf7 6cbd cffc 9ebc 5b26 e9bc 164d eebc

network_body._body_endoder.seq_layers.0.bias f4 [128]
0.05397813 0.011191455 0.03648463 0.013820404 0.029867591 0.04764202 -0.007452669 0.044744935
-0.04057009 0.027928866 0.0124835 0.017923068 0.022338517 0.02658295 0.05667391 0.0135160135
0.03383927 -0.017752739 -0.023437478 0.029678844 0.017744748 0.02656525 0.0171812 0.03248674
0.04666558 0.03571939 0.029037219 0.013436087 0.028935654 0.000118379765 -0.0020683957 0.028542811
0.0072383727 -0.0033628074 0.02568039 0.027803345 0.040479664 0.014369629 0.039741002 0.018371962
0.013897223 0.016650435 -0.044967566 0.031313848 -0.018766394 -0.023748023 0.0044078217 -0.03241666
-0.027273789 0.0065648267 -0.0038611598 0.043871347 0.05554922 -0.00984638 0.036390394 0.018543046
0.020216778 0.007841356 0.016808754 0.00096966093 0.01240146 -0.00020680578 0.020086963 0.0116500985
0.0020788426 0.041498758 0.013748337 0.001261868 0.0024076041 0.04954031 0.022906581 0.0036698803
0.0031131501 0.026704201 0.041811045 0.03649395 0.051229466 0.007110535 0.023887873 -0.0142516075
0.03495758 0.027394658 0.01297455 -0.0011259256 0.0071279393 0.023028566 0.02957141 0.022647329
0.042178493 0.010357165 0.012659242 -0.007400714 -0.022369703 -0.008046252 0.025833696 0.038944546
0.0115442835 0.016682213 0.0260092 0.006204514 0.01276462 0.015305578 0.021534098 0.0052744676
0.043937694 0.042987883 0.020701347 0.031367548 0.03894144 0.015532126 0.020823916 0.030299801
0.030061005 -0.0009081182 0.015864871 -0.027859272 0.025880294 0.023429647 0.03759314 0.0022161321
0.051493645 0.027057689 -0.015831156 0.01270173 0.04018637 0.018184708 -0.010618464 0.020481847
00000000: 2c18 5d3d 5d5c 373c e870 153d fa6e 623c
00000010: e1ac f43c 4724 433d 8535 f4bb 7746 373d
00000020: d32c 26bd 14cb e43c 9887 4c3c 66d3 923c
00000030: 44ff b63c 7dc4 d93c e722 683d 4572 5d3c
00000040: 0c9b 0a3d 316e 91bc f4ff bfbc 0c21 f33c
00000050: 6f5d 913c 5e9f d93c 97bf 8c3c d110 053d
00000060: 6824 3f3d 7f4e 123d 76df ed3c 0923 5c3c
00000070: 770a ed3c a742 f838 ec8d 07bb 9dd2 e93c
00000080: df2f ed3b 8c62 5cbb ae5f d23c d7c3 e33c
00000090: 01ce 253d 986e 6b3c 76c7 223d cc80 963c
000000a0: 2eb1 633c 7e66 883c e92f 38bd f342 003d
000000b0: fbbb 99bc 378b c2bc 7d6f 903b 55c7 04bd
000000c0: 486d dfbc c21d d73b 830b 7dbb 71b2 333d
000000d0: 9487 633d b652 21bc 180e 153d 96e7 973c
000000e0: a89d a53c 0879 003c 83b2 893c d830 7e3a
000000f0: 7e2f 4b3c 01da 58b9 6a8d a43c 0ee0 3e3c
00000100: 313d 083b 9afa 293d b440 613c 4465 a53a
00000110: e5c8 1d3b c8ea 4a3d 95a6 bb3c 6082 703b
00000120: fe05 4c3b c5c2 da3c 0f42 2b3d ae7a 153d
00000130: fdd5 513d 7eff e83b 80b0 c33c 937f 69bc
00000140: ae2f 0f3d c36a e03c 3593 543c cb93 93ba
00000150: 7d91 e93b 67a6 bc3c be3f f23c e486 b93c
00000160: 5bc3 2c3d 19b1 293c b668 4f3c b081 f2bb
00000170: ab40 b7bc 6dd4 03bc 30a1 d33c 5184 1f3d
00000180: 3c24 3d3c 23a9 883c 3f11 d53c 3c4f cb3b
00000190: b222 513c 3fc4 7a3c 4768 b03c 71d5 ac3b
000001a0: 03f8 333d 1014 303d df95 a93c 427b 003d
000001b0: 0f81 1f3d 757a 7e3c eb96 aa3c 4a37 f83c
000001c0: 7f42 f63c c80e 6eba 0cf7 813c 2139 e4bc
000001d0: e902 d43c 88ef bf3c 44fb 193d 873c 113b
000001e0: 00eb 523d 16a8 dd3c 57b0 81bc eb1a 503c
000001f0: 779a 243d 19f8 943c 11f9 2dbc 8cc9 a73c

network_body._body_endoder.seq_layers.2.weight f4 [128, 128]
0.051948346 -0.062479988 0.16388276 -0.12453247 -0.013636208 -0.023275018 0.16668054 -0.03953258
-0.16556537 -0.24157748 -0.023251064 -0.052015103 0.04569016 -0.06475657 0.26570326 0.13776161
0.09099355 -0.31063917 0.06382262 0.12277099 -0.054215994 0.07777155 0.035887375 0.10408967
0.011191608 0.09604649 0.03804502 0.048686884 0.088479795 0.03692095 0.014269868 0.009687452
-0.23373821 -0.07595076 -0.088708214 -0.08632106 -0.10587559 0.022578262 -0.17872101 -0.19559178
-0.13064446 0.15865038 -0.042116977 0.17360055 -0.21963005 0.0210987 -0.28881317 -0.049023703
0.12733494 -0.050445493 -0.16354458 -0.12186513 0.0621074 -0.079100356 0.111028045 -0.19270322
-0.2967313 -0.15655892 -0.005472262 -0.06782229 -0.014354686 -0.13096789 0.09186145 0.006154149
0.007112241 0.0071955957 -0.09683742 -0.018005578 0.092859946 0.027615957 -0.14643729 -0.045355372
0.13618806 0.21743254 0.12772554 0.08519274 -0.16918613 0.07878319 0.080497354 -0.20925543
0.022164797 0.099421315 -0.045357727 -0.11323018 -0.17461176 0.14734954 0.05007748 0.18755469
0.14405662 0.24028048 -0.07559045 0.04963508 -0.08813385 -0.1198817 -0.012802213 0.07671008
0.082003705 -0.028626146 -0.015890583 0.0586657 0.13676266 0.06037138 0.030034833 0.12097595
0.02096202 -0.06281239 -0.055806287 0.015912786 0.03709265 0.07532411 -0.07645867 0.04259295
-0.09674724 -0.09752603 0.02187173 -0.16356204 -0.02096831 -0.058801994 0.08657808 0.2971083
0.14652792 -0.026654085 -0.018020816 -0.14566217 0.037935626 -0.13685815 -0.034020647 -0.24357441
-0.06670568 -0.15693592 0.037475154 0.19853902 0.10336019 -0.08026421 -0.09130223 0.021129206
-0.15639682 0.05990159 0.26518333 0.05373736 -0.0644298 0.062123004 0.027194945 0.18249539
0.10239508 0.046838664 -0.07038327 -0.020166786 -0.23500618 0.011661955 0.038881857 0.059825666
0.12525876 -0.20083009 0.064932734 0.024405252 0.02512871 0.033135988 0.063780144 0.030767474
0.24754964 0.15674216 -0.09695173 0.0252636 0.061705504 0.06602221 -0.06448663 -0.11324846
0.20758261 -0.01103283 -0.10603025 0.039155446 -0.027106136 -0.03344843 -0.14206775 -0.17549574
0.1595537 -0.16073342 -0.025891194 0.017971616 0.005091205 -0.10514785 0.019081049 -0.23820539
-0.11057765 0.037465688 -0.08853643 0.113211036 -0.10725312 -0.060249086 0.0055415644 0.03576467
-0.063557744 0.12037559 0.11624938 -0.012616763 0.001292098 0.028378777 0.0846162 0.13074356
0.0068729385 -0.09735986 -0.09368957 0.10028457 0.2671838 -0.041574836 -0.0010763882 -0.17582244
0.09787114 0.15455665 0.012992335 0.04997019 -0.08302619 0.061919846 0.14417315 -0.07649844
-0.105375916 0.15616012 -0.06588747 0.010158336 -0.13752833 -0.080393374 0.08035072 -0.048837796
-0.065227576 -0.008765084 -0.30525443 -0.039408445 -0.05483719 -0.06871757 0.06782658 -0.056514148
-0.048977688 0.0714065 0.017409833 0.013332156 0.14795353 0.03964436 -0.094083406 0.17547514
0.13338944 -0.040408563 -0.08150337 0.015747143 -0.1854929 -0.004292383 -0.01650218 0.19332352
0.058551 -0.057791993 0.027643418 -0.016385699 0.18936339 0.104500584 -0.034593266 0.15623264
00000000: cac7 543d 04eb 7fbd e2d0 273e e10a ffbd
00000010: 676a 5fbc 40ab bebc 4eae 2a3e eaec 21bd
00000020: f889 29be 1660 77be 0479 bebc ca0d 55bd
00000030: 9b25 3b3d 189f 84bd 420a 883e 6111 0d3e
00000040: d45a ba3d 190c 9fbe 6fb5 823d 5b6f fb3d
00000050: 9711 5ebd b146 9f3d a4fe 123d f72c d53d
00000060: 025d 373c 06b4 c43d 18d5 1b3d e66b 473d
00000070: e534 b53d 6c3a 173d 2acc 693c 1eb8 1e3c
00000080: 1259 6fbe 128c 9bbd a7ac b5bd 19c9 b0bd
00000090: 4dd5 d8bd 0cf6 b83c a402 37be 3649 48be
000000a0: a9c7 05be 3f75 223e da82 2cbd 58c4 313e
000000b0: b3e6 60be 2ed7 ac3c 52df 93be 14cd 48bd
000000c0: 1764 023e ef9f 4ebd 3b78 27be 6d94 f9bd
000000d0: 5464 7e3d 5eff a1bd ac62 e33d fe53 45be
000000e0: 2aed 97be fb50 20be a950 b3bb 6ae6 8abd
000000f0: eb2f 6bbc 721c 06be db21 bc3d bea8 c93b
00000100: cd0d e93b 08c9 eb3b b252 c6bd 6f80 93bc
00000110: 5b2d be3d dc3a e23c a8f3 15be 8ec6 39bd
00000120: e274 0b3e a3a6 5e3e 7cca 023e 8879 ae3d
00000130: 213f 2dbe 1559 a13d ccdb a43d 0e47 56be
00000140: f392 b53c 679d cb3d 06c9 39bd 3ae5 e7bd
00000150: 6dcd 32be cce2 163e 0b1e 4d3d 560e 403e
00000160: 9483 133e 160c 763e 2acf 9abd 274e 4b3d
00000170: 857f b4bd 8984 f5bd 60c0 51bc 2d1a 9d3d
00000180: 8ff1 a73d 6181 eabc f82c 82bc 724b 703d
00000190: 830b 0c3e fb47 773d 9c0b f63c 3dc2 f73d
000001a0: 8bb8 ab3c c8a3 80bd 2295 64bd 885b 823c
000001b0: 76ee 173d 8743 9a3d 5d96 9cbd f275 2e3d
000001c0: 6b23 c6bd babb c7bd 582c b33c cf7c 27be
000001d0: bcc5 abbc 5cda 70bd d94f b13d 941e 983e
000001e0: 6a0b 163e ab59 dabc 64a0 93bc 7728 15be
000001f0: 6362 1b3d 8b24 0cbe 3c59 0bbd 926b 79be
00000200: fd9c 88bd cfb3 20be 8c7f 193d d04d 4b3e
00000210: 82ae d33d 9061 a4bd aafc babd 2817 ad3c
00000220: 7d26 20be 5f5b 753d 1cc6 873e b51b 5c3d
00000230: c5f3 83bd b174 7e3d efc7 de3c 12e0 3a3e
00000240: 83b4 d13d e6d9 3f3d 1b25 90bd d134 a5bc
00000250: 76a5 70be c911 3f3c 9542 1f3d c20b 753d
00000260: d543 003e 67a6 4dbe 74fb 843d 86ed c73c
00000270: b9da cd3c 9ab9 073d 2a9f 823d 120c fc3c
00000280: a77d 7d3e 0481 203e a18e c6bd 9cf5 ce3c
00000290: e9be 7c3d a736 873d 9111 84bd cfee e7bd
000002a0: 8990 543e 0bc3 34bc 6326 d9bd 7661 203d
000002b0: b00d debc 3901 09bd 357a 11be 28b5 33be
000002c0: 0c62 233e 4d97 24be c519 d4bc 3639 933c
000002d0: 1fd4 a63b c257 d7bd dc4f 9c3c 1dec 73be
000002e0: 8976 e2bd 9f75 193d 9652 b5bd 30db e73d
000002f0: 86a7 dbbd bfc7 76bd 0396 b53b fa7d 123d
00000300: 902a 82bd 7a87 f63d 2814 ee3d 8ab6 4ebc
00000310: 9d5b a93a 9c7a e83c 424b ad3d a4e1 053e
00000320: 6336 e13b 9b64 c7bd 51e0 bfbd ff61 cd3d
00000330: 51cc 883e 604a 2abd 9815 8dba cc0a 34be
00000340: aa70 c83d 1944 1e3e cddd 543c 8bad 4c3d
00000350: a309 aabd aa9f 7d3d 20a2 133e 37ab 9cbd
00000360: 54cf d7bd 70e8 1f3e 03f0 86bd 266f 263c
00000370: 3ad4 0cbe 48a5 a4bd eb8e a43d 240a 48bd
00000380: 0996 85bd 6d9b 0fbc 4f4a 9cbe c06a 21bd
00000390: f69c 60bd ccbb 8cbd a9e8 8a3d 617b 67bd
000003a0: d49c 48bd 923d 923d 119f 8e3c 1e6f 5a3c
000003b0: 2181 173e 2062 223d cdae c0bd c1af 333e
000003c0: 3e97 083e 7383 25bd 3deb a6bd 2700 813c
000003d0: daf1 3dbe 1ea7 8cbb 942f 87bc 9af6 453e
000003e0: 2cd3 6f3d 4cb7 6cbd 7374 e23c 4d3b 86bc
000003f0: 7ae8 413e 6704 d63d abb1 0dbd 73fb 1f3e

network_body._body_endoder.seq_layers.2.bias f4 [128]
0.053285938 0.07899468 -0.04803878 -0.004524726 -0.012579443 -0.020006254 0.031279046 -0.018851772
0.03643642 0.034586076 0.027054181 -0.0058893403 0.0048583243 0.0025770853 0.050318126 0.023331441
-0.0064113643 0.04095382 0.022757193 0.0051439498 0.013394798 0.011715922 -0.0043740105 0.02680348
-0.04731036 0.007971866 -0.0005749831 -0.017593967 -0.025445601 0.009785988 -0.0067469487 0.03001831
0.044595838 -0.009545057 0.023668667 0.017180037 -0.017643666 -0.029642167 0.024519827 0.008985832
0.024548652 0.00189488 0.036549866 0.007496058 -0.0039525693 0.020436862 -0.00024908045 0.015525859
-0.011402223 -0.023261841 -0.015666928 -0.003002589 0.018158536 0.04913675 -0.03947348 0.00806842
0.027704146 0.02069252 0.06669468 -0.023088077 -0.026045436 -0.06822007 0.007983023 -0.009725385
0.006562533 0.0015704405 0.06490793 0.06547206 -0.054081842 -0.027730381 0.01885801 -0.007931976
0.006004297 -0.017293787 -0.0018719148 0.008048801 -0.011968614 -0.019992359 0.019613767 -0.00067394145
0.050862066 0.01855519 -0.022915067 0.046859354 -0.0172929 0.012074116 0.028656116 0.02319058
0.007826576 0.009807842 0.021392716 0.0008863603 0.0025091663 0.030158004 0.009366144 0.04395363
0.034876384 -0.049905904 0.041228067 -0.011037834 0.036244437 -0.034614254 -0.023246624 -0.05408818
0.014537996 -0.0019865425 0.020946983 0.01610921 0.015779389 -0.0060042874 0.004169286 0.027316354
-0.007886179 0.033905916 0.014282874 0.012781761 0.0155529985 0.014985848 0.037813548 0.0041559185
0.024816886 0.035834152 0.021863168 0.027067514 0.029951522 0.02678507 0.009215312 -0.022984225
00000000: 5b42 5a3d f6c7 a13d 50c4 44bd 2744 94bb
00000010: 021a 4ebc 28e4 a3bc 751e 003d 086f 9abc
00000020: 5b3e 153d 21aa 0d3d bba0 dd3c 5efb c0bb
00000030: 9432 9f3b 51e4 283b 611a 4e3d 9421 bf3c
00000040: 6c16 d2bb 31bf 273d 4b6d ba3c 948e a83b
00000050: db75 5b3c 23f4 3f3c dc53 8fbb f992 db3c
00000060: 82c8 41bd 6e9c 023c 76ba 16ba 3921 90bc
00000070: 4b73 d0bc 6955 203c 8215 ddbb f5e8 f53c
00000080: 20aa 363d df62 1cbc cbe4 c13c 26bd 8c3c
00000090: 7389 90bc 21d4 f2bc cedd c83c 5039 133c
000000a0: 411a c93c 9f5d f83a 50b5 153d 7ea1 f53b
000000b0: 8e84 81bb 356b a73c 0397 82b9 2c60 7e3c
000000c0: 64d0 3abc 9e8f bebc ee57 80bc 16c7 44bb
000000d0: 36c1 943c 9e43 493d f2ae 21bd 6831 043c
000000e0: cef3 e23c 5c83 a93c 3897 883d 3523 bdbc
000000f0: 3d5d d5bc f7b6 8bbd 3acb 023c 3957 1fbc
00000100: 840a d73b 3dd7 cd3a 73ee 843d 3716 863d
00000110: ec84 5dbd d32a e3bc 1d7c 9a3c 1ef5 01bc
00000120: b2bf c43b b3ab 8dbc 0a5b f5ba 1edf 033c
00000130: 0118 44bc 04c7 a3bc 0dad a03c 72ab 30ba
00000140: be54 503d 0e01 983c 61b8 bbbc 98ef 3f3d
00000150: d7a9 8dbc 83d2 453c 3bc0 ea3c 2cfa bd3c
00000160: 0a3b 003c 12b1 203c c73f af3c a25a 683a
00000170: d370 243b eb0d f73c 7574 193c b908 343d
00000180: 8ada 0e3d 226a 4cbd c3de 283d 08d8 34bc
00000190: 0c75 143d adc7 0dbd b46f bebc 918b 5dbd
000001a0: c630 6e3c a730 02bb 0299 ab3c 76f7 833c
000001b0: c743 813c 9dbf c4bb 829e 883b 8cc6 df3c
000001c0: 0835 01bc eee0 0a3d b702 6a3c 976a 513c
000001d0: 01d2 7e3c 3487 753c 61e2 1a3d 5f2e 883b
000001e0: c84c cb3c d5c6 123d 631a b33c b1bc dd3c
000001f0: e55c f53c 5d6c db3c d2fb 163c 6a49 bcbc

action_model._discrete_distribution.branches.0.weight f4 [7, 128]
0.039261714 0.0013426794 0.0048725996 -0.0040787314 -0.006949549 -0.00878673 0.0036749553 -0.020475294
-0.039454576 0.04839575 0.03667364 -0.0055826153 0.004870148 -0.07430164 0.072316155 -0.03347905
-0.004553564 0.07329726 -0.046561915 0.02093594 -0.011039405 0.03439019 -0.0710734 -0.0025230611
0.01810109 -0.108792454 0.011207068 -0.05067642 -0.03252368 0.010934509 0.014151824 -0.01350201
0.06146463 0.004162528 0.04434736 -0.063000895 -0.038170964 -0.037303623 -0.07212448 0.03185089
0.03196383 -0.041357085 0.024381962 -0.024858683 0.035458323 0.056626778 -0.010833367 0.0059974063
-0.034046344 -0.006991404 0.00216552 -0.031880442 -0.08630523 0.04360817 0.010426121 0.008280207
0.0088964235 -0.061288107 0.057760395 -0.048847817 -0.021004114 -0.0026609036 -0.032477573 0.04830112
-0.00026851217 -0.07932012 0.037245583 0.038889 0.0094488105 0.038757045 -0.004882048 -0.07945136
0.023659464 -0.043923624 0.05139472 0.0040119584 -0.016143672 0.016594268 0.008660848 -0.008286616
0.040083062 -0.063728504 -0.008061238 0.044088785 -0.026176542 -0.019330831 0.049021605 -0.0015596834
-0.081013225 -0.048295073 0.01515833 -0.006679379 -0.054531854 0.036972005 0.037635237 0.04754875
0.04674187 -0.03496491 0.027301379 0.0020087222 0.0047175637 -0.0314186 -0.049986374 0.0023649477
0.07162207 0.0030513485 -0.018434254 -0.079003215 0.061360266 0.0026508516 0.009415441 0.0152368825
0.019632613 0.0019724716 -0.012779373 0.040186673 -0.06386485 0.047540225 0.04017694 -0.028094094
0.032862563 0.042419013 0.025865959 0.036967985 -0.02450747 -0.062303517 -0.034135863 -0.023247316
-0.06026227 0.016510425 0.005710217 -0.03189273 0.046484977 -0.03786089 -0.046374075 0.05529936
0.0052146674 0.024048038 0.019319171 0.029935194 0.040182162 -0.049315527 -0.020441802 -0.07447551
0.03422283 -0.06837056 -0.043109775 -0.08635348 0.018954426 -0.082369804 0.042308427 -0.007866754
0.0067363563 0.039141875 -0.026385823 0.05516556 0.007461493 0.06300481 -0.064164825 -0.049664047
-0.013541111 -0.04967182 0.031133318 0.073145315 -0.011031724 0.015299085 0.050142024 -0.048302628
-0.024279686 -0.025232302 0.02514165 0.03766452 0.008962342 0.029550944 0.006967615 -0.022944588
0.0739379 -0.022995112 0.05142485 0.047695704 0.038958974 -0.13695179 -0.017696312 0.022113273
0.0014502465 0.046060987 -0.048303455 0.05015823 -0.02225877 -0.001999291 0.09215756 -0.006227134
-0.055785086 0.05239733 -0.015686546 -0.010271334 -0.006229679 0.018073084 0.056288447 0.041438974
0.046095807 -0.037288282 0.027282134 0.03292861 0.056292232 0.006979688 0.081794105 0.022884365
0.034061782 0.01822522 -0.0074869264 -0.0020736798 -0.106463686 0.0006065528 0.09103338 0.115303524
0.04982611 -0.016695086 -0.027027825 -0.112870894 0.1343633 -0.0135356095 -0.05383127 0.01277679
-0.03317127 0.013368581 0.009582457 0.040831614 0.06756585 0.021806806 0.0729751 -0.014018366
0.02476955 -0.060765587 -0.0467118 -0.02167009 0.053416923 -0.007680261 -0.098561615 -0.10116199
0.0017543051 -0.0387988 -0.0013897717 -0.07273172 0.07703717 0.01930168 -0.071734466 0.031655528
0.043786444 -0.004369216 -0.11809808 0.021133773 -0.030316923 -0.0050870725 0.09782668 0.019521741
00000000: e4d0 203d d8fc af3a 54aa 9f3b e1a6 85bb
00000010: 0bb9 e3bb 37f6 0fbc 85d7 703b cebb a7bc
00000020: 1f9b 21bd 9f3a 463d 1937 163d 5fee b6bb
00000030: c395 9f3b 752b 98bd 7e1a 943d 5421 09bd
00000040: 1036 95bb e01c 963d b5b7 3ebd d981 ab3c
00000050: 9fde 34bc badc 0c3d ee8e 91bd f159 25bb
00000060: bd48 943c 94ce debd da9d 373c 1492 4fbd
00000070: 8d37 05bd a826 333c 0ddd 673c 8937 5dbc
00000080: 56c2 7b3d d165 883b 94a5 353d 9d06 81bd
00000090: 2859 1cbd afcb 18bd 00b6 93bd 1476 023d
000000a0: 81ec 023d 0c66 29bd aebc c73c 70a4 cbbc
000000b0: bf3c 113d 7bf1 673d 6f7e 31bc e485 c43b
000000c0: 2e74 0bbd 2618 e5bb 66eb 0d3b 1195 02bd
000000d0: ccc0 b0bd 7b9e 323d 52d2 2a3c b5a9 073c
000000e0: 4ec2 113c 3d09 7bbd 2a96 6c3d a614 48bd
000000f0: d210 acbc 8e62 2ebb 3407 05bd 65d7 453d
00000100: 18c7 8cb9 9672 a2bd d38e 183d 124a 1f3d
00000110: 2fcf 1a3c b5bf 1e3d 96f9 9fbb 65b7 a2bd
00000120: 7ed1 c13c 42e9 33bd 4583 523d bf76 833b
00000130: bc3f 84bc b4f0 873c 3be6 0d3c 96c4 07bc
00000140: 232e 243d 1784 82bd 4813 04bc 7196 343d
00000150: 3070 d6bc b15b 9ebc e1ca 483d 4a6e ccba
00000160: 43ea a5bd 0ed1 45bd a55a 783c b1de dabb
00000170: cb5c 5fbd f56f 173d 6827 1a3d 7ac2 423d
00000180: 6774 3f3d 5e37 0fbd 24a7 df3c c4a4 033b
00000190: cb95 9a3b cab0 00bd 83be 4cbd 3dfd 1a3b
000001a0: 98ae 923d 22f9 473b 6f03 97bc 70cc a1bd
000001b0: e754 7b3d e9b9 2d3b 3943 1a3c 1ea4 793c
000001c0: 93d4 a03c 9544 013b 9360 51bc c89a 243d
000001d0: 93cb 82bd 8ab9 423d 9390 243d 9625 e6bc
000001e0: e59a 063d 8fbf 2d3d d9e4 d33c be6b 173d
000001f0: e4c3 c8bc f931 7fbd 0cd2 0bbd 2871 bebc
00000200: 92d5 76bd df40 873c c61c bb3b f4a1 02bd
00000210: 0867 3e3d 0514 1bbd bef2 3dbd 9581 623d
00000220: cddf aa3b 6400 c53c 3d43 9e3c a73a f53c
00000230: 0d96 243d 14ff 49bd 9175 a7bc 9e86 98bd
00000240: 3d2d 0c3d dd05 8cbd e093 30bd 18da b0bd
00000250: 5046 9b3c 80b1 a8bd 9a4b 2d3d 8fe3 00bc
00000260: a7bc dc3b 3b53 203d 1527 d8bc 48f5 613d
00000270: 8a7f f43b aa08 813d d968 83bd 876c 4bbd
00000280: 89db 5dbc ae74 4bbd 4d0b ff3c 36cd 953d
00000290: 67be 34bc 03a9 7a3c b961 4d3d fad8 45bd
000002a0: 31e6 c6bc f9b3 cebc ddf5 cd3c 1d46 1a3d
000002b0: c9d6 123c d214 f23c 9750 e43b 4af6 bbbc
000002c0: c16c 973d 3f60 bcbc dda2 523d 925c 433d
000002d0: 7293 1f3d 173d 0cbe dbf7 90bc e526 b53c
000002e0: 3316 be3a 72aa 3c3d d8d9 45bd b772 4d3d
000002f0: 0658 b6bc 8906 03bb 1abd bc3d fc0c ccbb
00000300: e77e 64bd 959e 563d 1281 80bc 1949 28bc
00000310: 5622 ccbb 010e 943c b78e 663d eabb 293d
00000320: f5ce 3c3d 99bb 18bd c87e df3c 26e0 063d
00000330: af92 663d deb5 e43b ab83 a73d fe77 bb3c
00000340: 5e84 0b3d 0e4d 953c e454 f5bb 93e6 07bb
00000350: a209 dabd 1201 1f3a b56f ba3d 4124 ec3d
00000360: 7716 4c3d 22c4 88bc 7569 ddbc db28 e7bd
00000370: 8896 093e 76c4 5dbc 2e7e 5cbd be55 513c
00000380: 99de 07bd e507 5b3c bdff 1c3c 0d3f 273d
00000390: f75f 8a3d 30a4 b23c f873 953d 4aad 65bc
000003a0: 83e9 ca3c 56e5 78bd df54 3fbd 7985 b1bc
000003b0: b4cb 5a3d b3aa fbbb acda c9bd 042e cfbd
000003c0: b6f0 e53a 7eeb 1ebd 0029 b6ba 5ef4 94bd
000003d0: aac5 9d3d 8f1e 9e3c 85e9 92bd 3aa9 013d
000003e0: 6a59 333d a42b 8fbb 68dd f1bd bc20 ad3c
000003f0: 325b f8bc 75b1 a6bb 5b59 c83d 0fec 9f3c

action_model._discrete_distribution.branches.0.bias f4 [7]
0.0018149414 -0.003600739 -0.009173771 -0.07291004 -0.016987002 0.0020243009 0.02273693
00000000: 54e3 ed3a 60fa 6bbb 964d 16bc dc51 95bd
00000010: 5328 8bbc 22aa 043b cc42 ba3c

exp_avg f4 [128, 164]
9.2971306e-05 -3.1733185e-07 3.6636534e-06 0.0001410386 0.00012854878 7.421301e-05 -5.8217023e-07 -4.5256165e-06
0.00016825103 0.0001519687 0.00021408903 3.6704207e-06 9.112487e-05 -7.152805e-05 4.311255e-05 4.6963454e-05
-1.6572985e-08 -1.4712014e-06 0.00019188058 0.00019044126 0.00029185053 -9.071218e-06 -3.6301157e-05 -9.121903e-06
2.6767339e-05 8.806327e-05 -1.4668553e-08 -5.7036777e-06 0.00015501131 0.0001718388 0.0002188764 -1.4547959e-06
-6.993374e-06 2.692805e-05 6.770605e-05 2.2531058e-06 -4.603082e-09 -5.4275797e-06 0.00024053537 0.00025272634
0.00019888364 -1.004948e-06 9.001932e-05 -5.0541737e-05 6.0607184e-05 1.2357174e-05 7.3213e-08 -5.5859787e-06
0.00023051184 0.00021507562 0.000107220854 -1.383373e-06 6.524564e-05 6.627313e-05 9.604147e-05 -6.3562848e-06
1.9424506e-09 -5.240003e-06 0.00024895056 0.00024934928 5.1290106e-05 -4.805035e-08 3.3154283e-05 0.00015295994
0.00016540445 -3.3678836e-05 2.00901e-08 -5.2096766e-06 0.00027622475 0.0002802315 9.629318e-05 2.512685e-07
1.9219471e-05 0.00012159237 0.00012955863 -6.210345e-05 1.1513723e-08 1.2885532e-07 0.00029931933 0.00028329034
7.5829244e-05 -4.6836327e-08 1.6560034e-05 0.00014501381 0.00016020883 -4.0697832e-05 9.418507e-10 1.2885218e-07
0.00027792426 0.00026836136 0.00011533352 2.0748047e-11 1.2628938e-05 0.00010939378 0.00012685703 5.9760976e-05
6.3842633e-09 1.2248766e-07 0.0001774664 0.00025168815 6.815101e-05 1.196716e-07 1.2316052e-05 0.00015676956
0.00016148551 -4.308571e-05 -6.5570383e-12 -1.3470412e-07 0.00028057673 0.00024941575 2.4393406e-05 -1.19459305e-08
-6.806863e-07 0.0002136555 0.0002043537 5.7362762e-05 5.9937593e-09 -4.829952e-07 0.0001804705 0.00020233466
8.910187e-05 -1.8973019e-20 -6.799994e-07 0.00014893441 0.00014971354 6.497232e-05 -7.8041936e-08 -3.2431421e-07
0.00017278633 0.00017746836 0.0001689009 -1.1906282e-08 1.1975002e-06 6.726985e-05 8.8320085e-05 -2.9631687e-05
-1.5775315e-12 3.134467e-07 0.00026667464 0.0002807522 0.00013915414 -3.6269701e-22 1.1975009e-06 9.700462e-05
0.00014030369 6.450323e-05 1.5342799e-08 1.6764129e-06 0.00017116129 0.000205537 6.450323e-05 1.5342799e-08
1.6764129e-06 0.00017116129 0.000205537 -5.5113946e-06 -5.0437564e-05 0.0001150449 0.0024075764 0.00022136612
0.00010936962 0.00011621778 0.00023735623 0.00023735623 -7.0153794e-05 -2.583397e-08 -3.8180606e-05 -3.880149e-05
-5.4215572e-05 -7.4116695e-05 -9.343634e-08 -3.6211195e-06 -6.933049e-05 -7.510233e-05 -9.039088e-05 -4.1537487e-06
-8.803297e-05 3.5415833e-05 -3.983207e-05 -3.2770935e-05 -1.8336722e-08 -9.4988565e-07 -0.00011342262 -0.00011654591
-0.00010957933 4.6789887e-06 -5.2878888e-05 1.0617468e-05 -3.1562242e-05 -4.762246e-05 -7.4102378e-09 2.2317413e-07
-9.975508e-05 -0.00010239539 -6.4141204e-05 3.944894e-06 -0.000102878745 1.591332e-05 -4.3244323e-05 -1.304282e-05
-2.753351e-09 3.1388716e-08 -0.0001341476 -0.0001361641 -5.8941027e-05 8.4780635e-07 -0.00014031731 5.1248746e-05
-3.221884e-05 -7.789899e-05 2.259226e-10 3.2035228e-08 -6.929502e-05 -6.753486e-05 1.12978605e-05 1.6592661e-07
-0.00013224685 -2.637872e-05 -7.186303e-05 -2.3177803e-05 -1.0211561e-10 -1.2491022e-08 -0.00012397137 -0.00012557274
3.5146117e-05 1.0146974e-07 -6.5163695e-05 -0.0001172457 -0.00013511289 4.7371395e-06 -6.222223e-11 -1.249138e-08
-0.00015188639 -0.00015430115 -9.498344e-06 2.8974382e-08 4.4639673e-06 -0.00014215634 -0.00014125007 -1.8675913e-05
-1.8808503e-10 -2.370077e-10 -0.00012848545 -0.00013071933 -2.1401622e-05 9.783016e-10 -1.1161017e-06 -0.00012464497
-0.00013716055 -2.7224918e-05 -1.7251421e-12 -2.371497e-10 -0.00011993657 -0.000120950484 -4.2800704e-05 1.9782913e-10
00000000: 97f9 c238 c25d aab4 16dd 7536 c3e3 1339
00000010: 0dcb 0639 cea2 9b38 6f46 1cb5 c0da 97b6
00000020: 8b6c 3039 ca59 1f39 167d 6039 5951 7636
00000030: 4b1a bf38 5401 96b8 c0d3 3438 a0fa 4438
00000040: 615c 8eb2 1876 c5b5 8d33 4939 30b1 4739
00000050: 8403 9939 9630 18b7 1242 18b8 460a 19b7
00000060: 6c8a e037 9cae b838 fa00 7cb2 3862 bfb6
00000070: 888a 2239 a02f 3439 3082 6539 6842 c3b5
00000080: a0a8 eab6 8ce3 e137 69fd 8d38 1034 1736
00000090: 2329 9eb1 8e1e b6b6 3938 7c39 5b80 8439
000000a0: 6c8b 5039 c0e1 86b5 c1c8 bc38 c7fc 53b8
000000b0: 7834 7e38 a851 4f37 4639 9d33 316f bbb6
000000c0: 8db5 7139 ec85 6139 c2db e038 56ac b9b5
000000d0: 7cd4 8838 1efc 8a38 df69 c938 1248 d5b6
000000e0: f47b 0531 48d3 afb6 9485 8239 18bb 8239
000000f0: 5520 5738 eb5f 4eb3 240f 0b38 df63 2039
00000100: 6b70 2d39 6042 0db8 9992 ac32 c8ce aeb6
00000110: 42d2 9039 09ec 9239 02f1 c938 14e6 8634
00000120: 8039 a137 68ff fe38 21da 0739 893d 82b8
00000130: e4cd 4532 7b5b 0a34 f6ed 9c39 9686 9439
00000140: 8406 9f38 1629 49b3 67ea 8a37 d90e 1839
00000150: bbfd 2739 f7b2 2ab8 6d72 8130 9e5a 0a34
00000160: 5db6 9139 dab2 8c39 36df f138 7380 b62d
00000170: e0e0 5337 576a e538 ed04 0539 dca7 7a38
00000180: 935c db31 2785 0334 4616 3a39 03f5 8339
00000190: 4bec 8e38 147f 0034 0aa1 4e37 8262 2439
000001a0: 7054 2939 eeb6 34b8 8db4 e6ac 30a3 10b4
000001b0: 5f1a 9339 04c4 8239 71a0 cc37 c23a 4db2
000001c0: 68b8 36b5 b608 6039 c747 5639 cc98 7038
000001d0: aaf1 cd31 2da7 01b5 ae3c 3d39 cc29 5439
000001e0: 34dc ba38 f231 b39e 3489 36b5 472b 1c39
000001f0: 6cfc 1c39 c041 8838 0298 a7b3 681d aeb4
00000200: fa2d 3539 cd16 3a39 fd1a 3139 628c 4cb2
00000210: cbb9 a035 3a13 8d38 7c38 b938 9091 f8b7
00000220: 9004 deab c947 a834 77d0 8b39 ec31 9339
00000230: e8e9 1139 a53c db9b d1b9 a035 f56e cb38
00000240: 7c1e 1339 e845 8738 2ccb 8332 1c01 e135
00000250: c279 3339 6b85 5739 e845 8738 2ccb 8332
00000260: 1c01 e135 c279 3339 6b85 5739 85ee b8b6
00000270: ec8c 53b8 4344 f138 6ec8 1d3b 841e 6839
00000280: 5e5d e538 f2b9 f338 d4e2 7839 d4e2 7839
00000290: 881f 93b8 80e9 ddb2 1d24 20b8 c8be 22b8
000002a0: 8765 63b8 196f 9bb8 2ca7 c8b3 5c02 73b6
000002b0: 8665 91b8 4280 9db8 3c90 bdb8 6e60 8bb6
000002c0: 579e b8b8 768b 1438 5c11 27b8 8673 09b8
000002d0: e182 9db2 a5fb 7eb5 4edd edb8 1c6a f4b8
000002e0: f4cd e5b8 3500 9d36 46ca 5db8 ae21 3237
000002f0: b361 04b8 3abe 47b8 249d feb1 a3a1 6f34
00000300: 9a33 d1b8 1bbd d6b8 8c83 86b8 625e 8436
00000310: 9bc0 d7b8 987d 8537 3d61 35b8 7cd2 5ab7
00000320: 7735 3db1 42d0 0633 f9a9 0cb9 46c7 0eb9
00000330: 7237 77b8 cf94 6335 2422 13b9 ecf3 5638
00000340: b722 07b8 b45d a3b8 8f67 782f 1b97 0933
00000350: 7b52 91b8 80a1 8db8 f18b 3d37 8f29 3234
00000360: beab 0ab9 df47 ddb7 2cb5 96b8 f46d c2b7
00000370: fa8d e0ae 1998 56b2 50fe 01b9 2dac 03b9
00000380: db69 1338 94e7 d933 7ea8 88b8 cee1 f5b8
00000390: 17ad 0db9 b8f3 9e36 00d4 88ae ac99 56b2
000003a0: b143 1fb9 e6cb 21b9 145b 1fb7 57e3 f832
000003b0: 30c9 9536 cd0f 15b9 871c 14b9 38aa 9cb7
000003c0: 3bcd 4eaf de4b 82af 0dba 06b9 b411 09b9
000003d0: a287 b3b7 ed74 8630 f6cc 95b5 21b3 02b9
000003e0: c1d2 0fb9 1161 e4b7 cbca f2ab da5f 82af
000003f0: 7586 fbb8 cca6 fdb8 e884 33b8 f383 592f

exp_avg_sq f4 [128, 164]
3.60852e-07 4.965048e-10 3.3612582e-07 3.7944702e-07 4.108955e-07 3.785598e-07 5.9760824e-10 1.7872802e-07
5.365207e-07 5.62211e-07 3.395555e-07 1.0563228e-09 4.5399426e-07 2.6630147e-07 3.1175142e-07 3.6673796e-07
7.968444e-10 7.6455386e-08 6.627691e-07 6.828962e-07 3.146588e-07 5.4871894e-09 5.2740876e-07 2.190406e-07
2.7215867e-07 3.6501362e-07 1.4430009e-09 4.2671818e-08 7.201643e-07 7.422075e-07 3.0343114e-07 8.91823e-09
5.4490033e-07 2.0074873e-07 2.580035e-07 3.4702774e-07 2.0569093e-09 2.8504566e-08 7.3654934e-07 7.6783266e-07
3.0175718e-07 9.336766e-09 5.500652e-07 2.0339056e-07 2.6566957e-07 3.278274e-07 1.8171299e-09 1.767745e-08
7.649592e-07 7.941762e-07 2.9174106e-07 6.8285217e-09 4.9882254e-07 2.5149717e-07 3.147208e-07 3.1233984e-07
8.0741647e-10 6.211849e-09 7.901735e-07 8.1305586e-07 2.8075635e-07 1.0267553e-09 3.6992967e-07 4.2779038e-07
4.9035174e-07 3.334961e-07 3.5831332e-10 2.1950244e-09 7.73539e-07 8.009909e-07 2.182477e-07 3.7233705e-10
4.7526836e-08 8.880728e-07 9.091694e-07 3.5008247e-07 1.7992882e-10 5.071262e-10 7.678438e-07 7.977554e-07
1.6304583e-07 1.2476119e-10 4.2322115e-09 1.0038549e-06 1.0207351e-06 3.4932145e-07 8.101738e-11 7.218349e-11
7.6709347e-07 8.0829506e-07 1.4519193e-07 7.291871e-11 7.0809614e-10 1.0273957e-06 1.0487116e-06 3.0476414e-07
8.5880365e-11 8.685103e-11 8.190126e-07 8.505913e-07 1.2622382e-07 5.1794968e-11 3.1949943e-10 1.0537523e-06
1.0656315e-06 2.722141e-07 9.1190486e-11 7.430648e-11 8.5617586e-07 8.8758844e-07 1.2109754e-07 5.995429e-11
1.0654368e-10 1.0519664e-06 1.070343e-06 2.2606234e-07 1.01563646e-10 5.1212822e-11 9.2578347e-07 9.4731365e-07
1.0954192e-07 1.01789376e-10 6.7897105e-11 1.0738847e-06 1.0919216e-06 1.7894195e-07 1.5115724e-10 3.4302245e-11
9.934274e-07 1.0102294e-06 9.654045e-08 1.625406e-10 4.8345977e-11 1.0900061e-06 1.106099e-06 1.4458723e-07
2.205619e-10 3.447866e-11 1.0446937e-06 1.0560484e-06 9.991952e-08 2.5000046e-10 4.4377457e-11 1.0734432e-06
1.0867068e-06 1.1546842e-07 2.4757493e-10 3.703983e-11 1.0558535e-06 1.073683e-06 1.1546842e-07 2.4757493e-10
3.703983e-11 1.0558535e-06 1.073683e-06 4.814997e-09 5.455888e-08 3.9783905e-07 5.268239e-05 8.734426e-07
1.6745001e-07 1.796208e-07 1.2018824e-06 1.2018912e-06 2.5463166e-07 2.3261834e-10 1.7173141e-07 1.9598916e-07
2.1426544e-07 2.5291175e-07 2.79461e-10 9.6078615e-08 2.8083755e-07 3.0123317e-07 2.4447232e-07 4.5067358e-10
2.3996176e-07 1.3021298e-07 1.5633276e-07 2.3958737e-07 4.5631462e-10 4.675598e-08 3.5023388e-07 3.6395795e-07
2.2067535e-07 2.2807412e-09 2.8437955e-07 1.1525635e-07 1.4354139e-07 2.345164e-07 7.848111e-10 2.7101274e-08
3.8601382e-07 4.0139224e-07 2.09827e-07 4.0714077e-09 2.989427e-07 1.1159453e-07 1.4260918e-07 2.2421433e-07
1.1941844e-09 1.7676747e-08 4.0373394e-07 4.215467e-07 2.0132106e-07 4.34765e-09 3.0387199e-07 1.1706595e-07
1.5036487e-07 2.0931726e-07 1.0088819e-09 9.804601e-09 4.2254402e-07 4.4097388e-07 1.8684234e-07 3.3884504e-09
2.8491422e-07 1.4341347e-07 1.7823513e-07 1.878886e-07 3.7246248e-10 2.2547606e-09 4.4977799e-07 4.6758382e-07
1.6621819e-07 3.753598e-10 1.9899255e-07 2.5840157e-07 2.9817e-07 1.8393995e-07 1.517551e-10 5.947775e-10
4.5697038e-07 4.7364009e-07 1.2005825e-07 9.9335824e-11 2.6229598e-08 5.2039076e-07 5.370136e-07 1.8732862e-07
7.272775e-11 1.5242871e-10 4.6156762e-07 4.8206954e-07 8.790183e-08 1.9384374e-11 2.1453996e-09 5.845375e-07
5.9953993e-07 1.888042e-07 2.7904075e-11 1.0993296e-11 4.6467227e-07 4.9108104e-07 6.774301e-08 6.2689237e-12
00000000: 1fbb c134 6b7a 0830 c874 b434 cdb6 cb34
00000010: 0c99 dc34 dd3c cb34 f144 2430 62e8 3f34
00000020: 6c05 1035 d9ea 1635 274c b634 0e2e 9130
00000030: 7fbc f334 32f8 8e34 ca5e a734 15e4 c434
00000040: f108 5b30 cb2f a433 25e9 3135 4550 3735
00000050: 60ee a834 d489 bc31 4193 0d35 6c31 6b34
00000060: 341d 9234 17f7 c334 1553 c630 2946 3733
00000070: 5051 4135 1c3c 4735 42e7 a234 ca36 1932
00000080: 4445 1235 648d 5734 bb83 8a34 214f ba34
00000090: 8859 0d31 34da f432 49b7 4535 0f1d 4e35
000000a0: 3101 a234 8867 2032 31a8 1335 9263 5a34
000000b0: 59a1 8e34 4100 b034 93be f930 20d9 9732
000000c0: 9957 4d35 5f2f 5535 96a0 9c34 50a0 ea31
000000d0: d3e6 0535 8205 8734 e6f6 a834 a9af a734
000000e0: e2f0 5d30 0070 d531 4f1c 5435 c640 5a35
000000f0: dcba 9634 be1d 8d30 bf9a c634 10ab e534
00000100: b7a0 0335 5b0b b334 1efc c42f 47d7 1631
00000110: 32a5 4f35 ad03 5735 7957 6a34 c8b1 cc2f
00000120: 4f20 4c33 e663 6e35 a50d 7435 f8f2 bb34
00000130: 76d5 452f d565 0b30 d31d 4e35 5525 5635
00000140: b211 2f34 272d 092f ed6a 9131 31bc 8635
00000150: 3100 8935 608a bb34 bb28 b22e b1bb 9e2e
00000160: 43ea 4d35 9df9 5835 0ee6 1b34 9659 a02e
00000170: d6a3 4230 0ce5 8935 75c1 8c35 779e a334
00000180: 59da bc2e c9fc be2e 1eda 5b35 3054 6435
00000190: 2488 0734 f3cb 632e 8ca5 af2f a76e 8d35
000001a0: d206 8f35 d224 9234 ae87 c82e d466 a32e
000001b0: f5d3 6535 9d42 6e35 0a07 0234 44d7 832e
000001c0: c24a ea2e 4a31 8d35 b5a8 8f35 8bbb 7234
000001d0: 4057 df2e 833c 612e 5b83 7835 e64a 7e35
000001e0: 4f3d eb33 53d6 df2e ac4e 952e 6622 9035
000001f0: 248e 9235 3023 4034 fb32 262f e5dc 162e
00000200: e855 8535 3897 8735 ac51 cf33 1db7 322f
00000210: bba0 542e 534c 9235 4675 9435 d63f 1b34
00000220: a882 722f 85a3 172e 6737 8c35 8cbd 8d35
00000230: 5693 d633 7070 892f 932c 432e 3a13 9035
00000240: f6da 9135 6ff7 f733 131b 882f 24e7 222e
00000250: dab6 8d35 781b 9035 6ff7 f733 131b 882f
00000260: 24e7 222e dab6 8d35 781b 9035 2971 a531
00000270: 1f54 6a33 9596 d534 49f7 5c38 8576 6a35
00000280: 4fcc 3334 cadd 4034 5d50 a135 ab50 a135
00000290: 4fb4 8834 3ec4 7f2f 2c65 3834 1771 5234
000002a0: d610 6634 edc7 8734 a4a2 992f c753 ce33
000002b0: 05c6 9634 2cb9 a134 0540 8334 abc2 f72f
000002c0: 18d4 8034 acd0 0b34 6cdc 2734 a3a0 8034
000002d0: 93dc fa2f bed0 4833 c707 bc34 0066 c334
000002e0: c7f2 6c34 39bb 1c31 d4ac 9834 d982 f733
000002f0: 5b20 1a34 61cf 7b34 2cba 5730 55cc e832
00000300: 563d cf34 ee7e d734 ce4c 6134 7be4 8b31
00000310: 5f7e a034 bea5 ef33 1d20 1934 91bf 7034
00000320: a120 a430 94d7 9732 c5c0 d834 f050 e234
00000330: b62a 5834 5562 9531 d923 a334 b065 fb33
00000340: fb73 2134 b1c0 6034 e0a8 8a30 1771 2832
00000350: 02da e234 fdbe ec34 d59e 4834 40da 6831
00000360: 50f6 9834 32fd 1934 e660 3f34 6dbe 4934
00000370: 6fc3 cc2f 2bf2 1a31 0479 f134 3b08 fb34
00000380: b579 3234 325b ce2f a8aa 5534 71ba 8a34
00000390: 2c14 a034 0781 4534 43db 262f bf7d 2330
000003a0: 8855 f534 9948 fe34 5ce9 0034 1971 da2e
000003b0: 7f4f e132 fbb0 0b35 4b27 1035 8024 4934
000003c0: 15ee 9f2e de98 272f 5fcd f734 9167 0135
000003d0: 8bc4 bc33 bb81 aa2d 456e 1331 1ce9 1c35
000003e0: 12f0 2035 1aba 4a34 6472 f52d 6765 412d
000003f0: 1278 f934 d5d2 0335 1d7a 9133 7291 dc2c

exp_avg f4 [128]
0.00023735625 -0.00014716179 -0.00014356553 -0.00029893187 -0.00028658318 5.8079153e-05 2.949308e-05 -0.00021631367
3.1427066e-05 -0.0003687803 -0.00033732047 4.2315616e-05 -8.177123e-05 -0.0003285486 0.00040549078 0.000109786546
0.00021068384 4.7572696e-05 2.0485615e-05 6.3721265e-05 0.00013011922 -7.378282e-05 -2.1384914e-05 0.00012180889
0.00019648892 0.0002663831 -8.27913e-05 2.2640303e-05 0.00014211905 8.333174e-05 -5.6650366e-05 -0.00010461331
-0.0001266837 -0.00015538008 -0.00023175857 0.00011984952 0.00011321501 1.3534314e-05 0.00020968396 -0.00019622533
-0.00018925034 -0.00011891653 8.145847e-06 0.00045489913 -4.0831317e-05 1.7356666e-05 -0.00011352612 1.1620368e-05
-1.9292096e-05 -3.0437386e-05 -0.000111715206 -0.00015929391 0.0003353234 -0.00016274217 0.00027173993 -0.00017454778
-0.0001768702 -9.698688e-06 3.8794813e-05 -0.00013846031 0.00035197876 -0.0002969207 0.00018678322 -0.00026039509
9.983345e-05 -1.4360756e-05 0.00014327279 -6.523065e-05 -0.00022653365 0.0002875344 -0.0002875983 -0.00020542975
-2.428628e-05 0.00046306444 0.00038540113 -1.4378384e-06 -0.0006365059 -8.207488e-05 5.931378e-05 -0.0001388341
-0.00019407782 0.00012250412 1.6948632e-05 -0.00010407947 -4.5547637e-05 0.00023964523 -0.00021663056 9.441383e-05
0.00033547042 2.3184397e-05 -0.00034382858 -2.630845e-05 3.046271e-05 -1.8699218e-05 3.7371006e-05 0.00039651984
8.520612e-05 3.7121587e-05 0.00027879857 -2.198249e-05 0.00031946483 -8.9696456e-05 4.850151e-05 -7.235104e-05
0.00027971165 -7.188441e-05 -8.0543075e-05 -6.971352e-05 0.00018616828 6.751575e-05 -0.0003965937 -7.697798e-05
-0.00034761676 -0.00017182357 0.00021858989 -3.2789067e-05 0.0003394641 -0.00022662627 0.0003708101 -0.00019303002
0.00039657755 0.0003748369 -3.704636e-05 -6.267008e-05 -0.0002178985 -0.00019603182 6.230719e-06 -0.00040888196
00000000: d5e2 7839 714f 1ab9 148a 16b9 f5b9 9cb9
00000010: 8b40 96b9 049a 7338 e867 f737 42d2 62b9
00000020: 8ed0 0338 db58 c1b9 63da b0b9 0c7c 3138
00000030: 987c abb8 0c41 acb9 0d98 d439 343d e638
00000040: 03eb 5c39 cb88 4738 86d8 ab37 18a2 8538
00000050: 9d70 0839 dabb 9ab8 c163 b3b7 a673 ff38
00000060: 9808 4e39 56a9 8b39 3ea0 adb8 aeeb bd37
00000070: cb05 1539 63c2 ae38 de9b 6db8 d863 dbb8
00000080: 66d6 04b9 86ed 22b9 3804 73b9 b957 fb38
00000090: d86d ed38 7011 6337 9cde 5b39 d6c1 4db9
000000a0: 8071 46b9 d362 f9b8 25aa 0837 877f ee39
000000b0: 4b42 2bb8 2899 9137 df14 eeb8 1af5 4237
000000c0: 76d5 a1b7 ca53 ffb7 a548 eab8 2208 27b9
000000d0: 58ce af39 c5a5 2ab9 5178 8e39 d006 37b9
000000e0: 3c76 39b9 8cb7 22b7 9db7 2238 a82f 11b9
000000f0: ca89 b839 06ac 9bb9 3ddb 4339 a385 88b9
00000100: ad5d d138 faee 70b7 7f3b 1639 70cc 88b8
00000110: aa89 6db9 37c0 9639 cac8 96b9 a168 57b9
00000120: 64ba cbb7 75c7 f239 aa0f ca39 c0fb c0b5
00000130: 30db 26ba 9e1f acb8 b0c7 7838 ff93 11b9
00000140: 5e81 4bb9 7374 0039 e92c 8e37 3d45 dab8
00000150: 670a 3fb8 4749 7b39 5327 63b9 0a00 c638
00000160: 14e2 af39 1d7c c237 e443 b4b9 f7b0 dcb7
00000170: 2c8a ff37 44dc 9cb7 d0be 1c38 fee3 cf39
00000180: b0b0 b238 00b3 1b38 b62b 9239 0a67 b8b7
00000190: d87d a739 6b1b bcb8 1a6e 4b38 2bbb 97b8
000001a0: 43a6 9239 a6c0 96b8 3ce9 a8b8 2933 92b8
000001b0: 2b36 4339 3e97 8d38 e8ed cfb9 3d6f a1b8
000001c0: 5540 b6b9 8a2b 34b9 4735 6539 fe86 09b8
000001d0: 1afa b139 87a2 6db9 4a69 c239 1a68 4ab9
000001e0: bdeb cf39 c285 c439 3a62 1bb8 be6d 83b8
000001f0: af7b 64b9 e48d 4db9 7811 d136 355f d6b9

exp_avg_sq f4 [128]
1.2019547e-06 7.0326263e-07 1.5580608e-07 5.811705e-07 9.514552e-07 4.4120875e-07 7.011625e-08 6.522713e-07
8.232251e-09 2.4150306e-06 1.8408809e-06 1.3904805e-07 2.9825603e-07 8.926858e-07 9.4700584e-07 3.0222986e-07
1.2128249e-06 2.8100738e-08 2.068935e-08 6.9686223e-07 2.1615483e-06 7.1320005e-07 3.8958296e-07 2.902066e-07
5.3354796e-07 1.0571368e-06 5.383292e-07 1.3610126e-07 1.2323608e-06 1.4069133e-07 2.928282e-07 1.6414162e-06
2.3401476e-07 3.5063854e-07 1.6277095e-06 1.6532269e-07 8.772942e-07 1.6240197e-06 6.634244e-07 1.3932125e-06
9.104297e-07 3.8088677e-07 4.2284977e-08 1.1720939e-06 1.0110569e-07 1.6402952e-08 2.1484689e-07 1.8217907e-08
7.4083837e-09 7.6176474e-07 6.275553e-07 5.807264e-07 6.224491e-07 1.4540876e-07 8.163123e-07 1.9034112e-06
3.3199337e-06 2.4602645e-07 1.4253422e-07 1.5435403e-07 5.9035045e-07 3.4142937e-07 3.4170566e-07 3.6301307e-07
7.67072e-08 6.288385e-07 4.2500554e-07 4.279696e-08 2.5718728e-07 1.2243256e-06 2.2979261e-06 1.8542943e-07
1.6175782e-07 1.1125913e-06 1.4023985e-06 3.7826536e-07 2.9569862e-06 9.2773426e-08 9.222222e-08 2.55427e-07
1.0014281e-06 2.6455382e-07 1.6004682e-07 7.94885e-08 2.0934067e-07 1.804704e-07 1.4101831e-06 4.036873e-07
1.0345263e-06 3.6704753e-07 1.2898951e-06 3.6563538e-08 1.8436968e-08 7.4648206e-08 8.341455e-08 1.0386033e-06
3.474756e-07 7.70222e-07 1.0520479e-06 1.2625017e-07 6.543244e-07 5.734717e-07 2.3850117e-07 2.092965e-07
1.5206334e-06 2.13836e-07 8.744499e-07 4.0394292e-07 4.602156e-07 1.4141738e-06 1.4544253e-06 3.4402862e-07
3.0978442e-06 1.1422666e-07 4.2601022e-07 3.169612e-08 7.093529e-07 4.1806857e-07 1.0328214e-06 1.0937658e-06
1.2087559e-06 8.780031e-07 3.788312e-08 1.822223e-07 1.2266155e-06 1.7788874e-07 2.5382645e-08 1.0409859e-06
00000000: d952 a135 d7c7 3c35 a64b 2734 bc01 1c35
00000010: 8167 7f35 45df ec34 d192 9633 be17 2f35
00000020: d36d 0d32 e911 2236 3014 f735 3d4d 1534
00000030: ff1f a034 e7a0 6f35 bf35 7e35 2842 a234
00000040: 59c8 a235 2d62 f132 5db8 b132 0210 3b35
00000050: 1e0f 1136 bc72 3f35 e027 d134 b1cd 9b34
00000060: 2339 0f35 f2e2 8d35 b381 1035 3b23 1234
00000070: 9867 a535 f010 1734 0036 9d34 a24e dc35
00000080: 7d45 7b34 653f bc34 ac77 da35 8e83 3134
00000090: 337f 6b35 e4f8 d935 2d16 3235 6bfe ba35
000000a0: 4164 7435 ae7c cc34 d39c 3533 d750 9d35
000000b0: 711f d933 79e6 8c32 aab0 6634 9a7d 9c32
000000c0: d58c fe31 137c 4c35 4675 2835 37e3 1b35
000000d0: 6016 2735 a821 1c34 8e20 5b35 b678 ff35
000000e0: 07cc 5e36 9e15 8434 820b 1934 83bc 2534
000000f0: 9378 1e35 b24d b734 ab73 b734 23e4 c234
00000100: 3bba a433 74cd 2835 512c e434 c1cf 3733
00000110: 8d13 8a34 8253 a435 1236 1a36 741a 4734
00000120: a7af 2d34 5954 9535 0c3a bc35 6514 cb34
00000130: a370 4636 bb3a c733 b40b c633 9f21 8934
00000140: cf68 8635 0008 8e34 56d9 2b34 44b3 aa33
00000150: 20c7 6034 53c7 4134 8645 bd35 5cba d834
00000160: 0eda 8a35 a10e c534 7520 ad35 090a 1d33
00000170: 525f 9e32 494e a033 a221 b333 2366 8b35
00000180: af8c ba34 41c1 4e35 1734 8d35 628f 0734
00000190: d5a4 2f35 adf0 1935 5a0b 8034 fcba 6034
000001a0: 9118 cc35 cb9a 6534 bdbb 6a35 7edd d834
000001b0: 8d13 f734 a4ce bd35 ac35 c335 efb2 b834
000001c0: 8fe4 4f36 c54c f533 66b6 e434 4122 0833
000001d0: 5c6a 3e35 e872 e034 799f 8a35 82cd 9235
000001e0: 893c a235 eaaf 6b35 eeb4 2233 e2a8 4334
000001f0: 30a2 a435 af01 3f34 0709 da32 01b8 8b35
