CCP-main/results/WeightAgent_Training/WeightAgent_Training/WeightAgent_Training-896026.onnx (onnx, 173232 bytes, 6 tensors)

network_body._body_endoder.seq_layers.0.weight f4 [128, 197]
000000 cb df 0a bc 89 3b cf bc 92 01 6a bd 17 6b 6b bd
       -0.008476208 -0.025296943 -0.057130404 -0.057475176
000010 eb a4 de ba a8 0b ca 3c b0 a0 12 3e f0 3c 32 bd
       -0.0016986405 0.024663761 0.1431911 -0.043515146
000020 4e d1 05 3e e9 c7 27 3c aa ba b6 3d 49 4a 1c 3b
       0.13068125 0.010240533 0.08922322 0.0023847988
000030 00 84 2b 3e aa 88 bb 3d 12 fd 7d 3d bc 4f b9 bc
       0.16749573 0.09156926 0.062008925 -0.022621028
000040 53 73 df 3c 11 09 0b 3e 24 9f 2c bd fb cb 01 bd
       0.02727667 0.13577677 -0.042143956 -0.03168867
000050 2b a1 89 bd 3a d1 8b bb 04 ff a5 bd b2 86 88 3c
       -0.067201935 -0.004266885 -0.08105281 0.01666579
000060 e5 34 94 bc 4b 20 5f 3d 6f 89 81 bd 66 c5 3e 3d
       -0.018091628 0.054474156 -0.063250415 0.046574973
000070 dd c5 3c 3d 4c 5b b3 bd 05 d0 23 3c cd a3 c8 bc
       0.046087135 -0.08757648 0.009998326 -0.024492169
000080 80 a4 08 bd 6e 06 69 bd ff 43 2f bd d7 ef 39 3b
       -0.033360004 -0.056890897 -0.042789456 0.0028371715
000090 c1 f9 0a 3e 0a 0f 8b bb 2f cf 86 3c cb 3a 0d 3e
       0.13571836 -0.004243736 0.016456215 0.13791959
0000a0 60 fc 9c 3c 8c 4e 55 bb 15 d8 36 3d 58 14 62 3d
       0.01916331 -0.0032548038 0.044639666 0.055195183
0000b0 eb a7 11 bd 99 3a 5c 3d 78 b5 bf 3c ae 3c 8e 3d
       -0.03556053 0.05376682 0.02340196 0.069451675
0000c0 2a a2 3e bd 58 fa ac bb 51 98 18 be a9 79 d1 3d
       -0.04654137 -0.0052788667 -0.14901854 0.10228283
0000d0 4c 6d d4 bd b0 d8 94 bc 26 79 2a bc 84 16 e5 ba
       -0.10372409 -0.01816973 -0.010404861 -0.0017478024
0000e0 45 fe 39 3c 41 56 ca 3c 08 f0 95 3d ff ab b0 bd
       0.0113521265 0.024699332 0.07321173 -0.08626556
0000f0 15 99 4c bd bf a4 cf bb eb 69 f9 bc 8d e1 7c 3d
       -0.049950678 -0.006336778 -0.030446013 0.06173854
000100 9f 5e c8 3c a6 0c 68 3c 0e 84 bd 3d 35 f8 d9 3c
       0.024459181 0.014163172 0.09253703 0.026607612
000110 9f 3a 33 bc ff 52 c8 3b 1c b4 4c 3e 3a 96 1c 3d
       -0.010939269 0.0061134095 0.19990581 0.038229205
000120 24 55 7b bd 29 60 60 3d cd d3 1e be 2f 04 cf 3d
       -0.061360493 0.054779205 -0.15510483 0.1010822
000130 67 73 a2 b9 e6 be 0a 3c c9 f4 22 3d ff 4b f5 3d
       -0.0003098503 0.008468365 0.039784227 0.11977386
000140 db d8 90 bd 46 45 e5 bc 28 66 28 bd bd 83 01 3e
       -0.07072612 -0.027987134 -0.04111305 0.1264791
000150 9b 1f b2 bd a2 6c b0 3d f5 89 91 bd b0 b1 b5 3d
       -0.086974345 0.0861447 -0.07106391 0.08871782
000160 a1 9f fb bc 1e d9 04 be 00 49 31 3d d0 fd 45 3b
       -0.030715765 -0.12973449 0.04328251 0.0030211098
000170 e8 15 2c bb 86 63 b3 bd 79 b1 05 3d 3e e5 91 bc
       -0.0026258174 -0.08759217 0.032639954 -0.017809507
000180 c3 ea 35 bd c5 29 c5 3d 0d 30 49 bd 18 f1 47 bd
       -0.04441334 0.096271075 -0.04911809 -0.04881391
000190 65 b2 01 3d 3b d3 e1 bc 4e 1d 70 3d d7 5b 78 3d
       0.03166427 -0.027566543 0.058621697 0.06063446
0001a0 64 c9 8f bb 7e 62 52 bc bc 83 c7 3c 9a 8a c8 3b
       -0.0043880213 -0.012840865 0.024354808 0.006120038
0001b0 38 7f f5 3c 23 19 f1 bc 22 da cc bd ab b6 72 bd
       0.02996789 -0.029430931 -0.10002543 -0.059256237
0001c0 34 49 ca 3c 88 5e 87 3d 38 13 1a bd e8 01 1f 3d
       0.02469311 0.06609827 -0.037615985 0.038820177
0001d0 52 fc b6 3d 55 e3 4d 3d b1 c2 67 3d 0e 28 d9 3d
       0.08934845 0.05026563 0.056582157 0.10603343
0001e0 54 e0 9b 3c 58 05 02 be 54 9f 8a bd 27 52 0e 3d
       0.019027866 -0.12697351 -0.06768671 0.034746315
0001f0 0d 88 0c bd 73 60 89 bd 98 c4 c6 3d fe 7c a4 3c
       -0.034309436 -0.06707849 0.09705466 0.020079132
000200 f2 57 08 3c ba 3b d0 3c 4a ad 27 bd b3 28 02 3c
       0.008321749 0.025419105 -0.040936746 0.007944274
000210 bc e5 85 bd 5c 20 0e 3a ae af 2e bd c1 1c 44 bc
       -0.06537959 0.0005421692 -0.04264801 -0.011969746
000220 cb bf ee bc 27 6b 31 3d 0f 6f 15 bd 26 61 4c bc
       -0.029144188 0.04331508 -0.036482867 -0.012474334
000230 4d 0e 0e 3d 41 36 93 3c 18 cd 7d 3b e7 ef 59 3d
       0.034681607 0.017970206 0.0038726982 0.053207304
000240 85 2d c0 bd 95 e7 b5 3d 61 69 28 3a eb cb 12 3e
       -0.09383682 0.088820614 0.0006424394 0.14335601
000250 d8 51 87 3d c6 99 d3 bd 89 6b 10 3c 15 eb 9a bd
       0.06607407 -0.10332064 0.008814701 -0.075643696
000260 20 a9 fa bc 5e 49 9c bc fc d8 82 3d b2 66 26 3d
       -0.030598223 -0.019077953 0.06389043 0.04062528
000270 c4 aa 98 3d 41 07 1e be a0 0a 14 3d 25 bd a8 3d
       0.07454446 -0.15432455 0.036142945 0.082392015
000280 68 a1 24 3e e2 58 a9 3d c4 4c b9 bd 33 f9 cd 3d
       0.16077197 0.08268906 -0.09047845 0.100572966
000290 51 3d f1 3c fa d5 93 3d 20 ce d1 bd 44 24 80 3d
       0.029448183 0.07218547 -0.10244393 0.06256917
0002a0 0f 39 36 3c 1d 4c a6 3b 40 67 a4 bc 19 b6 28 3e
       0.011122002 0.0050749914 -0.020068765 0.16475715
0002b0 3f 1a fa 3c d1 71 b3 3d 2f 6d 84 3d 54 bf e0 ba
       0.030530093 0.08761943 0.064661376 -0.0017146864
0002c0 fc 97 7a bd 49 80 27 3d 2a 30 40 3c 65 81 95 bc
       -0.0611801 0.040893827 0.011730233 -0.018250177
0002d0 67 18 82 bd b9 29 20 3d 57 48 4d bc 63 82 1d 3e
       -0.06352311 0.03910229 -0.012529454 0.1538177
0002e0 ec 9b 83 bd be 21 54 3b 59 9e 0b 3e 4c 83 05 be
       -0.06426224 0.0032368745 0.13634624 -0.13038367
0002f0 b9 62 01 be 6a 18 6f bd f0 a1 dc bd 0b 3c 80 3d
       -0.12635316 -0.058372892 -0.107730746 0.06261452
000300 3e fd a1 bd 50 2b 31 3d 38 0c fc 3d 7f b7 8f bd
       -0.0790963 0.043254197 0.12307018 -0.07017421
000310 be 49 7f 3d 60 7c c8 3c 53 f4 aa bc fa 09 1c bd
       0.062326185 0.02447337 -0.020868456 -0.038095452
000320 9c e1 dd bd d3 6f f9 bd 56 3e f3 3c 27 ad 40 3d
       -0.10834047 -0.12179532 0.02969281 0.04704013
000330 fd fd 4d bd 93 f7 52 bd 1e 2f 01 3c 47 e5 d2 bc
       -0.05029105 -0.051505636 0.007884769 -0.025744094
000340 45 ab 6a bd 80 2c 36 3d f3 39 03 bd c7 f6 9e bb
       -0.05729224 0.044476032 -0.032037687 -0.0048511955
000350 7b 6a 4b 3c 58 4d 6b bc 64 d9 2d 3d d1 fa a5 bd
       0.012415524 -0.014361702 0.042443648 -0.0810448
000360 39 10 f8 ba 01 e9 14 bd df 96 f0 3c 03 ae f3 3d
       -0.0018925733 -0.036355022 0.029368816 0.118984245
000370 0e 8b bd bd bd 32 ed bd bc cb 8e bd 8b 04 af bb
       -0.09255038 -0.11581943 -0.06972453 -0.0053411177
000380 41 d8 1c bd b8 a8 fc bc 5e 6b c7 3c 68 37 71 3b
       -0.038292173 -0.03084217 0.024343189 0.0036806706
000390 bb 6f 93 bd 01 98 3c 3c 48 9d 6c 3d 48 9e 00 3d
       -0.07199045 0.01151085 0.057767183 0.03140095
0003a0 8e f4 19 be e5 17 80 3c 13 4d b6 bd 0a b9 4e 3d
       -0.15034696 0.015636394 -0.089014195 0.050469436
0003b0 35 42 06 bd b0 b4 80 3d 99 75 00 3e e8 ae e7 bd
       -0.032777984 0.062844634 0.1254486 -0.113126576
0003c0 54 af d3 3d b7 c9 6b 3d 03 82 b9 bd 69 7e ee bc
       0.103361756 0.057565417 -0.09058001 -0.029113011
0003d0 e2 f4 f9 3d 0b cf 00 3e 0b 77 28 bd f0 a6 1d 3d
       0.12204911 0.1257898 -0.041129153 0.038489282
0003e0 26 9f 22 be 5f 2e 1b bd 95 0f 16 bd c0 ee e8 3c
       -0.15881023 -0.03788602 -0.036635954 0.028434157
0003f0 ab f6 c2 bc 7a af 13 bd 35 8a e6 3d 4f 36 1d bd
       -0.023799261 -0.03605602 0.1125683 -0.03838187

network_body._body_endoder.seq_layers.0.bias f4 [128]
000000 13 68 7d 3c 02 cd d0 bb af 49 72 bc 54 34 ac bc
       0.015466708 -0.006372095 -0.014788075 -0.021021046
000010 77 cf 82 bc 20 70 2c 3c 21 6d ee 3b 20 18 23 3d
       -0.015968068 0.01052478 0.007276193 0.03981793
000020 7f d7 1d 3d c6 02 a8 bc 5d f6 fc ba 23 75 2e bc
       0.03853559 -0.020509135 -0.0019299496 -0.010648045
000030 b4 ff bf 3b a4 65 0b bd 9b cd 3d 3b 99 d2 24 3c
       0.0058593396 -0.03403248 0.0028961662 0.010059976
000040 55 8b d8 bc 6a 0b 49 bc 9a e9 dc 3c cc 4a ac bb
       -0.026433626 -0.012270788 0.026966859 -0.00525794
000050 ca 6d a6 ba 7b 0f 85 3c cf f2 24 bc 4f 5d 56 3d
       -0.0012697515 0.016242733 -0.010067656 0.05233508
000060 0b 1c 5f 3d 60 4d 68 3c 51 12 ef 3b 37 c8 37 3b
       0.054470103 0.014178604 0.0072958847 0.0028042921
000070 51 af c1 3b 6a 1d 8c 3c 43 df d6 3b c9 53 9c bc
       0.005910792 0.01710387 0.0065573766 -0.01908292
000080 9b 6b a7 bc 91 9a 41 bb a8 09 79 bc 05 41 59 3c
       -0.020437052 -0.0029541592 -0.015200056 0.013260131
000090 8f e9 37 3d 0c 88 91 3c bf b2 97 bc 9a 9d 91 bc
       0.044900473 0.017765068 -0.01851785 -0.017775346
0000a0 29 af 19 3b 19 40 ac bc 57 0b 14 3b d4 7d 2c 3c
       0.002345035 -0.021026658 0.0022589767 0.010528047
0000b0 93 c6 96 3d a3 b1 fd 3c bd 8f f5 bc 07 8c be 3b
       0.07362094 0.030968493 -0.029975766 0.0058150324
0000c0 b6 a6 c1 bb b8 7a 8c 3a 02 8d da 3b 8f 15 14 bc
       -0.005909766 0.0010717725 0.0066696415 -0.009038343
0000d0 f1 86 73 3c c7 4d 98 3c 37 85 3d bd 80 31 8f 3b
       0.0148637155 0.018591775 -0.04626962 0.0043699145
0000e0 db c9 09 3c a4 f8 81 bc d4 10 69 bc 66 18 17 bd
       0.0084099425 -0.015865631 -0.014225204 -0.036888503
0000f0 18 00 0f bc f7 49 e7 3b e4 03 df 3c 5e 39 0a 3c
       -0.00872805 0.007058378 0.027223535 0.008436529
000100 b8 8b 6b 3d 08 0a 91 bc d0 ec 80 bc 52 db 5d 3c
       0.057506293 -0.017704979 -0.015737921 0.01354106
000110 36 d1 b0 bc 65 bb 43 3c 72 c4 2b bc 05 8a 6f 3c
       -0.021584135 0.011946534 -0.010483848 0.014620309
000120 02 8c 9a 3d e4 40 5e 3d ae 35 95 bb 53 01 00 bd
       0.075462356 0.054261103 -0.0045535183 -0.031251263
000130 b9 46 06 bc 52 b6 2c bc 27 8f 25 3c 0d c1 e7 bc
       -0.0081955725 -0.010541515 0.010104931 -0.028290296
000140 a5 3e f2 bb 7e f5 a8 3b 39 5d 01 bb bd 21 78 bc
       -0.0073927217 0.005156218 -0.0019739403 -0.015144763
000150 99 0c 57 3c bd de 19 bd 67 c3 9f bc 76 2c f4 3a
       0.013125562 -0.037565935 -0.019502355 0.0018628973
000160 08 bf 82 bc dd fd 86 3b 64 2c 2b bb 5d e3 e2 bb
       -0.015960231 0.0041196183 -0.0026118988 -0.0069240765
000170 bd 60 91 bb 5d ff 36 bb 62 c4 9c 3d 6b 92 bf bc
       -0.004436581 -0.0027923204 0.076546445 -0.023385247
000180 49 9a 72 bc 6a 5a 76 3c b3 00 dd bc 2c ba f2 bc
       -0.014807292 0.015036205 -0.026977872 -0.02962979
000190 84 b4 a7 bc a5 c2 a9 bc e8 ae 1b 3d 86 bf 56 bc
       -0.020471819 -0.020722697 0.0380086 -0.013107186
0001a0 4c b5 9e bc b1 02 a9 ba 24 c0 21 3c ce 94 27 3d
       -0.019373558 -0.0012894479 0.00987247 0.040913396
0001b0 e9 a5 d8 3a 9b 5d 67 bc 27 d2 8f bc ec 65 a0 bb
       0.0016528937 -0.014121438 -0.017556263 -0.0048949625
0001c0 30 77 24 bc a6 d1 4d 3d 51 ac af 3b 84 f5 d2 bc
       -0.010038182 0.050248764 0.005361118 -0.025751837
0001d0 3e ae 38 3d 6c 33 89 3b 67 b2 9d 3b c8 27 7e bc
       0.045088045 0.004187038 0.004812527 -0.015512414
0001e0 c3 8b d2 3c 69 98 0b 3d 9f 4d b2 3b 51 cd e3 3b
       0.02570141 0.034080897 0.005441382 0.006951966
0001f0 a2 43 9e bc 9c 16 ba 3b a2 0b 49 bb b2 14 8f 39
       -0.01931936 0.005678965 -0.00306771 0.00027290505

network_body._body_endoder.seq_layers.2.weight f4 [128, 128]
000000 76 ff 66 be 87 b7 2a 3d 7b 3d 95 3d df e5 36 3e
       -0.22558388 0.04167893 0.07287117 0.17861126
000010 df bf 3b bd e3 7a b5 3d 8a 4f 63 3c a0 38 0b 3d
       -0.04583728 0.088613294 0.013873944 0.03398955
000020 29 c5 db 3c 26 d9 0b be 4a b6 81 bc e2 3b ee 3d
       0.026827412 -0.13657054 -0.015833993 0.116325155
000030 4f 8c 0b bd 10 9d 3e 3e 81 c1 51 bd e1 d9 34 3c
       -0.034069356 0.18614602 -0.05120993 0.0110382745
000040 62 e4 2e bd be e2 95 3d a8 65 38 3c 9b 35 20 3e
       -0.04269827 0.07318638 0.0112547055 0.15645449
000050 c2 5c 47 bd f7 3e 3d bb 67 b4 d4 bc 65 ae c9 3c
       -0.048672445 -0.0028876641 -0.025964929 0.02461929
000060 a3 8d 13 3d 7c 1d 7a bd df 23 5e bd 16 65 7d 3d
       0.036023747 -0.061063275 -0.054233428 0.06186398
000070 07 73 25 be ee 76 da 3c a9 26 f5 3d cf 3e 0f 3e
       -0.1615716 0.026668038 0.119702645 0.13988803
000080 0a ec 12 3e ae 4a 23 bd 21 29 e1 bd 4e 35 3b be
       0.14347854 -0.039866142 -0.10994173 -0.18282053
000090 4d 34 4c 3d a3 d9 d3 bd 9b c4 41 bd 87 46 34 3d
       0.049854565 -0.10344245 -0.04730664 0.044012573
0000a0 4d ab 14 bb a3 5c c8 bc 95 e9 ca 3a 01 e6 99 3d
       -0.002268511 -0.024458235 0.001548099 0.07514573
0000b0 ca de 20 bc aa 4c 34 be 93 5c 92 bd 69 ee 00 be
       -0.009818742 -0.1760737 -0.071465634 -0.12590946
0000c0 c0 d9 8d 3c a8 0e 51 bc ea 00 85 3d 92 14 4e 3d
       0.017315745 -0.012759842 0.06494315 0.050312586
0000d0 9a b7 44 bd 9c 15 5f bd 54 f8 9c 3c 2b be 96 3c
       -0.04802666 -0.054463968 0.01916138 0.018401226
0000e0 ea e2 31 3c ee bf a4 3c 3e 09 8f bd 7b ae 3b 3e
       0.010857323 0.02011105 -0.06984185 0.18328278
0000f0 fd cb c6 3d 0f 21 1c 3e 0c 63 0f 3d 53 7b fa 3d
       0.097068764 0.15246986 0.035006568 0.122305535
000100 80 d8 1e bd 42 9a a9 bd 68 de 62 3d 14 f5 3f 3d
       -0.03878069 -0.082813755 0.055387884 0.046864584
000110 9f 5d d3 3d d1 3d 5a 3d 1f 41 3b 3e 64 ba fe 3d
       0.10320591 0.05328161 0.1828656 0.12437895
000120 58 d2 7f 3e 59 cd 3a bd e1 d3 9b 3d a8 c0 98 3d
       0.24982584 -0.04560599 0.07608772 0.07458621
000130 a3 5d 7e 3d 8d 58 94 bd fc 73 8f bd 6e 69 b1 3d
       0.062101018 -0.07243452 -0.07004544 0.08662687
000140 52 3c 4e 3d 5b 2b 1d bd 68 0d a0 bc 86 8b 41 3e
       0.050350495 -0.038371425 -0.019537643 0.1890088
000150 38 6c 29 3e e1 ea fb 3d ad 2e de 3d 92 35 2d 3c
       0.16545188 0.12300659 0.108487464 0.010571854
000160 8d d7 8a bd ea 0b c4 3d 70 75 f9 bd 77 ef b3 bd
       -0.06779394 0.09572585 -0.121806026 -0.08785909
000170 94 47 81 bd 02 44 57 3e 5a d8 fa bd 9a 91 3d bc
       -0.063124806 0.21022037 -0.12248297 -0.011570359
000180 19 e2 ef bc ef f6 10 bb 2e ac 0c be c5 7e 94 bd
       -0.029282616 -0.002211984 -0.13737556 -0.07250742
000190 e6 8f 9a bc 44 d2 ee 3d 00 d0 35 bd a1 1c 0e 3b
       -0.018867444 0.11661199 -0.044387817 0.0021684545
0001a0 4b a6 34 3e 36 cd 2a be 82 a5 84 3d 02 f4 db bd
       0.1764156 -0.16679844 0.064768806 -0.107399
0001b0 2d 04 94 bd 3a d6 5c bd 8c ed a5 3d 18 17 d4 3d
       -0.07227359 -0.05391524 0.08101949 0.10355967
0001c0 2a de d6 bd 87 a0 92 3d 00 8b db 3d 9a 68 47 bd
       -0.10491593 0.071595244 0.107198715 -0.04868374
0001d0 8d a7 35 bc d2 f0 00 bd 66 8b ce bb 43 aa 26 3e
       -0.0110873105 -0.031479664 -0.0063032387 0.16275887
0001e0 34 a4 e0 b8 72 87 08 3d 85 c2 8e 3d 7f d0 cc 3d
       -0.000107117376 0.033332296 0.069706954 0.10000705
0001f0 7d f9 3b be a6 ff 4c bd 0c 68 07 bc 5f a9 13 bd
       -0.18356891 -0.050048493 -0.008264553 -0.036050197
000200 0b 97 b3 bd 17 82 a7 3b 8b 07 8e bd 64 de cc 3d
       -0.087690435 0.0051119435 -0.069350325 0.10003355
000210 8a 60 8f 3b 50 58 1b 3d 59 ff c3 3d c4 90 92 3d
       0.004375522 0.03792602 0.09570188 0.07156518
000220 b6 9a c0 3d 12 6e 3f 3d 70 9b 49 3d 51 e3 57 bd
       0.09404509 0.04673583 0.049220502 -0.05270702
000230 2d f5 83 bc c2 d5 86 bd 89 9c 0e 3d 34 51 94 3b
       -0.01610812 -0.0658374 0.034817252 0.0045262817
000240 b9 81 6f 3e 5c a9 af bd a6 bf 29 3d c3 78 b8 bb
       0.23389329 -0.085772246 0.041442536 -0.0056296303
000250 8c db 3f be f7 ef 2f bc d3 57 d3 3d fd 2b 27 bc
       -0.18736094 -0.010738364 0.103194855 -0.010203359
000260 b3 14 74 bd bb 80 69 be 2f 6e 86 3c fe bb 34 bd
       -0.059590053 -0.22803013 0.016409962 -0.044124596
000270 8a d7 b6 bd 96 d1 18 be cf 28 1a bc bc 9a 32 3c
       -0.089278296 -0.149237 -0.009409144 0.010901149
000280 67 b9 8e bc d8 d9 ca 3d 01 d7 6a 3d f6 87 3b 3d
       -0.017422391 0.09904832 0.05733395 0.04578396
000290 ba 2a 2c bd ac a0 2f bc 2e 11 76 bd 0e e0 f9 bc
       -0.042032935 -0.0107194595 -0.060074978 -0.030502345
0002a0 90 de b2 3d 8e 66 1c 3e 82 c8 01 3e 2f 91 f3 3d
       0.08733857 0.15273497 0.12674144 0.11892926
0002b0 f5 3f f6 bd a8 34 a5 3d b1 1e 04 be 60 d0 83 3d
       -0.120239176 0.08066684 -0.12902333 0.06436229
0002c0 f1 d5 0c 3d b0 ff bc bc 13 bc f5 3c f7 a2 a8 bd
       0.034383718 -0.02307114 0.029996907 -0.08234208
0002d0 4a c9 85 bd 1b 68 06 3d 8f 46 10 3e 01 90 6e 3b
       -0.065325335 0.032814126 0.14089416 0.003640175
0002e0 2a cb 3a be 29 e6 34 3e a6 3e a5 3a 0d 05 6a bd
       -0.18241563 0.17665924 0.0012607172 -0.057133723
0002f0 db e7 a3 3d 9e 34 3b 3e d1 6b 07 bd 33 12 29 bb
       0.08003207 0.1828179 -0.033061806 -0.00257982
000300 34 f1 07 3c ee f2 84 bd d6 86 5a 3c 68 dc 93 3d
       0.008297253 -0.06491648 0.013337811 0.072197735
000310 fa 2a 69 3b 38 89 60 3c 24 2b 39 bb c9 cc b9 3d
       0.0035578595 0.0137045905 -0.0028254474 0.09072263
000320 35 44 b9 bc d3 2d 54 3c 1d 0e a3 3c b9 34 3f 3d
       -0.022615531 0.0129503785 0.01990419 0.04668114
000330 f5 38 2c bd e4 fe 3d bd df e8 9a bd 31 b3 87 3c
       -0.042046506 -0.04638566 -0.07563948 0.016564937
000340 a7 19 b6 3d 9d 84 ba bd c4 38 a3 3c 44 e0 ba 3d
       0.088916115 -0.09107325 0.019924529 0.091248065
000350 0c 97 be bd 24 f8 45 3d 07 06 ff bc e5 27 62 3d
       -0.09306154 0.04833235 -0.031130804 0.055213828
000360 05 d1 e0 3b 40 1a 10 3c 4e 78 00 3e bb af 64 bd
       0.0068608546 0.008795321 0.12545893 -0.055831652
000370 bc 99 2b 3d 1d 00 33 3d 80 cd 3e 3e c0 e3 39 be
       0.04189466 0.04370128 0.1863308 -0.18153286
000380 7d fb 4c 3d 91 b7 9c 3d 18 98 d7 bb 06 66 28 3c
       0.050044525 0.076522 -0.0065794103 0.0102782305
000390 62 98 6a 3d 0f 5f 82 bd 27 48 c8 bd 6b 4c 31 3e
       0.05727423 -0.06365787 -0.09779387 0.17314307
0003a0 3f 07 c5 bc ae 30 b7 3d 9c 49 0e be 53 7f 13 3e
       -0.024051307 0.08944832 -0.13895267 0.14404039
0003b0 e4 b3 0a be 23 03 ec bd c2 32 9b bc 9e 8d db bd
       -0.13545185 -0.11524036 -0.018945102 -0.10720371
0003c0 c6 da e8 bd b5 11 33 3d 48 bd 0a 3e ab bd 8a 3d
       -0.11369853 0.04371806 0.13548768 0.067744575
0003d0 4d da 8f be 81 46 de 3d 0b 9f aa 3c 8f bb 33 bd
       -0.28096238 0.10853291 0.02082779 -0.04388004
0003e0 4f d6 84 bd 5a a7 9b bc 23 4a ab 3d 48 75 08 3e
       -0.064861886 -0.019000698 0.0836375 0.13325989
0003f0 08 82 92 bc f0 87 c5 3c 57 7c b7 3d 98 ab 29 be
       -0.01788427 0.024112672 0.08959263 -0.16569364

network_body._body_endoder.seq_layers.2.bias f4 [128]
000000 2d 7b 4d bc 2d b8 5c bc 70 5d 1f 3b e5 89 88 3b
       -0.012541574 -0.013471645 0.0024317168 0.004166829
000010 1d ef 81 bc bb ef 05 bc a5 c4 1d 3a 23 f6 33 bc
       -0.015861088 -0.008174832 0.0006018377 -0.010983977
000020 43 d9 08 bc cb 2b 7e 3b 32 36 c9 bc 63 65 b5 bc
       -0.0083525805 0.0038783427 -0.024561975 -0.022143072
000030 33 a9 5c 3c 83 be cb bc fb e5 38 bd 4b df 97 bc
       0.013468075 -0.024871117 -0.0451412 -0.018539092
000040 3c 55 a5 3c 94 93 18 3d dc 3a a7 bc 9c ca dd ba
       0.020182244 0.037250116 -0.020413809 -0.0016921344
000050 cd da 3c 3d 33 40 67 3c 08 3a c8 bc 12 ba 93 3c
       0.046107102 0.014114427 -0.024441734 0.018033061
000060 8a 5b e1 bb 5a 9b f4 bc 8d 8f ce bb 54 ec 00 bc
       -0.0068773674 -0.029859234 -0.0063037337 -0.007868845
000070 97 97 85 bc c3 9e 8d bc 87 cb 99 3b d0 56 92 b8
       -0.016307635 -0.017287618 0.004693452 -6.9779926e-05
000080 1a c0 82 bc 22 bc ae bc 78 44 25 bb 40 9c 57 3b
       -0.015960742 -0.021329943 -0.0025217813 0.0032899529
000090 08 84 8f bc 40 0c f9 bb 65 0d 2b 3c c7 71 22 3a
       -0.017519012 -0.0076003373 0.010440205 0.0006196764
0000a0 df 78 38 bc e6 a9 e8 bb e3 2d ad bc dc 5a ad bc
       -0.011259287 -0.0071003316 -0.021140045 -0.02116149
0000b0 c6 43 ce bc e2 99 82 bc c1 07 cb 3c f6 41 8b bb
       -0.025178801 -0.015942518 0.02478397 -0.0042498065
0000c0 5a e6 63 3d 6d 7b 8b bc 68 e0 07 3d 74 1a 57 3c
       0.055639602 -0.017026627 0.033172995 0.0131288655
0000d0 28 62 67 3d 2f bd 34 bc 62 21 90 3b c7 96 c3 3c
       0.056490093 -0.011031433 0.004398511 0.023875607
0000e0 41 81 7c bc 34 c6 db bc 26 27 8e bc 11 93 a4 bc
       -0.015411676 -0.026827909 -0.017352652 -0.020089658
0000f0 76 c8 a4 bc 25 59 29 bc ee e6 1d 3c 7b c6 fa 3c
       -0.020115118 -0.010336195 0.009637577 0.030612221
000100 ff c0 87 bc d4 37 b8 bc ad 15 eb bc 06 b5 d4 bc
       -0.01657152 -0.022487558 -0.02869686 -0.025965225
000110 db 87 cb bc a2 bb fa bb 04 20 42 bc 99 35 2a ba
       -0.024845054 -0.007651762 -0.011848453 -0.0006492972
000120 88 96 c8 3b cb e1 19 bc 9c c2 85 3d a4 b2 38 bb
       0.0061214603 -0.009392212 0.065312594 -0.002818265
000130 c3 65 61 bc 63 33 65 bc c8 06 3c bc 90 c9 cb bb
       -0.013757172 -0.013989302 -0.011476226 -0.0062190965
000140 4c 23 d0 3b 0c 8e 88 bc ed 5d 8c bc ac e1 54 bc
       0.006351864 -0.016669296 -0.017134631 -0.0129932575
000150 32 e2 cd bb 42 1d 16 bd f3 90 72 bc 72 76 ad bc
       -0.006283068 -0.036648996 -0.014805066 -0.021174643
000160 a9 37 bb 3b 36 c4 47 bc 1b 63 de bb d7 9c 8b bb
       0.0057134223 -0.012192776 -0.0067867166 -0.00426064
000170 08 8f bc 3b 2b 62 df 3a 83 cc f5 3c 1d 85 98 bb
       0.0057543553 0.0017042806 0.030004745 -0.00465454
000180 b7 ff 6f bc 1a 56 c1 bc a4 cb 28 bc 9a 63 96 bc
       -0.0146483695 -0.023600627 -0.010302458 -0.01835804
000190 c3 a1 85 39 3c 71 dd 3a 29 cb e9 3c a7 a5 a8 3c
       0.0002548826 0.0016894708 0.028539257 0.020586802
0001a0 1e 23 c9 bc da 76 af bc 1f e9 10 3b b5 7a a4 bb
       -0.024552878 -0.021418978 0.0022111607 -0.0050195106
0001b0 eb 1e 99 bc 4e 36 bf bb 34 0d ea bc 47 91 63 3b
       -0.0186915 -0.005835331 -0.028570749 0.0034724043
0001c0 87 21 16 3d 28 09 41 bb b0 ff 21 bc dc e7 54 3b
       0.036653068 -0.002945492 -0.009887621 0.0032486832
0001d0 7b 66 a0 bc f3 0b 80 bc 7d 07 17 3c 3c 75 67 bc
       -0.019580116 -0.015630698 0.009218094 -0.014127072
0001e0 a0 0d c5 bc 06 a3 3b 3d 50 29 bc 3c 21 66 bc bc
       -0.024054348 0.04580977 0.022968918 -0.022997918
0001f0 71 f3 d3 bc 1b 64 ec bb 07 89 a8 3c 9c 09 cb 3c
       -0.025872918 -0.007214082 0.020573152 0.024784856

action_model._discrete_distribution.branches.0.weight f4 [7, 128]
000000 f1 e1 a6 bb 82 e8 c3 ba 55 c4 5c ba b5 78 fa 3b
       -0.0050928523 -0.0014946612 -0.000842159 0.007643784
000010 f9 ea 7d 3c 83 ee 3d bc 90 56 32 3b 73 81 6e bc
       0.015497916 -0.01159251 0.002721224 -0.01455723
000020 b1 1f 70 3c 17 53 9d 3b c1 ea 55 bc 79 69 eb 3a
       0.014655993 0.004801165 -0.013056458 0.001796051
000030 79 06 1e bc a8 46 54 bc 40 70 e2 bb b1 36 f1 3b
       -0.009645098 -0.012956299 -0.006910354 0.007361256
000040 be b5 0a b9 a6 3d 89 bc b7 c1 92 bb bf 45 47 3c
       -0.0001322841 -0.01675303 -0.004478659 0.012162625
000050 0a 06 59 3c 37 db 47 3a d8 26 f0 3a 26 20 fa 3b
       0.013246069 0.0007623913 0.0018322123 0.007633227
000060 8c e7 26 bc b7 5b ef 3a 85 ef 15 3c 0c 33 18 bc
       -0.010187041 0.0018261586 0.009151344 -0.009289514
000070 eb 06 b3 bc 8d 8e 07 3c a6 72 8d bb 58 64 05 3b
       -0.021853885 0.008273733 -0.0043166457 0.0020354
000080 0a d8 3d bb 8e 72 92 bc cb dd 1c bc fd cc 08 bc
       -0.002896788 -0.01787689 -0.009574364 -0.008349654
000090 1a e0 93 ba d5 d3 cc bb 5a a2 18 bb 17 cf cd 3c
       -0.0011281997 -0.0062508383 -0.0023290128 0.025123162
0000a0 8f 96 ce ba 48 34 0f bc d0 50 3c 3b ac 5e 36 bb
       -0.0015761423 -0.008740492 0.0028734691 -0.0027827425
0000b0 e5 c5 91 bb c4 07 7e bc eb 5b 45 3c 8a ba b4 3b
       -0.0044486397 -0.015504781 0.012045841 0.0055154013
0000c0 a1 78 da 3c 8e eb f9 3b e2 7a 14 3c c6 dc ac bb
       0.026668848 0.0076269573 0.009062501 -0.0052753417
0000d0 b7 36 e9 3b 52 1b 1a bb 85 9d 88 3a bd ff 2b bc
       0.007117118 -0.002351482 0.0010422921 -0.0104979845
0000e0 57 15 c5 ba 97 f3 28 bc 84 c5 20 bc 5e 0c f1 bb
       -0.0015036267 -0.010311983 -0.009812716 -0.0073562106
0000f0 1f 87 29 bc 94 3d 10 3c fd ca cb 3a 6e 3f a8 3b
       -0.010347157 0.008803744 0.0015548166 0.0051345145
000100 89 26 0a 3c e6 1f 5a bb 11 dc 9f bc 57 04 26 bb
       0.008432039 -0.0033283173 -0.019514116 -0.0025332177
000110 95 ed 24 3a b8 c5 67 bc 35 b9 b7 bb b6 9d 31 bc
       0.0006291506 -0.014146261 -0.005606795 -0.010840824
000120 a6 66 0e 39 ea ad f4 3a c0 ff 0b bb ce 8c 9e bc
       0.00013580415 0.0018667553 -0.0021362156 -0.01935425
000130 3c 85 1d bb d2 ae 14 bc b0 eb 8c bc e7 91 34 bc
       -0.0024035713 -0.009074884 -0.017202228 -0.011021114
000140 88 46 d0 3b 65 6d 8c 3b 43 ee 85 bc 66 26 dc 3a
       0.006356064 0.004285502 -0.016348964 0.0016796112
000150 0a b5 6a bc 33 c8 1f bc 5d 08 50 bb b3 9c 84 38
       -0.01432539 -0.009752321 -0.0031743266 6.323438e-05
000160 ac 6f 9a 3a 03 16 2a 3c d2 e8 bf 3b 97 00 5e b9
       0.0011782548 0.010381225 0.0058566118 -0.0002117179
000170 72 ad f5 bb ab c3 93 3c 38 85 41 3c 70 29 9d 3c
       -0.007497483 0.018037638 0.011811547 0.019184798
000180 b8 b4 26 3b 33 49 34 3c 55 6f 23 3c 70 77 d7 ba
       0.0025437307 0.01100378 0.009975274 -0.0016438793
000190 d5 01 72 bc dd 96 93 3b 30 6e f5 3b 2e bf 37 3c
       -0.014770945 0.0045040683 0.007489942 0.011215014
0001a0 40 c0 b8 3a 12 46 be bb 53 83 93 bb 05 5f 9a bc
       0.0014095381 -0.005806693 -0.004501739 -0.018844137
0001b0 16 fa 3b bc f0 55 86 bc 68 cd 97 bc 15 68 da 3b
       -0.011473199 -0.0163984 -0.018530563 0.0066652396
0001c0 1c 70 d5 3b 6e 32 73 3b 95 20 8d bc 5c bb a1 3b
       0.0065136086 0.0037108916 -0.01722745 0.004935665
0001d0 4d 45 78 bc 9a 50 af bb 8d 82 c3 b9 6a df 13 bc
       -0.015153241 -0.0053501846 -0.00037290566 -0.009025434
0001e0 ef c3 06 ba 02 7d 48 3c 99 7c 64 3a 3c 3e 2d 3c
       -0.0005140891 0.012236835 0.0008716076 0.01057392
0001f0 78 3d b9 bc 49 19 ea 3b 3a 2d f3 ba ea 3a 28 3b
       -0.022612318 0.0071441275 -0.0018552907 0.002566988
000200 e0 f8 32 3c b2 b3 24 3c c6 a9 8f bb a5 6d 01 3c
       0.010923594 0.010052608 -0.0043842522 0.007899676
000210 9e dd 23 bc bc 2b 6b bc c9 f7 b6 39 34 02 21 3d
       -0.010001568 -0.014353689 0.0003489836 0.03930874
000220 d9 27 05 bc ff 1e 45 bc 19 9c 08 3d 62 1b 8e bc
       -0.008127176 -0.012031316 0.03335199 -0.017347042
000230 94 f3 f4 bc a6 94 33 3d 37 2c dc 3c 7a 36 a3 3b
       -0.029901303 0.043842934 0.026876552 0.0049808593
000240 2b b1 58 bc 3f 5e 4d bc 95 3b 6b 3d 00 b3 de bb
       -0.013225834 -0.012534677 0.05742987 -0.006796241
000250 8c 7b cf 3b 76 48 b3 bc 65 0c b1 bb 25 bf c3 bc
       0.0063318666 -0.021885138 -0.005403089 -0.023894856
000260 06 e7 ff 3c 86 40 39 3d 42 a3 37 bc 71 32 f8 3c
       0.03123809 0.04522755 -0.011208357 0.03029749
000270 d4 f3 ea 3c 24 5b fd bb 25 e6 d8 3c 6a ef 4a 3d
       0.02868072 -0.007731812 0.026476929 0.04954473
000280 85 a4 b5 bc d5 1b 3a 3d 56 0c ad 3c ff 5b 29 3d
       -0.022173176 0.0454367 0.021124046 0.0413475
000290 77 5b 77 bc 66 82 cc bc 77 43 5b 3b e6 22 a0 3c
       -0.0150974905 -0.024964523 0.003345696 0.01954789
0002a0 bc 0b cb 3b a8 71 93 bb e1 8a 52 3d 9f da 09 3c
       0.006196467 -0.004499633 0.051401976 0.00841394
0002b0 f4 e4 fe 3c a2 03 26 3d d0 9e ae bc 3c 73 13 bc
       0.031115033 0.04053081 -0.021315962 -0.008999642
0002c0 db 6a 49 bc 6b 49 d1 bc 08 88 de bc 34 f1 61 bc
       -0.012293543 -0.025547704 -0.027164474 -0.013790417
0002d0 44 05 76 bd 24 9a 17 bd b5 e8 56 bc 6b 6e 89 bc
       -0.060063615 -0.037012234 -0.013117005 -0.016776284
0002e0 da b8 0f 3d d9 44 5b 3d 57 ef 37 3d 93 f1 5d 3c
       0.035088398 0.053532455 0.044905987 0.013546365
0002f0 83 4c 30 3d 52 86 3b bc b5 fe c3 bc f2 de c5 bc
       0.043041717 -0.011445599 -0.023925165 -0.02415416
000300 32 36 04 3d 57 b0 6a 3d e5 53 43 3d 7d a3 38 3d
       0.032278247 0.057297077 0.04768743 0.04507779
000310 37 ea 1d 3c 4d 3c af bb 08 20 05 3b 59 19 7f 3c
       0.009638361 -0.0053477646 0.0020313282 0.015570008
000320 55 c7 0f bc b0 76 99 3c f3 34 8d bc da a6 3f 3d
       -0.008775552 0.018733352 -0.017237162 0.04678998
000330 fe 6e 69 3d 05 cf b4 3c 3f f5 d3 3c 4a 06 2d 3d
       0.056990616 0.02207137 0.025873778 0.042242326
000340 4a e7 b8 bc c1 f1 d3 bc f5 78 16 3d 70 cf 39 bc
       -0.022571225 -0.025872113 0.036736447 -0.011340961
000350 6c 57 10 bc d6 b6 17 3d d9 76 3d 3d 55 d7 17 3d
       -0.0088099055 0.0370396 0.04625592 0.03707059
000360 7d 99 0b 3c 04 41 eb bb 54 f2 da 3c df 63 f5 bb
       0.008520481 -0.0071793813 0.02672688 -0.007488712
000370 07 e0 91 bc 8c 9f d1 bc 5f 7e 11 3b 24 21 c0 bc
       -0.01780702 -0.025588773 0.0022200567 -0.023453303
000380 32 52 01 bb bd 9e 41 3c cf 3e 03 bb 8d 61 47 bc
       -0.001973283 0.011817631 -0.002002645 -0.012169254
000390 17 15 21 3d cf 2d 4f ba 83 28 f9 bc 47 ca 82 bc
       0.039326753 -0.00079032494 -0.030414825 -0.015965594
0003a0 86 14 39 3d ec 38 18 3d 50 d9 09 bb 97 f6 5f 3d
       0.04518559 0.03716366 -0.002103407 0.054678526
0003b0 f0 12 1a 3d 70 ae 1f 3d f0 44 b3 3c 8a 74 a4 bc
       0.037615716 0.038984716 0.021883458 -0.020075101
0003c0 c4 07 a4 bc 53 9e 4e 38 8a 27 fd 3c 6c fe 28 bc
       -0.020023234 4.926168e-05 0.030902643 -0.010314565
0003d0 f9 9f 1a 3d ab e4 14 3d c9 1e c5 bc c1 32 e3 3c
       0.037750218 0.036350887 -0.024062531 0.027734162
0003e0 91 51 1b 3d e7 b4 06 bd c0 56 2e bc 24 e1 55 3d
       0.037919585 -0.032887366 -0.0106408 0.052216664
0003f0 36 4c ad 3c 9a 88 5c bc 7a 12 8e bc 61 5a a4 3c
       0.021154504 -0.013460303 -0.017342795 0.020062627

action_model._discrete_distribution.branches.0.bias f4 [7]
000000 25 10 53 3b c1 97 03 bd c9 d4 11 3c a1 d6 1b 3d
       0.0032205668 -0.032127146 0.00890083 0.038046483
000010 85 29 e1 bb 49 b9 8a bb ce 2a e5 bb
       -0.0068714046 -0.0042335135 -0.006993628
