CCP-main/results/WeightAgent_Training/WeightAgent_Training/WeightAgent_Training-10499980.onnx (onnx, 172208 bytes, 6 tensors)

network_body._body_endoder.seq_layers.0.weight f4 [128, 195]
000000 9c 6e bf 3c 4d d1 2b 3d 81 ef 46 3d c1 2f a8 3c
       0.023368172 0.04194765 0.048568252 0.020530583
000010 3d ea a2 3d 9e 0d f9 3d cb ec 63 3e 7a f8 57 bd
       0.07954834 0.121608004 0.22258298 -0.0527272
000020 94 50 72 bd b1 d8 28 be 95 71 bc 3c 54 1e 9b 3e
       -0.059158877 -0.16488911 0.023003379 0.30296576
000030 17 33 f0 3d 5a 3d 38 bd e8 01 c4 3d 9e 20 2b bd
       0.117284946 -0.044980384 0.09570676 -0.041779153
000040 35 a8 a0 3d 2e 37 e8 3e 11 3f 18 3e ee 44 1b 3d
       0.07844583 0.453546 0.14867808 0.037907533
000050 39 c4 0f 3d 1e 15 55 be 57 eb ad 3d 49 76 8d 3e
       0.035099242 -0.20808837 0.08492153 0.27629307
000060 9e f0 d5 3b 26 03 f7 3d 96 5d a5 bd e2 17 3f be
       0.006528928 0.120611474 -0.08074491 -0.18661454
000070 7e 13 9a 3c d7 32 90 3e 8e d2 b2 3d 5f cb c4 bc
       0.018808123 0.28163788 0.08731566 -0.024022756
000080 e1 8a 7d be 8c 84 34 be eb 04 19 3e 91 2b 86 3e
       -0.2476001 -0.17628688 0.14943282 0.26205114
000090 da 0f 5d 3e df 32 56 3d 18 94 9a bc ef cb f0 bd
       0.21588078 0.05229461 -0.018869445 -0.11757647
0000a0 62 5a 30 3d d0 93 4a 3e 6a df f8 3d e0 44 c9 3d
       0.043054946 0.19782948 0.12151988 0.0982759
0000b0 8f 5b 5c be 45 ca b8 bc b7 d1 96 bc d7 8b 94 3e
       -0.21519302 -0.022557387 -0.018410547 0.2901294
0000c0 7a d3 3f 3d 93 93 89 3d 09 d6 80 be 06 0b 8e bd
       0.04683254 0.06717601 -0.25163296 -0.06935696
0000d0 c3 b4 05 3c 31 7c 25 3d ae f4 87 3d 96 7b e2 3d
       0.008160773 0.04040164 0.06638466 0.110587284
0000e0 9e f6 ed bd c7 8e 00 bd 08 ef cd 3c 0a cc ef 3c
       -0.11619304 -0.031386163 0.025138393 0.029272098
0000f0 bd 8a a5 bd 3f a5 bf bd dc a8 e0 3d 28 23 20 be
       -0.08083103 -0.0935769 0.10969707 -0.15638411
000100 e1 4d da 3d 9a 93 32 bd 0a 29 4f 3d 59 4d 83 3c
       0.106593855 -0.043597795 0.050576247 0.016028093
000110 95 8e e5 3c e7 e0 31 bd 40 67 e3 3c b3 83 e9 bb
       0.02802209 -0.043427374 0.027759194 -0.0071262955
000120 45 95 94 bd c7 6c 2d 3d 13 c8 c6 3d af 75 0a bd
       -0.072550334 0.042340066 0.0970613 -0.033803638
000130 61 d8 d4 bd 14 25 dc bd fd 8c a3 bd 28 2d 7f 3d
       -0.103928335 -0.107492596 -0.07985876 0.062298924
000140 5f 17 1c 3d f5 66 94 3d 36 49 2c 3d da f0 56 3e
       0.038108226 0.072462 0.042062007 0.20990315
000150 77 29 03 be 85 6e 0b 3d 85 39 38 bc 30 75 b8 3c
       -0.12808786 0.034040947 -0.0112441825 0.022516817
000160 1e 83 9a bd 7d 8b c6 bd 4a df 6a 3d 6a 47 11 3e
       -0.0754454 -0.09694574 0.05734185 0.14187399
000170 a4 51 22 3d 4d 23 46 bd da 0c 31 be 43 f4 66 3d
       0.03962864 -0.04837351 -0.17290059 0.05638529
000180 7e d7 ea 3c 91 81 da ba d0 c3 bd bd f8 ea b1 bc
       0.028667208 -0.0016670694 -0.09265864 -0.021718487
000190 96 82 b3 3d c3 16 35 be 95 2f 5c bd 9e f2 0e 3e
       0.08765142 -0.17684464 -0.053756315 0.13959739
0001a0 db 12 07 bd 6a fc 15 be 03 6e 63 bd 77 93 0b 3e
       -0.032976966 -0.1464707 -0.055524837 0.13630472
0001b0 9d 6f 30 3b 02 26 fa bd c2 80 fb bd 0c b3 70 3d
       0.0026921995 -0.12214281 -0.12280418 0.058764502
0001c0 67 f7 fd 3d 06 c6 d8 bd 66 bb 72 bc f9 8d cf bd
       0.12400704 -0.10584645 -0.014815187 -0.10134501
0001d0 f9 8d 40 bc cd 5d b8 bd 41 2e c1 bb 0a 82 f6 bd
       -0.011752599 -0.09002266 -0.0058954065 -0.12036522
0001e0 9e 96 96 3d f7 60 c8 bc b3 11 34 be da 91 62 bd
       0.07352947 -0.024460299 -0.17584877 -0.055314876
0001f0 36 f5 2a 3c 0b 13 13 be 98 99 16 be fd 04 30 3c
       0.010434439 -0.14362733 -0.14707029 0.010743377
000200 e9 95 c2 bc d3 63 e7 bd 71 2d 3b be 21 9c c2 bd
       -0.023753123 -0.11298337 -0.18279053 -0.095024355
000210 e2 3c f5 3c 06 77 46 bc 29 92 26 be 73 b1 e8 3d
       0.029936258 -0.012113338 -0.16266693 0.11361971
000220 4e c0 4b 3d a9 13 45 be 0f 58 e1 bd 0a 81 7b bb
       0.049743943 -0.19245781 -0.11003124 -0.0038376474
000230 68 18 32 be fb ff a2 3d fb f3 66 bd 2c 1b 59 bd
       -0.17392123 0.07958981 -0.05638502 -0.05300443
000240 5c d3 3d be 9f 9d 05 bc d7 95 ec bd de 04 6e 3e
       -0.18537658 -0.008155256 -0.11552017 0.23244044
000250 1c ec 3c be f8 12 70 bd d2 0c a4 bd 34 58 08 bd
       -0.18449444 -0.05861184 -0.08010258 -0.033287242
000260 0d bf 10 be 5c 9f 88 3c cc f8 89 bd 15 bf 16 bd
       -0.1413538 0.016677551 -0.06736907 -0.036803324
000270 73 7d 1e 3d 21 b9 05 be c2 8c 01 be 04 43 cf 3c
       0.038693856 -0.13058902 -0.12651351 0.02530051
000280 fd 74 18 3b 89 58 56 be ef a1 dc bd b2 29 10 bd
       0.002326309 -0.20932211 -0.10773074 -0.035196014
000290 56 6e ef 3d a0 4c 39 bd fe 88 43 3c b8 d4 9d be
       0.11690967 -0.04523909 0.011934517 -0.30826354
0002a0 11 c5 e3 bd 60 c8 f2 bc 1d ef a5 bd b0 29 79 3d
       -0.11121572 -0.029636562 -0.08102248 0.060830772
0002b0 1f 26 04 3e 84 88 df bd c1 e1 80 3d 2e cf d2 bd
       0.12905167 -0.1091471 0.06293059 -0.10293423
0002c0 61 b1 e6 3b e7 0b 73 3e 75 17 10 3e 3c 35 14 be
       0.007040188 0.23735009 0.14071448 -0.14473432
0002d0 b8 b5 09 bd ee e0 21 be 28 1f a6 3d ac d4 d4 3d
       -0.033620566 -0.1580846 0.08111411 0.103921264
0002e0 d4 3b c7 3c 52 3e 07 be ee de 2c bd 5a c7 ff bd
       0.02432052 -0.13207367 -0.04220479 -0.12489195
0002f0 74 87 db bc d3 3d 0f 3d b0 48 08 3e c4 64 9b bd
       -0.026797988 0.03497107 0.13308978 -0.07587579
000300 81 02 c1 bd d6 90 be ba e6 c5 e2 bb f8 a0 cb bc
       -0.09424306 -0.0014539014 -0.006920564 -0.02485703
000310 96 8c a1 3d ec 42 96 3e 92 8f b8 bd 94 27 e3 3d
       0.07888143 0.29347932 -0.09011759 0.11091533
000320 3b 76 ca 3e 4a 36 00 3e e6 3c 48 bd 6b af 0e 3e
       0.39543328 0.1252071 -0.048886202 0.13934104
000330 36 c0 07 be ec be 10 3e d9 a2 3d 3e 7f 00 1d 3c
       -0.13256916 0.14135331 0.18519153 0.009582638
000340 45 16 8f 3d 0f 06 20 3d f6 9c 85 bd 2b f2 18 3e
       0.069866695 0.039068278 -0.065240785 0.1493613
000350 35 33 80 3e 19 eb 80 3e 2e f5 73 bd f7 c0 c5 bd
       0.25039068 0.25179365 -0.059559993 -0.09655946
000360 9b 0f 13 be 5c 89 96 3d 6b 2f 89 3e 5d 0b 19 3e
       -0.14361422 0.07350418 0.2679399 0.14945741
000370 29 0a 01 be 2d 4b 4d 3e 3e 61 0a be aa b0 1a be
       -0.12601532 0.20048209 -0.13513657 -0.15106454
000380 99 4a e0 3d 74 ea 80 3e 51 42 2e 3d 99 fc a9 be
       0.109517284 0.25178874 0.042543713 -0.3320053
000390 f2 7e 8f 3c 02 ae e7 3d f0 d6 1a 3e b6 e2 b5 3d
       0.017516587 0.11312486 0.15121055 0.08881132
0003a0 2b 3f 21 3d 8d e4 38 3d 88 fb a4 be fb 9f 98 3d
       0.039366882 0.045139838 -0.32223153 0.07452389
0003b0 c7 cb 3c 3e d7 26 93 3d 00 0a 11 3d f7 f9 45 be
       0.1843711 0.071851425 0.035409927 -0.19333635
0003c0 d3 20 3f 3e 85 c0 8e bd 6f e3 34 3e d0 66 e0 3c
       0.18664865 -0.06970314 0.17664884 0.027392775
0003d0 70 33 db 3b a7 32 c5 3d b9 cf 2d bd 84 b3 90 3d
       0.0066894814 0.09628802 -0.042434428 0.0706549
0003e0 fc 7e 3c 3e d9 65 28 3e 16 7f 1b 3c 44 1a 56 be
       0.18407816 0.16445102 0.009490749 -0.20908457
0003f0 36 48 7f 3d 18 d3 ad 3d 6f e9 44 3e 7a d5 3d 3e
       0.062324725 0.084875286 0.19229673 0.18538466

network_body._body_endoder.seq_layers.0.bias f4 [128]
000000 1b 81 76 bc eb f9 b3 3c e5 9e a7 3c b8 16 f6 3c
       -0.01504543 0.021969756 0.020461509 0.03004013
000010 b2 f3 fc 3c 22 f7 85 3c e0 8b 4a 3d 00 51 48 3d
       0.030877922 0.016353194 0.0494498 0.048905373
000020 fc 8e cd 3a db b2 46 bd ae f6 43 3c f8 0b d7 3c
       0.0015682871 -0.048510414 0.0119606685 0.026250824
000030 10 8c 64 3c 16 d2 1e 3c c8 79 de 3b c1 e5 2a bc
       0.013949409 0.009693643 0.00678942 -0.010430754
000040 e6 29 37 3d f1 76 1c 3d 9b 56 16 3d 2b 30 7c 3d
       0.04471769 0.03819937 0.036703687 0.061569374
000050 75 fb 29 3d fe cb bc 3b 86 e6 c3 3c 33 b6 ab 3c
       0.041499574 0.0057616225 0.023913633 0.020960903
000060 78 7f d4 bb 67 9a d0 3c 43 67 d0 3c f2 af 53 bc
       -0.006484922 0.02546425 0.025439864 -0.012920367
000070 9f 07 00 3d b7 95 11 3d 6d 4e d8 3c c2 61 a9 3b
       0.031257268 0.03554317 0.026404584 0.0051691243
000080 73 b0 e7 bb 04 ed 18 bd 0d 6a c6 3c ef 26 52 3d
       -0.007070595 -0.03733541 0.02422049 0.05130666
000090 62 73 50 bc 4c 69 c7 3c 41 a9 14 bb 9d c2 7f bc
       -0.012722822 0.024342202 -0.002268389 -0.015610364
0000a0 e2 d0 e1 bc be 41 3f bc cd 3b 87 bc e4 a9 6c bd
       -0.027565423 -0.011673389 -0.016508007 -0.057779208
0000b0 96 c6 bc 3a 9f 6f a0 bc e4 95 e8 3c 2d 98 bb bc
       0.0014402445 -0.019584475 0.028391786 -0.022899712
0000c0 ef c8 41 3c a7 e3 cc bc 00 49 c6 3c 54 26 65 bd
       0.011827691 -0.025010897 0.024204731 -0.055944756
0000d0 09 ea 91 bd 0d 9a 3c bc 8b 83 e3 3c b2 d2 6c bc
       -0.07124717 -0.011511338 0.027772686 -0.014454531
0000e0 b0 d1 af bc a1 5e 57 bd 55 d6 2d bc fd 3c 98 3c
       -0.021462291 -0.05258048 -0.010610183 0.018583769
0000f0 bb c4 10 3d 27 09 04 3b 0d 9a 55 bc 12 60 32 3b
       0.035343867 0.0020147057 -0.013037217 0.0027217907
000100 1c ae e2 3c b7 b8 0f 3d 38 8e 09 bd 14 61 03 3d
       0.027670912 0.035088267 -0.033582896 0.032075003
000110 26 4a fb 3c e1 56 a2 3d e9 31 b6 bc c1 c9 48 3c
       0.030675005 0.07926727 -0.022240596 0.012255133
000120 99 f7 57 3d b2 8a 01 bd 61 37 f0 bb 30 9a db bc
       0.052726362 -0.03162641 -0.0073308204 -0.02680692
000130 c7 57 9a 3c e1 40 d8 bc aa 01 af 3c 0e e8 3f 3d
       0.018840684 -0.026398124 0.021363098 0.046852164
000140 57 10 f0 bc 76 67 d9 bc 4d 80 6c bd 03 22 0a 3c
       -0.029304666 -0.026538592 -0.057739545 0.008430961
000150 66 20 92 3b ef 6f aa bc 5b 55 b8 3c ac bb 21 bd
       0.0044594286 -0.020805327 0.022501638 -0.03948562
000160 4c 8c 20 bd e7 e2 3c bd 08 1f 0d bd 76 c0 6a 3d
       -0.039196298 -0.04611483 -0.03445342 0.05731245
000170 2d 52 77 bd 89 69 c0 3d 29 76 86 bc dd 0e bb 3c
       -0.060381103 0.09395129 -0.016413765 0.022834236
000180 fd f4 86 3d 1a 07 20 3d 9b a5 c0 bc f8 de 0b 3d
       0.065896966 0.039069273 -0.023516467 0.034148186
000190 31 3d 1e bd 6b b6 ac bc 40 69 37 3d 7f 58 64 bc
       -0.038632575 -0.021083077 0.04477811 -0.013937115
0001a0 8b 97 df 3c ca 14 38 3d 88 09 a1 3c 47 4a 25 3c
       0.027293941 0.0449417 0.019657865 0.01008851
0001b0 42 52 3b b9 81 b6 1f 3d e0 24 04 bc 69 5b f5 bb
       -0.00017864353 0.03899241 -0.008065432 -0.0074877036
0001c0 5b ad 6e 3d e0 da 28 3d 35 ef 03 3d dc c6 8e bc
       0.058270793 0.04122436 0.032210547 -0.017428808
0001d0 88 31 15 3d b9 ee 6a 3d e2 d8 4c 3d a5 19 51 bd
       0.03642419 0.05735657 0.050011523 -0.051049847
0001e0 54 fa 13 bc 1a b2 6f 3d b1 36 4f 3d 69 0a 49 bc
       -0.009031851 0.05851946 0.050589267 -0.012270548
0001f0 0c 64 a3 3c 8e d1 0b 3d ff df 9c 3c 61 65 72 bb
       0.019945167 0.034135394 0.019149778 -0.0036986696

network_body._body_endoder.seq_layers.2.weight f4 [128, 128]
000000 c0 b0 47 be 3c b8 e6 bd 78 e4 11 bd f1 0c 64 bd
       -0.19501019 -0.11265609 -0.035618275 -0.055676404
000010 fa fb 80 bd cb 4b 18 be 97 15 50 bd 7c 6d 6b 3d
       -0.06298061 -0.14872663 -0.05080184 0.05747746
000020 db be e4 bd 22 af 40 bd 0b c7 1b bd 43 37 0b 3d
       -0.11169215 -0.04704202 -0.03803162 0.03398825
000030 46 97 b9 bd 2e 74 46 be 80 bf 8a bd 13 36 0d be
       -0.09062056 -0.19380257 -0.06774807 -0.13790159
000040 15 30 8d 3d f7 99 27 bc 60 04 dc 3d 4c ee 81 bc
       0.068939365 -0.010229579 0.10743022 -0.0158607
000050 c5 9c ab 3e 5f ee 29 bc 04 f0 a6 be 8c 15 83 3d
       0.33518043 -0.0103717735 -0.32604992 0.06400594
000060 1c a3 ad 3d 91 96 e6 bd 75 b4 8f be 31 64 f5 3d
       0.08478376 -0.11259187 -0.28067365 0.119820006
000070 d2 fd 4b 3e bb 5d 22 be e9 36 ec 3d d6 59 32 3e
       0.19921044 -0.15856068 0.11533911 0.17417082
000080 6b f6 0c 3e 47 1f 60 bd bc ec ad bd 95 ea 0b 3e
       0.13765876 -0.05471733 -0.08492419 0.13663705
000090 ef 57 26 3d 2f 58 9a 3d 23 5f dd bd ac 51 ce bd
       0.040611204 0.07536351 -0.108091615 -0.100741714
0000a0 78 00 18 3e e6 be ca bc 37 a5 06 be 82 b6 7c be
       0.14843929 -0.02474923 -0.13148962 -0.24678996
0000b0 2c c5 41 be e3 b3 9e bc df 45 b1 3d 74 cd 21 be
       -0.18922871 -0.019372886 0.08655905 -0.1580103
0000c0 da 9c 2e 3e 5b 2e 06 3d d1 9d 10 be 95 5b 47 3d
       0.17052022 0.03275905 -0.14122702 0.048671324
0000d0 6b b3 44 3d 84 d4 34 bd 43 7e f1 bd 96 ee 84 3d
       0.04802267 -0.044147983 -0.11791661 0.06490819
0000e0 a3 8b a0 bc e8 bd 82 3c 3a c3 ef bd f4 ad cf 3d
       -0.019597834 0.015959695 -0.117071584 0.10140601
0000f0 a7 8c de bd 32 e2 d9 3c 62 0d 49 bd da 72 98 be
       -0.10866671 0.026597116 -0.04908503 -0.29775125
000100 68 0a 35 be be 5d 12 3e d0 5b 0d be 43 83 05 3d
       -0.17679751 0.14293572 -0.13804555 0.032595884
000110 1c 19 07 3e a3 dc 19 3e 29 4b a1 3c a3 b8 cd bc
       0.13193172 0.15025572 0.01968916 -0.025112456
000120 76 34 af 3d 74 a4 3d 3c bd d4 3d be 0e 48 da 3c
       0.08554928 0.011574853 -0.18538184 0.026645686
000130 23 03 0e be 25 49 2e 3e c2 e5 33 be 20 84 22 be
       -0.13868384 0.1702009 -0.17568114 -0.15870714
000140 2f 97 ba 3c 40 b4 ef bd a3 6a 6d 3d a8 99 7e bd
       0.022777168 -0.11704302 0.057963025 -0.062158257
000150 32 5a ee bd fe e7 67 be 78 84 6b bc ad 9d b7 bd
       -0.11638297 -0.22647092 -0.014374845 -0.08965621
000160 ba 2f c8 bd 2d 2a b4 bc 40 63 68 bd 7a 7c 99 3c
       -0.09774728 -0.021992767 -0.056735277 0.018736113
000170 85 64 8c bd b1 83 78 3e 44 98 4e bd 9d 30 a0 3d
       -0.0685511 0.24268986 -0.05043818 0.07821772
000180 da b6 3a 3e 81 0d a5 3d aa 06 85 bd ab a8 8d 3d
       0.18233815 0.08059216 -0.06495412 0.069169365
000190 7f 5b 7c 3c f6 e6 a6 bc 0a b7 c6 ba 79 18 65 be
       0.015402674 -0.020373803 -0.0015160751 -0.22372617
0001a0 7b 0d ba bd aa f5 a3 bd 4e 19 cd 3d eb 97 39 3d
       -0.090846024 -0.08005841 0.10014592 0.045310896
0001b0 8c d4 e7 3d b1 b1 8d 3b 86 3f 26 be d2 ed 84 3e
       0.11319837 0.004324161 -0.1623517 0.25962692
0001c0 19 de b9 3d 78 70 07 3c 5b 3e dc bd 7d b7 1a 3b
       0.09075565 0.008266561 -0.10754081 0.0023607903
0001d0 27 81 59 3d 16 35 83 3d 01 76 a1 bc 5c f2 30 bd
       0.053101685 0.0640661 -0.019709589 -0.043199882
0001e0 6a 11 ec bd 45 fe 00 3d cd 08 d7 3d 84 e8 4c 3d
       -0.11526759 0.03149249 0.104997255 0.05002643
0001f0 d3 1f d7 3d f9 d1 97 3d a9 7d 99 3d 24 07 0a be
       0.10504117 0.07413096 0.07494671 -0.13479286
000200 8e 19 29 be 25 7a e5 bd d2 6d 4c bc a6 5b 52 3d
       -0.16513655 -0.11204938 -0.012477355 0.051356934
000210 a9 92 e1 bd 60 03 ba be eb 2d 0d 3e 6b 5c 1e bd
       -0.11014301 -0.363307 0.13787048 -0.038662355
000220 62 f6 0c bc 6f 74 0b be 45 24 51 bd ed df 32 bd
       -0.008603664 -0.13618635 -0.05105998 -0.043670584
000230 ac 3e e9 3d ba 52 44 3e 3a 3b 33 3c 8f 15 8c be
       0.11388907 0.19172183 0.010939414 -0.27360198
000240 13 27 19 3e 78 31 5f 3d db 2d 2e bd de 33 05 3d
       0.14956312 0.054490536 -0.0425242 0.032520168
000250 41 de a5 bd c0 dc 3e bb c6 94 1c bd 92 46 72 bd
       -0.08099032 -0.0029123276 -0.03822782 -0.059149332
000260 18 7c 21 bc 02 c8 58 bc ef 9d 7c be d2 82 c2 3d
       -0.009856246 -0.013231279 -0.24669622 0.09497608
000270 b4 84 20 be f2 ef 04 bb 08 4c ae 3d ec c5 a7 bc
       -0.15675622 -0.002028462 0.085105956 -0.020480119
000280 19 47 4a be 98 99 a3 bc 52 53 c0 bb 2e 8c bc 3d
       -0.19753684 -0.0199707 -0.0058693076 0.09206425
000290 79 39 7a 3d 8c fa b1 3d d2 8c 17 be be a7 3b 3d
       0.061089966 0.08690366 -0.14799812 0.04581427
0002a0 c5 f5 34 be 43 14 f6 3d e3 23 9a bd 40 cc bb bc
       -0.17671879 0.12015583 -0.07526376 -0.022924542
0002b0 22 b0 c6 bd 75 fe 4d bc 2f 8e e4 3d d3 2c d2 bd
       -0.097015634 -0.012572874 0.11159932 -0.10262456
0002c0 c3 79 21 be 68 bb 88 3c 26 1e 6e 3e d5 63 b1 bc
       -0.15769105 0.016690925 0.23253688 -0.021654049
0002d0 7c 6d 31 be 8f c0 b0 3c 9a 06 b2 bd 4e 5b 21 be
       -0.17326921 0.021576194 -0.086926654 -0.15757486
0002e0 de ee a1 be bb 86 be bd 3f d3 8b bb 73 8e 7f 3d
       -0.31627554 -0.093030415 -0.004267126 0.06239171
0002f0 df 13 e2 bc 95 ac 89 3d b1 75 95 3d 32 f8 0e 3e
       -0.027597366 0.067223705 0.072978385 0.13961866
000300 26 d6 cf 3c 17 ae 78 3e c9 7b 7e 3d 0f 37 90 bd
       0.025370669 0.2428516 0.06212977 -0.070417516
000310 ba 9a 78 bd e0 ef 36 3d 87 c0 2e be 73 54 89 be
       -0.060694434 0.044662356 -0.17065631 -0.26822242
000320 bf cd e9 bd 18 f5 57 be 7e c1 12 be 2a 3c 97 bd
       -0.11416196 -0.2108959 -0.14331624 -0.07384522
000330 38 a4 df 3d eb 3a 70 3c eb be d0 bd 27 97 ea bd
       0.10919994 0.014662485 -0.10192665 -0.11454611
000340 59 cc 3d be 3d c5 1a be ba 8d 3b be b0 43 03 be
       -0.18534984 -0.15114303 -0.18315783 -0.1281879
000350 d1 82 0f 3e 23 40 f3 3b 5a f5 26 3d 10 6e c1 be
       0.14014746 0.007423417 0.04076133 -0.37779284
000360 51 27 cb 3b 43 55 00 be f7 cb e5 bd 68 cf 14 be
       0.0061997552 -0.12532525 -0.11220544 -0.14532244
000370 4a 16 d7 bd 35 f1 71 3e 7d c9 40 be c3 25 83 be
       -0.10502298 0.2362717 -0.18826862 -0.25614747
000380 38 1c 29 3e 53 d4 df 3c 1e 3e 43 be f0 9d ca bb
       0.16514671 0.027322924 -0.19066665 -0.0061833784
000390 76 5d 8a bd 48 57 f2 3d 75 db 5b be ce bd 0a be
       -0.067561075 0.11833054 -0.21470435 -0.13548967
0003a0 5c e3 34 be 07 61 83 bd ee da 34 3e 83 f2 a0 bd
       -0.17664856 -0.06414991 0.1766164 -0.078587554
0003b0 f6 8e 5e 3e e4 2b 32 be 46 d1 4f be 01 c8 ed bc
       0.21734223 -0.17399555 -0.20294675 -0.029026033
0003c0 28 70 dc 3d a2 f7 87 bc d0 30 3f 3d 0e 21 32 3d
       0.107635796 -0.016597573 0.04667741 0.043488555
0003d0 b6 02 99 bd b1 ad 95 3c 53 41 df 3d 58 51 7f be
       -0.0747122 0.0182713 0.109011315 -0.24933374
0003e0 df d2 6b bd 87 03 19 3d a6 3b 25 3c b1 38 52 3d
       -0.05757415 0.03735688 0.010085022 0.051323596
0003f0 db 93 2f 3e db 7d c1 3c 37 55 54 3d 86 01 11 be
       0.17146246 0.023619583 0.05183908 -0.14160737

network_body._body_endoder.seq_layers.2.bias f4 [128]
000000 32 ff bc 3c ea 7d 8b 3d f6 d6 9d 3d c8 d0 44 3b
       0.023070905 0.068111256 0.07707016 0.003003167
000010 31 f4 68 3c 92 96 72 3d ee f0 1f 3d 48 d8 97 bc
       0.014218376 0.059225626 0.039048128 -0.018535748
000020 e9 c4 be 3b a9 c8 0b 3c 96 c6 3f 3d 2c 23 a8 3b
       0.0058218134 0.008531728 0.046820246 0.005131146
000030 5b 82 02 3d 8c 73 da 3c 67 d5 08 bc 67 67 f4 3b
       0.031862598 0.026666425 -0.00835166 0.0074586156
000040 b5 41 ac 3c 03 b8 ed 3c f5 74 d6 3c 42 68 87 bb
       0.021027425 0.029018408 0.026178816 -0.0041323015
000050 c5 65 12 3d 12 8a 7f bc 19 ad 4c 3c 71 69 91 3d
       0.035741586 -0.015596883 0.012492442 0.071001895
000060 f3 1a 24 3c 35 5c 3e bb 2a b5 75 bc 19 9f b4 3d
       0.010016191 -0.002904666 -0.014996806 0.08819408
000070 5a f2 ce 3c 07 df 92 bc df f1 f1 3c d4 15 3b 3a
       0.025262047 -0.017928613 0.029534278 0.00071367365
000080 a1 29 c4 3b d2 cc e0 3c 65 d1 78 3c 3f 0c 6d bc
       0.005986408 0.027441416 0.015186642 -0.014468252
000090 1d 67 9d bb 42 bf e9 3b 1f 64 1d 3d b5 fa 7a 3d
       -0.004803552 0.0071333954 0.03842556 0.06127425
0000a0 07 36 c9 3b 7e 89 c9 3c e0 c6 ca 3c 4d a4 bc 3b
       0.0061404738 0.024601694 0.024753034 0.005756891
0000b0 e6 80 c8 3d f8 16 85 3c f3 88 80 3c 58 6c ac 3c
       0.097902104 0.016246304 0.015690302 0.021047756
0000c0 bb 6d b6 3c 23 11 c4 3d 82 fc dc 3c 2d 21 25 3d
       0.02226912 0.09573581 0.026975874 0.040314842
0000d0 8b fd 0b 3d e9 0c 96 3c e5 11 74 3d b8 a9 b2 bc
       0.034177344 0.018316703 0.059587378 -0.021809444
0000e0 c2 b7 b7 3d ab 59 8c 3d b6 57 0b 3c aa bf b6 3c
       0.08970596 0.0685304 0.008504799 0.02230819
0000f0 6b 76 ba 3c fc 1d 9a 3d c1 28 43 3d 91 96 b1 3d
       0.022761544 0.0752525 0.047646288 0.086712964
000100 c7 14 5d 3c b1 bc 07 3c 8d c6 d0 3d 2a 74 48 3d
       0.013493723 0.008284734 0.101941206 0.048938908
000110 2e 98 86 3d 52 b7 1e 3d 4d bc 9a 3d 60 c0 7a bb
       0.06571995 0.038749047 0.07555447 -0.0038261637
000120 4d 8d 11 3d 9a 80 7a 3b eb 0f ba 3b 94 fd d9 39
       0.035535146 0.0038223625 0.005678167 0.00041578396
000130 b4 c8 94 3d e9 66 b3 ba 63 eb db 3c 7a 99 86 bc
       0.072648436 -0.0013687286 0.02684564 -0.016430605
000140 f5 63 8b 3b 78 57 4f 3b 6d 8c 1e 3d fa d2 19 3c
       0.004253859 0.0031637829 0.03870814 0.00938868
000150 bd c3 52 3d 55 b7 bd bc fb 4a 3b 3c 2b 76 b9 3d
       0.0514562 -0.023158709 0.011431451 0.09055742
000160 84 aa f9 3c 30 17 63 bc 45 5f 03 3d 85 18 db 3b
       0.030476816 -0.013860509 0.032073278 0.0066862726
000170 31 c9 cf 3c ab 33 ce 3c 21 56 40 3c 21 2a 1b 3d
       0.02536449 0.025171122 0.011739285 0.037881974
000180 00 fc b2 3d 83 aa fd 3c 73 49 df 3c f6 d8 68 bd
       0.087394714 0.030965095 0.027256703 -0.056847535
000190 4f 60 98 3c 2d aa 94 3c 92 25 bc 3d 34 84 34 bd
       0.018600611 0.018147552 0.091868535 -0.04407139
0001a0 ed 61 34 3d 2b 42 7a 3d e6 a4 3b 3a bf 53 02 bd
       0.0440387 0.06109826 0.00071580557 -0.031818148
0001b0 8e 1e 8d 3c 51 fd 9c 3d c3 ea 40 3d 2e 8a 91 3c
       0.017226484 0.07665504 0.047098886 0.017766085
0001c0 08 b7 3b 3c 21 ca 00 3d 35 6d cf 3d 7a b7 9f 3c
       0.011457212 0.031442765 0.101282515 0.019496668
0001d0 42 d9 91 3d 1d 3b 6c bd 53 c9 60 3d 93 16 35 3d
       0.07121517 -0.057673562 0.054879498 0.04421098
0001e0 19 78 a6 3c 1f 86 04 3d 38 e6 09 bd 9c 29 87 bc
       0.020320939 0.03235447 -0.03366682 -0.016499333
0001f0 05 3b ba 3c 92 67 42 3d 44 6b 13 bd 07 08 5b 3c
       0.02273322 0.047462054 -0.03599097 0.013368613

action_model._discrete_distribution.branches.0.weight f4 [7, 128]
000000 80 42 ee 3c 3f fd 6b 3c 85 1f 46 3b 48 ea 04 3d
       0.029084444 0.01440364 0.003023119 0.03244999
000010 e6 ef 4d 3d d8 87 4d 3d 10 5f 43 bd af de 90 bd
       0.050277613 0.05017838 -0.04769808 -0.070737235
000020 d4 3d 9a bc 58 e7 90 bc bb 95 1a bb cd 8c fd 3b
       -0.01882831 -0.017688438 -0.0023587781 0.007737732
000030 3d 44 d4 3c 6d b6 88 bc 3b 98 35 bd 7d 08 28 bd
       0.025911445 -0.01668855 -0.04433463 -0.04102372
000040 bc 26 05 3d d4 3c a0 bd e2 bd 8d bd 3a 4d e6 3c
       0.032507643 -0.07824102 -0.06920983 0.028112996
000050 21 97 cf bb ea f3 6c bb 87 86 83 3d 60 af d3 3c
       -0.0063351546 -0.0036156126 0.064221434 0.025840461
000060 a9 db 38 bd db 86 df bc 14 16 22 3c 22 ce 04 3c
       -0.04513136 -0.027285984 0.009892959 0.0081057865
000070 01 bf bc bc fe ed f1 bc fa 51 89 3b 7e 8a 00 bc
       -0.023040297 -0.029532429 0.0041906806 -0.007845519
000080 1a a1 7c bd 7b 6b b2 3b c8 01 c8 3c 74 2b 9a bd
       -0.061677076 0.0054449416 0.024414912 -0.07527819
000090 3f 4b 6c 3b db 2f 1c 3d 3d b3 b8 bb 42 1f d7 3c
       0.0036055592 0.038131576 -0.0056366012 0.026260022
0000a0 5f 5e 18 bc fb e2 54 bd 27 1e ab bd f4 1b f9 bc
       -0.009299844 -0.051974278 -0.083553605 -0.030408837
0000b0 b5 fe 7f 3d 36 39 4e bc 32 fe dd bc 5b 04 94 3c
       0.062498767 -0.012586882 -0.027098749 0.018068483
0000c0 94 98 12 3d eb cd 68 3d 22 e6 a7 bd 40 20 b0 3c
       0.03579004 0.056837004 -0.08198191 0.021499753
0000d0 8a ac a4 3b 95 a6 d4 3c cd 4e 25 3d 3a 0f fe bc
       0.005025451 0.025958339 0.040358353 -0.03101312
0000e0 1f 65 b8 3c 02 e4 40 3c 5b 2d 28 bd 58 7c 69 bc
       0.022509156 0.011773111 -0.04105888 -0.014250837
0000f0 e3 c2 9b 3d 4c e5 16 3b c7 3b 90 3c 07 8e 60 3d
       0.07605531 0.0023024855 0.017606629 0.054822948
000100 29 b6 7a 3d 6b 5f bb 3c a4 17 0c bc e3 de 9c bd
       0.061208878 0.022872647 -0.008550558 -0.076597
000110 17 24 5f 39 00 f6 0e 3d 31 5b 00 3d bf 5e 88 bd
       0.00021280382 0.034902573 0.031336967 -0.066586964
000120 26 41 17 3d a0 e1 3b 3c 8e fb 73 bd 9b fb 1d 3d
       0.036927365 0.011467367 -0.059566073 0.038570028
000130 b5 0d 4c 3c e8 61 c8 3d cd b6 26 bb 69 06 10 b9
       0.01245444 0.09784299 -0.0025438548 -0.00013735298
000140 82 46 94 bc 7c c2 ac bd a3 cc 03 bd a7 c2 22 bd
       -0.018100027 -0.084355325 -0.03217758 -0.039736416
000150 3f a4 de 3c 05 fe c5 bc e8 49 82 bd 05 fe b7 3c
       0.027177928 -0.024168978 -0.06361753 0.022459993
000160 c5 23 00 be ea d8 a7 bd 99 85 7d 3c d2 ef 28 bd
       -0.12513645 -0.0819567 0.015473747 -0.041244335
000170 46 82 f3 3c 88 7a a7 3c 50 0f 82 3b ce 1e 69 3d
       0.029725205 0.02044417 0.0039691105 0.056914143
000180 e5 ea 88 3d 91 94 e1 3c bc 4c 6f bd 0a 51 ae bc
       0.066854276 0.027536662 -0.05842279 -0.021278877
000190 09 3c 95 bd 1b 4f d8 3c 25 01 f7 3c 84 a5 81 3c
       -0.072868414 0.026404908 0.030151913 0.015825994
0001a0 ac bc 09 3c 7b 4e 27 3a 36 6f 2c bd c2 e3 3a bd
       0.008406799 0.0006382239 -0.042098247 -0.045627363
0001b0 a8 44 c9 bd 46 e9 2c 3d 8d 8b f6 bc 8a ab db 3b
       -0.09827548 0.042214654 -0.03009584 0.0067037987
0001c0 df bc 6a bd 18 2d 92 3c 4b e4 4e 3d 43 c8 af bb
       -0.057309028 0.017843768 0.050510686 -0.005364449
0001d0 ad ac 6e bc 58 10 d8 bc e4 46 d6 3c cd 47 31 3d
       -0.014567536 -0.02637498 0.02615685 0.043281365
0001e0 9f 1c 83 3c 43 dc 9b 3d 92 27 2f bd bd b7 18 3d
       0.016004859 0.07610371 -0.042762347 0.0372846
0001f0 ab 8f 05 bd 27 b6 c3 bd d5 98 6b 3d 1d 57 3e bd
       -0.032607716 -0.09556227 0.0575188 -0.046469796
000200 4d 75 03 bd 75 7e 69 bd 07 de 42 be ea 1d cb 3c
       -0.03209429 -0.057005364 -0.19030009 0.024794538
000210 1a dd c4 3d 51 f1 29 be 85 22 76 3d 6c 1a c1 3d
       0.09612484 -0.16595961 0.060091514 0.09428868
000220 2c e0 87 3d ca 4b 37 3c 49 4a a6 bd 18 05 8e bd
       0.06634554 0.011187503 -0.081196375 -0.06934565
000230 e1 d4 51 bd 36 7a 1f bc 91 2f d9 bc 39 27 10 3e
       -0.051228408 -0.009733727 -0.02651194 0.14077462
000240 56 61 be bc 51 50 22 3e 43 85 ac 3d 53 fe 04 ba
       -0.023239773 0.15850951 0.08423855 -0.00050732977
000250 ee df 7f bd 8a 7a 06 3e a5 fc 80 bd 2b e4 dd 3b
       -0.062469415 0.13132682 -0.06298188 0.0067715845
000260 cf 7a 52 3d 8b 70 bb 3d b6 fa 83 bc ad 41 56 be
       0.05138665 0.09152325 -0.01611076 -0.20923491
000270 b7 11 df 3d 79 f0 d7 bc 47 22 32 3c 94 c0 f1 bc
       0.10892051 -0.026359783 0.01087243 -0.029510774
000280 5d 57 14 3e 98 dc b0 3d b2 79 39 bd 61 02 ba bc
       0.14486451 0.08635825 -0.045282073 -0.022706212
000290 19 42 da bc 9c 50 25 bd e3 37 a7 3d d9 fd b8 bd
       -0.026642846 -0.04036008 0.081649564 -0.090327926
0002a0 58 b2 8d 3c e4 dc 4b 3d c1 55 f0 3b 56 c5 08 3e
       0.017296955 0.049771205 0.0073344414 0.13356528
0002b0 fc 10 1c be c8 03 12 bd 60 5e 71 3d 7e 79 27 bd
       -0.15240854 -0.035648137 0.058927894 -0.04088735
0002c0 5d 15 4a bc dc be 29 be b6 d6 fb 3d c7 ae f0 bd
       -0.012334195 -0.16576713 0.12296812 -0.11752086
0002d0 b2 ef 65 bd 33 7f 9f bd 67 5b a6 bd f5 3e 80 3d
       -0.056136794 -0.07787933 -0.08122902 0.06262008
0002e0 d9 6e 3c be 35 60 cc bd 7c 55 17 3c 4a 2d a4 3c
       -0.1840166 -0.099792875 0.00923669 0.020041127
0002f0 e2 c5 fe bd c6 55 0b be b8 06 94 bd ec b3 fc bd
       -0.12440087 -0.13606939 -0.07227844 -0.12339005
000300 93 79 ef 3d 31 ad 53 bd 23 f5 1a 3e 34 a8 33 3e
       0.1169311 -0.05167884 0.15132575 0.17544633
000310 27 4a cc bc 72 cb cb 3a 31 f1 46 3d 49 69 02 3e
       -0.024937702 0.0015548302 0.04856986 0.12735476
000320 17 b6 6d bd 27 86 01 3e ca 6a 32 3e 7f 77 a0 bd
       -0.058034983 0.12648831 0.1742355 -0.07835292
000330 fe 44 84 3d 64 47 d0 3c 86 29 bd bd 72 b8 ca bd
       0.06458472 0.025424667 -0.092364356 -0.098984614
000340 cf 98 1c bd 00 3c 03 3e 3f bd aa 3d 4c d9 45 bd
       -0.038231667 0.12815857 0.08336877 -0.048302934
000350 08 92 34 bd 54 f1 c5 3c 14 35 7e 3d d6 b3 82 3d
       -0.04408458 0.024162926 0.062062338 0.06381957
000360 09 74 c7 3d 3d a4 fc 3d 89 a5 29 3d 03 e9 f3 3b
       0.09738929 0.123360135 0.041417632 0.0074435486
000370 74 c8 e2 bd 94 7a 6c bd 99 44 21 3b c3 bb 92 3c
       -0.1107339 -0.057734087 0.0024607538 0.017911797
000380 ee 05 c2 bd 3b 11 f2 bc 48 09 12 3c 10 a9 8a 3d
       -0.09473787 -0.029549232 0.008913346 0.06770527
000390 01 bc f9 3d 7e 45 11 3d 48 0c 27 be b7 60 d8 bb
       0.12194062 0.035466664 -0.16313279 -0.006603326
0003a0 d3 ad 5f bd 7e ce 23 be 8f fc 75 3d 04 4b 82 3d
       -0.05460913 -0.1599674 0.06005531 0.06361964
0003b0 87 5c b1 3d 57 15 94 bd c2 42 6f 3d 62 0b 8c bd
       0.08660226 -0.07230633 0.058413275 -0.068381086
0003c0 e2 54 9c bc a2 61 04 bd 51 b6 9f bd 4c d9 b9 bd
       -0.019083444 -0.032319672 -0.07798446 -0.09074649
0003d0 f3 0f a6 3d 32 e2 06 bc c6 dd 9d bd 0a 23 c8 3c
       0.08108511 -0.00823264 -0.077083156 0.02443077
0003e0 27 26 f4 bd ce d7 62 3d 14 90 a2 bc e1 2f d6 3c
       -0.119213395 0.05538159 -0.019844092 0.026145877
0003f0 57 85 9c 3d 72 47 3c 3e 5f 9f 92 ba e3 d2 0c 3e
       0.0764262 0.18386629 -0.0011186412 0.13752322

action_model._discrete_distribution.branches.0.bias f4 [7]
000000 1d 81 39 3d 84 a6 a5 bd 24 0c e8 3c 18 df 0d bd
       0.045289148 -0.08088401 0.028326102 -0.034636587
000010 aa e4 4c 3b 9c 65 14 3c 24 46 ee ba
       0.0031264224 0.009057429 -0.0018178863
