CCP-main/results/WeightAgent_Training/WeightAgent_Training/WeightAgent_Training-11999981.onnx (onnx, 156336 bytes, 6 tensors)

network_body._body_endoder.seq_layers.0.weight f4 [128, 164]
0	0xbd4fc36b	-0.050723474
1	0xbd8ab9bb	-0.067737065
2	0xbdbe6af7	-0.09297746
3	0x3dc40b01	0.09572411
4	0x3e07ccb8	0.13261688
5	0xbd9fe9f1	-0.07808293
6	0xbdab3f74	-0.08361712
7	0xbe38f54e	-0.18062326
8	0x3e02f4e0	0.12788725
9	0x3be8c14b	0.0071031204
10	0xbd3522c1	-0.044222597
11	0xbd8a72d6	-0.067601845
12	0xbd83f6df	-0.06443571
13	0x3ce4b0a9	0.02791627
14	0x3df12e39	0.117763944
15	0xbd6a7291	-0.057238165
16	0xbde34f84	-0.11099151
17	0xbd9ae3df	-0.07562994
18	0x3b0c1c99	0.002137935
19	0x3e77d449	0.24202074
20	0xbdca6d6d	-0.098841526
21	0x3d17085d	0.03687321
22	0x3da7206c	0.08160481
23	0x3e614656	0.21999487
24	0x3dcf1d65	0.101130284
25	0x3df21d7a	0.118220285
26	0xbdf370b5	-0.118867315
27	0xbdc46bb1	-0.09590853
28	0x3dde9355	0.10867945
29	0x3e910c88	0.28329873
30	0xbe6cc6af	-0.23122667
31	0x3e2d25e2	0.16908982
32	0x3dc82673	0.097729586
33	0xbd3390f8	-0.043839425
34	0xbd2efebd	-0.042723406
35	0x3ce2c025	0.027679512
36	0xbdc25f2c	-0.09490809
37	0xbd4caaf4	-0.04996772
38	0x3d87e23e	0.06634949
39	0x3e49bcdb	0.19700949
40	0x3df9ddc6	0.12200503
41	0x3d039ea1	0.032133702
42	0x3e1ec4d8	0.15504777
43	0xba25a810	-0.0006319294
44	0xbdf9b67e	-0.12193011
45	0x3dcff0fa	0.101533845
46	0xbd4b1d19	-0.049588297
47	0xbdb81e51	-0.089901574
48	0x3d40ebf9	0.04710004
49	0x3dc83827	0.09776335
50	0x3d631e25	0.05544867
51	0x3dd162f4	0.10223952
52	0x3dff4c95	0.12465779
53	0xbdcbd34d	-0.09952412
54	0xbdab3aac	-0.083608
55	0x3c9c1bf9	0.019056307
56	0x3c4d293c	0.012522038
57	0x3e031246	0.1279994
58	0x3d69d3c2	0.057086714
59	0xbd8187cd	-0.0632473
60	0x3e30eef1	0.17278649
61	0x3e2b03ef	0.1670072
62	0x3ca574e1	0.020197334
63	0xbe5c7ea4	-0.21532685
64	0xbcc16c8f	-0.023611335
65	0x3e79fdfe	0.24413297
66	0x3d991606	0.07474904
67	0x3e5dac2c	0.2164771
68	0xbe179b42	-0.1480532
69	0x3d8f8e55	0.070095696
70	0x3e03ece9	0.12883343
71	0x3e39ce2e	0.18145058
72	0x3d9e5cc2	0.07732536
73	0xbd3351cc	-0.04377918
74	0xbd21c514	-0.03949459
75	0x3d967f5f	0.07348513
76	0xbd9991ba	-0.07498498
77	0xbaa7f222	-0.001281325
78	0x3d2befa7	0.041976597
79	0xbd105148	-0.035233766
80	0x3e424e05	0.18975075
81	0x3dfdd147	0.12393432
82	0xbc6c65d4	-0.014428575
83	0x3e2afbcd	0.16697617
84	0x39b57fda	0.00034618267
85	0x3e38c338	0.1804322
86	0xbdc1406a	-0.09436114
87	0x3c277e1a	0.010222936
88	0x3d7e01ce	0.06201344
89	0xbcbe5ed4	-0.023238577
90	0x3e06e704	0.13174063
91	0x3e0f82af	0.14014696
92	0xbd088c93	-0.033337187
93	0x3d663bef	0.0562095
94	0xbd766821	-0.0601579
95	0x3e29e424	0.16590935
96	0xbd051901	-0.03249455
97	0x3d33a17c	0.043855175
98	0xbdd87a27	-0.10570174
99	0x3d3efd21	0.04662812
100	0x3cabced8	0.020972654
101	0x3d053973	0.03252549
102	0xbd39577c	-0.045249447
103	0xbd157a67	-0.036493685
104	0xbd647f36	-0.05578538
105	0x3e63b3e3	0.2223659
106	0xbdd49016	-0.10379045
107	0xbdc6d0ac	-0.0970777
108	0xbde81cc0	-0.113336086
109	0xbca6678e	-0.02031305
110	0x3e526a90	0.20548463
111	0x3c93b10e	0.018028762
112	0xbe15973a	-0.1460847
113	0xbdbfb8db	-0.0936143
114	0x3e029a32	0.12754133
115	0x3e82ecec	0.25571382
116	0xbd43a6c8	-0.047766477
117	0x3d78b507	0.060719516
118	0x3d79b033	0.060959052
119	0x3cd31c84	0.025770433
120	0x3e3695a5	0.17830522
121	0x3dcdff01	0.10058404
122	0xbc58549a	-0.013203764
123	0xbdda03ab	-0.10645231
124	0x3cefeeaa	0.029288609
125	0x3d8cff22	0.068846
126	0xbe2983be	-0.16554162
127	0x3e662e7a	0.22478667
128	0x3d99c91d	0.075090624
129	0xba285fe3	-0.00064229796
130	0x3ce4eabf	0.027943967
131	0xbe0a97cd	-0.1353447
132	0x3d02a371	0.03189415
133	0xbb25b465	-0.0025284525
134	0x3ca3b9da	0.019986082
135	0x3c825f91	0.01591471
136	0xbdd096e8	-0.10185033
137	0x3e3c3c66	0.18382415
138	0x3e3214f9	0.17390813
139	0x3d98897f	0.074481
140	0x3e06579c	0.13119358
141	0x3b304812	0.0026898426
142	0x3c77f144	0.015133206
143	0x3db028e5	0.0860155
144	0xbdc16b16	-0.09444253
145	0x3de72be1	0.11287666
146	0xbdfd3946	-0.1236444
147	0x3d002a57	0.03129038
148	0x3d563a1f	0.052301522
149	0x3da32a30	0.07967031
150	0x3e10520e	0.14093801
151	0xbdcc04e8	-0.09961873
152	0xbd25c125	-0.0404674
153	0x3e46fd44	0.1943255
154	0x3cff32d3	0.031152165
155	0x3e46f5da	0.19429722
156	0x3d1bdea7	0.038054135
157	0x3cf2ae25	0.029624054
158	0xbcd1c581	-0.025606873
159	0x3e17cc12	0.1482394
160	0x3dace71c	0.08442518
161	0x3dd25484	0.10270026
162	0x3dfd8b53	0.123800896
163	0x3d496e1f	0.049177285
164	0x3e64b5e2	0.22335008
165	0xbe4bcfc7	-0.1990348
166	0x3dacc384	0.08435729
167	0xbd8064a1	-0.062691934
168	0x3c8ac4b1	0.016939493
169	0x3dc803ef	0.09766375
170	0x3de4a52f	0.11164319
171	0x3d682586	0.05667641
172	0xbd5267a3	-0.051368367
173	0x3e1291ae	0.14313385
174	0x3e011a7d	0.1260776
175	0xbc814731	-0.015781017
176	0x3cea0794	0.028568067
177	0xbe3e97de	-0.1861262
178	0xbcf3bcd5	-0.029753128
179	0xbd437975	-0.047723252
180	0x3d1ac3a8	0.03778425
181	0xbd536495	-0.051609594
182	0xbd98c100	-0.07458687
183	0x3dd6861e	0.104747996
184	0x3e182989	0.14859594
185	0xbcdb2f09	-0.026755827
186	0x3c971d6d	0.018446648
187	0xbcc0e240	-0.023545384
188	0x3d577724	0.052603856
189	0x3cd75afe	0.026288506
190	0x3e1c0db3	0.15239601
191	0xbd9a668c	-0.075390905
192	0x3e153526	0.14571056
193	0x3da9c645	0.0828977
194	0xbd7ce9c7	-0.061746385
195	0xbcb1dc7a	-0.021711577
196	0x3cee8df1	0.029120417
197	0x3bc2a8e5	0.005940544
198	0xbce0cb3d	-0.027440662
199	0x3df530a8	0.11972171
200	0xbd2512a2	-0.040300973
201	0xbe10b44c	-0.14131278
202	0xbdba444f	-0.0909506
203	0x3e3eba21	0.1862569
204	0xbe3ca130	-0.18420863
205	0xbe5e1d79	-0.2169093
206	0xbdf14bf9	-0.11782069
207	0xbc0766ee	-0.008264286
208	0xbdf5ca51	-0.120014794
209	0xbd3bb7e2	-0.04582966
210	0x3e489800	0.19589233
211	0xbdba2fc2	-0.0909114
212	0xbcae4e87	-0.02127768
213	0xbc924e72	-0.017859671
214	0x3cb8f62e	0.022578325
215	0xbd4468d3	-0.04795153
216	0x3d5dd5eb	0.054159086
217	0x3d053a67	0.0325264
218	0x3cbcfcf7	0.023069842
219	0x3ce45d01	0.027876379
220	0x3e65f317	0.22456013
221	0xbe611dd2	-0.21984032
222	0xbafffd42	-0.0019530433
223	0xbdf6bcff	-0.12047767
224	0xbcba2755	-0.022723833
225	0xbe12dd22	-0.14342168
226	0xbe4f8373	-0.20264988
227	0x3e414e50	0.1887753
228	0x3e121645	0.14266308
229	0x3b38eeeb	0.0028218578
230	0x3cd97acd	0.026547814
231	0xbdcaae43	-0.09896519
232	0x3d3cff21	0.046141747
233	0x3d191336	0.037371837
234	0x3cb90cb0	0.022589058
235	0xbccb169f	-0.02479106
236	0x3d50da2b	0.05098931
237	0x3e00dab4	0.12583429
238	0x3d5be086	0.05368092
239	0xbe02e42b	-0.12782352
240	0x3dffadfd	0.124843575
241	0x3da27724	0.079328805
242	0x3b32c048	0.0027275253
243	0x3d616276	0.05502554
244	0x3e2c7507	0.16841517
245	0xbdf2c83a	-0.118545964
246	0x3d6b4362	0.057437308
247	0x3d67f5c0	0.05663085
248	0xbd9d97ef	-0.07694995
249	0xbd80fa1f	-0.06297707
250	0x3d72d8f7	0.059288945
251	0x3ce23626	0.02761371
252	0xbd3988d2	-0.045296498
253	0xbbe133eb	-0.006872644
254	0xbbf9fa3e	-0.007628708
255	0xbd0e01f0	-0.034669816

network_body._body_endoder.seq_layers.0.bias f4 [128]
0	0x3d683337	0.056689467
1	0x3be11c8e	0.006869859
2	0x3d1c4527	0.038151886
3	0x3c22bac6	0.009932226
4	0x3cac3a15	0.02102379
5	0x3d1e6315	0.03866871
6	0xbcf77423	-0.030206745
7	0x3d05db3b	0.032679778
8	0xbd62f192	-0.05540616
9	0x3ce42a61	0.02785224
10	0x3c36a229	0.01114706
11	0x3cf01fc7	0.029312028
12	0x3c2d671a	0.010583663
13	0x3c713ea4	0.014724407
14	0x3d56f0be	0.052475683
15	0x3c82822a	0.015931208
16	0x3d142231	0.03616542
17	0xbbfd8c81	-0.0077376966
18	0xbd04a780	-0.032386303
19	0x3c8c8b48	0.017156258
20	0x3c872864	0.016498752
21	0x3d0f1b3e	0.03493809
22	0x3c73e816	0.014886877
23	0x3cee7085	0.029106388
24	0x3d41c710	0.04730898
25	0x3cfcbab6	0.03085075
26	0x3d195504	0.037434593
27	0x3c9e0848	0.019291058
28	0x3d139a2b	0.036035698
29	0x3c48bd05	0.012252097
30	0x3b3b7c29	0.002860794
31	0x3ca2fb62	0.01989526
32	0x3a95f9a3	0.0011442195
33	0xbc13d261	-0.009022326
34	0x3c5cd62d	0.013478798
35	0x3ca802d0	0.020509154
36	0x3d1b88b8	0.037972182
37	0x3c5c58a3	0.013448867
38	0x3d286f34	0.041121677
39	0x3c75ed0d	0.015010131
40	0x3b5cb898	0.0033679362
41	0x3b248f88	0.0025109965
42	0xbd0f4c8d	-0.034985114
43	0x3cf72768	0.030170158
44	0xbc24181d	-0.010015515
45	0xbc3ab985	-0.01139677
46	0x3b0e82e3	0.0021745495
47	0xbd4b04e1	-0.0495652
48	0xbc8794e8	-0.016550496
49	0x3b23a725	0.0024971452
50	0xbc01ebc7	-0.007929749
51	0x3d2ca747	0.042151716
52	0x3d5a6cac	0.053326294
53	0xbbb8f1c0	-0.005644053
54	0x3d24a7c5	0.04019906
55	0x3c389dab	0.01126806
56	0x3ca427b4	0.020038463
57	0x3c356b0b	0.011072884
58	0x3bddeb28	0.0067724176
59	0x39bf40c4	0.00036478613
60	0x3c181ef8	0.009284727
61	0xbc36c9ed	-0.011156541
62	0x3c7842d0	0.015152648
63	0xbbee93f9	-0.0072808233
64	0xbb60a93c	-0.003428056
65	0x3d2ab4de	0.041676395
66	0x3b91ebcc	0.004453158
67	0xbcc4aaca	-0.02400722
68	0x3b0da5fa	0.0021613822
69	0x3d510aa2	0.05103553
70	0x3cabd9ab	0.020977816
71	0x3bf72535	0.007542277
72	0x3c0996de	0.008397786
73	0x3c8f6645	0.01750482
74	0x3d2b8c01	0.041881565
75	0x3d2ca311	0.0421477
76	0x3d3f0618	0.04663667
77	0x3b4bf18f	0.0031119322
78	0x3d14ec68	0.036358267
79	0xbcf1e21f	-0.029526768
80	0x3d0a7ec0	0.033812284
81	0x3c87bb32	0.016568754
82	0x3c376bd3	0.011195141
83	0xbbef38b2	-0.00730046
84	0xbb0cb864	-0.002147221
85	0x3ca9ebb1	0.02074227
86	0x3ce28060	0.027649105
87	0x3c2d2f39	0.010570341
88	0x3d0e0fa7	0.034682896
89	0x3c295e47	0.010337419
90	0x3c4e6104	0.0125963725
91	0xbcf5d2ac	-0.030007683
92	0xbc494b60	-0.012286037
93	0xbac8094c	-0.001526156
94	0x3cbfa3a9	0.023393469
95	0x3d1ee2f5	0.03879066
96	0xbb03bfce	-0.0020103338
97	0x3c410960	0.01178202
98	0x3ca9a1f2	0.020707104
99	0x3c50cd8f	0.0127443215
100	0x3c0a6713	0.008447426
101	0x3cba2325	0.022721836
102	0x3c8457f9	0.01615523
103	0xbb928d8a	-0.004472439
104	0x3d3c8c34	0.046032146
105	0x3d1e3c5b	0.03863178
106	0x3c808bce	0.015691664
107	0x3ce5c0e3	0.028046077
108	0x3ce0161c	0.027354293
109	0x3c8f5020	0.017494261
110	0x3cadde38	0.021224126
111	0x3ce82e35	0.028342346
112	0x3cf1e6ee	0.029529061
113	0xbafe3111	-0.0019393285
114	0x3c4dca79	0.01256048
115	0xbccc703a	-0.024955858
116	0x3cf55d5c	0.029951744
117	0x3cb0a666	0.02156372
118	0x3d138ef5	0.036025006
119	0x3bc05956	0.0058700247
120	0x3d4127ff	0.047157284
121	0x3cba5dfc	0.022749893
122	0xbb62d76e	-0.003461327
123	0x3b89347f	0.004187166
124	0x3d239154	0.039933518
125	0x3c263787	0.010145075
126	0xbc3e5674	-0.011617292
127	0x3c675116	0.0141184535

network_body._body_endoder.seq_layers.2.weight f4 [128, 128]
0	0x3d38229e	0.04495489
1	0xbd971452	-0.07376923
2	0x3e36cf11	0.17852427
3	0xbe09771c	-0.13424343
4	0xbc00fdaf	-0.007872983
5	0xbcf6aa9c	-0.03011065
6	0x3e33600d	0.17517109
7	0xbd7f3d9a	-0.062314607
8	0xbe4546d1	-0.19265296
9	0xbe892dee	-0.26792854
10	0xbd38200e	-0.044952445
11	0xbd4f6d6c	-0.050641462
12	0x3d53ca57	0.05170664
13	0xbd723446	-0.059131883
14	0x3e8775fa	0.26457196
15	0x3e15adbd	0.14617057
16	0x3dc5288d	0.09626875
17	0xbeaea947	-0.34113523
18	0x3d816d43	0.06319668
19	0x3dfb04c1	0.12256766
20	0xbd6ef8ef	-0.05834287
21	0x3d913e92	0.070920125
22	0x3cf27c5c	0.029600315
23	0x3de91fdb	0.11383029
24	0x3c19be61	0.009383769
25	0x3dae9b31	0.08525694
26	0x3d23bbda	0.03997407
27	0x3d0c0922	0.034188397
28	0x3dafb9e9	0.085803814
29	0x3d2a0dee	0.04151719
30	0x3cc92d4d	0.024557734
31	0x3c25bc9b	0.010115768
32	0xbe7b083c	-0.2451486
33	0xbd60a0ed	-0.05484097
34	0xbdc857e5	-0.097823896
35	0xbda5b1ea	-0.08090575
36	0xbddbfe92	-0.10741915
37	0x3c9f9d41	0.019484164
38	0xbe42a886	-0.19009599
39	0xbe5355cd	-0.20638199
40	0xbe0c0c58	-0.13676584
41	0x3e2313e8	0.15925562
42	0xbdcfc19f	-0.10144352
43	0x3e2eee07	0.17082988
44	0xbe6e2496	-0.23256144
45	0x3cd3de40	0.025862813
46	0xbe91adf1	-0.2845302
47	0xbdaa95f8	-0.083293855
48	0x3e00ed8b	0.12590615
49	0xbd857adf	-0.065175764
50	0xbe407767	-0.18795548
51	0xbe12941a	-0.14314309
52	0x3d6cc4f7	0.057805028
53	0xbdf39be2	-0.11894967
54	0x3ddc7fd5	0.107665695
55	0xbe4c460b	-0.19948594
56	0xbe9d6565	-0.3074142
57	0xbe2684f5	-0.16261657
58	0xbca66bb1	-0.020315023
59	0xbd5193f0	-0.051166475
60	0xbb321125	-0.0027170863
61	0xbe22c0f6	-0.15893921
62	0x3dc5ddec	0.09661469
63	0x3ae2212f	0.0017252321
64	0xbcc32ec9	-0.02382602
65	0x3c216683	0.009851101
66	0xbdd08e47	-0.10183387
67	0xbaddeab0	-0.0016930904
68	0x3dd59052	0.104279175
69	0x3ca04731	0.019565197
70	0xbe2a6ae5	-0.1664234
71	0xbdc2c50c	-0.0951024
72	0x3e07af9a	0.1325058
73	0x3e59133d	0.21198745
74	0x3e065e13	0.13121824
75	0x3dc8e5b9	0.09809441
76	0xbe2ce671	-0.16884781
77	0x3dad964a	0.08475931
78	0x3d9452ad	0.07242332
79	0xbe6f436a	-0.2336556
80	0x3d0d7319	0.034533594
81	0x3dc6092b	0.096697174
82	0xbd540336	-0.051760875
83	0xbdf058e3	-0.11735704
84	0xbe22974e	-0.1587803
85	0x3e152078	0.14563167
86	0x3d70d0fd	0.058793057
87	0x3e366c78	0.17814815
88	0x3e12f54d	0.14351387
89	0x3e6fa79c	0.23403782
90	0xbdc9e32a	-0.09857781
91	0x3d90f6fe	0.0707836
92	0xbe1232b1	-0.1427715
93	0xbe242af8	-0.16032016
94	0xbbe741a6	-0.0070573865
95	0x3d9684ad	0.07349525
96	0x3d97d324	0.07413319
97	0xbd21ed86	-0.03953316
98	0xbd228839	-0.039680693
99	0x3d7b3701	0.061331753
100	0x3e00b6e3	0.12569766
101	0x3d62019e	0.055177324
102	0x3c72be7c	0.014815923
103	0x3e1282f6	0.1430777
104	0x3cf91ecc	0.030410193
105	0xbd913a1b	-0.07091161
106	0xbd97c1fd	-0.07410047
107	0xbc90fdd1	-0.017699154
108	0x3cdd85e4	0.027041383
109	0x3d94c2af	0.072636954
110	0xbdd14446	-0.102181
111	0x3d127f8e	0.035766177
112	0xbdef9414	-0.116981655
113	0xbdb04087	-0.086060576
114	0x3c83aabe	0.016072627
115	0xbe10ef07	-0.14153682
116	0xbcdebc42	-0.027189378
117	0xbd51537d	-0.05110501
118	0x3db59122	0.088655725
119	0x3e9e122c	0.3087324
120	0x3e0d90ab	0.13824718
121	0xbcebbb60	-0.02877587
122	0xbcb4b821	-0.022060456
123	0xbe1a8e2a	-0.15093294
124	0x3d3a9799	0.04555473
125	0xbe0b6300	-0.13611984
126	0xbd656ca8	-0.056011826
127	0xbe6f7e88	-0.23388112
128	0xbd78b61e	-0.060720555
129	0xbe1e49ca	-0.15457836
130	0x3d051d8e	0.03249889
131	0x3e420aa6	0.18949375
132	0x3dba88dc	0.09108135
133	0xbdb16a5d	-0.08662865
134	0xbdc92e38	-0.09823269
135	0x3cb82cd4	0.022482313
136	0xbe20bb91	-0.15696551
137	0x3d90a0d1	0.07061923
138	0x3e897edb	0.26854596
139	0x3d57ce42	0.052686937
140	0xbd866127	-0.06561499
141	0x3d554354	0.052066162
142	0x3cd6923d	0.026192779
143	0x3e3396ae	0.17537948
144	0x3dd6b6e6	0.10484104
145	0x3d5c88e3	0.053841483
146	0xbd9e96f5	-0.077436365
147	0xbcaebd37	-0.021330459
148	0xbe73057a	-0.23732558
149	0x3cb58b7a	0.022161234
150	0x3d0e4373	0.034732293
151	0x3d6e6303	0.058199894
152	0x3dfce27d	0.12347887
153	0xbe4a8b1a	-0.19779626
154	0x3da6d1b4	0.081454664
155	0x3d6dcb6d	0.05805533
156	0x3ca8fae4	0.020627446
157	0x3d4c230e	0.04983812
158	0x3d7cb405	0.061695118
159	0x3d0e6a44	0.03476931
160	0x3e81cc3f	0.2535114
161	0x3e0e6f4b	0.13909642
162	0xbdbb8464	-0.09156111
163	0x3d0fe4cf	0.03513032
164	0x3d77a54f	0.060460385
165	0x3d9a1c6a	0.07524951
166	0xbd7469e7	-0.05967131
167	0xbde80a53	-0.11330094
168	0x3e4f0404	0.20216376
169	0xbc9546ba	-0.018222202
170	0xbdc915cb	-0.0981861
171	0x3d258af7	0.04041573
172	0xbc88dc3b	-0.016706577
173	0xbd0f6ac7	-0.03501394
174	0xbe0a37be	-0.13497826
175	0xbe2727aa	-0.16323724
176	0x3e2be0f1	0.16785027
177	0xbe03a74f	-0.12856792
178	0xbcd0d4e7	-0.025492145
179	0x3d079eaf	0.033110317
180	0x3c126508	0.008935221
181	0xbdb47aa8	-0.08812457
182	0x3cab92ac	0.020943962
183	0xbe6f4961	-0.23367836
184	0xbdddea1d	-0.10835669
185	0x3d07d56f	0.03316253
186	0xbd9bc260	-0.076054335
187	0x3deb4dd0	0.11489451
188	0xbdf2bdde	-0.118526205
189	0xbd55afd9	-0.052169655
190	0x3b002faa	0.001955966
191	0x3d1bba74	0.038019612
192	0xbd722dde	-0.059125774
193	0x3df3fa0b	0.11912926
194	0x3deda870	0.116043925
195	0x3c463bd0	0.012099221
196	0x3b8e9709	0.004351501
197	0x3d08e12f	0.033417877
198	0x3dbaa98f	0.09114372
199	0x3e0b6ac1	0.13614942
200	0x3c51a963	0.012796733
201	0xbdbfe90a	-0.093706205
202	0xbdb718db	-0.08940288
203	0x3df32dff	0.118740074
204	0x3e87f118	0.26551127
205	0xbc915c67	-0.017744256
206	0x3c09b930	0.008405969
207	0xbe31ef69	-0.17376484
208	0x3db78af0	0.08962047
209	0x3e143505	0.1447335
210	0x3cd23456	0.025659721
211	0x3d4ec93d	0.050484885
212	0xbdb2eadc	-0.08736202
213	0x3d7ab544	0.061208025
214	0x3e0bbab7	0.13645445
215	0xbd6263e9	-0.055271063
216	0xbdc333bb	-0.09531351
217	0x3e27e8e4	0.16397434
218	0xbd732f8e	-0.059371524
219	0xba443469	-0.00074846164
220	0xbe068ee7	-0.1314045
221	0xbd991819	-0.074752994
222	0x3da5da53	0.08098283
223	0xbd39d276	-0.045366727
224	0xbd553a61	-0.052057628
225	0xbc29933d	-0.010350046
226	0xbe971665	-0.29509273
227	0xbd4bc1b3	-0.049745273
228	0xbd3cbb75	-0.04607721
229	0xbd81a0b1	-0.063294776
230	0x3d899029	0.067169495
231	0xbd7155c0	-0.05891967
232	0xbd4dabac	-0.050212547
233	0x3d8f6f34	0.07003632
234	0x3d00b855	0.031425793
235	0x3c4e373d	0.012586412
236	0x3e172041	0.14758398
237	0x3d39870f	0.045294818
238	0xbda5570c	-0.080732435
239	0x3e344389	0.17603888
240	0x3e0f5fa7	0.14001332
241	0xbd29e4e1	-0.04147804
242	0xbd9501f6	-0.07275765
243	0x3c631420	0.013859779
244	0xbe3b13c9	-0.18269266
245	0xbbe1ddd6	-0.0068929
246	0xbccaf02c	-0.024772726
247	0x3e422009	0.18957533
248	0x3d860e81	0.06545735
249	0xbd58dffc	-0.052947983
250	0x3d0204fa	0.031743027
251	0xbc84adb3	-0.016196107
252	0x3e369f11	0.17834117
253	0x3ddf1beb	0.10893997
254	0xbcc3a51d	-0.023882443
255	0x3e1c1f94	0.15246421

network_body._body_endoder.seq_layers.2.bias f4 [128]
0	0x3d592fed	0.05302422
1	0x3da7c89a	0.081925586
2	0xbd860c6a	-0.065453365
3	0xbc210a4c	-0.009829115
4	0xbc5d6f1e	-0.013515262
5	0xbd3961bb	-0.04525922
6	0x3d07ad68	0.033124357
7	0xbca8b667	-0.020594789
8	0x3d081d4c	0.033231065
9	0x3d3f97d9	0.046775673
10	0x3d2072a4	0.03917183
11	0x3ba00a23	0.004884021
12	0xb9cbdb96	-0.00038882782
13	0x3c905bb0	0.017621845
14	0x3d468b0f	0.04847246
15	0x3d0a9999	0.03383789
16	0xbbce500e	-0.0062961644
17	0x3d1c0aa7	0.038096096
18	0x3d65ce32	0.056104846
19	0x3c85c9b2	0.016331527
20	0x3b27df26	0.0025615185
21	0x3ca07e59	0.019591497
22	0xbc3083dd	-0.010773626
23	0x3ce7cb6d	0.028295243
24	0xbd55df74	-0.052215055
25	0xbc3abdcc	-0.01139779
26	0x3bb2a4fa	0.0054517956
27	0xbcd411e6	-0.02588744
28	0xbc606c25	-0.013697659
29	0x3c3c3c33	0.011488962
30	0x3b00e2d5	0.0019666452
31	0x3caf5969	0.021404939
32	0x3d476852	0.048683472
33	0xbc4f48eb	-0.012651662
34	0x3cd2a140	0.025711656
35	0x3cad1337	0.021127326
36	0xbc960bb9	-0.018316137
37	0xbd14fe4c	-0.03637533
38	0x3c79a2b2	0.0152365435
39	0xbcc88cfa	-0.024481285
40	0x3d4aa6bf	0.049475428
41	0x3d37a6b5	0.04483672
42	0x3d03296a	0.032021917
43	0xbc47fc5f	-0.012206166
44	0x3bc82e5a	0.006109041
45	0x3cd10b92	0.025518212
46	0x3bb742b9	0.0055926708
47	0x3c8bfe61	0.01708907
48	0xbca74829	-0.02042015
49	0xbccaf4f5	-0.024775008
50	0x3a7b246f	0.0009580319
51	0x3cf13a02	0.029446606
52	0x3c368922	0.011141093
53	0x3d54a1f4	0.051912263
54	0xbd0687d2	-0.032844372
55	0x3b6f3809	0.0036501905
56	0x3c1f6d46	0.009730643
57	0x3bafd9f2	0.0053665573
58	0x3d4766d2	0.04868204
59	0xbcbc0648	-0.022952214
60	0xbd0a9a12	-0.03383834
61	0xbdae4f18	-0.0851118
62	0x3cceb6c2	0.02523363
63	0xbc60e58f	-0.013726606
64	0x3c9dcae1	0.01926178
65	0xbb8b15e4	-0.004244553
66	0x3d886343	0.06659558
67	0x3d69f453	0.05711777
68	0xbda0dac0	-0.07854223
69	0xbcd0d6b6	-0.025493007
70	0x3c2eb03d	0.010662136
71	0xbcb03bad	-0.02151283
72	0x3c36ff37	0.011169246
73	0xbc4d9c80	-0.01254952
74	0xbcf6935d	-0.030099565
75	0x3bc1cbde	0.0059141954
76	0xbca64afb	-0.020299425
77	0x3ba2c31d	0.004967107
78	0x3b7830e9	0.003787095
79	0x3b37de96	0.0028056256
80	0x3d404430	0.04694003
81	0x3b7ee86e	0.0038895863
82	0xbc495e1b	-0.012290503
83	0x3d50ab8c	0.05094485
84	0xbc0ea878	-0.008707158
85	0x3b2978ae	0.0025859284
86	0x3c7ff825	0.015623127
87	0x3ce1d4e4	0.027567334
88	0xba3f8c09	-0.00073069386
89	0x3bdf0b52	0.0068067694
90	0x3c8f813e	0.017517682
91	0xbc6100d7	-0.01373311
92	0x3c8f54e6	0.017496537
93	0x3cc65f75	0.02421544
94	0x3ca1d7d5	0.019756237
95	0x3d3ccca8	0.046093613
96	0x3d128261	0.03576887
97	0xbd8b071c	-0.067884654
98	0x3d2342d2	0.039858647
99	0xbd36a4b5	-0.04459067
100	0x3d2b5cc0	0.0418365
101	0xbd5d6ff9	-0.054061864
102	0xbca664be	-0.02031171
103	0xbd811b2e	-0.06304012
104	0x3c893693	0.016749656
105	0x3c5dc178	0.013534896
106	0x3d34c870	0.044136465
107	0x3c9da7aa	0.019244988
108	0x3ca8e170	0.02061531
109	0xbce1b9c3	-0.027554398
110	0x3c057801	0.008146287
111	0x3ce2ba3d	0.027676696
112	0x3a1a45fb	0.00058850617
113	0x3ca45131	0.020058246
114	0xbb8f2a00	-0.0043690205
115	0x3c74a642	0.014932217
116	0x3c16271b	0.009164597
117	0x3c98a73b	0.01863443
118	0x3d2c3daa	0.042050995
119	0xbbbc5d44	-0.005748423
120	0x3d02c007	0.031921413
121	0x3d0b0360	0.033938766
122	0x3d1a371c	0.037650213
123	0x3cde562e	0.027140703
124	0x3c812a5c	0.015767269
125	0x3d281cb8	0.041043013
126	0x3c04da40	0.0081086755
127	0xbcf9f052	-0.030510101

action_model._discrete_distribution.branches.0.weight f4 [7, 128]
0	0x3d2ea172	0.042634435
1	0x3ca9c68f	0.020724563
2	0x3b98e3f0	0.004665844
3	0x3b2f3914	0.0026736902
4	0x3b7673cf	0.0037605648
5	0xbbb11bc0	-0.0054049194
6	0x3a40f480	0.0007360652
7	0x3c05d68e	0.00816883
8	0xbd23248e	-0.039829783
9	0x3d48d432	0.04903049
10	0x3d2efbde	0.042720668
11	0xbc0d13c3	-0.008610669
12	0xbb4f6031	-0.0031643028
13	0xbdb12a4d	-0.08650646
14	0x3d9000f8	0.07031435
15	0xbd1a5927	-0.03768268
16	0xbbc5bf46	-0.0060347645
17	0x3daf5beb	0.08562454
18	0xbdce9235	-0.100864805
19	0x3cf55199	0.029946135
20	0xbbd8252e	-0.006596229
21	0x3d189237	0.037248816
22	0xbd391142	-0.045182474
23	0x3a500349	0.000793506
24	0x3ca74c40	0.020422101
25	0xbdd8c18e	-0.105837926
26	0x3c856050	0.016281277
27	0xbd26d45f	-0.040729877
28	0xbd1be592	-0.038060732
29	0x3d18780c	0.03722386
30	0x3cd6cc43	0.026220446
31	0xbc14f4aa	-0.009091536
32	0x3d493661	0.049124125
33	0x3c7c1967	0.015386916
34	0x3d37c648	0.04486683
35	0xbd7100a4	-0.0588385
36	0xbc88379d	-0.016628081
37	0xbb7f1834	-0.0038924338
38	0xbd542da1	-0.051801328
39	0x3cdbc475	0.026827076
40	0x3c9616b7	0.018321378
41	0xbd585c29	-0.052822266
42	0x3d1007ca	0.03516368
43	0xbd134993	-0.035958838
44	0x3d1bc30e	0.038027816
45	0x3d573314	0.052538946
46	0xbc19e635	-0.009393265
47	0x3c94eb0c	0.018178485
48	0xbcefefbb	-0.029289117
49	0x3c33b9f4	0.010969628
50	0x3d1423ac	0.03616683
51	0xbcab0493	-0.020876205
52	0xbdb63d40	-0.08898401
53	0x3d604b7c	0.054759488
54	0x3c08a842	0.008340897
55	0xbbd3234b	-0.0064434162
56	0xbc88bdf3	-0.016692137
57	0xbd42fb5b	-0.047602993
58	0x3d7ccd12	0.061719008
59	0xbd21c8ce	-0.039498143
60	0xbcaba428	-0.0209523
61	0x3b95745e	0.004560991
62	0xbd3d7453	-0.046253514
63	0x3d408323	0.04700006
64	0x3c72a129	0.014808931
65	0xbd90897b	-0.07057472
66	0x3d2d3941	0.04229093
67	0x3d1b728d	0.03795104
68	0x3cc21ad4	0.023694433
69	0x3d010153	0.031495403
70	0xbc42c451	-0.011887626
71	0xbd6ad2d1	-0.057329956
72	0x3d107647	0.035269048
73	0xbc64eefd	-0.013972995
74	0x3d6f62e7	0.05844393
75	0xbb11516a	-0.002217377
76	0x3a6e949e	0.0009101125
77	0x3c4afecf	0.012389853
78	0xbc67ba79	-0.01414358
79	0x3b627886	0.00345567
80	0x3d2f7d31	0.042844
81	0xbd8fc3ed	-0.07019792
82	0xba941f1b	-0.0011300774
83	0x3d505678	0.050863713
84	0xbb4eeae2	-0.0031573107
85	0x3bd96ec0	0.006635517
86	0x3d1dc5e5	0.038518805
87	0x3b15046d	0.0022738234
88	0xbda9358c	-0.082621664
89	0xbd5d0e76	-0.05396887
90	0xbb2d1a6b	-0.0026413451
91	0x3bdae796	0.006680439
92	0xbb014cd6	-0.0019729636
93	0x3d2750df	0.04084861
94	0x3d4d423e	0.050112
95	0x3d451c4f	0.0481227
96	0x3d5787e1	0.05261982
97	0xbc8f8f26	-0.017524313
98	0x3d0816c1	0.033224825
99	0x3c261091	0.010135786
100	0x3b3b368d	0.002856645
101	0xbca46cf4	-0.020071484
102	0xbd01f31f	-0.031726
103	0x3c2f3e42	0.010695996
104	0x3d8bac92	0.068200245
105	0x3c9620bf	0.018326161
106	0xbb14a8c8	-0.002268361
107	0xbdd37320	-0.10324693
108	0x3d4b0698	0.049566835
109	0xbc35c31a	-0.011093879
110	0x3c88fbf2	0.0167217
111	0x3c05cbea	0.008166293
112	0x3c40085b	0.011720742
113	0xbb34afbc	-0.0027570566
114	0xbbe7a1d8	-0.007068854
115	0x3d250b6e	0.040294103
116	0xbd7245f7	-0.059148755
117	0x3d570cb2	0.05250234
118	0x3d3f7088	0.046738178
119	0xbc92ab74	-0.01790402
120	0x3d1746e1	0.03693283
121	0x3d47c66e	0.04877322
122	0x3cf8636a	0.030320842
123	0x3cee45c3	0.029086
124	0xbd1478af	-0.036247905
125	0xbd8efae8	-0.0698145
126	0xbd0fe79b	-0.035132986
127	0xbc2afdec	-0.010436516
128	0xbdc0ddc0	-0.094172955
129	0xbb203976	-0.0024448312
130	0x3b4bc93b	0.0031095285
131	0xbd7b1963	-0.061303508
132	0x3d7fd605	0.062459964
133	0xbd0c0a61	-0.034189586
134	0xbd700374	-0.058597043
135	0x3d77f6a1	0.060537938
136	0xbba97269	-0.0051711095
137	0x3cf5027b	0.02990841
138	0x3d4c3025	0.0498506
139	0x3d58e0b7	0.05294868
140	0x3c9fbd79	0.019499527
141	0xbd9eda66	-0.077565
142	0xbd10cf04	-0.035353675
143	0xbe06434d	-0.1311161
144	0x3d2c19ba	0.042016722
145	0xbd9ae5f1	-0.07563389
146	0xbda31ba1	-0.07964254
147	0xbdd80f25	-0.105497636
148	0x3d0cc287	0.034365203
149	0xbddb014e	-0.10693608
150	0x3d72e422	0.059299596
151	0xbc96f062	-0.01842517
152	0x3cd19279	0.025582539
153	0x3d2bf9dd	0.041986335
154	0xbcaacac7	-0.020848645
155	0x3d8c9dbe	0.068660244
156	0x3c8f3b63	0.017484372
157	0x3d660643	0.056158315
158	0xbdcdb7ed	-0.10044847
159	0xbd6cd264	-0.05781783
160	0xbc993078	-0.01869987
161	0xbd5e4a18	-0.05426988
162	0x3d16a99b	0.036782842
163	0x3d9cd6b2	0.076581374
164	0xbca90dac	-0.020636402
165	0x3caa5ed5	0.020797173
166	0x3d3fcb3b	0.046824675
167	0xbca38c7e	-0.019964453
168	0xbca7d0a2	-0.020485226
169	0xbd33501b	-0.043777566
170	0x3cbc2e7e	0.022971388
171	0x3c097530	0.008389756
172	0xbcdfe713	-0.027331864
173	0x3d3e935a	0.046527244
174	0x3c7182fb	0.014740701
175	0xbd08adde	-0.033368938
176	0x3db9d3d3	0.090736054
177	0xbd0baf4e	-0.03410273
178	0x3cc2f26f	0.023797242
179	0x3da292d4	0.079381615
180	0x3d0f4016	0.034973226
181	0xbe2a2329	-0.16614975
182	0x3b5b2357	0.0033437812
183	0xba8d25d7	-0.0010768723
184	0xbb92450d	-0.004463798
185	0x3d3e90c4	0.046524778
186	0xbd5e9d9b	-0.054349523
187	0x3d84ec23	0.06490352
188	0xbd24e5f9	-0.04025838
189	0x3b7f719a	0.0038977624
190	0x3db73002	0.08944704
191	0x3aa283c8	0.0012398893
192	0xbdbfd175	-0.09366123
193	0x3d54a414	0.05191429
194	0xbce21e33	-0.02760229
195	0xbac5bfd2	-0.0015087074
196	0x3c400439	0.011719757
197	0x3c89e213	0.016831433
198	0x3d67deec	0.05660908
199	0x3d2e9b27	0.042628434
200	0x3d53788f	0.051628646
201	0xbd548ae3	-0.051890265
202	0x3d0e5983	0.034753334
203	0x3d121658	0.03566584
204	0x3d6f138c	0.05836825
205	0x3c2ac24a	0.010422299
206	0x3d7851e5	0.060624976
207	0x3d0a11ce	0.033708386
208	0x3caa7a7c	0.020810358
209	0x3c55ff77	0.013061396
210	0xbc0aba61	-0.008467288
211	0xbb660ce1	-0.0035102891
212	0xbe051685	-0.12996872
213	0x3b1515a6	0.00227485
214	0x3da8f8bf	0.082505696
215	0x3de5eef8	0.1122722
216	0x3d29424f	0.041323002
217	0xbcf8bc5e	-0.030363258
218	0xbd28af05	-0.041182537
219	0xbdf1a2d1	-0.11798633
220	0x3e2033e1	0.1564479
221	0xbc8cdbac	-0.017194591
222	0xbdd17fa3	-0.10229423
223	0x3ca2d500	0.019876957
224	0xbd417def	-0.04723924
225	0x3c2d9ceb	0.010596494
226	0x3ba97a57	0.0051720547
227	0x3d08173b	0.03322528
228	0x3d728592	0.059209414
229	0x3cf1078b	0.029422542
230	0x3da70c0a	0.08156593
231	0xbc480729	-0.012208738
232	0x3c9e742d	0.019342506
233	0xbdd02252	-0.10162796
234	0xbd832fe4	-0.06405619
235	0xbcf481eb	-0.029847106
236	0x3d6f1484	0.058369175
237	0xbaef040a	-0.0018235457
238	0xbe022c54	-0.12712222
239	0xbde27e85	-0.11059288
240	0x3d14b1c8	0.036302358
241	0xbc803316	-0.01564936
242	0xbc8caafe	-0.01717138
243	0xbd4f4daf	-0.050611194
244	0x3d85926a	0.06522067
245	0x3c8f1736	0.017467123
246	0xbdbb50f6	-0.091463014
247	0x3ccbcebf	0.024878858
248	0x3d3f01b8	0.0466325
249	0xbc4d67fb	-0.012536998
250	0xbe0bbacc	-0.13645476
251	0x3c7a70f6	0.015285721
252	0xbd06ff82	-0.032958515
253	0x3bacadc8	0.00526974
254	0x3ddd53c2	0.10806991
255	0x3c89b2f6	0.016808968

action_model._discrete_distribution.branches.0.bias f4 [7]
0	0xba511b5b	-0.00079767936
1	0xbc8c3dfe	-0.017119404
2	0xbc85343e	-0.016260263
3	0xbd9e93e3	-0.07743051
4	0xb89e9d8a	-7.563371e-05
5	0x3c3030f5	0.01075386
6	0x3cee1596	0.029063027
