CCP-main/results/WeightAgent_Training/WeightAgent_Training/WeightAgent_Training-27499999.onnx (onnx, 174256 bytes, 6 tensors)

network_body._body_endoder.seq_layers.0.weight f4 [128, 199]
0.11732566 0.044130154 0.074918844 -0.026006613 -0.2567728 0.36266854 0.1516649 -0.0295356
0.044401914 -0.109335475 0.035120707 0.3364813 0.1669892 -0.057328694 0.0779791 -0.10121596
0.0027171925 0.2832114 0.034471884 0.043104254 -0.07742394 -0.07591921 0.07007792 0.21208502
0.052017167 0.019346466 0.10315956 -0.21577087 -0.07959456 0.13574046 -0.12846485 0.10976291
-0.117795385 0.016251396 0.041425515 0.10367829 0.047671374 -0.024926834 -0.085554495 0.07594668
0.024194298 0.34901655 -0.06257477 -0.023937764 -0.120320134 0.096564904 -0.0154733015 0.26341936
0.026453076 -0.063376255 -0.100901596 0.26894528 0.11490606 0.13073996 0.008419573 0.012913168
-0.09272511 0.10568492 0.21824151 0.06228569 0.09168904 -0.08403546 -0.30770147 0.16658859
0.20509687 0.20404337 0.061506238 -0.02812072 -0.23722109 0.09136842 0.0062000817 0.12336129
0.035135593 -0.035194922 -0.17069563 0.017124932 0.058032464 0.07904463 0.017285164 0.043024648
-0.26576442 0.24901102 -0.08693176 0.07923371 0.072700225 0.021213751 -0.23819873 0.14088288
-0.10941854 0.15145652 -0.14726852 0.16309327 -0.11606216 -0.0024338628 0.089825235 0.10562377
-0.12030837 0.039431114 -0.03946069 0.035386525 -0.058274128 -0.040491514 -0.111593895 0.17204855
-0.16562477 0.1402551 -0.07454119 0.08743863 -0.10138992 -0.015454585 -0.04586949 0.056921016
0.15565898 -0.019042186 -0.08783144 -0.027275596 -0.038655676 0.054606818 0.09667053 -0.10383278
-0.024018979 -0.018079733 -0.16089068 0.14064164 0.06790052 0.0006201336 0.046995103 0.028830737
0.00801345 0.06384529 0.09683912 -0.056020774 -0.07795624 0.15788001 -0.14582247 0.023833007
-0.052375033 -0.068005465 -0.08792274 -0.08090722 0.015424675 0.23279019 0.024360843 -0.15159197
-0.0017616398 0.039751727 -0.033373065 0.04790859 -0.04451699 -0.08231489 -0.01670394 0.0058034253
-0.0979637 0.05227544 -0.09647941 0.05550376 0.06016001 0.0035324467 -0.13446331 0.03126243
0.08690031 0.036640927 -0.00407682 -0.097463414 -0.22603327 0.09429307 -0.07108484 0.08384366
0.08150365 0.012988129 -0.002126424 0.14354472 -0.073630095 -0.0034507539 -0.0062877634 -0.022501685
-0.025317758 0.09783055 0.18292549 -0.17761722 0.018641 0.016242048 0.08587066 0.15701929
0.083536044 -0.008824028 -0.14068668 -0.03996058 -0.02157685 0.013269917 0.038911853 0.01926886
-0.060013257 -0.07955652 -0.084643856 0.2206337 -0.20771582 0.09991231 -0.1987255 0.06957949
0.013099889 -0.019247852 -0.21056683 -0.1664433 0.18439578 -0.20131238 0.19174668 -0.12380771
-0.04924712 -0.04000581 0.21763775 0.03424905 -0.072743684 0.23151585 -0.22255036 -0.037401266
0.1442095 -0.17227255 0.15384722 -0.023880573 -0.100503944 0.03056446 0.08353276 -0.12168905
0.06371815 -0.01460619 -0.06492597 -0.17564128 0.07848149 0.12486405 0.18468891 -0.09887967
-0.049956318 0.036468938 -0.030889897 -0.13509244 0.09964221 -0.071229696 0.024850337 0.008466507
0.10562123 -0.11555951 0.1102048 -0.09013044 -0.020664874 -0.077706635 0.09537089 -0.030405095
0.008151003 0.02814774 0.18883274 0.03936577 -0.029425861 -0.069307774 0.039121795 0.06429655
00000000: 7048 f03d d2c1 343d 0d6f 993d d20b d5bc
00000010: b977 83be b1af b93e 0b4e 1b3e a5f4 f1bc
00000020: c8de 353d 47eb dfbd bbda 0f3d 4747 ac3e
00000030: 38ff 2a3e 7ed1 6abd 82b3 9f3d 504a cfbd
00000040: ed12 323b 1601 913e 6432 0d3d 168e 303d
00000050: 7190 9ebd 887b 9bbd 0385 8f3d d12c 593e
00000060: f40f 553d 7b7c 9e3c 5245 d33d 0af3 5cbe
00000070: 7902 a3bd 8cff 0a3e 4a8c 03be 60cb e03d
00000080: b53e f1bd a621 853c cdad 293d 4955 d43d
00000090: 0f43 433d 5c33 ccbc 3237 afbd ef89 9b3d
000000a0: 1f33 c63c 4cb2 b23e 3327 80bd 2119 c4bc
000000b0: 676a f6bd d2c3 c53d bb83 7dbc e7de 863e
000000c0: 1fb4 d83c 69cb 81bd 7fa5 cebd 32b3 893e
000000d0: de53 eb3d b2e0 053e 40f2 093c c191 533c
000000e0: aae6 bdbd 5671 d83d b47a 5f3e 481f 7f3d
000000f0: 77c7 bb3d c91a acbd 0c8b 9dbe 3396 2a3e
00000100: ea04 523e bff0 503e f7ed 7b3d 6d5d e6bc
00000110: 16ea 72be 5e1f bb3d 0e2a cb3b d8a4 fc3d
00000120: 57ea 0f3d 8d28 10bd d6ca 2ebe 9649 8c3c
00000130: 73b3 6d3d 27e2 a13d 9e99 8d3c 9d3a 303d
00000140: 4612 88be bffc 7e3e 4709 b2bd 4945 a23d
00000150: dbe3 943d 76c8 ad3c 5eea 73be 9a43 103e
00000160: d416 e0bd 6b17 1b3e 8fcd 16be ec01 273e
00000170: ffb1 edbd 7181 1fbb 4bf6 b73d 4651 d83d
00000180: 3c64 f6bd 8582 213d 88a1 21bd 76f1 103d
00000190: dab0 6ebd 6eda 25bd 578b e4bd 7f2d 303e
000001a0: 8a99 29be 089f 0f3e 0da9 98bd 0613 b33d
000001b0: 85a5 cfbd 3a35 7dbc a5e1 3bbd 0326 693d
000001c0: 1165 1f3e 5cfe 9bbc f8e0 b3bd 1271 dfbc
000001d0: 6a55 1ebd 66ab 5f3d 33fb c53d 48a6 d4bd
000001e0: 73c3 c4bc f31b 94bc 87c0 24be 5d04 103e
000001f0: 6e0f 8b3d 7690 223a f07d 403d 702e ec3c
00000200: d84a 033c 52c1 823d 9753 c63d 0a76 65bd
00000210: 85a7 9fbd 4cab 213e 7c52 15be 703d c33c
00000220: 3487 56bd 7346 8bbd d610 b4bd afb2 a5bd
00000230: c7b7 7c3c 8d60 6e3e 6490 c73c ed3a 1bbe
00000240: d3e6 e6ba b5d2 223d 32b2 08bd cc3b 443d
00000250: 7357 36bd b694 a8bd b4d6 88bc a92a be3b
00000260: 31a1 c8bd c61e 563d ff96 c5bd e957 633d
00000270: 586a 763d 9f80 673b c0b0 09be 090d 003d
00000280: caf8 b13d cc14 163d d896 85bb e69a c7bd
00000290: 4475 67be ba1c c13d ee94 91bd 3ab6 ab3d
000002a0: 63eb a63d 29cc 543c 7a5b 0bbb 63fd 123e
000002b0: 60cb 96bd 0b26 62bb 9509 cebb 7455 b8bc
000002c0: 3067 cfbc 625b c83d d250 3b3e 4ae1 35be
000002d0: 03b5 983c 0b0e 853c f5dc af3d aac9 203e
000002e0: f214 ab3d a892 10bc 2b10 10be b5ad 23bd
000002f0: efc1 b0bc 116a 593c 0962 1f3d bad9 9d3c
00000300: 76d0 75bd 87ee a2bd c259 adbd cded 613e
00000310: 75b3 54be d39e cc3d b37e 4bbe b17f 8e3d
00000320: eba0 563c acad 9dbc d59e 57be 1d70 2abe
00000330: 3fd2 3c3e d524 4ebe 3e59 443e e68e fdbd
00000340: 59b7 49bd 22dd 23bd 6edc 5e3e bb48 0c3d
00000350: a4fa 94bd 7e12 6d3e 3ee4 63be 1232 19bd
00000360: a8ab 133e 3768 30be 208a 1d3e 31a1 c3bc
00000370: 03d5 cdbd 5262 fa3c 3913 ab3d 1c38 f9bd
00000380: a97e 823d cd4e 6fbc e8f7 84bd 4fdb 33be
00000390: e7ba a03d b9b8 ff3d 171f 3d3e 6d81 cabd
000003a0: ff9e 4cbd 7460 153d cf0c fdbc ac55 0abe
000003b0: 3711 cc3d e0e0 91bd ef92 cb3c 1bb7 0a3c
000003c0: f24f d83d 77aa ecbd 0eb3 e13d 4f96 b8bd
000003d0: 6249 a9bc a824 9fbd d051 c33d 1b14 f9bc
000003e0: c98b 053c 1796 e63c 5f5d 413e 003e 213d
000003f0: 810e f1bc 3cf1 8dbd 2d3e 203d e9ad 833d

network_body._body_endoder.seq_layers.0.bias f4 [128]
0.009232744 -0.056383662 -0.06489008 -0.05156391 -6.490124e-05 -0.002311587 -0.005984844 0.028579922
-0.003419334 -0.017293124 -0.018838236 0.0039715385 0.029274698 -0.07418061 -0.0065529454 0.061080497
0.039258752 0.07216219 -0.0038223409 -0.010533742 0.0063661793 0.031915322 0.09561523 -0.009982713
0.01972529 0.038990144 -0.019783752 -0.017706927 0.016727783 0.0052563865 0.07184198 0.039422866
0.045696676 0.0076388293 0.04352021 -0.0017441113 0.035599872 0.02441473 -0.060782302 -0.047411647
-0.0057116933 0.04462605 0.015445857 0.06598125 0.041035067 0.0024934355 0.0021586982 0.046986733
0.012081854 -0.0054450077 0.07749763 0.035499703 0.026329199 -0.04242964 0.054026738 0.009898884
0.013770099 -0.022963759 0.05520861 0.027737511 -0.023160292 0.028758168 0.04686394 0.03714839
0.0006206009 -0.0065320805 -0.017270634 0.0075387275 0.011871661 0.0098460745 -0.07854609 0.034741793
-0.0074552814 0.010397843 -0.031483293 0.028833508 -0.09747558 -0.028351882 -0.0019946557 0.020352464
0.030804848 -0.015546371 -0.03149015 -0.043142535 0.017912064 -0.01059158 0.04375014 0.031724222
0.055142954 0.0030296366 0.0511338 -0.0052093756 0.00978285 0.015058983 -0.10433225 0.0076331566
0.010259482 0.02602663 0.028247548 0.0029276493 0.006132935 0.028670019 0.0063723917 0.012939457
-0.031873863 0.016959384 0.05772771 -0.056822434 -0.018427864 0.035511967 -0.031242767 0.057465978
0.020071633 0.016774738 -0.0021053655 0.022615176 0.058366075 -0.04538505 0.03586356 0.015792977
-0.018226624 0.0072517516 0.04884608 0.007586289 0.020367509 -0.006240906 0.07508719 0.051549744
00000000: ef44 173c 8ef2 66bd 17e5 84bd ae34 53bd
00000010: 971b 88b8 ff7d 17bb 831c c4bb 7120 ea3c
00000020: e816 60bb 4faa 8dbc a552 9abc ae23 823b
00000030: 7ed1 ef3c 01ec 97bd 17ba d6bb 8b2f 7a3d
00000040: c9cd 203d c5c9 933d 3d80 7abb b795 2cbc
00000050: 629b d03b a4b9 023d ebd1 c33d 888e 23bc
00000060: ee96 a13c 21b4 1f3d 8911 a2bc 1e0e 91bc
00000070: b408 893c c43d ac3b e321 933d df79 213d
00000080: 702c 3b3d 254f fa3b 3f42 323d aa9a e4ba
00000090: 2cd1 113d 6601 c83c ddf6 78bd b732 42bd
000000a0: 2829 bbbb cec9 363d 9f10 7d3c 2d21 873d
000000b0: 6314 283d e868 233b f278 0d3b 2975 403d
000000c0: f8f2 453c 096c b2bb 14b7 9e3d 2368 113d
000000d0: 55b0 d73c b4ca 2dbd 244b 5d3d ee2e 223c
000000e0: fb9b 613c 7e1e bcbc 6c22 623d c739 e33c
000000f0: a7ba bdbc 4096 eb3c 67f4 3f3d e928 183d
00000100: d2af 223a 100b d6bb 257b 8dbc 6e07 f73b
00000110: 5b81 423c 6e51 213c c6dc a0bd 694d 0e3d
00000120: 6f4b f4bb b75b 2a3c a0f4 00bd 4034 ec3c
00000130: 47a1 c7bd 3542 e8bc c5b8 02bb 36ba a63c
00000140: 735a fc3c 35b6 7ebc d1fb 00bd 3ab6 30bd
00000150: 52bc 923c 4e88 2dbc 5933 333d 42f1 013d
00000160: 94dd 613d de8c 463b ad71 513d 69b3 aabb
00000170: 3f48 203c f4b9 763c 26ac d5bd 8f1f fa3b
00000180: 6317 283c cd35 d53c 6767 e73c cedd 3f3b
00000190: caf6 c83b 63dd ea3c 7fcf d03b 0400 543c
000001a0: 2b8e 02bd 68ee 8a3c e473 6c3d a4be 68bd
000001b0: 08f6 96bc ff74 113d d5f0 ffbc 7261 6b3d
000001c0: 446d a43c 2d6b 893c 2cfa 09bb 7643 b93c
000001d0: 4411 6f3d ade5 39bd abe5 123d 4660 813c
000001e0: 0050 95bc 1aa0 ed3b d412 483d 6896 f83b
000001f0: c3d9 a63c 8480 ccbb 50c7 993d d325 533d

network_body._body_endoder.seq_layers.2.weight f4 [128, 128]
0.038233574 -0.12655647 -0.059062514 0.12447248 -0.05246747 0.14123353 -0.13286752 0.0057050404
-0.12430552 0.025749898 -0.08832947 -0.12735255 0.076192245 0.018860517 -0.019153278 0.21410626
0.046686504 0.2956634 0.14813025 -0.035866357 0.23182549 -0.16803552 0.0756131 -0.044647526
-0.13029253 -0.022635698 0.031173527 0.06763885 0.123139314 -0.09088717 0.07007569 -0.116110705
-0.054249194 -0.11499769 0.13342197 -0.024577731 0.40706912 0.02040457 0.040887855 0.13145556
-0.110499114 0.01917886 0.011656182 -0.2878139 -0.00028716965 0.104627326 0.009494691 0.27085406
0.11166463 0.17929716 -0.11907709 -0.11353348 0.087554984 -0.1147848 -0.06328595 0.31575134
-0.32070714 0.12286811 0.14668421 -0.061700355 -0.008632623 -0.27412394 -0.12734674 -0.11308147
-0.018984502 0.056337707 0.0642822 -0.12007576 -0.14536208 -0.08703268 -0.119976416 0.0708335
0.023740418 -0.062421035 0.004267339 -0.17774306 -0.28061646 -0.06426729 -0.15380839 0.028986644
0.160649 0.18077262 0.23546757 0.06770739 0.26272246 0.12425295 -0.06727372 0.089339845
-0.08111619 -0.097677164 0.031141266 0.10373977 -0.030748794 0.009532674 -0.12223975 0.07228897
-0.0195539 0.28356257 -0.13963819 -0.10615708 0.12503162 -0.2144753 -0.0204752 -0.05671237
-0.00472513 0.1632167 -0.13150279 -0.036230993 0.043339696 0.20353915 -0.14089239 0.03820681
0.06648104 0.08714883 0.08281404 -0.013205979 -0.074303836 0.014751576 0.16708821 -0.12739645
-0.11198487 0.2459516 -0.09102469 0.011089342 -0.089396186 -0.008413438 -0.096423596 0.12225704
-0.08533659 -0.021104446 -0.034487527 -0.14132288 -0.1750555 0.06480958 0.0012185827 0.15952328
-0.12257198 0.09785011 -0.18146393 -0.25351456 -0.0009422999 -0.13157511 -0.0044965195 0.014396359
-0.0957659 -0.16168126 0.095217526 -0.39853907 0.060183454 0.017999904 0.11871435 0.1258692
0.017502861 -0.081908055 -0.03935446 -0.0042001233 -0.034379087 0.07970167 -0.12539627 -0.09760492
0.24623314 -0.007605102 0.040727522 0.1236762 -0.12374107 0.14813717 0.13053325 -0.028818883
0.18916753 0.15880129 -0.27630693 -0.13362005 0.17372827 -0.10647671 -0.0055960654 0.12047922
0.08161518 -0.11737798 -0.020147795 0.035746936 0.057045314 -0.024293259 0.09369982 0.030132307
-0.3101884 -0.027401838 0.0061236136 0.056200154 -0.26426572 -0.13413058 -0.13942961 -0.2776139
0.07260645 -0.04053623 0.26241252 -0.0025019133 -0.17023273 -0.12241376 0.14022294 -0.22404103
0.10928977 -0.11730675 0.18463796 -0.15968892 -0.021251414 0.026911344 -0.2394649 -0.13455044
0.12867425 -0.060664896 -0.21168427 -0.07036164 0.22064392 0.11869601 0.106305905 0.058439013
-0.13203345 -0.21339862 0.094328746 0.11101401 -0.18593845 0.03552127 -0.06534179 -0.014946256
-0.099096626 -0.062543616 -0.15825397 -0.10659964 -0.0018335603 0.03653663 -0.16071652 -0.08953917
-0.09286628 -0.09254444 -0.08089883 -0.15829481 0.15256882 0.1284164 0.05165355 -0.14586572
0.3120987 -0.102950424 0.05737957 -0.22563183 0.053916555 -0.05847852 0.26090392 0.009062234
-0.00538832 -0.15300237 -0.016730212 -0.006490299 -0.16980267 -0.102911055 -0.034016617 0.021702474
00000000: cf9a 1c3d 0598 01be 89eb 71bd 6deb fe3d
00000010: 21e8 56bd 869f 103e 6c0e 08be 59f1 ba3b
00000020: e493 febd 73f1 d23c 15e6 b4bd b568 02be
00000030: ae0a 9c3d 5f81 9a3c 56e7 9cbc ac3e 5b3e
00000040: 593a 3f3d 3161 973e 75af 173e 9ae8 12bd
00000050: a963 6d3e 8111 2cbe 0adb 9a3d 53e0 36bd
00000060: 686b 05be 806e b9bc a05f ff3c 3d86 8a3d
00000070: 7730 fc3d 0d23 babd d883 8f3d 73cb edbd
00000080: 6734 5ebd e983 ebbd c59f 083e 3d57 c9bc
00000090: 5d6b d03e 7c27 a73c 067a 273d 499c 063e
000000a0: 5c4d e2bd fc1c 9d3c 92f9 3e3c 585c 93be
000000b0: 428f 96b9 da46 d63d 9f8f 1b3c 62ad 8a3e
000000c0: 6db0 e43d ad99 373e b0de f3bd 3e84 e8bd
000000d0: 0750 b33d 4b14 ebbd 109c 81bd 29aa a13e
000000e0: ba33 a4be 47a2 fb3d 6334 163e 83b9 7cbd
000000f0: d86f 0dbc f959 8cbe 2f67 02be 4297 e7bd
00000100: 6385 9bbc 5ec2 663d 63a6 833d 48ea f5bd
00000110: ccd9 14be 313e b2bd 32b6 f5bd 2711 913d
00000120: 447b c23c 33ad 7fbd 09d5 8b3b 4702 36be
00000130: f6ac 8fbe 929e 83bd f27f 1dbe 6675 ed3c
00000140: 2c81 243e 751c 393e 691e 713e 2caa 8a3d
00000150: 8f83 863e 5578 fe3d cec6 89bd cff7 b63d
00000160: 3f20 a6bd f70a c8bd f81b ff3c 8475 d43d
00000170: e5e4 fbbc ef2e 1c3c d658 fabd 3d0c 943d
00000180: 802f a0bc 1d2f 913e 50fd 0ebe e268 d9bd
00000190: 4a08 003e 6a9f 5bbe 9bbb a7bc 3b4b 68bd
000001a0: 43d5 9abb 4722 273e aba8 06be f366 14bd
000001b0: f784 313d 916c 503e 1846 10be be7e 1c3d
000001c0: 3627 883d 167b b23d 689a a93d e45d 58bc
000001d0: 9c2c 98bd 98b0 713c 2c19 2b3e 3774 02be
000001e0: 5358 e5bd bcda 7b3e 276b babd 12b0 353c
000001f0: 5915 b7bd 84d8 09bc bc79 c5bd e661 fa3d
00000200: f3c4 aebd 3be3 acbc cb42 0dbd f2b6 10be
00000210: c041 33be e3ba 843d dab8 9f3a 125a 233e
00000220: 0507 fbbd a365 c83d aed1 39be a9cc 81be
00000230: ad04 77ba a0bb 06be 8a57 93bb b5de 6b3c
00000240: ea20 c4bd c68f 25be 6801 c33d 500d ccbe
00000250: ed82 763d 8974 933c 8220 f33d dbe3 003e
00000260: 2962 8f3c 69bf a7bd 2432 21bd 30a1 89bb
00000270: 16d1 0cbd a13a a33d e167 00be 17e5 c7bd
00000280: 8a24 7c3e 3834 f9bb e7d1 263d f349 fd3d
00000290: f56b fdbd 45b1 173e 82aa 053e 9415 ecbc
000002a0: 22b5 413e ce9c 223e 1a78 8dbe b2d3 08be
000002b0: d3e5 313e 7610 dabd 335f b7bb cfbd f63d
000002c0: dc25 a73d de63 f0bd fd0c a5bc 616b 123d
000002d0: 59a8 693d a802 c7bc b1e5 bf3d 07d8 f63c
000002e0: 04d1 9ebe d279 e0bc 98a8 c83b 2232 663d
000002f0: d64d 87be 8759 09be a3c6 0ebe 6923 8ebe
00000300: b1b2 943d 5109 26bd ef5a 863e 24f7 23bb
00000310: 7d51 2ebe 11b4 fabd 9a96 0f3e 036b 65be
00000320: 51d3 df3d 853e f0bd bc11 3d3e 7e85 23be
00000330: 7217 aebc 2e75 dc3c 4936 75be 97c7 09be
00000340: 2fc3 033e c17b 78bd c3c3 58be c319 90bd
00000350: 7bf0 613e e516 f33d e9b6 d93d bf5d 6f3d
00000360: c733 07be 2b85 5abe 6e2f c13d 505b e33d
00000370: a666 3ebe c07e 113d ebd1 85bd 24e1 74bc
00000380: 2cf3 cabd de16 80bd 540d 22be e950 dabd
00000390: 1354 f0ba 6fa7 153d df92 24be 5060 b7bd
000003a0: ad30 bebd f087 bdbd 49ae a5bd 0918 22be
000003b0: 003b 1c3e 977f 033e ac92 533d d35d 15be
000003c0: 67cb 9f3e acd7 d2bd d706 6b3d 080c 67be
000003d0: 9bd7 5c3d 2c87 6fbd 3395 853e c479 143c
000003e0: 8190 b0bb a7ac 1cbe cc0d 89bc 93ac d4bb
000003f0: c0e0 2dbe 08c3 d2bd 0255 0bbd 63c9 b13c

network_body._body_endoder.seq_layers.2.bias f4 [128]
0.05741458 -0.026448285 -0.11855047 0.031559885 -0.005796032 -0.0009287518 0.032265987 0.003005776
0.010919635 0.047474768 0.035904624 0.08678146 0.016475141 0.0013251631 -0.057515927 0.032610234
0.01350582 -0.015229518 0.045975465 -0.018678494 0.0077619706 0.028104387 0.015685767 0.019136176
0.013567796 0.042344317 0.0274417 -0.052082367 0.0161524 0.040420327 0.07720502 0.048212916
-0.0092995595 0.034368157 -0.03036266 0.037604876 0.08358027 0.06196739 -0.011331537 -0.0048565036
-0.092138395 0.059217874 -0.0093047675 0.017569713 0.026854474 0.07409413 0.025997465 0.011322586
0.041494284 0.0026271364 0.042898815 0.052492082 0.06451257 -0.060078334 -0.012184423 -0.038014695
0.044203762 0.067314096 0.037343416 0.00734253 0.0037923392 0.064450055 -0.067994095 0.049839392
0.029951587 0.05381974 -0.012650285 0.08707367 -0.028839173 0.10831398 -0.0012500915 0.065306485
0.027092598 0.03262947 0.04828145 0.11420164 -0.029302334 0.04028064 0.014280867 0.009150417
0.08128989 -0.029297568 -0.037018843 0.041505706 0.0042007896 0.03498326 0.078668855 -0.060919162
-0.03234088 0.03349692 0.0070629893 -0.020241676 0.04415927 0.075346656 -0.038281012 -0.043932382
0.050997086 0.07966404 0.0022649795 -0.046068504 0.03548717 0.11753088 0.013786864 0.08532714
0.05304721 0.0802304 -0.029748132 0.014193067 0.123116285 0.037999082 0.0047565885 -0.0078038867
-0.0021440175 -0.06898779 -0.0035479432 0.07219177 0.11252826 -0.0119207995 0.077515006 0.022946365
0.015594126 0.051173486 0.01723059 0.025866587 0.0069704563 0.046261292 -0.033387017 0.05602237
00000000: 8d2b 6b3d 13aa d8bc 97ca f2bd f044 013d
00000010: a4ec bdbb 7a77 73ba 5729 043d 8efc 443b
00000020: 45e8 323c e774 423d ba10 133d 7aba b13d
00000030: e0f6 863c 18b1 ad3a d295 6bbd 4f92 053d
00000040: 8447 5d3c 3a85 79bc c550 3c3d a403 99bc
00000050: 2158 fe3b 2c3b e63c 707f 803c 78c3 9c3c
00000060: 764b 5e3c 3c71 2d3d 6bcd e03c 5254 55bd
00000070: 0a52 843c c98f 253d aa1d 9e3d e87a 453d
00000080: 2e5d 18bc a0c5 0c3d 1dbb f8bc 9207 1a3d
00000090: 222c ab3d 85d1 7d3d e9a7 39bc 4e23 9fbb
000000a0: 0eb3 bcbd 718e 723d 0673 18bc 5cee 8f3c
000000b0: eafd db3c aabe 973d a3f8 d43c 5e82 393c
000000c0: e9f5 293d 092c 2c3b abb6 2f3d f001 573d
000000d0: 2b1f 843d b314 76bd 2da1 47bc 4cb5 1bbd
000000e0: 010f 353d f9db 893d 69f5 183d 9b99 f03b
000000f0: e588 783b 64fe 833d 7d40 8bbd 6424 4c3d
00000100: 085d f53c 1672 5c3d 2443 4fbc ae53 b23d
00000110: 2140 ecbc b8d3 dd3d 1cda a3ba 68bf 853d
00000120: 4cf1 dd3c 7ba6 053d c5c2 453d 8de2 e93d
00000130: 730b f0bc 50fd 243d 4cfa 693c a1eb 153c
00000140: 507b a63d 7401 f0bc 12a1 17bd e301 2a3d
00000150: c7a6 893b 9b4a 0f3d 231d a13d 5f86 79bd
00000160: df77 04bd 1134 093d a670 e73b dfd1 a5bc
00000170: 5ae0 343d 594f 9a3d 8dcc 1cbd 71f2 33bd
00000180: 52e2 503d e626 a33d 0d70 143b 54b2 3cbd
00000190: ff5a 113d 08b4 f03d 4ce2 613c ffbf ae3d
000001a0: 0848 593d d64f a43d 5bb2 f3bc 0a8a 683c
000001b0: 6424 fc3d eda4 1b3d 28dd 9b3b bfb7 ffbb
000001c0: a582 0cbb 7849 8dbd 9c84 68bb 47d9 933d
000001d0: 3775 e63d 754f 43bc 30c0 9e3d 04fa bb3c
000001e0: 817e 7f3c 4a9b 513d 2b27 8d3c 2ae6 d33c
000001f0: 6d68 e43b 7b7c 3d3d d3c0 08bd b677 653d

action_model._discrete_distribution.branches.0.weight f4 [7, 128]
-0.13630441 0.036012527 0.013049841 0.0822887 0.08732524 -0.0101059675 0.076524414 0.037251566
0.06758199 -0.07609021 0.060092315 -0.10086954 0.045769654 0.05730645 0.020746231 0.051731333
0.01650736 0.027122341 0.06743537 0.041808516 0.0800861 -0.057721596 0.07130598 0.010742423
-0.0049591223 0.02635179 0.05469498 -0.031826157 0.05754368 0.08518641 0.026373982 0.081476055
0.09167328 -0.1289356 0.049361654 0.10611869 -0.15623666 0.07149581 0.030057859 -0.09481671
0.04604734 0.033493754 0.0865045 0.006793837 -0.07741247 0.055101387 -0.13818482 0.058472957
-0.072255194 -0.044102352 -0.11560157 0.055986956 0.025176087 -0.024763579 0.108549654 -0.027197028
-0.03863768 -0.12233535 -0.15344168 0.088040106 0.023625415 0.09882921 0.04135461 0.043626282
0.07175424 -0.015129086 0.06727349 0.027981635 0.01141294 0.008954614 -0.072696045 -0.019541878
0.060765088 0.045858227 0.026595537 -0.11129277 -0.04215906 -0.14065632 0.10474203 0.041315418
0.01627095 -0.03456545 0.07553749 0.03564459 0.0082062725 -0.081855536 0.07045027 0.028946722
0.02810954 0.11221491 0.0718084 0.059519168 0.079792194 -0.047048785 0.07860839 0.015004585
0.06957274 -0.0018024432 0.10099143 0.042780794 -0.067436956 -0.010070447 0.0738595 -0.09005618
0.0754072 -0.03166028 0.053779617 -0.07605334 -0.12715219 -0.0144326985 0.021547489 0.009770708
-0.00043728668 0.061162826 -0.0407283 -0.12041413 -0.059795752 0.053843927 -0.015283681 -0.13508992
0.12928402 0.016085668 -0.08403633 0.045580246 -0.016895164 -0.12350281 0.062076945 0.05038992
-0.009818778 -0.042820442 0.062236108 -0.09797993 0.11136731 0.01822662 -0.14635858 -0.16114466
0.09823108 0.15123264 -0.023533063 -0.061413664 0.011916758 -0.08150953 0.08016801 -0.17819642
-0.0809688 0.008860726 -0.06564606 0.1700963 -0.079978794 -0.08990258 -0.089228906 0.03796301
0.1253964 0.038899973 -0.12556733 0.07866549 0.067737035 -0.24262981 -0.25590953 0.120220006
-0.1536105 0.06136411 0.16437775 -0.10468485 -0.14767937 -0.05740748 -0.09239113 0.1610334
0.11406925 -0.20848046 0.05819 -0.049312215 -0.14054774 -0.02927137 -0.0065210555 0.07391467
0.07466968 0.05036768 0.12137643 -0.0063518793 -0.115924895 0.16719328 -0.055098616 0.022913832
0.092674814 -0.16678326 0.011894297 0.07481344 0.09214758 0.055217214 0.028844604 -0.07168018
-0.16270049 -0.105928674 0.110559925 -0.0930605 0.072612174 -0.0775443 0.11409663 0.05141524
0.009739523 -0.098556735 -0.18726566 0.0818695 -0.06168556 0.16024373 0.10444967 0.09039695
0.09062316 0.1369358 0.017093047 -0.03284807 0.080678985 0.17692432 -0.16665965 0.10108923
0.055455286 -0.03983538 -0.112254664 0.114479534 0.08184913 -0.13833699 0.080876514 0.050054666
-0.2407932 -0.108141884 0.107153326 0.15446682 0.052141238 -0.02241326 -0.020334862 -0.14960822
-0.14989007 -0.2174521 0.18652834 -0.008280889 -0.11862899 -0.14604688 0.08474307 0.018078245
0.08641326 0.07649643 0.047648568 0.037134446 0.013141943 0.22809196 -0.04873533 0.023004644
0.05385739 -0.17826039 0.014169748 0.21587817 0.14170349 0.24758847 0.15216345 -0.15152316
00000000: 6293 0bbe df81 133d 00cf 553c fa86 a83d
00000010: 93d7 b23d 8093 25bc d5b8 9c3d 1995 183d
00000020: 6d68 8a3d 2fd5 9bbd 5c23 763d b094 cebd
00000030: f678 3b3d 2bba 6a3d 00f4 a93c 3ce4 533d
00000040: 713a 873c ac2f de3c 8e1b 8a3d 683f 2b3d
00000050: 2e04 a43d 7b6d 6cbd df08 923d fd00 303c
00000060: 2280 a2bb b6df d73c d807 603d 255c 02bd
00000070: ecb2 6b3d 3676 ae3d 400e d83c ebdc a63d
00000080: 33bf bb3d b207 04be 722f 4a3d c154 d93d
00000090: 81fc 1fbe 656c 923d e63b f63c 432f c2bd
000000a0: 239c 3c3d bf30 093d 4529 b13d d69e de3b
000000b0: 6e8a 9ebd feb1 613d 5280 0dbe 5781 6f3d
000000c0: 88fa 93bd aba4 34bd 84c0 ecbd 9452 653d
000000d0: 153e ce3c fddc cabc 484f de3d 4dcc debc
000000e0: 8b42 1ebd f58a fabd d11f 1dbe 5f4e b43d
000000f0: 168a c13c f866 ca3d 7463 293d 79b1 323d
00000100: e3f3 923d fcdf 77bc afc6 893d be39 e53c
00000110: 57fd 3a3c 60b6 123c aae1 94bd 4a16 a0bc
00000120: d0e4 783d d6d5 3b3d e2de d93c 77ed e3bd
00000130: faae 2cbd 3608 10be fd82 d63d 5b3a 293d
00000140: a84a 853c 8094 0dbd 66b3 9a3d 1000 123d
00000150: 9a73 063c e0a3 a7bd 3b48 903d ad21 ed3c
00000160: fa45 e63c eed0 e53d 4810 933d 5fca 733d
00000170: 176a a33d 3ab6 40bd 70fd a03d cad5 753c
00000180: 277c 8e3d f53f ecba 98d4 ce3d ea3a 2f3d
00000190: 631c 8abd 84fe 24bc a643 973d 606f b8bd
000001a0: 176f 9a3d 36ae 01bd 0448 5c3d dbc1 9bbd
000001b0: 2f34 02be 2077 6cbc 5c84 b03c 5215 203c
000001c0: a043 e5b9 df85 7a3d b8d2 26bd af9b f6bd
000001d0: 64ec 74bd 738b 5c3d 6868 7abc 0355 0abe
000001e0: 0863 043e 17c6 833c 3d1b acbd 5ab2 3a3d
000001f0: ba67 8abc 0bef fcbd 6544 7e3d a965 4e3d
00000200: f1de 20bc 7d64 2fbd 4aeb 7e3d b4a9 c8bd
00000210: 8b14 e43d fe4f 953c 06df 15be 1b03 25be
00000220: 602d c93d bbdc 1a3e 69c8 c0bc e58c 7bbd
00000230: 813e 433c 78ee a6bd 202f a43d 1f79 36be
00000240: f8d2 a5bd 942c 113c 7171 86bd b92d 2e3e
00000250: eccb a3bd d81e b8bd a5bd b6bd 1a7f 1b3d
00000260: ea67 003e 9455 1f3d b994 00be 5f1b a13d
00000270: b7b9 8a3d f373 78be 9306 83be e835 f63d
00000280: 124c 1dbe ef58 7b3d a452 283e 0365 d6bd
00000290: 4339 17be 1b24 6bbd 9037 bdbd f1e5 243e
000002a0: 249d e93d e77b 55be a358 6e3d 9bfb 49bd
000002b0: bfeb 0fbe 83ca efbc 94ae d5bb 9360 973d
000002c0: 6bec 983d 574e 4e3d 3594 f83d 6d23 d0bb
000002d0: 086a edbd b734 2b3e 16af 61bd cab5 bb3c
000002e0: 4bcc bd3d 3bc9 2abe 4ce0 423c ca37 993d
000002f0: dfb7 bc3d 722b 623d 854b ec3c 0fcd 92bd
00000300: f59a 26be 22f1 d8bd 3e6d e23d 8196 bebd
00000310: b1b5 943d 8ccf 9ebd 7eab e93d c998 523d
00000320: 8592 1f3c 1dd8 c9bd 92c2 3fbe 32ab a73d
00000330: ffa9 7cbd ef16 243e b5e9 d53d 0922 b93d
00000340: a398 b93d e638 0c3e b806 8c3c b38b 06bd
00000350: 063b a53d a62b 353e d4a8 2abe df07 cf3d
00000360: 1525 633d 6c2a 23bd c6e5 e5bd 3f74 ea3d
00000370: 84a0 a73d 36a8 0dbe 96a2 a53d 1f06 4d3d
00000380: 7e92 76be 7e79 ddbd 3473 db3d 8d2c 1e3e
00000390: 0d92 553d 039c b7bc 4c95 a6bc e632 19be
000003a0: c87c 19be c3ab 5ebe 4901 3f3e 91ac 07bc
000003b0: c2f3 f2bd 508d 15be c68d ad3d d418 943c
000003c0: 6ff9 b03d 29aa 9c3d 252b 433d 4a1a 183d
000003d0: 4e51 573c f090 693e b39e 47bd 3c74 bc3c
000003e0: 9199 5c3d e489 36be 3b28 683c 2b0f 5d3e
000003f0: b81a 113e d587 7d3e bcd0 1b3e e328 1bbe

action_model._discrete_distribution.branches.0.bias f4 [7]
0.00027634666 -0.061116885 0.045595214 0.007461423 0.00021553284 0.009250781 0.028977636
00000000: 9fe2 9039 b355 7abd 0cc2 3a3d f47e f43b
00000010: a800 6239 9690 173c 8262 ed3c
