CCP-main/results/WeightAgent_Training/WeightAgent_Training/WeightAgent_Training-499993.onnx (onnx, 172720 bytes, 6 tensors)

network_body._body_endoder.seq_layers.0.weight f4 [128, 196]
00000000: bf0e ab3c 17ac 9b3d 5b1e 2bbe ee5f babd
00000010: 3ce4 cc3d 534d c1bd 9f97 313e 62c2 58bc
00000020: 103f fc3c 4a5f f93c 0a4f 94bd ba74 b73d
00000030: a91e 443e 81d0 c8bd 48d4 4abe f9da c43d
00000040: 7830 dfbd 4493 10be 6829 823d 3df0 363c
00000050: d886 f43d 55ad 0c3d 7cda 8a3d d4da 2a3d
00000060: 0387 8e3c d4d6 0b3c 0ebb 2ebd 6a3e 893d
00000070: e05d 89bd bc9e b8bd f877 fe3c 3855 55bd
00000080: b996 be3d 06a4 14be 7e02 6fbd cb7f f43b
00000090: 19a0 fd3c 17e2 b1bd fb1f 22be 9f38 2abb
000000a0: aee2 11bd a5fc 0dbe a299 f9bb 9472 a33d
000000b0: 9255 cd3c 377b 4dbe 8070 2b3e fe3a b7bb
000000c0: 6e8d 413d cf07 ba3d a86d cebd cc2c 103e
000000d0: 7e44 57bb a106 1cbe 7e2e 1a3d 16be a03d
000000e0: 1b7b 763e 4390 493c 6f39 b33d 7253 e83d
000000f0: ca5c 963d f168 993d 09b2 b63d 61b2 51bd
00000100: 41eb 3f3c 2bd1 f4bd 66e7 33be 1a52 d63d
00000110: fa3a c63d 4ae5 cabd 794f 58bd aaad b1bb
00000120: 8af6 06bc 771c 35bd 6d40 9bbd 6121 dc3d
00000130: 297c 03be c0a1 803d 28f6 c3bc f7e2 0b3e
00000140: f843 5dbc 9ce5 d5bc cc81 ba3c a2a8 b33d
00000150: ba5b 66bd 0db8 8dbd 3b11 19be e6a6 943d
00000160: 18db 2ebe e6da 20be 8ea2 aa3c 43fb 3d3d
00000170: f29e 8d3c 1067 23be f116 b9bd 8abd f23d
00000180: 7aab 18be bc2a 13bd 5885 a1bd e05d 9f3b
00000190: f53b 03b9 9908 4cbe 710b 20bd f239 283e
000001a0: 0605 47bb 2f24 90bc e00f e33c 604f ba3d
000001b0: 5f68 adbb c371 5ebd 8d28 edbd a631 78bc
000001c0: 67d3 0a3c fd5b 66bd 2d1c a3bc c907 e23d
000001d0: 1f47 853d c54c 00bd ea62 673d 4552 203d
000001e0: a7f4 603d 515d 91bd 7d40 67bd d99a b4bd
000001f0: 0107 2bbe da16 42bc d90a 863d 0055 edbc
00000200: f9b6 073e 11ee ff3d a4ba 1e3d 9446 293c
00000210: 0b74 0bbc 5880 39bb ccc4 a2bd 5afb e4bd
00000220: 17da 913d 1469 c03c abd3 ac3d d3fd 2cbd
00000230: 08f0 b33d 5a23 f4bc 4ea4 a93b 21a8 8bbc
00000240: 2502 96bb bcf0 e53c 5b9f b83d 39d6 e13d
00000250: 4fb8 d1bd 730e c6bd 1402 bebd 6609 d5bc
00000260: cf44 73bc 0626 dabd 48b6 8bbd 8ec6 fb3c
00000270: 8011 b43c 789b 9ebd bb37 543e 3551 023e
00000280: 23ff fb3c 9349 473c b643 09bd a901 91ba
00000290: 9825 7bbd ddd3 27bd 1da1 c73d fda3 cfbc
000002a0: 6899 1a3e 04ac 0abe d843 86bd 5f16 c83d
000002b0: b359 61bc 09c9 1b3d 6817 7ebd 9eac 51bd
000002c0: f901 023e 08d6 53bd a702 dc3d a02f 5f3d
000002d0: 645d acbd 5b74 b83d 4571 33bd d28a 3abc
000002e0: 8df9 883d 8f1f e5bc 2904 e03c 2c98 fabd
000002f0: 8aa9 10bd 8e64 253c 59f2 c13d f3d6 2f3d
00000300: 8a78 9c3c 5f14 c53c a885 6fbd ec23 703d
00000310: fdc4 843d 2bbc 6e3b 863b 35bd 7473 ee3d
00000320: c2bf 103d 8d93 da3d 91c5 90bd e8e2 13bd
00000330: f443 8a3d 0bc8 d2bd ae26 bebd 55d1 12be
00000340: ae45 8ebd 5d7f e5bc 9842 9138 8b7a 663c
00000350: 8587 993c d7ac 403d 0cdf 3abd 9c29 febc
00000360: 3138 123e 31ae 253d ddf3 a1bc 8a4f 013d
00000370: 7d5f b13c e5db c23d cf9a 903d 08ed d23c
00000380: c379 be3d e1da a43d 9fb6 9cbd f185 d1bc
00000390: d6d1 b63d 9241 87bd f51e bebd 017b abbd
000003a0: 658d 6fbc aa09 a03d b946 573d 2878 4c3d
000003b0: af62 343d 31af 4fbc a0a5 c33c f374 bebd
000003c0: 84d4 5a3d 1c15 af3c aaf4 1e3c 6e2e 073d
000003d0: 9fab a13d 43e3 d2bd 19b7 0abd 7902 023e
000003e0: e187 513d 609e 193e 0cd8 1cbc cbec 49bd
000003f0: bd2f a13c c898 133e 5bbc 033e e80e 683d
0.020881055 0.07601183 -0.16710798 -0.091003284 0.1000447 -0.094385765 0.17342995 -0.013229938
0.03079179 0.030440945 -0.07241638 0.08957811 0.19152321 -0.09805394 -0.19807541 0.09612078
-0.108979166 -0.14118677 0.06355554 0.011165676 0.11939782 0.03434499 0.06779954 0.041712597
0.017398363 0.008535106 -0.042658858 0.06701358 -0.06707358 -0.09014651 0.031063065 -0.052083224
0.09306092 -0.14515695 -0.058351986 0.007461523 0.03096013 -0.08685701 -0.15832512 -0.002597369
-0.03561657 -0.13865907 -0.0076171914 0.079808384 0.025065217 -0.20066534 0.16742134 -0.005591749
0.04725402 0.090835206 -0.10079509 0.14079589 -0.003284722 -0.15236904 0.037641995 0.07848756
0.24070399 0.012302461 0.08751189 0.11344041 0.07341917 0.07490719 0.08920676 -0.051195506
0.011713804 -0.11953958 -0.1756874 0.104648784 0.09679218 -0.09907015 -0.052810166 -0.0054223137
-0.00823749 -0.0442166 -0.075806476 0.10748554 -0.12840332 0.06280851 -0.023921087 0.13660799
-0.013504975 -0.026110463 0.02276697 0.087723985 -0.05623982 -0.069198705 -0.14947979 0.07258396
-0.17075765 -0.15708503 0.020829465 0.0463822 0.017287705 -0.15957284 -0.09037579 0.11852558
-0.14909163 -0.035929427 -0.078867614 0.0048634857 -0.0001251547 -0.19925155 -0.03907341 0.16428354
-0.0030367984 -0.017595379 0.02771753 0.09097171 -0.005291983 -0.05430771 -0.1158 -0.015148556
0.008473254 -0.05624007 -0.019910896 0.11036641 0.06507706 -0.031323213 0.056490816 0.03914096
0.05492082 -0.07097877 -0.056457985 -0.08818597 -0.1670189 -0.011846269 0.06545038 -0.028971195
0.13253392 0.124965794 0.038752213 0.010331769 -0.0085115535 -0.0028305259 -0.07947692 -0.11180754
0.071216755 0.023487605 0.0843881 -0.042234253 0.08786017 -0.029802013 0.0051770573 -0.017047944
-0.0045778924 0.028068893 0.0901477 0.11027188 -0.10240232 -0.09670725 -0.0927774 -0.026005458
-0.014847948 -0.10651784 -0.06821877 0.030734327 0.021981 -0.07744497 0.20724384 0.1272629
0.030761307 0.012163538 -0.03351184 -0.0011063117 -0.06131515 -0.040973533 0.09747527 -0.02534675
0.15097582 -0.13542181 -0.06555909 0.09769892 -0.013754296 0.03803352 -0.06203404 -0.05119001
0.12696065 -0.051717788 0.107426934 0.054488778 -0.0841625 0.09006568 -0.043809194 -0.011385636
0.06688223 -0.02796915 0.027345734 -0.12236056 -0.035317935 0.010094775 0.09470052 0.0429296
0.019100446 0.024057565 -0.058477074 0.058628008 0.06482885 0.0036428075 -0.04424622 0.11643115
0.035339125 0.10672674 -0.07068933 -0.036105067 0.06751242 -0.102920614 -0.09284721 -0.14337666
-0.06946884 -0.028014833 6.926543e-05 0.014067302 0.018741379 0.047039833 -0.04562287 -0.0310257
0.14279248 0.040449325 -0.019769603 0.031569995 0.021651978 0.09514598 0.070607774 0.025747791
0.09300568 0.0804956 -0.0765202 -0.025576564 0.08926742 -0.066043034 -0.09283248 -0.083730705
-0.014621113 0.07814343 0.05255768 0.049919277 0.044039425 -0.012676046 0.023882687 -0.0929965
0.053425327 0.02137237 0.009701887 0.033003263 0.07894062 -0.10297253 -0.03386602 0.12696256
0.051154975 0.15001822 -0.009572994 -0.04929809 0.019676084 0.1441375 0.1286482 0.05665484

network_body._body_endoder.seq_layers.0.bias f4 [128]
00000000: 2643 dbb9 1dc6 8bbc c43b b5bc 6cc1 12bc
00000010: ee4d 82bc 78c6 bdbc c8a4 013d a11b d83c
00000020: e5a1 8d3c c1b7 883c 7271 33ba 7f54 16bc
00000030: bd33 803c 5c1f c43a b2c8 f83b 8303 443c
00000040: b67c e43c 1898 58bc fe53 51bb 580e 763b
00000050: 11c2 983b a065 133c abaa bfbb 782a 1a3b
00000060: 84b4 373c ffae eabb 2507 0bbc 299e 823c
00000070: 5ee3 a13c c881 083c d44c 8ebc e337 b73c
00000080: 07f8 ba3b b300 98bc 14d5 bfbb b494 0fbc
00000090: 0739 b53c 5d72 cc3b 466c a93c d091 873b
000000a0: 5e4b 6b3c cb53 4f3c 2b37 1d3d e6a1 463c
000000b0: aeb4 5dba c86e ed3b f30f 17bb 5dea 973c
000000c0: ea52 833c e7f4 433b bee9 a63b f66d ad3c
000000d0: c2b7 1dba 5790 a93c 929c dabc 8fe7 853c
000000e0: aba0 a8bb c8c1 f2b9 d4fe 803b 6e2f 873c
000000f0: 98c6 1abb b8a1 16bc 3f42 093b 846e f73c
00000100: 0763 94bb 7e4b 843b b8f3 f8bb 1f18 04bc
00000110: a67a a23b 3123 5dbc dc31 a9bc 9901 4c3c
00000120: a1fd 763c db81 58bb aa39 213c 2913 19bc
00000130: 9910 4f3c 6d2d 053d a2af 833c b271 34bb
00000140: 4338 7abc 8c08 99bc 8974 2ebc 5d93 a7bc
00000150: 3637 683c 8fae 803c fc88 d03c 18b2 ca3c
00000160: 0ea8 a53b fcd7 b9bb e3ad e23b adab 113b
00000170: c98a f73c 9162 863c 344f 7f3c 4d13 af3b
00000180: 3db9 52b9 4cf4 abba 2de6 253c eb12 373c
00000190: b817 4b38 efcf 5b3c 94ee e43b 11af 06bc
000001a0: e4ee 0ebc b024 573c f2de 073d 0ca6 d23b
000001b0: b039 46bc adcc 5f3b 8d3e 91bb ce3d f53c
000001c0: 70d1 c13b ae5a fdb9 a2ed a73a c26e 75ba
000001d0: df60 b3ba 055c fa3b 75d2 cfbb f0b4 283c
000001e0: 1fa6 54bc 2e94 70bc eb90 9c3c 12c7 513c
000001f0: 72df dbbb dc10 a9ba 9e21 b93c 4ef9 c43b
-0.00041820965 -0.017062241 -0.022123225 -0.008957248 -0.0159063 -0.023165926 0.03165129 0.026380362
0.017289111 0.016689183 -0.0006845213 -0.009175419 0.01564967 0.0014962959 0.007592284 0.011963728
0.027891498 -0.013219856 -0.0031940932 0.003754517 0.0046618064 0.008996397 -0.0058492026 0.0023523849
0.011212472 -0.0071619744 -0.00848559 0.015944557 0.019761737 0.0083317235 -0.017370619 0.022365516
0.0057058367 -0.01855502 -0.0058542583 -0.008763481 0.02212192 0.006239219 0.020681512 0.0041372553
0.014361231 0.012654255 0.03838269 0.0121235605 -0.00084574043 0.007245872 -0.0023050278 0.01854437
0.016030747 0.0029900612 0.005093782 0.021170598 -0.0006016457 0.02069871 -0.026685987 0.016345767
-0.0051461062 -0.00046302215 0.003936628 0.016502108 -0.0023616906 -0.00919383 0.0020944027 0.030204065
-0.0045284065 0.0040373197 -0.007597413 -0.008062392 0.0049584685 -0.01349716 -0.020653658 0.012451553
0.015075118 -0.0033036384 0.009840408 -0.009342947 0.0126382345 0.032514025 0.01607496 -0.0027533588
-0.015272203 -0.018680833 -0.010647901 -0.02045601 0.01417332 0.015708236 0.025455944 0.024743125
0.005055434 -0.0056714993 0.0069177016 0.002222757 0.030217545 0.016404422 0.015582848 0.005342877
-0.00020096167 -0.0013119071 0.010125679 0.011173944 4.842106e-05 0.013416274 0.0069864485 -0.00822045
-0.008723948 0.013131306 0.0331716 0.0064284857 -0.012098715 0.0034149096 -0.0044325055 0.029936697
0.0059148595 -0.00048323482 0.0012811909 -0.00093625125 -0.0013685486 0.007640364 -0.006342227 0.010297045
-0.0129790595 -0.014683766 0.019112071 0.01280381 -0.0067099864 -0.0012898701 0.022599038 0.0060111647

network_body._body_endoder.seq_layers.2.weight f4 [128, 128]
00000000: b909 3bbe ef8b 86be 48b8 98bc 6bde 023d
00000010: de0a 64be 772f a73d e943 5a3d 75ee 833d
00000020: 5e8b dabd 7793 a0bd 7729 df3d 1862 49bc
00000030: 3c08 cebd 18e1 23be 5b56 a13d 0959 89bd
00000040: 42ff 68bd 2ada 113e c2c0 e0bd 40e6 113e
00000050: 3919 32be 27bf 033c 0967 59bd c9f0 9a3d
00000060: 093a 643d 2387 bebd 6e63 143e 5e89 91bd
00000070: f6d6 433d 8d28 293e 6056 d7bc 2c3a 88bc
00000080: 9338 b03c ddc7 543d 4d5f 623e 9be0 75bd
00000090: eb78 323c 9045 243c 6a22 d43c 0628 9abd
000000a0: 78ff 733d a21a 90bc 6bb1 f43d f1e4 93bc
000000b0: f575 69ba b97e 063e 098a a1bb b25c 3f3e
000000c0: 70b7 68bc d9bc e03c cbf2 a0bd 33be 9a3d
000000d0: 4ea0 9bbd 30c1 29bd c895 09be 2d8a a53c
000000e0: beb4 fd3d 8d76 863c 7bc7 643d 3bd3 10bd
000000f0: c330 9e3d 9eec 843d ab6f a93d 6f69 e0bd
00000100: 3639 e03c 0e71 17bd 6ab7 f0b9 3cfd 7fbd
00000110: aa72 b4bd 72c8 49be 65d2 16bd dbff 683d
00000120: d606 37bc 3f9d b6bd 5d16 9f3c 4da2 29be
00000130: 7085 3e3e 369d 1cbd b5c0 183d 411a 44bd
00000140: 70aa 1b3e 986e 50bd b12c d63d b15b 0ebe
00000150: 7bb2 003b 1caa d5bd 19ac a03b d0bc d3bb
00000160: e722 993d bd61 0bbe 7b36 603e 0009 9b3d
00000170: e014 2e3e dbd1 e73d 14e3 033e 981c c9bd
00000180: d2ca 373d 00e5 723c 732b 0b3e bf4b 383d
00000190: 3973 953c 578a 933c c8a3 5bbc e817 8cbd
000001a0: 9b44 07be 0768 ebbd 74cb 843e 1c14 863d
000001b0: cd0a f7bc 7de4 82ba 26a0 a7bd ccd5 c23d
000001c0: 678d 8f3b 8052 9e3d 7f62 3a3d 5e41 18bd
000001d0: 0cbb abbb 541f 3c3d b156 d2bd ec11 47bd
000001e0: 8b51 a7bd fd29 503d 2023 ec3d 7ff3 15bc
000001f0: 939d 683d a6af 6abd cb1a 423d b04c 92bc
00000200: e4d0 c2bd 5d72 1a3d 4b5e a2bd efa8 fabd
00000210: 4c0e 0a3d d54b 22be cde7 1c3e db69 a13d
00000220: 0ba0 853d 6e32 0e3e ffb1 d8bd d0db c7bd
00000230: b2a9 ebbd 8325 92bd 0079 513c 1afa e3bc
00000240: b979 753c f718 21bd ca8f 043d 2633 bcbd
00000250: ccb6 1cbd 84e5 583d f03d 5e3d 1d60 3dbd
00000260: e1e5 27be dc85 0a3e 72df b8bd 7f51 173e
00000270: 00a9 82bb 0590 d7bc 2ca1 8dbd c231 583a
00000280: 1467 e2bd f400 5b3e a1cc 40be 03fb 0a3e
00000290: e4dc 0c3d b242 35bc 4c9f 433b 03f5 58bd
000002a0: e01e fdbd a694 debb 4880 62bd 0b89 aebc
000002b0: 7649 a0bc e73d b1bc 32f8 d9bd 3776 bcbd
000002c0: d5e9 27bc 7991 813d 57a3 34bd e42d 17bd
000002d0: d6e9 34bd 759f 46bd b0d6 c03c 736f 56bd
000002e0: 41f0 f9bd dc86 45bd 8e26 fd3c d5c3 44bd
000002f0: a885 e03d d439 9fbd f78d d43d 45ec d7bc
00000300: ce14 82bd bfb0 b339 2023 9d3d 849b 93bd
00000310: c8a4 25bc 0801 a53c 76d4 093d 130a c2bd
00000320: d7cc c13d 8b90 ea3c d16b 52bd eca5 5f3c
00000330: 7fef 98bd bc60 a3bd e68c ae3d 2465 cfbc
00000340: b6a7 c2bc 5dc0 a83d 2dd6 933c d577 fabd
00000350: 04f1 27be e197 76be 9507 153e fa85 4fbe
00000360: 6a3e d4bd c26d 8cbd 92bc 8e3d e4af 4c3e
00000370: 593f 7cbd 15a8 eabd 5f11 9e3d e7b5 e03d
00000380: 72f7 31bd f28d 8f3d 922e c53d 854c ce3d
00000390: e03f 413d 9ac1 ee3d 25c1 acbd f63b 5a3e
000003a0: d6b6 423d 5a99 9c3c 99d5 753d 88a5 213d
000003b0: bee6 583d bc36 a53d 2f45 0bbd 456d f6bc
000003c0: 454c 48bb 4bd3 2a3d 9c70 333e bf13 adbd
000003d0: b2cf 31be f970 df38 9216 5c3c 3bc6 ffbd
000003e0: 3646 b6bd fe7a ab3d 9f34 c8bc 9492 04bd
000003f0: 5c61 80bd 8b13 713d fe43 e3bd aceb 6fbe
-0.18265428 -0.26278636 -0.01864256 0.031950396 -0.2226977 0.0816335 0.05328742 0.064419664
-0.106711134 -0.07840627 0.10896581 -0.012291454 -0.10060164 -0.16003835 0.07877799 -0.06706435
-0.056884058 0.14243379 -0.10974266 0.1424799 -0.17392434 0.00804118 -0.053076778 0.075654574
0.05571941 -0.09303119 0.14491054 -0.07106279 0.047812425 0.16519375 -0.026286304 -0.016629301
0.021511352 0.051948417 0.22106667 -0.060028654 0.010893087 0.010026351 0.025895316 -0.07527165
0.059569806 -0.017590825 0.11947902 -0.018053504 -0.00089058216 0.13134278 -0.004929785 0.18687704
-0.014203891 0.0274338 -0.07858809 0.07555809 -0.07598935 -0.041444004 -0.13436043 0.020207489
0.123879895 0.016413951 0.055854302 -0.035357695 0.07724144 0.06490444 0.08273252 -0.1095761
0.02737103 -0.03697305 -0.0004591302 -0.062497362 -0.08810933 -0.1970537 -0.03682174 0.056884628
-0.011171063 -0.08916711 0.019419843 -0.16565819 0.1860559 -0.038235866 0.037293155 -0.0478766
0.15201735 -0.05088672 0.10457743 -0.13902165 0.0019637633 -0.104328364 0.004903328 -0.006461717
0.0747736 -0.13611503 0.21895783 0.07570076 0.1700015 0.11319324 0.12879592 -0.09819907
0.04487116 0.014825106 0.13590793 0.044994112 0.018243419 0.018010302 -0.013405748 -0.06840497
-0.13209765 -0.11494451 0.25936472 0.06546804 -0.030156517 -0.0009986308 -0.08184843 0.09513435
0.00438087 0.077305794 0.04550409 -0.037171714 -0.0052408036 0.045928314 -0.10270441 -0.048601076
-0.0816985 0.050821293 0.11530137 -0.009152292 0.0567909 -0.057296418 0.047388833 -0.017858833
-0.09512499 0.03770672 -0.07928141 -0.12239253 0.03370504 -0.1584924 0.153228 0.078815185
0.065246664 0.13886425 -0.10580825 -0.09758723 -0.11506976 -0.07136061 0.012785196 -0.027829219
0.014982634 -0.03933045 0.03236369 -0.09189443 -0.038260266 0.05295326 0.054258287 -0.04623424
-0.16396286 0.13527626 -0.09026994 0.14777182 -0.0039874315 -0.026313791 -0.06915507 0.00082471606
-0.11054817 0.21387082 -0.1882806 0.13572316 0.034390345 -0.011063265 0.0029849587 -0.052968036
-0.123594046 -0.0067926226 -0.05529812 -0.021305582 -0.019566279 -0.021635963 -0.106430426 -0.09202235
-0.010248621 0.06326575 -0.044101086 -0.036909 -0.044168316 -0.048491914 0.023539871 -0.05235238
-0.12204028 -0.048224315 0.030902173 -0.048038322 0.10962993 -0.07774702 0.1037864 -0.02635778
-0.063516244 0.00034273227 0.07672715 -0.072073966 -0.010110088 0.020142093 0.033649884 -0.09474578
0.09462898 0.028633377 -0.051372353 0.013650399 -0.07467555 -0.07977435 0.08522968 -0.025316782
-0.023761611 0.082398154 0.018046463 -0.122298874 -0.16400534 -0.24081375 0.14553674 -0.20265952
-0.10363467 -0.06856872 0.06969561 0.19988972 -0.06158385 -0.1145784 0.07718157 0.10972195
-0.043448873 0.07009496 0.09628023 0.10073189 0.047180057 0.1165802 -0.08435277 0.21311936
0.047537647 0.019116092 0.060018156 0.039464504 0.052954428 0.080670804 -0.034001525 -0.0300814
-0.0030563038 0.04170541 0.17523426 -0.08451032 -0.17364386 0.000106545114 0.013433116 -0.12488981
-0.089001104 0.08373068 -0.024439154 -0.03236635 -0.0626857 0.05885653 -0.11096953 -0.23429745

network_body._body_endoder.seq_layers.2.bias f4 [128]
00000000: 4e7d 753c 23ed 60bc f157 393c 766d fd3c
00000010: 6d24 42bc 3785 dabc 1884 5bbb 2f28 803c
00000020: e242 b53b 17af ddbb 958c 8e3c 764e 393c
00000030: 0247 01bc 3a47 4e3b 7002 8b3c 48ce 06bc
00000040: b104 a73c 180f 1fbc b85e de3a c717 0ebc
00000050: 91b2 68bb d9a5 be3c 3e50 2bbc 129c 383b
00000060: 3fb9 6f3c 6224 c23c 90be bc3c 4d77 88ba
00000070: f486 e63b 595f 4d3c 246b 233c 2f69 11bc
00000080: f90e 89bb be0c 83bb 0e13 4a3c 7e0a b7bb
00000090: b22b 00bc 35d7 8a3b cce8 f3bb 597f 7fba
000000a0: fb5e 2b3c 3b01 613c 96b5 403c 2a3c 34bb
000000b0: 3bb2 8a3c a464 da3a 889e 363c 689c a3bc
000000c0: 866a b13b 9bb9 cc3c 4117 4ebc 6a8f 323d
000000d0: ee84 3f3c 2acd a7bb 1890 7fba 2fa3 a33c
000000e0: 6ffc 2f3c b687 3f3c 2818 2b3c bca8 07bb
000000f0: 9511 29ba d01c d0bc 6b68 673c 960f b83c
00000100: a433 323b aeda ca3b 36be 183c 640a e1b8
00000110: 2c7e 50bc 63cd 2e3c a1cf fe3c e7f6 993b
00000120: 785c b43a 06bd 643c 80eb 143c 6583 343b
00000130: c7e2 0f3c 1b7c 053c 0e88 6dbb 696f d73c
00000140: a68f 08bc 4c93 e13c 93ee 0c3c 70cc 813c
00000150: 810c 6d3c cc9b ddbb f09a 44bc 16c2 bd3c
00000160: 68c0 4c3c 8bf5 f3bb 68fe 2d3c fd77 153c
00000170: 3fb2 ce3c 9d25 0cbc 8aae cfba 58da d8ba
00000180: a390 1abc 6959 4cbc dd37 87bc 07d6 c33c
00000190: e4ab 73bc f710 68bb cd62 d83a 9b3f bf3c
000001a0: fca8 23bb 9f8d 80bc c03a 363c cf1e 32bc
000001b0: 25dc e139 3fc6 1d3c 6c5b 803c c68b 6ebc
000001c0: 5b04 503c 7015 18bc 266f e93b dcc5 7abc
000001d0: b342 04bc 5971 a33c 7fc9 da3c e6a7 d63c
000001e0: 8e7b 053c b6f1 6cbc bce6 2c3c 81c6 eb3b
000001f0: a3d1 d6ba 3265 c93c 5079 9d3c 0428 30bc
0.014983488 -0.013728413 0.011312471 0.030935984 -0.011849505 -0.02667485 -0.0033495482 0.015644161
0.0055316547 -0.006765257 0.01740102 0.01131021 -0.007890465 0.003147556 0.016968936 -0.008227892
0.02038798 -0.0097081885 0.0016965484 -0.008672661 -0.0035506824 0.023272442 -0.010456143 0.0028169197
0.014631568 0.02369899 0.023040086 -0.0010411531 0.0070351306 0.01253494 0.009974275 -0.008875175
-0.004182693 -0.0039993217 0.012333645 -0.0055859676 -0.007822918 0.0042370805 -0.007443523 -0.00097464543
0.010459657 0.0137332035 0.011762043 -0.002750168 0.01693069 0.0016662073 0.011146195 -0.019972041
0.00541431 0.024990847 -0.012578786 0.0435938 0.011689408 -0.005120893 -0.00097489497 0.019975273
0.010741337 0.011690071 0.010442771 -0.0020699939 -0.00064494583 -0.025404364 0.014124016 0.02246837
0.0027191425 0.0061906194 0.009322694 -0.000107307715 -0.012725394 0.010669085 0.031104865 0.0046986225
0.0013760468 0.013961082 0.009089351 0.0027544138 0.008782095 0.008147265 -0.0036244425 0.026298242
-0.00833503 0.027536057 0.008601802 0.015844554 0.014468313 -0.006762957 -0.011999831 0.023163836
0.012497045 -0.0074450425 0.010619737 0.009122846 0.025231479 -0.00855389 -0.0015844863 -0.0016544564
-0.009433898 -0.012472489 -0.01650613 0.023905767 -0.014872525 -0.0035410502 0.0016508937 0.02334576
-0.0024972549 -0.01569253 0.0111224055 -0.010871603 0.00043079365 0.009629785 0.015668593 -0.014559692
0.012696351 -0.009282455 0.0071238456 -0.015305962 -0.008072543 0.01995151 0.026707409 0.026203107
0.0081471335 -0.014461925 0.010553058 0.0071952944 -0.0016389381 0.024584386 0.019222885 -0.010751728

action_model._discrete_distribution.branches.0.weight f4 [7, 128]
00000000: 455a 5abb e8d6 77bc d236 8eba b6a8 783c
00000010: bc2c 26bc f528 0fbc 879d 823c ad11 c2bb
00000020: b264 5cbc 9098 853b ef51 0abc 468a 19bc
00000030: 431a 7cbb 5a5e efbc 1b45 c93b 2ca7 d13b
00000040: 0c2b 1338 9648 2dbc de3e 17bc aa04 d2bb
00000050: f7f9 b1bb 6559 a83c 3c92 99bc 8d42 2b3c
00000060: 4479 8dbc 5735 6fbc 50ea 0fbc dab6 c838
00000070: 6faf 9f3a 53b6 ac3b 2f39 283c 3087 2a3b
00000080: a796 063b f732 893b 3d77 f3ba eef8 383c
00000090: 1331 c939 4e88 a2bc 5923 2bbc 5537 423b
000000a0: dc75 79bc f782 cf3a 7e78 67bc dead e8bb
000000b0: a9b7 bb3a 1ed2 11bc 3d02 57bb 7e94 8fbc
000000c0: 4d76 8a3c bfc9 4f3b 393e 15ba 4f7f 81bb
000000d0: f2a7 ecbb 3351 d63b 86f7 43bc 1f73 203d
000000e0: 3cdc fa3b 8321 9bbc b000 e83b ffcd 033c
000000f0: e2ad 0b3b b91c 663c 4d38 4abc 5997 de39
00000100: e2ac 853b aba6 0b3c d9c8 443a 0193 42bc
00000110: 9af2 1a3b 9893 d23b 8c82 d4b9 8131 d9bc
00000120: b3a3 d7bb 8741 293c 468f 353a aa94 87bb
00000130: a734 943b 4271 22bc 5ae1 5bbc 8625 203c
00000140: efb8 2a3a 98f4 823c c595 33bc 0d75 1dbc
00000150: 3f0a b6bc 355b 6ebc deec c5ba c740 2b3c
00000160: 5130 2c3c ecd0 163c b736 13bc 9533 f63a
00000170: e2b7 adbc f497 1d3b 1b73 2ebc 1449 0bbb
00000180: 825e 81bc 0b44 aebb a43a e3bb fb73 9d3b
00000190: 29bd ad3a f44b 9cbc 3639 da3b 00f1 103c
000001a0: 3e1e cd3b 40f0 26bc ed68 95bb 3bfc 5bbc
000001b0: a8f1 96bb 3f37 abbb bdef e43b 60e1 073c
000001c0: 076d ff3b a5bf 8f39 87e0 b0bc e6b4 b2bc
000001d0: 541e 26bc 5a04 153c 85d1 7d3c 652e c23c
000001e0: 254d 65bc 0cb1 0c3b cff7 6dbc 4ef9 5ebc
000001f0: 8808 f03b 3ade 253c 926f b5bc 145b bdba
00000200: 8767 cc39 ab2b 863c 8768 543b 22a3 60bc
00000210: a9be 1f3d d8ad 023d 4125 f33b e0da 59b9
00000220: bdc2 82bc a43e 0b3c 8ca9 b6bc 035f a33c
00000230: 387d 8c3c ae0f 1f3d 5957 04bc 6aed 24bb
00000240: c98b ebbc 5b06 d43c 7e7a e43c 56cd 143d
00000250: ad58 903c 060f 9dbc 08e5 453d ae6c 58bb
00000260: 43d0 ebbb 5b63 953c 0c04 d83c 6e44 f73b
00000270: aca1 09bc c2ca 50bc dd6e 78bb 0354 7c3c
00000280: 691c ea3c bdf2 b93c 1381 8eba 317d bd3b
00000290: fa06 6e3c 85d1 3bbc a495 8d3b 2afe 923c
000002a0: 9b2b 1a3c 472e 67bc 203e e13c f9ad ba3b
000002b0: d28c 23bc 799a 1e3d 1ab9 723c c73d 0d3d
000002c0: dadd b5bb 2a10 c93b 6a86 1f3c db07 053d
000002d0: 4acf 9cbc e1dc 073b 31cf 0f3b bfc5 16bd
000002e0: 88d8 25bb 8042 1abc 8847 a6bc 726e 863b
000002f0: ecbd 9d3a c9b8 d53c 266e 113d 62df ecbc
00000300: 9972 a53b 2335 a6bb d07f 5dbc b156 f13c
00000310: e974 3c3c c6c9 9abb 9fa3 dd3c 8543 3d3d
00000320: 09fe b03c c20d 99bc e102 5e3c 689e 363c
00000330: 706f 20bc 5450 3fbc 3886 f93c 7b87 c6bc
00000340: c7a6 0a3c 1f20 38bd 8dc2 b2ba 0129 0a3b
00000350: cbc0 443d 4a0f 003c 6d57 8f3c a177 e3bc
00000360: adb7 edbb 10d5 0b3c f2de 2c3c 5336 71ba
00000370: f45d d53c 3b30 013d 16aa 273a 880c b53c
00000380: 6ed6 b83c 7eec 8f3c 2d72 a0b9 f884 80bc
00000390: c711 123c aa02 b43c 30d5 36bb 440d 7ebc
000003a0: 7157 9abb c690 f33b 00b7 5fbc ba88 2e3d
000003b0: 7045 fd3a ffad 35bc 1e41 ecbb 9a96 413c
000003c0: 77bb 103c 2d30 b03c 1291 d33b ee01 ec3c
000003d0: 45af bd3b 1e6e e6bc b40c 25bd 1e80 b2bc
000003e0: e277 683b c7da c13c c93f 103b b709 0dbc
000003f0: 0fcb f93b 315c 0c3d 5d02 843c 70b0 cdbb
-0.0033317965 -0.015126921 -0.0010850078 0.015176943 -0.010142501 -0.008737792 0.015944256 -0.0059225173
-0.013451742 0.0040770248 -0.008442386 -0.009371346 -0.0038467802 -0.029219795 0.006142271 0.0063981023
3.508762e-05 -0.010576388 -0.009231297 -0.0064092474 -0.0054314095 0.02055044 -0.018746488 0.010452879
-0.017269738 -0.01460012 -0.008783892 9.570802e-05 0.0012183021 0.005270758 0.01026754 0.002602052
0.0020536573 0.0041869837 -0.0018574964 0.011289818 0.0003837427 -0.019840386 -0.010445439 0.0029635031
-0.015225854 0.0015831877 -0.014127849 -0.0071008047 0.0014321703 -0.0089001935 -0.003280773 -0.017526861
0.016902113 0.0031705943 -0.0005693171 -0.003951944 -0.007222169 0.0065404414 -0.01196087 0.039172288
0.0076556485 -0.018936878 0.00708016 0.008044719 0.002131336 0.014044934 -0.012342525 0.00042455902
0.004079447 0.008523623 0.0007506735 -0.011875869 0.0023643137 0.006426286 -0.00040533056 -0.026512863
-0.0065807938 0.010330564 0.00069259515 -0.004137595 0.004522878 -0.009914698 -0.013420427 0.009774571
0.00065125426 0.015985772 -0.010961001 -0.009610427 -0.022221683 -0.014548113 -0.0015100499 0.010452456
0.010509566 0.009205084 -0.008985213 0.0018783683 -0.021205846 0.002404687 -0.0106475605 -0.0021253275
-0.015792135 -0.00531817 -0.0069344807 0.0048050857 0.0013255227 -0.019079186 0.006659652 0.008846521
0.0062597087 -0.010189116 -0.0045596273 -0.013426836 -0.0046064444 -0.0052250917 0.006986587 0.00829348
0.0077949795 0.00027417872 -0.021591438 -0.021814775 -0.010139067 0.009095276 0.015491848 0.023703763
-0.0139954435 0.0021467833 -0.014524414 -0.013609244 0.0073252358 0.010123784 -0.022147927 -0.0014446699
0.00038987046 0.016378244 0.0032410936 -0.013710769 0.039000187 0.03190407 0.0074202125 -0.0002077627
-0.015962 0.008498821 -0.022297643 0.019942766 0.017149553 0.038833313 -0.008077466 -0.0025165924
-0.028753178 0.025881937 0.02789044 0.036328636 0.017620409 -0.019172203 0.048314124 -0.0033023763
-0.0071964576 0.018235853 0.026369117 0.0075459993 -0.008400362 -0.012743654 -0.0037907877 0.015400889
0.028578 0.022698754 -0.0010872207 0.0057827462 0.0145280305 -0.011463528 0.004320817 0.01794346
0.00940981 -0.0141101545 0.027495444 0.0056970087 -0.009982305 0.038721535 0.014814639 0.034482744
-0.0055501284 0.00613596 0.009736637 0.032478195 -0.019141812 0.002073102 0.0021943564 -0.03680968
-0.0025306065 -0.009415269 -0.02029778 0.0041025216 0.001203475 0.026089089 0.035505436 -0.028915111
0.0050490615 -0.0050722524 -0.013519242 0.029460283 0.011502483 -0.0047237603 0.02705556 0.04620697
0.021605508 -0.018683318 0.013550491 0.011146165 -0.009792194 -0.011676867 0.030459508 -0.024234524
0.008462614 -0.044952508 -0.0013638303 0.002108157 0.048035424 0.007816145 0.017497743 -0.027767004
-0.007254562 0.008534685 0.010551201 -0.00092015153 0.026045777 0.031540137 0.0006395889 0.022100702
0.022563186 0.017568823 -0.00030602646 -0.015688404 0.008915371 0.021973927 -0.0027898066 -0.015506092
-0.004710131 0.00743303 -0.01365447 0.04261086 0.0019323062 -0.011088847 -0.007209911 0.011815691
0.008833758 0.021507347 0.0064565027 0.028809514 0.005788716 -0.02812868 -0.040295318 -0.021789607
0.0035471846 0.023663891 0.0022010675 -0.008608273 0.0076230834 0.034267608 0.016114408 -0.0062771365

action_model._discrete_distribution.branches.0.bias f4 [7]
00000000: d9a6 873b c185 c2bc 0c0b af3b caa5 783b
00000010: 2aed ac3b 7331 8eba 851a 0e3c
0.004139763 -0.02374542 0.005341893 0.0037940615 0.0052772956 -0.0010848477 0.008673315
