CCP-main/results/WeightAgent_Training/WeightAgent_Training/WeightAgent_Training-499967.onnx (onnx, 172208 bytes, 6 tensors)

network_body._body_endoder.seq_layers.0.weight f4 [128, 195]
0.117028385 -0.109489314 0.10570792 -0.070399165 -0.15678851 0.037827816 0.037772134 0.14586145
-0.087967426 0.017507665 -0.03244768 -0.10433472 0.14377777 -0.09914243 0.05824924 0.010513227
0.064340554 -0.07514783 -0.05453438 -0.09121995 -0.14255902 -0.07415228 0.0005266948 -0.012270447
0.14387771 -0.038399834 -0.0030768877 0.030656934 -0.0055438043 -0.070060626 -0.0938004 0.014050283
-0.0268452 0.010238411 0.037890337 0.10925135 0.0044500562 -0.08232467 0.046798944 0.051122088
-0.11876094 0.14566477 0.09800749 -0.039710708 0.02883834 0.022021292 0.16970457 0.03294403
-0.013790868 0.12539804 -0.015018871 0.050870143 -0.04621184 -0.05874309 -0.01069871 -0.06214312
-0.037557468 -0.039155718 0.09997456 0.036966342 0.0119126225 0.004782515 0.13959587 -0.041925672
-0.030521547 -0.055418897 -0.041305933 -0.030741252 0.075069465 0.11730303 0.021257484 0.027028939
-0.02990965 0.16052213 0.051358283 -0.14845388 -0.02881846 0.06454664 -0.020628458 0.025525328
-0.0054682656 0.04287383 0.0064992416 0.04508525 0.012292017 -0.016787026 0.037486814 -0.040133595
0.038228393 -0.037285227 -0.08480164 -0.070933 -0.0166435 0.07655101 -0.007501832 0.070252925
-0.09712046 0.10303621 0.046337772 0.059421867 -0.09692478 -0.06905187 -0.07163958 -0.04783447
-0.107207164 -0.0049468074 0.017173726 -0.0026751289 -0.18352649 0.11553915 -0.014774294 0.0038448006
0.124636054 -0.008038632 0.011634458 0.004630776 0.12563764 0.038267687 0.010801373 0.15771265
-0.008001337 0.05402573 -0.017984046 0.02983375 -0.1549857 0.033925634 0.017920995 -0.06684866
0.18252932 -0.027256537 0.057155043 -0.086431615 0.050012644 0.0024805337 -0.09132832 -0.08460509
0.03665693 -0.052261524 0.03275931 -0.14864911 0.04148392 -0.0595565 0.0351629 -0.07445563
-0.039580416 -0.01074032 -0.08581718 -0.009587306 -0.009029058 -0.018211542 -0.03433397 0.048899896
0.2056317 0.073218755 -0.14434108 -0.009269566 0.15551636 0.08944963 -0.018107664 -0.03678002
-0.044058256 -0.15693255 -0.081825145 -0.06939517 0.091881104 0.048379436 -0.15824312 0.007050533
0.08144746 0.11195526 0.0022284887 -0.117114164 0.098124884 -0.020400694 -0.07323381 -0.008553645
-0.029582648 -0.04024985 0.011558607 0.016164085 0.04342103 0.08564218 -0.05802887 -0.018531663
-0.06058641 -0.004184369 -0.1378204 0.031911902 0.14276358 0.18680261 -0.071566455 -0.06462087
0.058649074 -0.07895122 0.089467905 0.023145234 0.06030612 -0.10495225 0.037500344 0.002023066
-0.10490343 0.09359736 -0.046495426 -0.050551016 0.11674695 -0.0075789127 0.05348509 0.011045995
0.01780384 -0.25003758 0.002253463 -0.23145561 -0.089363724 0.0030136462 -0.0018154423 0.020031905
0.006155368 0.14353338 -0.0056274 0.08882464 0.002805746 -0.18987565 -0.130698 0.026667273
-0.022379024 -0.000117761636 0.07769612 0.025587436 0.01382357 -0.034255885 0.012273539 -0.0074892053
0.055678315 -0.12242347 -0.07544718 0.049254533 0.012115483 -0.046908922 -0.045726977 0.06209105
-0.02737161 0.031748872 0.030844705 -0.089494154 0.020736543 0.07290647 0.0095629115 0.12431184
0.032415528 0.027264494 -0.008241346 -0.021937175 0.05923721 -0.09857275 0.07303443 0.012149159
00000000: 94ac ef3d ef3b e0bd 657d d83d 702d 90bd
00000010: 2b8d 20be 57f1 1a3d f4b6 1a3d b45c 153e
00000020: 4428 b4bd 3c6c 8f3c dce7 04bd 71ad d5bd
00000030: 7b3a 133e 300b cbbd c196 6e3d ac3f 2c3c
00000040: fbc4 833d 1be7 99bd 715f 5fbd 86d1 babd
00000050: fefa 11be 27dd 97bd e411 0a3a fc09 49bc
00000060: ae54 133e 2549 1dbd 9ca5 49bb 4024 fb3c
00000070: cda8 b5bb f27b 8fbd 6d1a c0bd 2833 663c
00000080: 77ea dbbc 02bf 273c e632 1b3d 2cbf df3d
00000090: c7d1 913b d699 a8bd 40b0 3f3d 6565 513d
000000a0: f038 f3bd 2529 153e 27b8 c83d b2a7 22bd
000000b0: 623e ec3c ff65 b43c 09c7 2d3e 52f0 063d
000000c0: 18f3 61bc 5868 003e b611 76bc 365d 503d
000000d0: a048 3dbd 989c 70bd a449 2fbc c989 7ebd
000000e0: dcd5 19bd bf61 20bd 76bf cc3d 056a 173d
000000f0: 292d 433c a5b6 9c3b 38f2 0e3e 41ba 2bbd
00000100: 5308 fabc edfe 62bd 6930 29bd 14d5 fbbc
00000110: 05be 993d 923c f03d 2d24 ae3c cb6b dd3c
00000120: 1505 f5bc ea5f 243e 105d 523d 4b04 18be
00000130: b114 ecbc 0731 843d 03fd a8bc 7e1a d13c
00000140: 232f b3bb 789c 2f3d 97f7 d43b 50ab 383d
00000150: 7564 493c f284 89bc c68b 193d 2063 24bd
00000160: 6095 1c3d 65b8 18bd 7bac adbd 5245 91bd
00000170: f357 88bc c7c6 9c3d eed1 f5bb c4e0 8f3d
00000180: 17e7 c6bd a604 d33d adcc 3d3d 5864 733d
00000190: 8080 c6bd 116b 8dbd c6b7 92bd 14ee 43bd
000001a0: 6e8f dbbd d418 a2bb eaaf 8c3c 3751 2fbb
000001b0: 5eee 3bbe ca9f ec3d e10f 72bc 0df9 7b3b
000001c0: 3041 ff3d 77b4 03bc 749e 3e3c c4bd 973b
000001d0: 27a7 003e 94be 1c3d 3ef8 303c 6d7f 213e
000001e0: 0a18 03bc 154a 5d3d 4753 93bc e965 f43c
000001f0: 92b4 1ebe 9bf5 0a3d 0dcf 923c f3e7 88bd
00000200: f7e8 3a3e 1a49 dfbc 681b 6a3d 0f03 b1bd
00000210: 0fda 4c3d 7390 223b 580a bbbd 6f45 adbd
00000220: 9425 163d 2e10 56bd a02e 063d 7937 18be
00000230: 0beb 293d 84f1 73bd f906 103d 317c 98bd
00000240: 131f 22bd 2bf8 2fbc ebc0 afbd 1314 1dbc
00000250: 9dee 13bc 5f30 95bc c7a1 0cbd 424b 483d
00000260: 1e91 523e b7f3 953d 26ce 13be 61df 17bc
00000270: ae3f 1f3e 5e31 b73d 8656 94bc a5a6 16bd
00000280: 6e76 34bd edb2 20be f193 a7bd 0e1f 8ebd
00000290: 292c bc3d 8429 463d 7c0a 22be 2808 e73b
000002a0: edcd a63d cd48 e53d d60b 123b 8dd9 efbd
000002b0: b3f5 c83d 5b1f a7bc 9cfb 95bd 9624 0cbc
000002c0: 4f57 f2bc 07dd 24bd 5060 3d3c 8b6a 843c
000002d0: 40da 313d 2b65 af3d aeaf 6dbd b7cf 97bc
000002e0: 7529 78bd 081d 89bb ca20 0dbe 0eb6 023d
000002f0: 9e30 123e 2f49 3f3e 6f91 92bd f257 84bd
00000300: 033a 703d 2db1 a1bd f33a b73d 139b bd3c
00000310: 8d03 773d 35f1 d6bd f699 193d 6a95 043b
00000320: 9cd7 d6bd f9af bf3d fd71 3ebd 950e 4fbd
00000330: 0619 ef3d 8758 f8bb 2f13 5b3d 43fa 343c
00000340: 5cd9 913c ed04 80be d6ae 133b b302 6dbe
00000350: 5404 b7bd 9880 453b 23f4 edba f319 a43c
00000360: f8b2 c93b 6afa 123e 0d66 b8bb b1e9 b53d
00000370: 9be0 373b c36e 42be b2d5 05be 5375 da3c
00000380: 3754 b7bc ccf6 f6b8 251f 9f3d be9c d13c
00000390: 417c 623c e64f 0cbd f416 493c 0268 f5bb
000003a0: f20e 643d 28b9 fabd 0d84 9abd 1fbf 493d
000003b0: 0580 463c 9223 40bd 364c 3bbd 2f53 7e3d
000003c0: 6d3a e0bc 1b0b 023d 09ae fc3c b648 b7bd
000003d0: afdf a93c fd4f 953d c2ad 1c3c 3597 fe3d
000003e0: 25c6 043d ca59 df3c b606 07bc 97b5 b3bc
000003f0: b7a2 723d 83e0 c9bd 1393 953d 440d 473c

network_body._body_endoder.seq_layers.0.bias f4 [128]
0.0034958217 0.009057036 -0.011620555 0.025187925 -0.012130107 -0.009343915 -0.0040475246 -0.010750221
0.016125033 -0.021105641 -0.0048628575 0.0025029082 0.021982044 0.0061025904 0.03186872 -0.010939391
-0.027503837 0.016592635 0.01869113 0.0008242226 0.0047906577 0.016301762 -0.004955025 0.026154462
0.0066586444 0.018430823 -0.009800888 0.03537869 0.0029944184 0.0052213958 -0.03009362 -0.0029447908
0.015373675 -0.0027969063 0.02128564 0.0024669454 -0.003573496 -0.026660686 0.052114893 0.014317692
-0.025275674 -0.015216007 -0.028643493 -0.022035778 0.0061309226 -0.027121611 0.012925815 0.039716717
0.009712786 0.007839934 0.011215594 0.00051563344 0.039568223 -0.00020316301 0.010986094 0.0130929705
0.011415103 0.00606346 0.004876503 -0.027538424 -0.02106983 0.02403304 -0.030302998 -0.016511831
0.041165903 -0.0143451365 -0.0056777797 -0.0022724764 0.0066504884 -0.010815602 0.00837614 0.015520105
0.0590611 0.008416452 -0.002540485 -0.02866284 0.020449724 0.0029572495 0.010712519 0.035167824
0.008684206 -0.017434165 0.033651695 -0.012838246 -0.020766271 -0.009532838 -0.020878445 0.015019102
-0.01258775 -0.016507892 0.010166487 0.002476137 -0.01048792 0.0047654407 0.002094373 0.010777106
-0.0069929236 -0.020059127 0.017662996 -0.03429974 -0.0019844389 0.031686734 0.025337853 0.0030370578
-0.0038802025 -0.002439299 0.010317139 0.0064539467 0.0109988265 0.0021416435 0.0104072485 -0.0038051764
-0.023086071 0.011795656 -0.0046013803 0.0019295098 -0.019755164 0.008499113 0.019247971 0.059687003
0.014768241 -0.007596522 0.02321752 0.006506091 -0.008438024 -0.011945872 -0.02834025 0.010842899
00000000: 281a 653b f663 143c 2464 3ebc e856 ce3c
00000010: 5bbd 46bc 3817 19bc 19a1 84bb b221 30bc
00000020: a518 843c bde5 acbc 9b58 9fbb d507 243b
00000030: b013 b43c 3df8 c73b c688 023d 223b 33bc
00000040: ba4f e1bc 47ed 873c 241e 993c a410 583a
00000050: f3fa 9c3b 468b 853c c35d a2bb e241 d63c
00000060: c230 da3b 3dfc 963c e793 20bc 3fe9 103d
00000070: 013e 443b 3e18 ab3b e586 f6bc 64fd 40bb
00000080: dee1 7b3c 4d4c 37bb 395f ae3c 7aac 213b
00000090: 5031 6abb 8367 dabc 6d76 553d c194 6a3c
000000a0: ee0e cfbc 8f4c 79bc c2a5 eabc 6084 b4bc
000000b0: e8e5 c83b 242e debc ccc6 533c ffad 223d
000000c0: 6122 1f3c 1173 003c 9cc1 373c 932b 073a
000000d0: 4a12 223d 2808 55b9 05ff 333c e683 563c
000000e0: 6a06 3b3c fdaf c63b 12cb 9f3b 4398 e1bc
000000f0: a39a acbc f0e0 c43c fe3d f8bc d243 87bc
00000100: 949d 283d dd07 6bbc ab0c babb d4ed 14bb
00000110: 57ec d93b ec33 31bc 143c 093c 0a48 7e3c
00000120: 0dea 713d 29e5 093c 447e 26bb 55ce eabc
00000130: 2e86 a73c 6ace 413b 9083 2f3c 230c 103d
00000140: 3348 0e3c 18d2 8ebc 5cd6 093d 8257 52bc
00000150: 071e aabc 9f2f 1cbc 4609 abbc ae12 763c
00000160: da3c 4ebc 8f3b 87bc 5691 263c af46 223b
00000170: 86d5 2bbc 6a27 9c3b c041 093b 7592 303c
00000180: e524 e5bb 0a53 a4bc fdb1 903c e27d 0cbd
00000190: 5c0d 02bb f3c9 013d 5491 cf3c 6009 473b
000001a0: ff4a 7ebb a5dc 1fbb 3809 293c a17b d33b
000001b0: 6c34 343c d15a 0c3b 2a83 2a3c 4460 79bb
000001c0: 001f bdbc 9142 413c 2dc7 96bb 9be7 fc3a
000001d0: 95d5 a1bc dd3f 0b3c ecad 9d3c 5c7a 743d
000001e0: 7ef6 713c 3fec f8bb ab32 be3c 0c31 d53b
000001f0: a33f 0abc 9eb8 43bc d029 e8bc 6aa6 313c

network_body._body_endoder.seq_layers.2.weight f4 [128, 128]
0.04033785 -0.0054135923 -0.14565556 -0.014016742 -0.06269763 -0.04031001 -0.08613071 -0.03145256
-0.077486046 -0.05839969 0.06223827 0.037395887 0.17197067 0.035816927 0.0898885 -0.08862363
-0.049883544 0.092226826 0.063489296 -0.06685493 -0.036034446 -0.05870088 -0.19287083 0.06833585
-0.1336341 0.08636784 -0.032711282 0.114249766 0.036402397 -0.07211567 -0.31832507 -0.06431927
0.06357762 -0.024366431 0.07716502 -0.13001798 -0.04701234 -0.04791396 -0.0063746204 -0.039594404
0.0151498215 0.05984024 -0.16575773 -0.04043922 -0.12252536 0.06393587 -0.05497978 -0.084305964
-0.17534296 -0.015404913 -0.087701134 0.07168079 0.105529405 -0.05936954 -0.06908037 0.16356349
0.08005506 -0.043305118 -0.04808738 -0.08768366 0.005236687 -0.053450387 -0.008258208 -0.05674313
-0.01570819 0.09036418 -0.0876801 -0.055256255 -0.0077826586 -0.18104833 0.17174035 0.081454
0.06953222 -0.03448053 0.03887596 -0.054281626 -0.07267953 -0.0030516551 -0.07617974 0.02702424
0.116731726 -0.12192312 0.15519005 0.13823518 -0.099331506 -0.04748352 -0.040709056 0.13341331
-0.009172503 -0.001425837 -0.08054369 -0.04859002 -0.00938578 0.007884064 0.10023558 0.24774258
0.18757963 0.008336712 -0.18623616 0.06549732 -0.17434545 0.115641095 0.01596826 -0.16363217
-0.09948384 0.02371784 0.024191393 -0.038881462 0.10975868 -0.10713903 0.017923864 0.039649904
-0.15318832 0.1616567 0.056998402 -0.19449377 0.012677554 -0.12432403 0.016987598 -0.04807942
-0.056503575 -0.044990566 0.038994193 -0.000832022 0.026143128 -0.03188986 0.19817008 0.03080663
-0.0009418859 0.06448959 0.14564122 0.08814396 0.06941014 0.0697611 -0.03780894 -0.05058146
-0.14276351 -0.03650072 0.0349272 0.12431508 0.045378905 0.011277935 0.08178322 0.047911573
-0.034911234 -0.02128506 0.046440702 -0.04604167 -0.124596454 -0.11637277 -0.16071902 0.0065313764
-0.053770784 0.0131653845 0.058920424 0.09015558 0.05105732 -0.060238153 -0.011348324 -0.018845465
-0.04957345 0.11301939 0.07615176 -0.17896423 -0.061467264 -0.074793 0.09398149 0.060616434
-0.031131703 -0.123546846 -0.11769805 0.09083506 -0.08921994 -0.07803351 0.08304115 0.14304672
0.06949685 -0.23981601 0.033205222 -0.04706776 -0.12535743 -0.027979763 0.118539326 -0.014123003
0.030399779 0.21800593 0.043839756 0.079894274 -0.0011031504 0.021505153 -0.1401281 -0.043632623
-0.0063183545 -0.10577068 0.08643195 -0.070433155 -0.09570043 -0.023330024 0.09467141 0.030739788
-0.08058524 -0.039735924 -0.15835711 0.07069927 -0.18248667 0.05420587 -0.08419941 0.12496697
0.00909001 -0.025261736 0.05685393 0.09812833 0.046026718 -0.056813277 -0.06761674 -0.055729583
-0.100107305 -0.015324189 -0.11895965 -0.14533111 -0.08170838 -0.08653455 0.08464634 -0.11596177
0.15181175 -0.10194645 -0.046943504 -0.05913433 0.16606502 -0.017058566 -0.03740733 -0.12609296
-0.08144031 0.033196185 0.022490993 0.18459915 0.007334531 0.0017675131 0.017596835 0.1578003
-0.04352696 -0.006725504 -0.004061358 -0.11887768 -0.00023704645 0.0034729678 -0.09824364 0.064713225
-0.018798273 -0.07638218 0.010260751 -0.009094232 -0.078629956 -0.0019333349 0.07711904 -0.003213983
00000000: 4d39 253d 8164 b1bb bb26 15be 7aa6 65bc
00000010: 9d67 80bd 1c1c 25bd 4c65 b0bd 66d4 00bd
00000020: 01b1 9ebd 8334 6fbd 8eed 7e3d 6e2c 193d
00000030: 1419 303e c5b4 123d 7617 b83d 4e80 b5bd
00000040: b052 4cbd 6be1 bc3d ad06 823d 3deb 88bd
00000050: db98 13bd 5570 70bd ee7f 45be abf3 8b3d
00000060: 61d7 08be 9fe1 b03d 44fc 05bd c8fb e93d
00000070: ae1a 153d 61b1 93bd 81fb a2be d2b9 83bd
00000080: fc34 823d 1c9c c7bc b208 9e3d 6f23 05be
00000090: 0390 40bd 6e41 44bd 31e2 d0bb be2d 22bd
000000a0: f536 783c 0a1b 753d 65bc 29be 98a3 25bd
000000b0: 93ee fabd cff0 823d 7a32 61bd 9ba8 acbd
000000c0: 1b8d 33be e364 7cbc a79c b3bd 61cd 923d
000000d0: cd1f d83d 7a2d 73bd 027a 8dbd 307d 273e
000000e0: e8f3 a33d b560 31bd 46f7 44bd 7e93 b3bd
000000f0: 8498 ab3b cbee 5abd 6f4d 07bc 7c6b 68bd
00000100: 76ae 80bc db10 b93d a091 b3bd 6254 62bd
00000110: ac05 ffbb bc64 39be b4dc 2f3e 5bd1 a63d
00000120: e966 8e3d 753b 0dbd 663c 1f3d 6956 5ebd
00000130: 01d9 94bd 47fe 47bb 2004 9cbd f061 dd3c
00000140: 0b11 ef3d d4b2 f9bd 24ea 1e3e 868d 0d3e
00000150: 516e cbbd 147e 42bd 8abe 26bd 809d 083e
00000160: 4448 16bc 27e3 baba 17f4 a4bd 5406 47bd
00000170: d1c6 19bc 292c 013c 5048 cd3d 3bb0 7d3e
00000180: e014 403e b496 083c b1b4 3ebe 7523 863d
00000190: 9d87 32be 3dd5 ec3d decf 823c 318f 27be
000001a0: 2fbe cbbd ea4b c23c 072d c63c 2b42 1fbd
000001b0: 29c9 e03d b56b dbbd 11d5 923c f067 223d
000001c0: 66dd 1cbe 5589 253e 2877 693d 6029 47be
000001d0: 84b5 4f3c 999d febd 9329 8b3c edee 44bd
000001e0: 4b70 67bd 0748 38bd 60b8 1f3d 0d1c 5aba
000001f0: 1d2a d63c f19e 02bd 19ed 4a3e 305e fc3c
00000200: e5e8 76ba 1e13 843d f922 153e d284 b43d
00000210: e726 8e3d e8de 8e3d 8cdd 1abd 812e 4fbd
00000220: 9930 12be c781 15bd d30f 0f3d e898 fe3d
00000230: 3bdf 393d 16c7 383c f67d a73d ed3e 443d
00000240: 15ff 0ebd 025e aebc 9b38 3e3d 3196 3cbd
00000250: 6d2c ffbd d954 eebd 8793 24be 2805 d63b
00000260: c13e 5cbd a0b3 573c 8b56 713d 7da3 b83d
00000270: 7b21 513d 48bc 76bd 52ee 39bc ce61 9abc
00000280: 880d 4bbd b676 e73d 74f5 9b3d 6642 37be
00000290: 19c5 7bbd 132d 99bd 5e79 c03d f048 783d
000002a0: ea07 ffbc 2106 fdbd ad0b f1bd bb07 ba3d
000002b0: f2b8 b6bd 08d0 9fbd 7a11 aa3d d77a 123e
000002c0: 5d54 8e3d 5492 75be 3302 083d 20ca 40bd
000002d0: b35d 00be d135 e5bc bfc4 f23d 2b64 67bc
000002e0: f508 f93c f23c 5f3e 5191 333d 9c9f a33d
000002f0: 9697 90ba 932b b03c be7d 0fbe 1fb8 32bd
00000300: 330a cfbb 4c9e d8bd 3c03 b13d 423f 90bd
00000310: 96fe c3bd 9b1e bfbc 16e3 c13d 02d2 fb3c
00000320: e009 a5bd 23c2 22bd 5e28 22be c7ca 903d
00000330: c9dd 3abe f906 5e3d be70 acbd afee ff3d
00000340: 44ee 143c b3f1 cebc abdf 683d 82f7 c83d
00000350: 8386 3c3d 0ab5 68bd a57a 8abd b444 64bd
00000360: 0f05 cdbd 4f12 7bbc 1ea1 f3bd aed1 14be
00000370: b956 a7bd 0739 b1bd 0f5b ad3d 5d7d edbd
00000380: 8a74 1b3e 4dc9 d0bd d547 40bd d736 72bd
00000390: f30c 2a3e 68be 8bbc 6e38 19bd 831e 01be
000003a0: 2dca a6bd b9f8 073d 083f b83c 8f07 3d3e
000003b0: 8156 f03b e6ab e73a 3d27 903c 6796 213e
000003c0: 5349 32bd 9e61 dcbb 2415 85bb 2476 f3bd
000003d0: ac8f 78b9 bb9a 633b f633 c9bd 5e88 843d
000003e0: d6fe 99bc 436e 9cbd b51c 283c f9ff 14bc
000003f0: be08 a1bd f467 fdba 96f0 9d3d b0a1 52bb

network_body._body_endoder.seq_layers.2.bias f4 [128]
0.0024820901 0.0013882949 0.0133142015 -0.015258191 -0.0105984835 -0.028719645 0.0030633102 -0.010106529
-0.013499417 0.0015019941 0.0042136586 -0.0006139812 -0.008652858 0.02261808 0.00065061764 0.009739462
0.012245644 0.014065116 -0.025466563 0.0065406663 0.0088641755 -0.028196264 0.014500915 -0.0052891085
0.0049447683 -0.0076523786 -0.003973057 -0.019938855 0.015936987 -0.013923232 0.013290611 -0.00057098066
0.00044607115 0.012649064 0.0034150728 -0.026846567 -0.016128507 -0.005885958 -0.005911379 0.0027379526
-0.015494756 0.006073072 -0.012573557 0.011888154 -0.017841475 -0.02195855 0.012898847 -0.029933508
-0.0025149402 0.012403084 0.007210011 -0.020427069 0.010605652 0.002763718 0.019802649 0.01075594
0.0051287417 -0.015479064 -0.02205327 -0.015597129 -0.022168154 -0.027441366 -0.01935573 0.016866412
-0.0059153093 -0.02246598 0.004386376 0.00084851036 0.012285625 -0.0001943509 -0.003550395 -0.025370972
0.002087374 -0.01484258 -0.0023674108 -0.024198316 0.0021543056 0.022238683 0.017700162 -0.024770511
0.02332732 0.01582631 0.016117575 0.020020483 0.004603532 0.013295014 -0.024370596 0.012558143
0.02042104 0.004453058 0.0071404567 -0.021094065 0.01507953 0.002145673 0.01090617 -0.020219356
0.00061640353 0.0066188155 0.010786566 -0.00059144886 0.00096100045 0.0047043622 -0.022379458 -0.003511396
-0.003790943 -0.024905788 -0.022030603 -0.0065037557 0.0066674924 0.014140482 0.01920711 -0.004835144
0.0063749957 0.024681382 0.000316231 -0.015207538 0.008612494 -0.02453894 0.0062278262 0.003689421
-0.007452301 -0.003312182 -0.0071413363 -0.015191804 -0.0037711114 -0.0019578426 0.0075422833 -0.006819848
00000000: 90aa 223b 72f7 b53a cf23 5a3c 7efd 79bc
00000010: 43a5 2dbc 7645 ebbc d1c1 483b db95 25bc
00000020: a92c 5dbc 8fde c43a bb12 8a3b 95f3 20ba
00000030: b8c4 0dbc 8d49 b93c 368e 2a3a 4492 1f3c
00000040: f4a1 483c 5f71 663c 419f d0bc 1653 d63b
00000050: 0c3b 113c dafb e6bc 3f95 6d3c 4250 adbb
00000060: b907 a23b cec0 fabb 6b30 82bb cf56 a3bc
00000070: 498e 823c 451e 64bc ddc0 593c ddad 15ba
00000080: a8de e939 053e 4f3c 6acf 5f3b 55ed dbbc
00000090: ee1f 84bc ffde c0bb 3eb4 c1bb 396f 333b
000000a0: b8dd 7dbc 9f00 c73b 5201 4ebc 88c6 423c
000000b0: 4928 92bc 6be2 b3bc b055 533c 1e37 f5bc
000000c0: b2d1 24bb 4e36 4b3c f541 ec3b ab56 a7bc
000000d0: 54c3 2d3c 7e1f 353b 2a39 a23c af39 303c
000000e0: 010f a83b e69b 7dbc 0fa9 b4bc 1a8b 7fbc
000000f0: fd99 b5bc b7cc e0bc e88f 9ebc 6e2b 8a3c
00000100: 36d5 c1bb 930a b8bc 97bb 8f3b 916e 5e3a
00000110: a549 493c acca 4bb9 bead 68bb c9d6 cfbc
00000120: 53cc 083b 4b2e 73bc 9026 1bbb 8c3b c6bc
00000130: 402f 0d3b e62d b63c eeff 903c 87eb cabc
00000140: f018 bf3c 2da6 813c 0109 843c ff01 a43c
00000150: 3ad9 963b 55d3 593c d8a4 c7bc abc0 4d3c
00000160: 064a a73c f5ea 913b 7efa e93b 76cd acbc
00000170: 2210 773c 6b9e 0c3b cbaf 323c 10a3 a5bc
00000180: 2496 213a a6e2 d83b 23ba 303c 760b 1bba
00000190: a6eb 7b3a 0d27 9a3b 2055 b7bc 731f 66bb
000001a0: 7871 78bb 3907 ccbc 8679 b4bc 751d d5bb
000001b0: fb7a da3b 7bad 673c 3b58 9d3c 2170 9ebb
000001c0: 57e5 d03b 9c30 ca3c cecb a539 0a29 79bc
000001d0: 6b1b 0d3c e305 c9bc cb12 cc3b 37ca 713b
000001e0: 6f32 f4bb 3111 59bb df01 eabb 0be7 78bc
000001f0: c024 77bb 264f 00bb 4225 f73b 0879 dfbb

action_model._discrete_distribution.branches.0.weight f4 [7, 128]
-0.012602978 -0.011635322 -0.0050112116 0.001274838 -0.0032661285 0.0063897963 0.004373956 0.009297956
0.014710404 0.0043050842 0.0055788923 0.01226164 -0.00013150527 -0.02382069 -0.0007342133 0.0014751935
-0.014529764 0.0042877193 -0.004380099 -0.007879735 -0.014997536 0.0030995498 0.00088224 0.0073015643
0.003573046 0.008030432 0.0049464568 0.011444139 0.0009791051 -0.008495664 -0.022080041 0.003722281
0.008286399 0.0057228203 -0.0077651716 -0.006149935 0.0033049574 0.038439248 -0.0020424132 -0.010255015
0.0042813253 0.004259893 0.010938927 -0.007489195 0.0077473177 -0.017971838 -0.007820466 -0.007945374
0.014159134 -0.0060702045 -0.003347182 -0.003009772 -0.010905129 0.007451173 0.0068103536 0.0063724713
0.016300643 0.018353306 0.024412489 -0.001590847 0.011719925 0.008984228 0.011293407 -0.025887128
0.0029198164 0.0064169327 -0.0021532131 -0.007558065 -0.0020800715 0.006271833 -0.0030787745 0.016457144
-0.0025602332 0.0011169731 -0.009088783 -0.0009085066 0.0016249411 -0.004766139 -0.0047723074 0.0002693575
0.007979593 0.01479153 -0.013311543 -0.028378895 0.012025912 -0.015992034 0.0121343555 -0.008183027
-0.0074202 0.0073112203 0.007216628 -0.009134315 0.0064211204 -0.0062095704 0.017202515 -0.0014344207
-0.004696135 -0.009325529 0.0015854437 0.013428006 -0.007064583 -0.009622242 0.010290137 0.010356044
0.008719432 -0.009630191 0.01656393 0.004978741 0.008485898 -0.0028611815 -0.0012411376 -0.008241778
-0.011897865 -0.0027922373 -0.0009400441 0.00893692 -0.006184322 0.019802278 0.0060007074 0.009046791
0.0014310807 0.011568206 -0.00012573235 0.017126843 0.0171602 0.00964959 0.009220166 0.0021453982
-0.0020103946 0.00819674 -0.018881755 0.021740347 0.007124217 0.028935626 -0.012901784 0.026552735
0.037217807 -0.008185887 0.00589662 0.030394431 0.02192266 -0.0432063 -0.0031209982 -0.029631484
-0.0054312022 -0.021276698 0.011250009 -0.019116059 -0.006547953 0.017052902 -0.016128022 0.031199161
-0.0066058408 0.025398724 0.055481713 0.021472665 -0.018639091 0.026693858 -0.027504997 0.0011069692
0.0116682965 -0.010986956 0.0022769244 0.030891737 0.013254442 0.011392459 0.005796338 -0.008267162
0.0047947825 -0.0015017171 0.013062799 -0.019753218 0.044674747 0.036907516 -0.011072088 0.020913659
0.04004122 -0.013834914 -0.004829557 0.02264776 -0.0020605198 -0.021477444 0.015046279 -0.013661009
0.011175759 0.037272803 0.04392741 0.027700163 0.045582905 0.032579977 0.049630594 -0.008453819
-0.00077105226 0.02690834 -0.010770056 -0.012416016 -0.0018252751 0.011992154 0.00021015026 0.028315376
0.025861721 0.039012197 0.00574186 0.022347063 -0.026468959 -0.023895524 -0.033964273 0.023188705
8.229246e-05 0.03396853 0.0140264435 -0.017773284 -0.008500828 -0.015846599 0.02619174 -0.024040965
-0.046923045 -0.008417717 -0.018835284 0.040399794 -0.023196802 -0.001994575 0.0137536 0.030721957
0.013250451 -0.007357553 -0.011469683 -0.00300138 -0.00641624 0.0038687498 0.033855923 0.008010444
-0.0070439694 0.017560517 0.046745196 -0.009008695 -0.013834634 -0.024453485 -0.031999916 0.0074223513
-0.0024949454 -0.026506636 0.0030954832 0.033102125 -0.018269358 0.030000083 0.0032589342 -0.019762274
0.04048274 0.034060627 -0.0043869633 0.036010806 -0.008411825 -9.301836e-05 0.046926368 0.03311961
00000000: b97c 4ebc 14a2 3ebc 1735 a4bb 7718 a73a
00000010: 8b0c 56bb 7f61 d13b 6753 8f3b 7456 183c
00000020: e803 713c aa11 8d3b 24cf b63b 0ce5 483c
00000030: ade4 09b9 9c23 c3bc 3878 40ba 485b c13a
00000040: 3f0e 6ebc ff7f 8c3b ef86 8fbb 011a 01bc
00000050: 3ab8 75bc d121 4b3b 2046 673a f641 ef3b
00000060: c429 6a3b 1392 033c e315 a23b 3380 3b3c
00000070: 5155 803a 6631 0bbc 34e1 b4bc 83f1 733b
00000080: adc3 073c 7f86 bb3b fb72 febb 6585 c9bb
00000090: fc97 583b 7972 1d3d 02da 05bb a704 28bc
000000a0: 5c4a 8c3b 9396 8b3b 2f39 333c ec67 f5bb
000000b0: 36dd fd3b ad39 93bc 6921 00bc 502d 02bc
000000c0: b6fb 673c 91e8 c6bb 655c 5bbb 983f 45bb
000000d0: 6dab 32bc f828 f43b 6329 df3b 2ad0 d03b
000000e0: ed88 853c ac59 963c b3fc c73c f883 d0ba
000000f0: ee04 403c 9532 133c fb07 393c 3e11 d4bc
00000100: 645a 3f3b 2245 d23b ec1c 0dbb a5a9 f7bb
00000110: cf51 08bb f383 cd3b 44c5 49bb 22d1 863c
00000120: 96c9 27bb 6667 923a 1ee9 14bc d928 6eba
00000130: fafb d43a 462d 9cbb 0461 9cbb 8d38 8d39
00000140: d7bc 023c 2c58 723c a818 5abc db7a e8bc
00000150: 5508 453c ba01 83bc 2dcf 463c 1a12 06bc
00000160: 2625 f3bb f692 ef3b 7779 ec3b 18a8 15bc
00000170: 4368 d23b a779 cbbb 4aec 8c3c 2c03 bcba
00000180: 09e2 99bb 1bca 18bc aace cf3a 2401 5c3c
00000190: 047e e7bb 9ca6 1dbc f697 283c 66ac 293c
000001a0: f3db 0e3c f3c7 1dbc 14b1 873c b524 a33b
000001b0: 7008 0b3c a982 3bbb abad a2ba 8608 07bc
000001c0: 43ef 42bc f8fd 36bb 4b6d 76ba 296c 123c
000001d0: daa5 cabb 6338 a23c 95a1 c43b fe38 143c
000001e0: 1a93 bb3a 9388 3d3c 05d7 03b9 984d 8c3c
000001f0: 8c93 8c3c 5019 1e3c 2e10 173c cf99 0c3b
00000200: d3c0 03bb 9f4b 063c e9ad 9abc d018 b23c
00000210: 4472 e93b 680a ed3c 0162 53bc 1f85 d93c
00000220: b371 183d 191e 06bc 6f38 c13b befd f83c
00000230: 2697 b33c 17f9 30bd a989 4cbb babd f2bc
00000240: 3af8 b1bb 784c aebc f551 383c 4899 9cbc
00000250: 3690 d6bb 87b2 8b3c ea1e 84bc 6295 ff3c
00000260: cf75 d8bb fc10 d03c cb40 633d 71e7 af3c
00000270: 02b1 98bc 14ad da3c 2952 e1bc b917 913a
00000280: 622c 3f3c a202 34bc 7438 153b ab10 fd3c
00000290: 2929 593c 70a7 3a3c 35ef bd3b fe72 07bc
000002a0: 8d1d 9d3b 44d5 c4ba 5a05 563c 80d1 a1bc
000002b0: defc 363d 562c 173d b467 35bc 1f53 ab3c
000002c0: 4302 243d d6ab 62bc 4341 9ebb cc87 b93c
000002d0: c909 07bb 77f1 afbc ab84 763c 6dd2 5fbc
000002e0: 881a 373c 5eab 183d 3aed 333d 74eb e23c
000002f0: 24b5 3a3d 9572 053d 7349 4b3d e381 0abc
00000300: 7120 4aba e16e dc3c e474 30bc 8c6c 4bbc
00000310: 123e efba bd7a 443c c85b 5c39 a6f5 e73c
00000320: f6db d33c 41cb 1f3d 3626 bc3b 3011 b73c
00000330: 6ed5 d8bc 8cc0 c3bc 1f1e 0bbd 3df6 bd3c
00000340: 6e94 ac38 9622 0b3d 2bcf 653c 4799 91bc
00000350: 0f47 0bbc bad0 81bc 0f90 d63c 8ff1 c4bc
00000360: 6132 40bd 77ea 09bc 744c 9abc 417a 253d
00000370: 3807 bebc 6ab7 02bb c856 613c 9dac fb3c
00000380: 6b18 593c a117 f1bb 56eb 3bbc cdb2 44bb
00000390: 523f d2bb da8a 7d3b 82ac 0a3d 3d3e 033c
000003a0: 19d1 e6bb 13db 8f3c e477 3f3d 3599 13bc
000003b0: a9aa 62bc ad52 c8bc 5812 03bd 3237 f33b
000003c0: 3d82 23bb 7224 d9bc 97dd 4a3b 1896 073d
000003d0: 9fa9 95bc bcc2 f53c d893 553b 7ee4 a1bc
000003e0: 3bd1 253d 2883 0b3d 84c0 8fbb 1180 133d
000003f0: c0d1 09bc da12 c3b8 dd35 403d 6ea8 073d

action_model._discrete_distribution.branches.0.bias f4 [7]
-0.009377593 -0.026837306 0.009382026 0.0067319553 -0.0008854614 0.0080516925 -1.3653771e-05
00000000: 7aa4 19bc e9d9 dbbc 12b7 193c bc97 dc3b
00000010: 4f1e 68ba 3feb 033c 8012 65b7
