CCP-main/results/test001/WeightAgent_Training/checkpoint.pt (torch, 926564 bytes, 33 tensors)

network_body._body_endoder.seq_layers.0.weight f4 [128, 163]
0.033108916 0.07186398 -0.0299499 -0.055202633 0.002303581 0.12372413 0.056873273 -0.07365192
0.050333485 -0.08897033 0.06371882 0.065583125 0.03222949 -0.081211865 -0.12739009 0.102421395
-0.12886663 0.046754744 0.05286475 -0.014501743 -0.04194199 -0.055669457 -0.04855374 -0.007307771
-0.020621482 -0.12432543 0.016271403 0.08415231 0.01112207 -0.13854356 0.11423418 0.020455172
0.032173246 0.011290514 -0.08567194 0.06380863 -0.082388006 -0.011400358 0.14650823 -0.05673398
-0.036515802 0.025539659 -0.02269919 0.043549914 0.16727345 -0.042191938 -0.13573891 0.10114288
0.03333229 -0.023005256 0.04562957 0.12347578 -0.10186823 0.10111634 -0.049599353 -0.07143049
0.10792803 -0.049199358 0.0050469837 -0.17241721 0.06701937 0.0083312765 0.07075173 -0.08588507
0.0020826205 0.06522805 0.030856462 0.10254033 -0.10399103 -0.05429846 0.023540273 0.059740633
0.08205336 -0.021605939 -0.21076581 -0.07593787 0.03258235 -0.0018011368 -0.12480701 0.037687007
0.06797763 -0.01116732 -0.01941021 -0.042465974 -0.007685816 0.011376879 0.02739029 0.059058096
-0.006837312 -0.06411171 0.101039276 0.13224769 0.016098993 -0.102480836 -0.106253244 -0.05760263
-0.1530007 0.009769492 0.13423675 0.06488841 0.08193592 0.13711026 -0.06377199 0.059555255
0.06566636 0.00793315 -0.057145108 -0.040459048 0.05262212 -0.08922514 -0.17060147 -0.00086371764
0.10848938 0.0055662123 -0.06974307 0.023352718 0.078287 -0.003409208 -0.030388935 -0.025986264
-0.05326601 -0.06694302 0.08820901 0.009836525 0.019470468 -0.072983496 -0.15938413 0.04051624
0.07063964 -0.025233766 -0.020850658 -0.11729849 0.040724862 -0.113341995 0.090080336 0.07507002
0.06595315 -0.06743605 0.016279187 -0.0057740696 -0.017222583 0.115319155 -0.025476187 -0.001191094
-0.028691253 0.10009087 -0.090348914 -0.084278174 -0.06333013 -0.034095045 0.074802555 0.06152581
0.048633702 -0.13783306 -0.20956276 -0.053065713 -0.041622113 0.27207732 -0.10784288 0.030463602
-0.0011454449 0.057903435 -0.11199976 0.095759325 -0.04254908 0.08239217 0.031539638 0.02287622
0.0860331 -0.050056163 0.042757213 0.0026334994 -0.12372675 -0.038334996 -0.13471882 0.072923765
0.070400134 0.016823487 0.0026965728 -0.14879364 -0.044526394 -0.06427331 0.10804646 0.16247758
0.16419208 0.030759746 0.19188915 -0.09189079 0.10006648 0.065417066 0.050290585 -0.029949743
0.07932342 0.022688735 -0.006368914 -0.06446855 -0.04069083 -0.0060667945 0.10271092 -0.03924051
-0.09696168 0.14148335 -0.13088731 0.05684276 -0.008960589 -0.13239186 -0.005768868 -0.0018499532
0.078957774 -0.14376737 0.0033914002 0.056645416 -0.033895135 -0.015017223 0.026850311 -0.0341852
-0.021667048 0.03335512 0.041968673 -0.0012431407 0.07348471 0.0015514817 0.030184604 0.011977824
0.018524475 0.16950195 -0.017693337 0.14567147 0.09058668 -0.057237167 -0.053400833 0.11086223
0.06725395 -0.023226436 0.07047698 0.039654117 -0.012192112 0.14993998 -0.099068485 0.12863973
0.11539415 0.08410505 0.1327578 0.088966034 0.009191958 -0.038095597 0.0509101 0.094972506
-0.11780485 0.0774646 0.027962118 0.029915165 0.021310467 0.15620011 0.11007971 0.12007908
00000000: 379d 073d 6c2d 933d 7e59 f5bc 281c 62bd
00000010: adf7 163b 1463 fd3d f3f3 683d d1d6 96bd
00000020: 7c2a 4e3d 1436 b6bd 037f 823d 7250 863d
00000030: 1203 043d 6852 a6bd 8c72 02be 4fc2 d13d
00000040: 9df5 03be e781 3f3d b588 583d b898 6dbc
00000050: 5dcb 2bbd a805 64bd 49e0 46bd 0776 efbb
00000060: 62ee a8bc 559e febd 9b4b 853c 0c58 ac3d
00000070: 5839 363c 5dde 0dbe 9cf3 e93d 9b91 a73c
00000080: 18c8 033d d9fb 383c c574 afbd 19ae 823d
00000090: 0bbb a8bd 91c8 3abc 4106 163e e461 68bd
000000a0: 9891 15bd 8c38 d13c a7f3 b9bc 6561 323d
000000b0: bb49 2b3e 74d1 2cbd 24ff 0abe 0024 cf3d
000000c0: 7087 083d 8575 bcbc 12e6 3a3d dfe0 fc3d
000000d0: 4aa0 d0bd 1516 cf3d b128 4bbd 264a 92bd
000000e0: 5f09 dd3d 4485 49bd 2b61 a53b 238e 30be
000000f0: 7441 893d e87f 083c 48e6 903d 83e4 afbd
00000100: 937c 083b 4996 853d b1c6 fc3c aa00 d23d
00000110: 40f9 d4bd 1068 5ebd 88d7 c03c 98b2 743d
00000120: 980b a83d f0fe b0bc fed2 57be 5085 9bbd
00000130: 1275 053d 1f14 ecba d19a ffbd b15d 1a3d
00000140: db37 8b3d 23f7 36bc 2902 9fbc cdf0 2dbd
00000150: 4cd9 fbbb 1766 3a3c 9a61 e03c e7e6 713d
00000160: 880b e0bb 004d 83bd aeed ce3d f06b 073e
00000170: 09e2 833c 79e1 d1bd 4d9b d9bd bcf0 6bbd
00000180: 37ac 1cbe 3810 203c 5c75 093e 37e4 843d
00000190: 05ce a73d a266 0c3e e49a 82bd 36f0 733d
000001a0: 167c 863d 0bfa 013c fd10 6abd 63b8 25bd
000001b0: 4b8a 573d acbb b6bd 27b2 2ebe 1c6b 62ba
000001c0: ae2f de3d c664 b63b 74d5 8ebd 334e bf3c
000001d0: ef54 a03d 056d 5fbb 37f2 f8bc 25e1 d4bc
000001e0: 762d 5abd 6c19 89bd eda6 b43d 6029 213c
000001f0: 8880 9f3c 5f78 95bd 9835 23be 5bf4 253d
00000200: 84ab 903d 0bb7 cebc 00cf aabc 313a f0bd
00000210: 1dcf 263d d91f e8bd 0a7c b83d 50be 993d
00000220: 7212 873d e91b 8abd ee5b 853c 6834 bdbb
00000230: 6016 8dbc 732c ec3d 70b3 d0bc 7c1e 9cba
00000240: eb09 ebbc 71fc cc3d da08 b9bd 099a acbd
00000250: 3ab3 81bd 3fa7 0bbd 1532 993d 7d02 7c3d
00000260: 2234 473d 1c24 0dbe 9f97 56be 6f5b 59bd
00000270: f37b 2abd b84d 8b3e badc dcbd ce8e f93c
00000280: c122 96ba 272c 6d3d 2160 e5bd 771d c43d
00000290: f247 2ebd 3abd a83d b52f 013d e966 bb3c
000002a0: 1f32 b03d b107 4dbd 3022 2f3d ca96 2c3b
000002b0: 7364 fdbd 2805 1dbd bbf3 09be 0e59 953d
000002c0: f22d 903d 69d1 893c fcb8 303b 5c5d 18be
000002d0: 4f61 36bd baa1 83bd 7647 dd3d 8660 263e
000002e0: f821 283e ddfb fb3c 977e 443e 3d31 bcbd
000002f0: a8ef cc3d 62f9 853d 80fd 4d3d 2a59 f5bc
00000300: 5174 a23d badd b93c 53b2 d0bb 1608 84bd
00000310: 6eab 26bd f6cb c6bb 1a5a d23d a8ba 20bd
00000320: d893 c6bd 03e1 103e 5307 06be f4d3 683d
00000330: 6fcf 12bc bb91 07be c608 bdbb 217a f2ba
00000340: 9db4 a13d c137 13be 4142 5e3b 0605 683d
00000350: a0d5 0abd cc0a 76bc 2ff5 db3c c805 0cbd
00000360: 187f b1bc 619f 083d 58e7 2b3d e1f0 a2ba
00000370: 277f 963d 165b cb3a b445 f73c a33e 443c
00000380: a4c0 973c eb91 2d3e 9ef1 90bc e72a 153e
00000390: 8285 b93d 8571 6abd d5ba 5abd bd0b e33d
000003a0: 70bc 893d 5e45 bebc 3c56 903d 5b6c 223d
000003b0: 6dc1 47bc de89 193e 6be4 cabd 22ba 033e
000003c0: c553 ec3d 453f ac3d a9f1 073e d333 b63d
000003d0: de99 163c 210a 1cbd 1c87 503d f280 c23d
000003e0: ab43 f1bd c3a5 9e3d d010 e53c a610 f53c
000003f0: 4a93 ae3c ecf2 1f3e 7971 e13d 05ec f53d

network_body._body_endoder.seq_layers.0.bias f4 [128]
-0.012196016 0.03963879 0.009752934 0.0024809598 0.014018529 -0.029119777 0.0126900105 0.0058998605
0.014109098 0.00026556995 0.020218445 -0.00422604 0.043546226 -0.010880848 0.03584369 -0.0014529377
-0.0076505253 0.01449738 -0.008751915 0.0037173268 -3.6092817e-05 -0.0054383683 0.04595572 0.019754823
0.027624305 -0.006488637 0.007028827 -0.0076119816 0.0030501753 -0.0008755977 0.0030225695 0.008241054
-0.0043683895 -0.018555835 0.0021810522 0.008669706 0.054639984 0.0031934576 -0.017813275 -0.015311822
0.03884814 0.00893826 0.022411253 0.008839891 -0.0029080927 0.0083269365 -0.008341264 0.047969583
-0.0050786673 0.0058891643 -0.0068423306 0.0009336646 -0.004747076 -0.0032613638 -0.013548914 0.035613768
-0.0030625146 -0.0013171065 0.020061178 0.0074764234 -0.014871561 0.015208801 0.0039780815 0.021318048
-0.012158453 0.0040493207 -0.0049076597 -8.65435e-05 0.0044056973 0.0045266654 0.0063484586 0.042402767
-0.024880098 0.0028244767 -0.0012701657 0.032839175 0.047278117 -0.0022201836 -0.013495703 0.023549918
-0.026937231 0.009143198 0.006205236 0.0046686386 -0.002714913 0.019923395 -0.014136964 -0.00010195657
-0.01082015 0.005794128 0.016908206 -0.018357154 0.0076326244 0.006121619 -0.021000586 -0.010126544
-0.0016088046 -0.006696117 0.00014612827 0.015545868 0.014732328 0.0077448464 0.035262365 0.025383187
-0.0010925158 0.023863962 -0.021233393 0.009903758 -5.4206845e-05 -0.00068000593 -0.023375088 0.047679458
0.007080799 0.011830189 0.004045272 -0.015893605 -0.0056060283 -0.00242614 -0.023727212 0.005096333
-0.017836597 -0.0058724717 3.756707e-05 -0.01303088 0.0069013406 -0.005647829 0.0051243873 -0.0009150065
00000000: ccd1 47bc 495c 223d c5ca 1f3c 9997 223b
00000010: f9ad 653c 998c eebc c3e9 4f3c 9e53 c13b
00000020: d929 673c 323c 8b39 27a1 a53c 987a 8abb
00000030: 875d 323d 9645 32bc d5d0 123d 8070 beba
00000040: 42b1 fabb 6b86 6d3c 3164 0fbc 659e 733b
00000050: 5e62 17b8 5734 b2bb 113c 3c3d ded4 a13c
00000060: 5e4c e23c a29e d4bb 1352 e63b ee6d f9bb
00000070: 73e5 473b 5e88 65ba 4d16 463b 7c05 073c
00000080: b524 8fbb 6802 98bc fcef 0e3b 620b 0e3c
00000090: 2dce 5f3d 5449 513b 25ed 91bc 70de 7abc
000000a0: 3a1f 1f3d c871 123c ce97 b73c 31d5 103c
000000b0: b395 3ebb b46d 083c cca9 08bc c17b 443d
000000c0: f36a a6bb e4f9 c03b a135 e0bb 2cc1 743a
000000d0: 5c8d 9bbb 9bbc 55bb 44fc 5dbc bedf 113d
000000e0: 78b4 48bb c3a2 acba 5757 a43c c9fc f43b
000000f0: d9a7 73bc 562e 793c 915a 823b 30a3 ae3c
00000100: 4034 47bc 2ab0 843b 6fd0 a0bb b07e b5b8
00000110: ab5d 903b 6c54 943b bb06 d03b 86ae 2d3d
00000120: 59d1 cbbc db1a 393b b07b a6ba 5f82 063d
00000130: b3a6 413d 8080 11bb 151d 5dbc c2eb c03c
00000140: 78ab dcbc 5acd 153c 4b55 cb3b 61fb 983b
00000150: afec 31bb 6336 a33c ba9e 67bc 84d1 d5b8
00000160: 0047 31bc abdc bd3b 1483 8a3c be61 96bc
00000170: 181b fa3b dd97 c83b 6c09 acbc cee9 25bc
00000180: 86de d2ba 1a6b dbbb 023a 1939 19b4 7e3c
00000190: dd5f 713c 7bc8 fd3b 456f 103d 67f0 cf3c
000001a0: bf32 8fba 5b7e c33c a7f1 adbc 5f43 223c
000001b0: 285c 63b8 6d42 32ba 1d7d bfbc 894b 433d
000001c0: 0c06 e83b 69d3 413c 338e 843b 4e33 82bc
000001d0: c6b2 b7bb e0ff 1ebb 925f c2bc 24ff a63b
000001e0: 0e1e 92bc dd6d c0bb 5691 1d38 797f 55bc
000001f0: a424 e23b 6c11 b9bb 7aea a73b 0cdd 6fba

network_body._body_endoder.seq_layers.2.weight f4 [128, 128]
-0.16084291 0.114090204 0.08455856 -0.08821459 0.014573159 -0.046277396 -0.048098724 -0.0815954
0.07982353 -0.02632178 -0.17341942 -0.1139907 -0.12805818 0.0032687697 0.060322575 -0.285409
0.038945228 0.07670046 0.03262079 0.037944887 -0.098791264 -0.041866034 -0.14844458 -0.087778345
-0.13972674 0.048989028 0.06328061 0.045111027 -0.04540576 0.093764745 0.06265834 -0.055265393
-0.0966923 -0.14176783 -0.06373177 -0.07845133 -0.12792578 -0.023973694 -0.088161565 0.03377543
-0.030409701 0.03238303 0.1228629 -0.039198756 -0.03297781 0.021515459 -0.028088007 -0.14143696
0.03208926 -0.088729285 -0.09205071 0.17460917 0.028016483 -0.10532656 0.093326814 -0.04411084
-0.15320674 0.15632677 -0.052120283 0.13470449 -0.06452369 0.03632511 -0.15412584 0.13280138
-0.022878548 0.13631243 0.08880349 0.033664946 -0.11598026 -0.061621822 -0.06400816 0.07591189
0.10697829 0.015984312 -0.11163555 0.030441936 0.07935922 0.020699894 0.039270755 0.051778335
-0.021772258 0.0463063 -0.12623262 0.061405845 0.07362007 -0.122260615 -0.060033493 0.086533815
-0.11386326 -0.07255941 0.1418604 0.18128936 0.02208938 0.04415543 -0.035106625 0.025047796
-0.13583384 -0.084723316 -0.17632312 -0.06615303 0.13152371 -0.076116234 0.015195224 0.056977842
0.0823599 0.009218862 -0.11444111 0.15687741 -0.0094158035 0.12983176 0.07762739 0.0056917826
0.043499645 -0.054241553 0.044710502 -0.089195274 -0.05834727 0.12475184 -0.06879715 0.028604286
-0.038702786 0.22169906 0.033836782 0.021523401 0.16088748 0.03185953 0.06342845 -0.11701589
-0.06586512 0.010919149 -0.011413323 -0.009658233 -0.081368245 0.013176732 0.008315266 -0.11520237
-0.05706845 0.074106865 0.022743408 0.062312156 0.08973719 -0.056996915 0.09135992 -0.10588793
-0.027334316 -0.10304305 -0.012129654 -0.035450496 -0.06227576 0.14880794 -0.023489239 0.18574387
-0.30607325 -0.008639431 0.039499678 0.048233528 -0.16011609 -0.11739365 -0.020510707 -0.10446171
0.015274323 -0.054913264 0.074352704 -0.030888123 0.089905225 -0.033491924 0.020923259 -0.024756204
0.13401577 0.03986482 -0.12927532 0.12253294 -0.12648799 -0.11973741 0.020258352 0.025687754
0.016914459 0.060382403 -0.090557985 0.073295385 -0.07429128 -0.062024053 -0.03621953 0.041937932
0.020829907 0.06195415 0.22990175 0.08785999 -0.060078043 -0.027628064 0.1329258 -0.019316494
-0.14684175 -0.11190427 0.01781446 0.03913421 -0.10597092 0.09646539 -0.21625917 0.026558995
-0.06319333 0.043907348 -0.113749765 -0.033688083 -0.036558747 0.0915151 0.035827905 -0.098858126
-0.11954438 0.10567967 0.045021158 0.0020912522 0.08592036 0.0022602477 -0.01647556 0.1265807
0.028276185 -0.025920952 0.14998572 -0.08738344 0.054309893 -0.05489685 -0.048537593 0.030600075
-0.064923406 -0.0581007 -0.23440653 -0.0895546 -0.108308844 -0.09345674 0.0098606935 -0.06343117
-0.12751801 0.02503771 0.05828881 0.05090494 0.021782465 -0.05405059 -0.028886627 0.11711537
0.045293584 0.024502674 0.042438596 0.031121392 -0.034033105 0.046230387 0.02940182 0.037924472
-0.070274 -0.10430382 -0.048404764 -0.08623022 -0.05172025 -0.1624442 -0.06957112 0.0013761732
00000000: 01b4 24be 20a8 e93d 0a2d ad3d daa9 b4bd
00000010: 42c4 6e3c 5e8d 3dbd 2b03 45bd 7d1b a7bd
00000020: 857a a33d c6a0 d7bc dc94 31be f573 e9bd
00000030: af21 03be db38 563b ce14 773d 2121 92be
00000040: 0885 1f3d 2115 9d3d 619d 053d 196c 1b3d
00000050: 1353 cabd b87b 2bbd db01 18be 22c5 b3bd
00000060: 8714 0fbe b8a8 483d 4499 813d 57c6 383d
00000070: 64fb 39bd bb07 c03d 0453 803d f75d 62bd
00000080: 9d06 c6bd 962b 11be cd85 82bd 17ab a0bd
00000090: fafe 02be 7b64 c4bc 0d8e b4bd 1b58 0a3d
000000a0: c41d f9bc 11a4 043d 8b9f fb3d e08e 20bd
000000b0: bd13 07bd 3041 b03c d218 e6bc dad4 10be
000000c0: 0770 033d b3b7 b5bd 1585 bcbd bfcc 323e
000000d0: d382 e53c 74b5 d7bd 2122 bf3d 91ad 34bd
000000e0: 3ae2 1cbe 2014 203e 147c 55bd f9ef 093e
000000f0: ff24 84bd a3c9 143d 2ad3 1dbe 16fd 073e
00000100: cb6b bbbc 7c95 0b3e 9bde b53d 41e4 093d
00000110: 0f87 edbd 2a67 7cbd b616 83bd b177 9b3d
00000120: 6f17 db3d 88f1 823c 2ea1 e4bd 5e61 f93c
00000130: 1687 a23d d392 a93c 5fda 203d 8515 543d
00000140: bc5b b2bc adab 3d3d 2043 01be b284 7b3d
00000150: 1fc6 963d c663 fabd aee5 75bd a438 b13d
00000160: 2431 e9bd 079a 94bd da43 113e eba3 393e
00000170: caf4 b43c 53dc 343d f7cb 0fbd 0931 cd3c
00000180: 0718 0bbe 6b83 adbd 0c8e 34be 3d7b 87bd
00000190: 27ae 063e d4e2 9bbd 64f5 783c 9961 693d
000001a0: 4fac a83d b60a 173c 1a60 eabd 79a4 203e
000001b0: be44 1abc 9ef2 043e 1cfb 9e3d 2282 ba3b
000001c0: af2c 323d 642c 5ebd 5c22 373d 03ac b6bd
000001d0: 8cfd 6ebd e57d ff3d 85e5 8cbd 8953 ea3c
000001e0: d086 1ebd 1405 633e 7098 0a3d d851 b03c
000001f0: b0bf 243e 237f 023d c6e6 813d 07a6 efbd
00000200: 4be4 86bd 3be6 323c f2fe 3abc 913d 1ebc
00000210: 65a4 a6bd 38e3 573c c13c 083c 38ef ebbd
00000220: 9bc0 69bd 57c5 973d 6250 ba3c 083b 7f3d
00000230: 22c8 b73d 9975 69bd e91a bb3d c5db d8bd
00000240: 37ec dfbc 3c08 d3bd 75bb 46bc 8a34 11bd
00000250: de14 7fbd 1c61 183e 816c c0bc a433 3e3e
00000260: a2b5 9cbe 668c 0dbc 6aca 213d 8590 453d
00000270: 79f5 23be 156c f0bd 1206 a8bc 05f0 d5bd
00000280: 2741 7a3c bbec 60bd 3b46 983d 1709 fdbc
00000290: 3b20 b83d d42e 09bd 4167 ab3c 86cd cabc
000002a0: 6e3b 093e 4b49 233d c060 04be 8df2 fa3d
000002b0: 1186 01be e338 f5bd d8f4 a53c 206f d23c
000002c0: 3190 8a3c 8a53 773d 7776 b9bd e41b 963d
000002d0: 0726 98bd ef0c 7ebd ee5a 14bd 1cc7 2b3d
000002e0: 7ba3 aa3c a3c3 7d3d 5d6b 6b3e f0ef b33d
000002f0: 6514 76bd 4054 e2bc b31d 083e a03d 9ebc
00000300: af5d 16be 112e e5bd a1ef 913c 324b 203d
00000310: 4807 d9bd a58f c53d 0b73 5dbe 4092 d93c
00000320: 816b 81bd 31d8 333d a3f5 e8bd 84fc 09bd
00000330: a0be 15bd 456c bb3d 48c0 123d 2176 cabd
00000340: afd3 f4bd 956e d83d 1b68 383d 640d 093b
00000350: 04f7 af3d aa20 143b c1f7 86bc 5f9e 013e
00000360: 75a3 e73c 2d58 d4bc db95 193e 17f6 b2bd
00000370: 0d74 5e3d 85db 60bd 5bcf 46bd 02ad fa3c
00000380: 90f6 84bd 00fb 6dbd 4408 70be 6768 b7bd
00000390: 07d1 ddbd 3f66 bfbd bf8e 213c 34e8 81bd
000003a0: 1594 02be e21b cd3c 3fc0 6e3d b381 503d
000003b0: 2471 b23c 2764 5dbd a6a3 ecbc 2fda ef3d
000003c0: c485 393d d5b9 c83c 18d4 2d3d 4af2 fe3c
000003d0: 4c66 0bbd 135c 3d3d 16dc f03c b156 1b3d
000003e0: d1eb 8fbd 3e9d d5bd 1344 46bd 7899 b0bd
000003f0: 9dd8 53bd c657 26be 4e7b 8ebd b660 b43a

network_body._body_endoder.seq_layers.2.bias f4 [128]
0.006594291 0.010387498 -0.026434356 -0.016808568 -0.0021936554 0.009277844 0.0053932527 0.0041866875
-0.013215212 0.026007392 0.0055335187 -0.007620753 -0.0051217903 -0.0064650388 0.018730054 0.024726609
-0.0028541242 -0.016599087 0.0039051294 -0.018453615 -0.0011588975 0.016659854 0.005856548 0.007836801
-0.005633444 0.006329695 -0.0175564 0.0012613637 -0.014208969 -0.001042685 0.009100125 0.023023708
0.00060821016 0.0021249675 -0.00027484808 0.0048210337 -0.017877834 -0.0049158395 -0.008883728 0.004911317
0.0035092614 -0.0022935688 -0.010433271 0.00077871385 0.0504563 0.0030755105 -0.010064875 0.00027469744
-0.0026733854 0.044710573 0.003946951 0.005419703 -0.009073761 0.0031449532 -0.007700116 0.0058198753
0.0013608515 -0.02679739 0.011418237 -0.00012204163 0.002961619 -0.0025561105 0.014266545 -0.006521194
0.008761377 -0.002503417 -0.008340363 -0.010721515 0.008917094 0.04160768 0.009789579 0.0066453135
0.010352861 -0.011366002 0.0070940345 0.021733077 -0.0018117737 -0.011696766 -0.013987886 -0.008835042
-0.014579785 0.003944129 -0.007613228 -0.0034681736 -0.0034926506 -0.0070821187 -0.008694778 -0.006893149
0.037026115 0.006423408 0.0053488277 -0.00816903 0.025309507 -0.010497195 0.00999955 -0.010115886
0.020950092 -0.00451156 0.0056196637 0.00440288 0.0065665287 -0.005055367 0.012648692 -0.0069264686
-0.01492541 0.0061900984 0.0008872632 -0.001157996 0.04151638 0.041691627 0.0062364233 0.011983812
-0.01008623 -0.0017601498 0.0018181796 -0.008405143 -0.006069683 -0.013034238 0.0135908825 0.03838246
0.004309284 0.004519352 0.021878522 -0.012621916 -0.010692055 -0.004563825 0.011929272 -0.0034341817
00000000: ec14 d83b 5330 2a3c dd8c d8bc 1fb2 89bc
00000010: 6ec3 0fbb 1902 183c e2b9 b03b 7b30 893b
00000020: 9e84 58bc 740d d53c 8552 b53b 82b7 f9bb
00000030: b1d4 a7bb add8 d3bb c56f 993c 758f ca3c
00000040: 420c 3bbb cffa 87bc 33ed 7f3b 092c 97bc
00000050: 26e6 97ba 3f7a 883c 49e8 bf3b ed65 003c
00000060: c198 b8bb 5569 cf3b 70d2 8fbc 5854 a53a
00000070: bccc 68bc b4aa 88ba b118 153c 379c bc3c
00000080: 4b70 1f3a 0a43 0b3b 7c19 90b9 c3f9 9d3b
00000090: 8974 92bc 0d15 a1bb 0e8d 11bc 1def a03b
000000a0: a3fb 653b b34f 16bb 4ff0 2abc 9a22 4c3a
000000b0: 44ab 4e3d 818e 493b 25e7 24bc 4405 9039
000000c0: f733 2fbb 6f22 373d 6d55 813b c497 b13b
000000d0: 1daa 14bc 8f1b 4e3b 4151 fcbb a7b4 be3b
000000e0: 995e b23a 3386 dbbc 8f13 3b3c 9af0 ffb8
000000f0: b917 423b 6b84 27bb 3abe 693c bdaf d5bb
00000100: e18b 0f3c 5e10 24bb 05a6 08bc 4ba9 2fbc
00000110: 0119 123c d16c 2a3d 7864 203c eec0 d93b
00000120: 0c9f 293c 7838 3abc 1375 e83b 9109 b23c
00000130: 0a79 edba cba3 3fbc 722d 65bc dac0 10bc
00000140: 0de0 6ebc c13d 813b 6378 f9bb 4c4a 63bb
00000150: f4e4 64bb 1e11 e8bb 8b74 0ebc eddf e1bb
00000160: b2a8 173d 747b d23b 3845 af3b 65d7 05bc
00000170: e255 cf3c 6dfc 2bbc 27d5 233c 1abd 25bc
00000180: 879f ab3c b5d5 93bb 2825 b83b 0946 903b
00000190: 092c d73b 7ea7 a5bb 763c 4f3c 6ef7 e2bb
000001a0: b589 74bc 4fd6 ca3b 3a97 683a e6c7 97ba
000001b0: 140d 2a3d d7c4 2a3d e95a cc3b c057 443c
000001c0: b740 25bc d4b4 e6ba fc4f ee3a bab5 09bc
000001d0: 31e4 c6bb 8e8d 55bc 4bac 5e3c ed36 1d3d
000001e0: e534 8d3b 1317 943b 963a b33c 27cc 4ebc
000001f0: bb2d 2fbc 248c 95bb fe72 433c 0210 61bb

action_model._discrete_distribution.branches.0.weight f4 [7, 128]
-0.010373755 0.010978485 -0.012754474 -0.013620924 0.004482473 -0.0014240819 -0.016779706 0.00837583
-0.015992224 0.015748832 -0.037241027 -0.03019221 -0.018062625 -0.013405411 0.0146588115 0.016436607
-0.011088425 -0.019607306 -0.007975423 -0.027571112 -0.007166221 -0.010608943 -0.0020134426 0.0006186948
-0.011219781 -0.014241219 -0.037187386 -0.024136592 0.0006088723 0.0100309625 0.021288348 0.024060253
-0.0064395037 0.002310983 -0.022834921 -0.005170797 -0.031311758 -0.004110019 -0.026834033 -0.002907172
-0.012377023 0.0001176321 -0.010821801 -0.020737274 0.023758616 0.0011773892 -0.023004767 -0.009528904
0.0047762087 0.030151168 0.0009288221 0.0058205696 -0.0072933976 -0.012437422 0.0017493455 -0.0019794493
-0.016246883 -0.029636072 -0.007705306 -0.013773236 -0.0044152346 -0.037450254 0.015628781 0.007356304
0.0054539517 0.00014050689 -0.0018759043 -0.0005168303 -0.005149908 0.031005558 0.005028001 -0.008109117
-0.0197751 -0.008072117 -0.0012756694 0.03967618 0.001862074 -0.014476082 -0.0319761 -0.018799528
-0.01863542 -0.015824312 -0.026270196 0.0012088856 -0.027886873 -0.026324144 -0.020439327 -0.023452211
0.018103499 -0.0001030416 0.0042718775 -0.017722033 0.021786893 0.0012811789 -0.009362584 -0.026690265
0.008746614 -0.047890894 -0.01420893 0.004685003 -0.015232784 -0.011005785 -0.016931979 -0.024837365
0.014221757 -0.007310041 0.0026393805 -0.028615925 0.024188766 0.032088704 -0.028239803 -0.012107269
-0.02701384 -0.020052392 -0.015118564 -0.013987434 -0.009123796 -0.022805953 -0.0071694837 0.009303168
6.141647e-05 -0.030372906 0.009282329 -0.023531158 -0.032095082 -0.0042354297 0.019904282 -0.01028083
0.017541787 0.00045578578 -0.017738562 -0.031111678 -0.01368605 -0.01826432 0.0068358304 0.00085060764
-0.014740929 0.011327268 -0.021594714 -0.036833793 -0.035215423 -0.03980142 0.015771851 -0.00917349
-0.019175077 -0.020266144 -0.026013263 -0.016770588 0.0013489993 -0.019614233 -2.0767726e-05 0.024482079
-0.023197457 0.00887224 -0.022294017 -0.029567868 -0.0102350665 -0.003450134 0.01828184 0.050375447
-0.008288405 0.01094085 -0.00058485713 0.0077452254 -0.021847352 0.0072679003 -0.045449458 0.009747695
-0.051217075 -6.4781714e-05 -0.029956132 -0.011048533 0.02969676 -0.004189224 -0.04767555 0.009539689
-0.0041253543 0.038915362 0.0055110944 0.0006009194 -0.007123213 -0.02758898 -0.0235697 -0.0013396556
-0.0070109544 -0.013513178 -0.022250958 0.002101786 -0.009308939 -0.0330345 0.029176407 -0.0051580174
0.005886783 0.00053788774 -0.03367914 -0.011823368 0.017591756 0.026528941 0.0004813219 0.0028980079
-0.028685652 -0.016927382 -0.0062686815 0.026958775 -0.00051179534 -0.009707908 -0.0399541 -0.025240183
-0.031192167 0.011865016 -0.008870494 -0.008078074 -0.010532411 -0.034957506 -0.025724957 -0.0024911112
0.027838292 0.000938422 -0.0050788354 -0.025082823 0.03486704 -0.0037968915 -0.006147558 -0.0050860667
0.002311004 -0.024715146 -0.025112383 0.0070169833 -0.008842867 0.002352625 -0.009773209 -0.03933502
-0.001717766 0.009183598 0.0008582943 -0.035922494 0.022816263 0.031208567 -0.029236376 -0.040357146
-0.019753536 0.014594106 -0.042368144 -0.01918599 -0.038137425 -0.028463442 0.0010211386 0.03272253
0.003951515 -0.021760622 0.01656047 -0.033742752 -0.032047775 0.0015655053 -0.017455947 -0.02093212
00000000: aff6 29bc 1bdf 333c 24f8 50bc 4c2a 5fbc
00000010: b5e1 923b 42a8 baba 9875 89bc c73a 093c
00000020: 2002 83bc b203 813c 0c8a 18bd a755 f7bc
00000030: 12f8 93bc 5ea2 5bbc 832b 703c 10a6 863c
00000040: 3aac 35bc 809f a0bc 59ab 02bc d0dc e1bc
00000050: 9ed2 eabb 22d1 2dbc f6f3 03bb e82f 223a
00000060: 2cd3 37bc 0054 69bc cd51 18bd 1aba c5bc
00000070: ba9c 1f3a e858 243c e764 ae3c 021a c53c
00000080: 7902 d3bb dc73 173b 4d10 bbbc ca6f a9bb
00000090: c240 00bd 57ad 86bb 0cd3 dbbc 4186 3ebb
000000a0: ffc8 4abc 41b1 f638 ec4d 31bc 37e1 a9bc
000000b0: 6ea1 c23c a052 9a3a 7e74 bcbc 1f1f 1cbc
000000c0: be81 9c3b 95ff f63c 327c 733a 7aba be3b
000000d0: 74fd eebb 54c6 4bbc 4b4a e53a a6b9 01bb
000000e0: 2f18 85bc 59c7 f2bc cb7c fcbb 24a9 61bc
000000f0: acad 90bb 7065 19bd ee07 803c 270d f13b
00000100: 10b7 b23b 0855 1339 e7e0 f5ba e57b 07ba
00000110: 8fc0 a8bb 5eff fd3c eec1 a43b 1adc 04bc
00000120: 64ff a1bc ea40 04bc 5d34 a7ba 7d83 223d
00000130: d610 f43a 172d 6dbc 5ff9 02bd 7801 9abc
00000140: 4fa9 98bc fda1 81bc 9834 d7bc 7873 9e3a
00000150: 0373 e4bc bba5 d7bc 6070 a7bc da1e c0bc
00000160: ca4d 943c 0a18 d8b8 1bfb 8b3b cc2d 91bc
00000170: 6d7a b23c 3bed a73a 8665 19bc 8ba5 dabc
00000180: f54d 0f3c 3e29 44bd 92cc 68bc a784 993b
00000190: ed92 79bc 9c51 34bc efb4 8abc bb77 cbbc
000001a0: 5f02 693c 1289 efbb 75f9 2c3b f26b eabc
000001b0: 8527 c63c 726f 033d 2957 e7bc 915d 46bc
000001c0: 214c ddbc ea44 a4bc dab3 77bc 8d2b 65bc
000001d0: f97b 15bc 8dd3 babc fded eabb 516c 183c
000001e0: b7cc 8038 9ad0 f8bc e914 183c 6ac4 c0bc
000001f0: 2276 03bd 5cc9 8abb 4e0e a33c ed70 28bc
00000200: cbb3 8f3c 88f6 ee39 7650 91bc ebdd febc
00000210: 743b 60bc 0e9f 95bc 1aff df3b 50fb 5e3a
00000220: f083 71bc 0196 393c 66e7 b0bc 08df 16bd
00000230: 0c3e 10bd d006 23bd f833 813c 684c 16bc
00000240: 0d15 9dbc 2f05 a6bc c419 d5bc 7962 89bc
00000250: e8d0 b03a 07ae a0bc 5a36 aeb7 a48e c83c
00000260: 9808 bebc df5c 113c f1a1 b6bc 5038 f2bc
00000270: fbb0 27bc a51b 62bb ccc3 953c 7c56 4e3d
00000280: 17cc 07bc 4041 333c 1951 19ba a9cb fd3b
00000290: 38f9 b2bc 9127 ee3b 3629 3abd ccb4 1f3c
000002a0: ffc8 51bd 6bdb 87b8 9066 f5bc e804 35bc
000002b0: 9f46 f33c c245 89bb 7047 43bd 5b4c 1c3c
000002c0: fb2d 87bb b765 1f3d 6996 b43b 0587 1d3a
000002d0: d769 e9bb 4902 e2bc 3e15 c1bc 6297 afba
000002e0: 26bc e5bb 6066 5dbc a447 b6bc 1ebe 093b
000002f0: 8584 18bc 2f4f 07bd 5c03 ef3c 9604 a9bb
00000300: eae5 c03b 0901 0d3a 23f3 09bd cdb6 41bc
00000310: 961c 903c 3953 d93c ef59 fc39 81ec 3d3b
00000320: 2cfe eabc 4bab 8abc 8369 cdbb a6d8 dc3c
00000330: 012a 06ba eb0d 1fbc e9a6 23bd 80c4 cebc
00000340: b786 ffbc 7c65 423c 8c55 11bc e659 04bc
00000350: 2290 2cbc 9a2f 0fbd 25bd d2bc e941 23bb
00000360: 210d e43c 6f00 763a 5c6c a6bb 7e7a cdbc
00000370: bed0 0e3d 45d5 78bb 7471 c9bb 05a9 a6bb
00000380: 3774 173b 6b77 cabc 7cb8 cdbc b9ee e53b
00000390: ace1 10bc 7f2e 1a3b cf1f 20bc c21d 21bd
000003a0: aa26 e1ba cd76 163c 28ff 603a 7723 13bd
000003b0: 2ce9 ba3c 1ca9 ff3c 2081 efbc 894d 25bd
000003c0: 2bd2 a1bc 1e1c 6f3c 388a 2dbd f02b 9dbc
000003d0: fd35 1cbd 2a2c e9bc bad7 853a 0f08 063d
000003e0: b67b 813b 5543 b2bc d3a9 873c d735 0abd
000003f0: 8744 03bd a431 cd3a c6ff 8ebc d679 abbc

action_model._discrete_distribution.branches.0.bias f4 [7]
0.010405029 0.0139039755 -0.0010908616 -0.0056429943 -0.011698445 -0.0017918152 0.001994898
00000000: db79 2a3c 80cd 633c 3efb 8eba dee8 b8bb
00000010: d6aa 3fbc 57db eaba d6bc 023b

exp_avg f4 [128, 163]
-3.6105516e-06 -7.6039333e-07 4.9023984e-06 -1.1249509e-06 -6.1722506e-07 -1.8230085e-06 -9.687831e-07 1.0052886e-05
-7.85459e-06 -6.212962e-06 -5.3329777e-06 -2.8956485e-06 8.311523e-06 -6.7639314e-07 -2.3372372e-06 1.0069099e-05
-1.0827197e-06 6.9915877e-06 -1.6571463e-05 -1.6741737e-05 -8.690183e-06 -1.4911482e-06 6.5147096e-06 3.0731228e-06
5.8884625e-06 1.1899583e-05 -7.4147147e-07 4.954375e-06 -1.6705988e-05 -1.4291174e-05 -1.0798562e-05 -1.7968387e-07
8.938991e-06 1.4457569e-06 4.0549685e-06 1.6264115e-05 -1.3094054e-06 2.215114e-06 -1.776332e-05 -1.641876e-05
-7.2447674e-06 -6.237553e-06 5.87146e-06 7.017364e-06 3.0147266e-06 2.8099748e-06 -1.9282281e-06 -1.2270366e-06
-2.4821156e-07 -6.7078995e-06 4.6405444e-06 -7.71317e-06 8.5921965e-06 -6.113066e-06 -4.754218e-06 -1.4120831e-06
1.5459751e-06 4.9923915e-07 -1.2266287e-06 -3.0954711e-06 -9.773945e-06 -8.922785e-06 8.244829e-06 9.858404e-06
4.215865e-06 8.406979e-06 -1.7932126e-06 -2.545381e-06 -4.661883e-06 -1.0918602e-06 -3.9930355e-06 -6.109706e-06
5.7172415e-06 3.7920029e-06 3.3550875e-06 -8.912259e-06 -6.596065e-08 -2.7626973e-07 8.660993e-06 1.8983151e-06
-1.2481412e-05 -4.4959747e-06 4.40817e-06 1.1975717e-05 7.8416415e-06 6.7492656e-06 3.651324e-07 2.044189e-07
-7.912313e-06 -5.7968527e-06 -1.8594525e-05 -2.4764422e-06 5.8691703e-06 1.46083e-05 9.6307e-06 -9.096789e-06
3.8842256e-07 1.4513305e-06 6.6635357e-06 3.774448e-06 -1.2202585e-05 -3.6899885e-06 5.9000695e-06 9.399004e-06
7.6195556e-06 -7.9957135e-06 6.272252e-07 2.0381146e-06 4.736877e-06 3.4599013e-06 -9.153182e-06 2.1095497e-07
4.58645e-06 3.7622808e-06 3.858733e-06 2.830877e-06 7.035023e-07 1.0775477e-06 -5.2054233e-06 -2.0718398e-06
-3.6462652e-06 -9.698542e-07 3.553645e-06 4.6897821e-07 -2.190619e-06 -6.7803207e-06 -4.1403632e-07 2.7338294e-06
3.867035e-06 2.3293032e-06 -3.297026e-06 -1.4785218e-06 -2.2555485e-06 6.437601e-06 1.3773033e-06 4.0418718e-06
1.9299682e-07 -9.868595e-07 -3.8415074e-06 5.6402996e-07 6.837681e-06 -2.3934467e-06 -4.7379185e-06 -2.9981265e-07
-1.4648886e-06 1.5132191e-06 -1.4423899e-06 -2.9114194e-06 2.2470904e-06 1.7038456e-06 1.5132191e-06 -1.4423899e-06
-2.9114194e-06 2.2470904e-06 1.7038524e-06 -7.736411e-08 1.3877562e-06 -7.72774e-07 -1.5312908e-06 -2.3790426e-07
-3.9062888e-07 -3.6108304e-07 -2.322065e-08 -3.8800084e-05 -1.1208325e-05 -1.8468381e-05 -3.053889e-05 -4.689488e-05
-8.575175e-05 5.370401e-06 7.0522965e-06 -2.5686633e-05 -4.661345e-05 -2.0836218e-05 -1.21165285e-05 -3.4933386e-05
-3.1129563e-05 -4.6471825e-05 -0.00010686759 1.8311237e-05 3.7033167e-06 -1.4162635e-05 -6.098762e-05 -3.0855066e-05
-8.078427e-06 -2.3429542e-05 -3.6652647e-05 -3.8584967e-05 -4.998879e-05 1.8701045e-05 2.7854703e-06 -7.051341e-05
-9.105706e-05 -3.2851938e-05 -1.2078397e-05 -2.6257394e-05 -2.7827942e-05 -4.3493776e-05 -3.0370438e-05 8.971085e-06
-2.5540703e-06 -7.506226e-05 -9.994764e-05 -5.910019e-05 -3.4645334e-05 -3.1415253e-05 2.6145097e-05 -2.8265535e-05
-1.5750928e-05 3.593675e-06 -1.8235349e-05 -6.862307e-05 -7.924838e-05 -9.333964e-06 -2.6457628e-05 -2.3511346e-05
-3.971275e-05 -6.546463e-05 -4.4776192e-05 6.237197e-06 -6.8367353e-06 -5.363996e-05 -4.594617e-05 -3.343612e-05
-2.1873588e-05 -1.8414432e-05 -2.529155e-05 -4.8047903e-05 -4.002416e-05 -6.618766e-06 -1.8677643e-05 -3.369511e-05
-3.5060388e-05 -5.583538e-06 -4.079936e-05 -2.7190166e-05 -2.5442614e-05 -5.559739e-05 -3.3133063e-05 2.223997e-06
2.6789435e-06 -7.078557e-05 -7.123934e-05 -6.929277e-05 -1.830395e-05 -2.6983143e-05 1.5564177e-05 -4.075907e-05
-4.6169385e-05 2.5093193e-06 1.063903e-06 -5.6419518e-05 -7.7075885e-05 -5.0685492e-05 -1.9182187e-05 -1.4458132e-05
00000000: ce4c 72b6 d51d 4cb5 487f a436 05fd 96b5
00000010: 62af 25b5 18ae f4b5 2207 82b5 d1a8 2837
00000020: 35c7 03b7 f078 d0b6 eef1 b2b6 dd52 42b6
00000030: b871 0b37 6291 35b5 6ed9 1cb6 73ee 2837
00000040: f751 91b5 4899 ea36 f202 8bb7 9b70 8cb7
00000050: 0dcc 11b7 7623 c8b5 ee98 da36 d93b 4e36
00000060: 8295 c536 52a4 4737 8809 47b5 c23d a636
00000070: d623 8cb7 20c4 6fb7 782b 35b7 20ef 40b4
00000080: adf8 1537 d40b c235 ea0f 8836 ec6e 8837
00000090: d4be afb5 5ea7 1436 7002 95b7 05bb 89b7
000000a0: 1418 f3b6 2c4c d1b6 7503 c536 b376 eb36
000000b0: 9c50 4a36 0093 3c36 b566 01b6 a8b0 a4b5
000000c0: f041 85b4 6b14 e1b6 f9b5 9b36 d067 01b7
000000d0: 3427 1037 d61e cdb6 6c86 9fb6 ce86 bdb5
000000e0: 4d7f cf35 7403 0635 a4a2 a4b5 cabb 4fb6
000000f0: c6fa 23b7 12b3 15b7 4553 0a37 8665 2537
00000100: 0176 8d36 b30b 0d37 51ae f0b5 50d1 2ab6
00000110: 456d 9cb6 088c 92b5 eafb 85b6 fa01 cdb6
00000120: bbd6 bf36 1d7a 7e36 f727 6136 dc85 15b7
00000130: 40a6 8db3 3952 94b4 af4e 1137 9cc9 fe35
00000140: 4267 51b7 21dc 96b6 e4e9 9336 50eb 4837
00000150: 988f 0337 c077 e236 6a07 c434 3d7e 5b34
00000160: 20bf 04b7 9682 c2b6 70fb 9bb7 f430 26b6
00000170: caef c436 2c16 7537 8b93 2137 699e 18b7
00000180: 6488 d034 56cb c235 5697 df36 864c 7d36
00000190: b4b9 4cb7 85a1 77b6 36f9 c536 6ab0 1d37
000001a0: 7cab ff36 5425 06b7 965e 2835 8bc6 0836
000001b0: 77f1 9e36 a730 6836 9e90 19b7 dc82 6234
000001c0: 4ee5 9936 7e7b 7c36 447a 8136 19fa 3d36
000001d0: 4fd8 3c35 42a0 9035 3faa aeb6 f009 0bb6
000001e0: 5cb2 74b6 f02b 82b5 287b 6e36 e0c7 fb34
000001f0: 8c02 13b6 8382 e3b6 b848 deb4 d576 3736
00000200: 94c1 8136 2051 1c36 7a42 5db6 9f71 c6b5
00000210: 075e 17b6 9202 d836 c8db b835 6a9f 8736
00000220: 903a 4f34 3c74 84b5 4ce6 80b6 d867 1735
00000230: 3c6f e536 1a9f 20b6 69fa 9eb6 f0f5 a0b4
00000240: 309d c4b5 d019 cb35 2498 c1b5 ce61 43b6
00000250: b8cc 1636 b0af e435 d019 cb35 2498 c1b5
00000260: ce61 43b6 b8cc 1636 ecaf e435 5f23 a6b3
00000270: f142 ba35 a070 4fb5 c086 cdb5 a072 7fb4
00000280: a0b7 d1b4 e0da c1b4 c076 c7b2 46bd 22b8
00000290: 640b 3cb7 8cec 9ab7 e216 00b8 feb0 44b8
000002a0: 9fd5 b3b8 6533 b436 c4a2 ec36 a079 d7b7
000002b0: d082 43b8 70c9 aeb7 1848 4bb7 7085 12b8
000002c0: 1d91 02b8 beea 42b8 1a1e e0b8 159b 9937
000002d0: 7f86 7836 0e9c 6db7 f5cc 7fb8 606a 01b8
000002e0: 9488 07b7 8f8a c4b7 7bbb 19b8 4bd6 21b8
000002f0: 0eab 51b8 30e0 9c37 04ee 3a36 99e0 93b8
00000300: e3f5 beb8 80ca 09b8 52a4 4ab7 5343 dcb7
00000310: 0d70 e9b7 166d 36b8 05c4 feb7 8482 1637
00000320: 9866 2bb6 be6a 9db8 fb9a d1b8 59e2 77b8
00000330: 2550 11b8 dfc3 03b8 2b52 db37 c61b edb7
00000340: dc20 84b7 de2a 7136 1df8 98b7 bbe9 8fb8
00000350: 2632 a6b8 1299 1cb7 53f1 ddb7 3b3a c5b7
00000360: 3e91 26b8 0e4a 89b8 12ce 3bb8 1d49 d136
00000370: 1c67 e5b6 78fb 60b8 53b6 40b8 c33d 0cb8
00000380: 2c7d b7b7 b178 9ab7 3129 d4b7 0b87 49b8
00000390: 9ddf 27b8 c416 deb6 efad 9cb7 d953 0db8
000003a0: ce0d 13b8 3a5a bbb6 fb1f 2bb8 7016 e4b7
000003b0: 996d d5b7 3e31 69b8 5bf8 0ab8 fa3f 1536
000003c0: e6c7 3336 b772 94b8 5466 95b8 4651 91b8
000003d0: 6f8b 99b7 dc59 e2b7 d18f 8237 b8f4 2ab8
000003e0: 00a6 41b8 c765 2836 6ecb 8e35 ffa3 6cb8
000003f0: cda3 a1b8 2297 54b8 6fe9 a0b7 3491 72b7

exp_avg_sq f4 [128, 163]
2.2637617e-10 4.0134656e-11 8.095957e-11 1.7850083e-10 2.1356801e-10 2.294329e-10 3.695339e-11 8.993695e-11
2.0248642e-10 2.5319782e-10 2.0425683e-10 5.433268e-11 8.0667764e-11 1.8339238e-10 2.2807746e-10 1.9492338e-10
3.1803747e-11 8.293673e-11 2.1963233e-10 2.7232377e-10 1.4731671e-10 6.1108174e-11 8.0051264e-11 2.1362259e-10
2.523571e-10 2.0562022e-10 3.014217e-11 7.109857e-11 2.529456e-10 2.9002614e-10 1.5249457e-10 5.8146942e-11
8.928425e-11 2.1958951e-10 2.5646146e-10 2.3995123e-10 2.9939242e-11 5.4209866e-11 2.5812644e-10 3.135309e-10
1.1864557e-10 8.1045816e-11 7.871172e-11 2.1989313e-10 2.7380204e-10 1.9302318e-10 3.067935e-11 3.9045166e-11
2.5016014e-10 2.984877e-10 1.2116078e-10 8.1901604e-11 7.543688e-11 2.2390052e-10 2.70417e-10 2.103158e-10
2.7890036e-11 3.237913e-11 2.7146443e-10 3.1433298e-10 1.4034013e-10 8.829051e-11 6.589362e-11 2.1539477e-10
2.6107286e-10 2.335539e-10 2.6777781e-11 1.8808045e-11 2.3924585e-10 3.0346695e-10 1.442199e-10 9.16669e-11
4.9891376e-11 2.2236263e-10 2.77805e-10 1.8992495e-10 2.4830787e-11 1.2912877e-11 2.905192e-10 3.570767e-10
1.8343822e-10 8.156282e-11 2.6540038e-11 2.1809235e-10 2.7418298e-10 1.6402042e-10 2.4638068e-11 1.44722e-11
3.1321354e-10 3.6692246e-10 1.770089e-10 8.87888e-11 1.815366e-11 2.2253488e-10 2.7553496e-10 1.6449861e-10
1.6805824e-11 1.4451105e-11 3.1805347e-10 3.724832e-10 1.3194768e-10 8.203051e-11 2.2739583e-11 2.677428e-10
3.3559375e-10 1.9478681e-10 1.6069713e-11 1.42543685e-11 2.66509e-10 3.376016e-10 1.2529716e-10 7.8456075e-11
2.06768e-11 2.9681116e-10 3.5976447e-10 1.9214934e-10 1.26070985e-11 1.576556e-11 2.9762542e-10 3.447048e-10
1.1537288e-10 6.456407e-11 2.0694436e-11 2.9901107e-10 3.5820769e-10 1.390243e-10 1.2137617e-11 1.3286571e-11
3.2166236e-10 3.603402e-10 1.5972874e-10 5.2606322e-11 1.4600529e-11 3.0628186e-10 3.6340028e-10 1.8487965e-10
1.2425142e-11 5.921933e-12 3.2103387e-10 3.5851044e-10 1.7761254e-10 3.8924544e-11 1.2922444e-11 3.1697464e-10
3.55087e-10 2.7496672e-10 2.1664242e-11 8.428463e-12 2.397763e-10 3.0864827e-10 2.7496672e-10 2.1664242e-11
8.428463e-12 2.397763e-10 3.0864827e-10 2.3198923e-12 1.1544899e-10 1.1391948e-10 9.81111e-08 8.2271585e-11
2.2185714e-10 1.895023e-10 8.0334074e-13 4.5747726e-09 9.555866e-10 3.371861e-09 6.3186136e-09 7.681578e-09
5.391531e-09 1.0149395e-09 3.1484049e-09 5.60615e-09 7.469604e-09 3.9786885e-09 9.914567e-10 3.4334269e-09
6.230766e-09 7.989426e-09 6.0156413e-09 7.5026085e-10 2.385768e-09 6.8164248e-09 7.979279e-09 3.2713183e-09
1.139794e-09 3.1126877e-09 6.412571e-09 8.022669e-09 6.019901e-09 5.8807564e-10 1.9333348e-09 6.5824346e-09
8.215086e-09 3.0980938e-09 1.1671926e-09 2.5192357e-09 7.2436994e-09 8.9310825e-09 5.9808243e-09 4.3723597e-10
1.6621254e-09 7.971616e-09 9.124427e-09 3.4488412e-09 1.3396261e-09 1.7459562e-09 7.3318214e-09 8.987512e-09
5.8867786e-09 4.5984241e-10 1.162708e-09 8.003233e-09 9.415656e-09 3.1376393e-09 1.2875057e-09 1.5527988e-09
8.354764e-09 9.561484e-09 5.6586162e-09 3.9945852e-10 9.2922986e-10 8.3904395e-09 9.8155555e-09 3.3131564e-09
1.4132893e-09 1.0885e-09 8.445592e-09 9.917223e-09 5.2190723e-09 3.6774195e-10 5.1810767e-10 9.5559e-09
1.0797565e-08 3.015335e-09 1.4834831e-09 7.633504e-10 8.918992e-09 1.0292778e-08 4.2636246e-09 3.9001813e-10
4.3153509e-10 9.7700905e-09 1.1273896e-08 3.805386e-09 1.2078208e-09 7.675488e-10 8.311529e-09 9.838011e-09
4.830927e-09 3.0306083e-10 3.2282219e-10 9.235486e-09 1.1186542e-08 3.499864e-09 8.482138e-10 4.7485854e-10
00000000: 3ae7 782f 9b83 302e 3008 b22e 8443 442f
00000010: 0dd2 6a2f 9f43 7c2f d185 222e 00c6 c52e
00000020: dca2 5e2f 6d32 8b2f 3095 602f 29f5 6e2e
00000030: ea63 b12e 5ea4 492f 19c6 7a2f 0e52 562f
00000040: d6df 0b2e 3a61 b62e 017d 712f 2ab6 952f
00000050: f8f9 212f d860 862e db08 b02e 6ae1 6a2f
00000060: 1bbc 8a2f f214 622f 1191 042e f058 9c2e
00000070: ee0e 8b2f 8d71 9f2f 68ab 272f a3bb 7f2e
00000080: 9056 c42e f470 712f befd 8c2f 22ea 832f
00000090: 97ac 032e e26a 6e2e 11e8 8d2f 8d5d ac2f
000000a0: c273 022f bd38 b22e c216 ad2e 6ac6 712f
000000b0: 3686 962f 323b 542f e1ed 062e f3b8 2b2e
000000c0: e986 892f 6918 a42f ba37 052f 811a b42e
000000d0: 30e3 a52e 652e 762f cfa9 942f a33e 672f
000000e0: c752 f52d a967 0e2e 393d 952f 6fce ac2f
000000f0: 3c4e 1a2f 2327 c22e cfe6 902e 3dd4 6c2f
00000100: bd86 8f2f ca65 802f 348a eb2d f46f a52d
00000110: dc86 832f 2dd5 a62f 4b92 1e2f e193 c92e
00000120: b26c 5b2e 847d 742f 94b9 982f 1fd3 502f
00000130: f669 da2d 6e2a 632d f1b6 9f2f 144e c42f
00000140: 45b1 492f c95b b32e da72 e92d 8acb 6f2f
00000150: d3bb 962f a557 342f ffb7 d82d ff98 7e2d
00000160: e330 ac2f bfb7 c92f 939f 422f a73f c32e
00000170: 69ae 9f2d 00ae 742f 197a 972f 3ede 342f
00000180: 5ad3 932d fe39 7e2d 0cda ae2f 5ac6 cc2f
00000190: f813 112f 1263 b42e fd04 c82d 7331 932f
000001a0: 9f7e b82f 9d2b 562f c759 8d2d f8c3 7a2d
000001b0: cf83 922f 3499 b92f 04c4 092f d886 ac2e
000001c0: 04e0 b52d 752c a32f 59c8 c52f 3b45 532f
000001d0: 53c9 5d2d e3ac 8a2d 0e9f a32f e380 bd2f
000001e0: 28b5 fd2e 57fa 8d2e ba07 b62d 1162 a42f
000001f0: 40ed c42f dddb 182f f886 552d 65bd 692d
00000200: f4d5 b02f 6019 c62f a59f 2f2f 745d 672e
00000210: 786d 802d 5761 a82f 0bc8 c72f ff46 4b2f
00000220: dd95 5a2d 085c d02c 807d b02f dc17 c52f
00000230: 7c49 432f 2431 2b2e 8455 632d 3742 ae2f
00000240: 0d36 c32f 202a 972f 898f be2d 6c46 142d
00000250: 84d1 832f 62ae a92f 202a 972f 898f be2d
00000260: 6c46 142d 84d1 832f 62ae a92f 773f 232c
00000270: 01e0 fd2e f782 fa2e 26b1 d233 c9ea b42e
00000280: 3cef 732f 285c 502f cd1e 622b 2030 9d31
00000290: b755 8330 68b6 6731 1d1b d931 f0f7 0332
000002a0: 6940 b931 027e 8b30 535b 5831 38a0 c031
000002b0: aa53 0032 eab4 8831 c843 8830 7cf1 6b31
000002c0: 6616 d631 de41 0932 24b2 ce31 ea3a 4e30
000002d0: e0f2 2331 e835 ea31 3d15 0932 a4cd 6031
000002e0: f0a6 9c30 fbe6 5531 9255 dc31 12d4 0932
000002f0: 9cd7 ce31 25a6 2130 96db 0431 b52b e231
00000300: 5522 0d32 3ee6 5431 f06a a030 dd1e 2d31
00000310: 41e4 f831 516f 1932 e37f cd31 7e5f f02f
00000320: d770 e430 8af3 0832 a8c1 1c32 a800 6d31
00000330: e71d b830 5ff6 ef30 62eb fb31 7f67 1a32
00000340: a744 ca31 11cd fc2f 27cd 9f30 977e 0932
00000350: 7ec2 2132 ef9d 5731 14f4 b030 406a d530
00000360: a488 0f32 da43 2432 b76d c231 ca9a db2f
00000370: bd6c 7f30 8b25 1032 45a1 2832 aaad 6331
00000380: b23d c230 309a 9530 1b18 1132 6860 2a32
00000390: 7253 b331 142b ca2f 966a 0e30 4b2b 2432
000003a0: 3180 3932 5636 4f31 6ce3 cb30 02d4 5130
000003b0: 243a 1932 1ed4 3032 3d7f 9231 2c6a d62f
000003c0: 2a3d ed2f 50d9 2732 1eaf 4132 87c0 8231
000003d0: 6b00 a630 72fb 5230 7eca 0e32 0804 2932
000003e0: 49fd a531 059c a62f 2f79 b12f 19aa 1e32
000003f0: ef2e 4032 4282 7031 bd27 6930 3387 0230

exp_avg f4 [128]
-5.9349804e-07 -9.901569e-05 5.297069e-05 1.0391101e-05 5.7328134e-06 -9.064252e-06 -2.8567807e-05 -2.1287484e-05
1.140035e-06 9.4601346e-05 -5.73282e-05 -3.6421054e-06 -1.6824904e-05 2.8653802e-05 -9.613561e-05 3.019185e-06
5.0869487e-05 -3.77646e-05 3.7693113e-05 4.319449e-05 5.2872037e-05 4.9151517e-05 -8.839289e-05 -5.6064393e-05
-2.1058138e-05 -1.1717746e-05 2.9383216e-08 4.9925875e-06 -5.8612364e-05 1.6120692e-05 0.00019096477 0.0001068616
3.5928402e-05 -1.1380448e-05 -2.4237137e-05 -6.4770634e-06 -5.2192423e-05 -6.6245593e-07 -2.006959e-05 -2.6350905e-05
-9.2253e-05 -2.2979648e-05 -7.361661e-06 -1.2758803e-05 -3.5912803e-05 -7.854451e-05 -3.5675082e-06 -4.7554953e-05
2.5578862e-05 -4.548094e-05 6.776462e-06 0.0001311778 4.0992294e-05 -2.739099e-05 -4.9626015e-06 -3.702401e-05
6.3863175e-05 -3.978191e-06 -2.8942202e-05 -3.199568e-05 5.380091e-05 -7.990322e-06 4.455691e-05 -1.5500325e-05
7.3091884e-05 -5.4189215e-05 7.470193e-05 -1.4446684e-05 4.35084e-05 2.9425937e-05 -2.5537747e-05 -8.299762e-05
-1.1763724e-05 -1.6795104e-05 -7.136468e-05 2.194076e-05 -0.00014502722 -7.831422e-06 6.232934e-05 -8.430608e-06
-1.5989547e-06 -5.0851315e-05 -1.2289564e-05 -3.636626e-05 3.6811856e-05 -4.6146535e-05 1.7114036e-05 -2.92759e-05
-2.7383912e-06 -4.8020403e-05 -1.2518685e-06 4.0073464e-05 6.9122514e-05 0.00011729656 8.3307954e-05 6.9503716e-05
8.278641e-05 -9.030095e-06 -4.242867e-05 -2.5991645e-05 -2.970473e-05 -3.061133e-05 -0.0001023066 -1.2921499e-05
-2.3944576e-05 -9.488856e-05 8.189985e-05 1.5342019e-05 -9.839206e-05 6.32747e-05 4.0988347e-05 -0.00011264202
-2.8850589e-05 -1.4437706e-05 -7.440082e-06 -6.294178e-06 -2.656378e-05 -1.4910028e-05 -1.1107664e-05 5.4506178e-05
9.9306235e-06 -2.4985533e-05 1.0789154e-05 1.8543275e-05 -4.887886e-05 -2.6630303e-06 -1.291592e-05 7.2900175e-06
00000000: e050 1fb5 a5a6 cfb8 d82c 5e38 7055 2e37
00000010: 7e5c c036 aa12 18b7 e6a4 efb7 8692 b2b7
00000020: 4e03 9935 b664 c638 b073 70b8 e56a 74b6
00000030: 3523 8db7 925d f037 6a9c c9b8 349d 4a36
00000040: b25c 5538 6e65 1eb8 ac18 1e38 bb2b 3538
00000050: ebc2 5d38 0a28 4e38 925f b9b8 af26 6bb8
00000060: 02a6 b0b7 5697 44b7 6066 fc32 0086 a736
00000070: 8cd6 75b8 ec3a 8737 b73d 4839 e21a e038
00000080: d4b1 1638 a7ee 3eb7 db50 cbb7 8d55 d9b6
00000090: 30e9 5ab8 a0d3 31b5 1e5b a8b7 230c ddb7
000000a0: f477 c1b8 6bc4 c0b7 3004 f7b6 a40e 56b7
000000b0: 14a1 16b8 43b8 a4b8 5369 6fb6 be75 47b8
000000c0: 3092 d637 cac2 3eb8 5e61 e336 c68c 0939
000000d0: 24ef 2b38 b4c5 e5b7 6c84 a6b6 3a4a 1bb8
000000e0: 48ee 8538 677c 85b6 e8c8 f2b7 1a33 06b8
000000f0: 4aa8 6138 2c0e 06b7 9ee2 3a38 b206 82b7
00000100: e848 9938 3a49 63b8 4ba9 9c38 0960 72b7
00000110: ca7c 3638 b8d7 f637 e539 d6b7 020f aeb8
00000120: cf5c 45b7 36e3 8cb7 9fa9 95b8 6c0d b837
00000130: 7312 18b9 b463 03b7 cfb6 8238 3071 0db7
00000140: aa9b d6b5 2f49 55b8 472f 4eb7 f987 18b8
00000150: 6e66 1a38 778d 41b8 1d90 8f37 8495 f5b7
00000160: 34c5 37b6 8469 49b8 e005 a8b5 8e14 2838
00000170: def5 9038 1cfd f538 9eb5 ae38 86c2 9138
00000180: 9e9d ad38 f67f 17b7 70f5 31b8 a208 dab7
00000190: 6c2e f9b7 aa64 00b8 708d d6b8 6ac9 58b7
000001a0: 96dc c8b7 e8fe c6b8 a6c1 ab38 bcb2 8037
000001b0: d657 ceb8 59b2 8438 e7ea 2b38 393a ecb8
000001c0: 2b04 f2b7 7a39 72b7 d1a5 f9b6 9432 d3b6
000001d0: 48d5 deb7 1526 7ab7 0e5b 3ab7 909d 6438
000001e0: b49b 2637 0698 d1b7 1003 3537 618d 9b37
000001f0: 4703 4db8 83b6 32b6 74b1 58b7 c69c f436

exp_avg_sq f4 [128]
5.119316e-10 1.4306827e-08 1.0188749e-08 1.8867501e-08 1.2422584e-09 8.638305e-10 2.1195572e-09 2.138256e-09
1.5395543e-09 2.3547422e-08 2.2056147e-08 1.0320577e-09 4.660092e-08 2.1742652e-09 7.42708e-08 2.1772129e-09
2.1089336e-08 2.1577168e-08 4.1699373e-09 7.0727557e-09 6.9476624e-09 1.366899e-08 5.4537207e-08 4.7050996e-08
5.1700177e-09 5.1735255e-10 1.7302156e-08 9.315435e-10 4.7412376e-09 2.9144271e-08 6.5543595e-08 2.1064482e-08
5.4434497e-09 2.3773902e-10 1.8840947e-09 3.4368476e-08 1.2865273e-07 3.1855282e-10 2.965608e-09 4.2524392e-10
1.161462e-07 2.3646198e-08 4.859347e-09 1.0136892e-09 1.6494536e-08 3.6679037e-08 4.0477602e-10 4.9536627e-08
1.4981357e-08 2.0702888e-08 5.1300906e-09 2.4161814e-08 1.42056e-08 5.1383e-10 2.2845911e-10 1.8659835e-08
2.9570502e-08 7.296227e-11 1.8744313e-08 1.9384288e-08 8.776071e-09 3.44207e-08 1.4807602e-08 1.13642695e-08
2.4582956e-08 2.1630229e-09 2.811576e-08 1.6196323e-08 8.773952e-09 9.893432e-09 4.7553206e-09 8.404301e-08
2.113801e-10 5.5545057e-09 4.9272706e-09 1.0128528e-08 1.033979e-07 2.4240746e-10 1.7779229e-08 7.971068e-10
3.621748e-10 1.8444447e-09 1.2892379e-09 7.80208e-09 1.0740288e-08 1.42607135e-08 2.7708635e-08 9.421082e-10
4.996739e-10 1.435384e-09 1.8789292e-08 7.671296e-09 1.526444e-08 4.1786627e-08 1.7579652e-08 1.7726318e-08
1.9201675e-08 7.20656e-10 1.4864715e-08 1.6590205e-09 2.5965727e-09 2.985374e-09 4.9644715e-08 3.1505363e-09
4.622641e-09 2.1117872e-08 2.516467e-08 5.416711e-09 2.7352585e-09 2.2254381e-08 5.9355236e-09 1.6720657e-07
4.0057695e-09 3.0338015e-10 1.4404918e-09 2.9255076e-10 4.9265827e-09 7.886624e-09 6.9883727e-10 7.834364e-09
4.6224005e-10 1.1826735e-09 2.6710674e-09 1.2983267e-08 2.1464178e-08 4.8791533e-11 2.06459e-09 6.56683e-09
00000000: fcb7 0c30 17ca 7532 980a 2f32 1312 a232
00000010: 15bc aa30 ab72 6d30 a5a7 1131 99f0 1231
00000020: 4098 d330 5445 ca32 fb75 bd32 4dd8 8d30
00000030: 4126 4833 146a 1531 ce7e 9f33 ef9d 1531
00000040: f127 b532 b258 b932 2847 8f31 9e04 f331
00000050: 49b8 ee31 dbd4 6a32 4b3c 6a33 1e15 4a33
00000060: f5a3 b131 7335 0e30 d89f 9432 c607 8030
00000070: 5ee8 a231 ee58 fa32 f9c0 8c33 49f1 b432
00000080: 1709 bb31 cbb2 822f 5879 0131 8a9c 1333
00000090: cb23 0a34 5320 af2f 87cb 4b31 c3c7 e92f
000000a0: 0c6c f933 8a1e cb32 45f7 a631 0552 8b30
000000b0: deaf 8d32 0789 1d33 2987 de2f 19c2 5433
000000c0: 5ab0 8032 22d6 b132 c144 b031 648c cf32
000000d0: e40c 7432 923d 0d30 8631 7b2f 6949 a032
000000e0: 3902 fe32 1b72 a02e 2e03 a132 8082 a632
000000f0: 92c5 1632 f6d5 1333 8664 7e32 963c 4332
00000100: 7e2a d332 4da4 1431 3683 f132 1720 8b32
00000110: 40bc 1632 c6f7 2932 3e64 a331 227b b433
00000120: 356a 682f f3d9 be31 bb4c a931 bd01 2e32
00000130: 990b de33 d143 852f f0b8 9832 681b 5b30
00000140: 921b c72f a17f fd30 0731 b130 e909 0632
00000150: 4984 3832 48ff 7432 ef03 ee32 7c7b 8130
00000160: 6d59 0930 1647 c530 1766 a132 b7ca 0332
00000170: dc1e 8332 e278 3333 1002 9732 9644 9832
00000180: eef0 a432 a817 4630 b55f 7f32 9803 e430
00000190: 646f 3231 4127 4d31 f138 5533 d280 5831
000001a0: 2ed5 9e31 b166 b532 b229 d832 e51d ba31
000001b0: 2df7 3b31 e729 bf32 6bf1 cb31 6489 3334
000001c0: 1fa3 8931 f6c8 a62f cdfa c530 dcd4 a02f
000001d0: ae46 a931 bd7d 0732 4d18 4030 e697 0632
000001e0: 811e fe2f a08b a230 ea8d 3731 030d 5f32
000001f0: 3a60 b832 6296 562e a7e0 0d31 73a2 e131
