CCP-main/results/test01/WeightAgent_Training/WeightAgent_Training-1499981.pt (torch, 926564 bytes, 33 tensors)

network_body._body_endoder.seq_layers.0.weight f4 [128, 163]
0	0x3da63634	0.08115807
1	0xbd53d6c8	-0.051718503
2	0x3b36b593	0.0027879223
3	0x3cea6c50	0.0286161
4	0xbd0a125b	-0.03370891
5	0x3d52ddeb	0.05148117
6	0xbd0b42d6	-0.033999287
7	0xbd4182b0	-0.047243774
8	0xbd68a1d7	-0.056794968
9	0x3dc226e1	0.09480072
10	0xbbfe0fab	-0.0077533326
11	0xbe066d66	-0.1312767
12	0xbd8ce514	-0.06879631
13	0x3c1eb23f	0.009686052
14	0xbc41d370	-0.011830196
15	0x3d37e612	0.044897147
16	0xbe2e4f41	-0.1702242
17	0xbe214807	-0.15750133
18	0xbd9f8d6b	-0.07790645
19	0xbd8e179f	-0.06938099
20	0x3c60fd6f	0.013732298
21	0xbd48a7de	-0.048988216
22	0x3cbac01e	0.022796687
23	0x3d46fa0e	0.048578314
24	0xbddc61e3	-0.10760858
25	0xbd97ef89	-0.074187346
26	0xbc08096b	-0.008303027
27	0x3d36422f	0.04449671
28	0xbd60b172	-0.054856725
29	0xbde481c2	-0.11157562
30	0x3d68f2a1	0.056872014
31	0x3c218746	0.009858912
32	0x3e0aa736	0.13540348
33	0xbe26042b	-0.16212527
34	0x3de5d249	0.11221749
35	0xbda571e8	-0.080783665
36	0x3d6e2dbf	0.058149096
37	0x3c9c29c8	0.019062892
38	0xbc770d1c	-0.015078809
39	0xbe2960b3	-0.16540794
40	0x3c052171	0.008125649
41	0xbd88d6b9	-0.0668158
42	0x3bf7ed7b	0.0075661517
43	0xbd00bc49	-0.031429563
44	0xbb70f635	-0.0036767845
45	0xbd865f3c	-0.06561133
46	0xbcdd3985	-0.027004967
47	0x3e28b17a	0.16473952
48	0xbdcf5e19	-0.101253696
49	0x3a8e1074	0.0010838644
50	0x3dbb81f0	0.09155643
51	0xbda0376f	-0.07823073
52	0x3db6f4dd	0.08933423
53	0x3e671ab1	0.22568776
54	0x3d6dda1d	0.058069337
55	0x3de9dbe5	0.11418895
56	0xbc3b8b9b	-0.011446859
57	0x3db36e9e	0.08761333
58	0xbce07bdd	-0.027402813
59	0xbc92e1b5	-0.017929891
60	0xbd4cd2bb	-0.050005656
61	0x3b87b110	0.0041409805
62	0xbdcf3dbb	-0.10119196
63	0x3b65db7b	0.0035073448
64	0xbd4e454c	-0.050359055
65	0x3cb571b6	0.022148948
66	0xbdbc3cd3	-0.09191289
67	0xbb91b4de	-0.00444661
68	0xbcf000eb	-0.029297313
69	0x3ccc891c	0.024967723
70	0xbce1d40b	-0.02756693
71	0x3de3b80a	0.11119087
72	0x3d261016	0.040542684
73	0x3df2504e	0.11831723
74	0x3d670f4a	0.056411065
75	0xbe02744d	-0.12739678
76	0xbe2b4dde	-0.16728923
77	0x3dd5cb69	0.10439188
78	0xbdffd376	-0.12491505
79	0xbbf8d98a	-0.007594292
80	0x3df66745	0.12031416
81	0xbda22831	-0.07917822
82	0xbd10b26f	-0.035326418
83	0x3dfaa076	0.12237637
84	0xbd18ec09	-0.037334476
85	0x3d7dfc79	0.062008355
86	0x3cece954	0.028919853
87	0x3d3132c2	0.043261297
88	0xbdaf92d3	-0.08572926
89	0xbe3912df	-0.18073605
90	0x3d394957	0.045235958
91	0x3c40774e	0.011747194
92	0xbcd51366	-0.026010226
93	0xbda29d14	-0.079401165
94	0xbcc8d494	-0.024515428
95	0x3d95ebc0	0.07320356
96	0xbe2385e1	-0.1596904
97	0xbe5a9709	-0.21346678
98	0xbce3b083	-0.027794128
99	0x3cb578d7	0.022152347
100	0xbdcf12b0	-0.10110986
101	0x3d2d21ec	0.04226868
102	0x3ce45e0d	0.027876878
103	0xbcdb6894	-0.026783265
104	0x3d6c8c14	0.057750776
105	0x3d564804	0.052314773
106	0xbd8b93c1	-0.06815291
107	0x3ddef21b	0.10886022
108	0xbbf868ee	-0.007580868
109	0xbe3fd77e	-0.18734547
110	0xbc5b3da8	-0.013381399
111	0xbd3065f6	-0.043065988
112	0x3dbc827b	0.09204575
113	0xbd5079ca	-0.050897397
114	0x3c09a4f3	0.008401143
115	0xbd765a25	-0.060144562
116	0xbdfc8a3f	-0.12331056
117	0x3e29dc26	0.16587886
118	0x3dab44e2	0.08362748
119	0xbd7b21e5	-0.06131162
120	0x3c657d17	0.0140068745
121	0xbd838ac6	-0.06422953
122	0xbd50324d	-0.05082922
123	0xbd8142df	-0.06311583
124	0xbd150445	-0.036381025
125	0x3d0b4eca	0.034010686
126	0x3b4618e9	0.003022725
127	0xbcbdd432	-0.023172472
128	0xbe70f077	-0.2352923
129	0x3d69fcb9	0.05712578
130	0x3e4744b2	0.19459799
131	0x3d73b49e	0.05949842
132	0xbdc68620	-0.09693551
133	0xbcddecb4	-0.027090408
134	0x3d9e7b7e	0.07738398
135	0x3cbaa24b	0.022782465
136	0xbd8cbd02	-0.06871988
137	0xbe4da5b8	-0.20082748
138	0x3d456599	0.048192594
139	0xbe2c9248	-0.16852677
140	0xbbb1417d	-0.005409418
141	0xbdb2f8bd	-0.08738849
142	0x3c9ce309	0.019151228
143	0xbe242104	-0.1602822
144	0x3d3a903d	0.045547713
145	0xbdef1a48	-0.116749346
146	0xbd68f11c	-0.056870565
147	0xbd8efba5	-0.06981591
148	0x3d09075e	0.03345429
149	0xbe0c15fe	-0.13680264
150	0xbd21f160	-0.039536834
151	0x3d58218a	0.05276636
152	0xbe04b942	-0.12961295
153	0xbe097a2a	-0.13425508
154	0x3dcdeee5	0.10055331
155	0x3d8c9d0d	0.068658926
156	0xbe159a01	-0.14609529
157	0xbe24441a	-0.16041604
158	0xbd854b04	-0.06508449
159	0x3d27f6c0	0.041006804
160	0xbdd9d2e0	-0.10635924
161	0x3d5ed73d	0.054404486
162	0x3c81ce30	0.015845388
163	0xbde8bc4a	-0.11364038
164	0x3e0b6c79	0.13615598
165	0xbdb7197b	-0.08940407
166	0x3ca153ad	0.01969322
167	0xbd68b5a2	-0.056813844
168	0x3e148575	0.14504035
169	0x3e147c30	0.14500499
170	0xbdd3e2b6	-0.10345976
171	0x3cd8aa48	0.026448384
172	0xbd606214	-0.054781035
173	0xbd021362	-0.031756766
174	0x3df5dbcf	0.12004816
175	0x3e12ddca	0.14342418
176	0xbe190299	-0.14942397
177	0xbe9140e8	-0.28369832
178	0x3d944767	0.072401814
179	0xbdb70b2b	-0.08937677
180	0xbe66b5e8	-0.22530329
181	0x3dc24260	0.09485316
182	0x3e2ce605	0.1688462
183	0xbc5db51b	-0.013531948
184	0x3e6d467c	0.23171419
185	0x3d727f7e	0.059203617
186	0xbd1d190a	-0.038353957
187	0xbcd61a90	-0.026135713
188	0xbcb76035	-0.022384742
189	0xbe1e5c46	-0.15464887
190	0xbd7f8673	-0.06238408
191	0x3dc030ab	0.09384283
192	0x3e33a62c	0.17543858
193	0xbdaca295	-0.084294476
194	0x3df1f567	0.11814385
195	0x3d1facf4	0.0389833
196	0x3e4504a6	0.19240054
197	0xbbd7474a	-0.0065697776
198	0x3bcbd2da	0.006220204
199	0xbd7b3b7f	-0.061336037
200	0x3a67865d	0.00088319724
201	0x3e1df360	0.15424871
202	0x3d7bdd81	0.06149054
203	0xbc5f4655	-0.013627608
204	0x3b863987	0.0040962133
205	0xbc8b5e27	-0.017012669
206	0x3e48bff4	0.19604474
207	0xbd7134c2	-0.058888204
208	0xbde2f649	-0.110821314
209	0xbd52f365	-0.05150165
210	0xbdac190b	-0.08403214
211	0x3db2229a	0.08698006
212	0x3d8c68c7	0.06855922
213	0x3d83c09c	0.06433222
214	0xbd999f26	-0.07501058
215	0xbc524365	-0.012833451
216	0xbd31de3d	-0.043424834
217	0xbde631c6	-0.11239962
218	0xbd912e6d	-0.07088933
219	0x3db17098	0.08664054
220	0xbc10e614	-0.008843917
221	0xbdebff08	-0.11523253
222	0x3d410a0d	0.047128726
223	0xbcd6e564	-0.026232429
224	0xbd88349b	-0.06650659
225	0x3d673d20	0.056454778
226	0xbd831e7a	-0.06402297
227	0x3da43fd9	0.080199905
228	0x3935cd46	0.00017337975
229	0x3d74c1f6	0.059755288
230	0xbcca9c06	-0.0247326
231	0xbdfe7424	-0.12424496
232	0xbc9f24a8	-0.019426659
233	0x3d5196f3	0.051169347
234	0xbd1b0f11	-0.037856165
235	0x3e01ec16	0.12687716
236	0x3da11948	0.0786615
237	0x3d8def89	0.06930453
238	0x3d6b5447	0.05745342
239	0x3e0e015e	0.13867709
240	0x3e06a2ab	0.1314799
241	0x3c0634ca	0.008191297
242	0xbe0a8fc6	-0.13531408
243	0x3e0bf190	0.13666368
244	0x3c0c63bb	0.0085686995
245	0x3dd9d494	0.10636249
246	0x3d4b090d	0.04956918
247	0xbc79ee50	-0.015254572
248	0x3db39383	0.0876837
249	0xbd4fca19	-0.050729845
250	0x3e1da2f7	0.15394197
251	0x3dd0bfb8	0.101928174
252	0xbc83195a	-0.0160033
253	0x3d4806b5	0.04883452
254	0x3c515d22	0.012778552
255	0x3dd34346	0.10315566

network_body._body_endoder.seq_layers.0.bias f4 [128]
0	0xbcb8c301	-0.022553923
1	0x3d6066aa	0.054785408
2	0x3bdc64d4	0.006725887
3	0xbcfcd531	-0.030863376
4	0x3c123e01	0.008925916
5	0x3cc1d42d	0.023660744
6	0xba44996a	-0.0007499667
7	0x3c3869d8	0.011255704
8	0x3bf327b0	0.0074205026
9	0x3ce616fe	0.028087135
10	0xbc5dca83	-0.013537052
11	0x3cdc7db0	0.026915401
12	0x3cdfdaa3	0.027325934
13	0x3d4ac8cf	0.049507912
14	0xbc560e79	-0.013064974
15	0x3cf4a4f9	0.029863821
16	0x3b4d6cb7	0.0031345317
17	0x3ae816ee	0.0017707029
18	0x3cd15949	0.02555527
19	0xb8e5b54d	-0.00010953341
20	0x3b063475	0.0020478044
21	0x3c8f4694	0.017489709
22	0xbb2c8abf	-0.0026327816
23	0xbb3d8829	-0.002892027
24	0x3d15a3ba	0.036533095
25	0x3c246066	0.010032749
26	0x3c4b4c87	0.012408382
27	0x3d5b9fb3	0.053619098
28	0x3d168ff8	0.036758393
29	0x3cd45e19	0.025923776
30	0xbcc0b9ea	-0.02352615
31	0x3c41d062	0.0118294675
32	0x3c8304f7	0.015993578
33	0x3cea06f9	0.028567778
34	0x3c2e6e3f	0.010646402
35	0x3bda5a93	0.0066636293
36	0xbb847724	-0.004042523
37	0x3c0820f6	0.00830864
38	0x3d167756	0.0367349
39	0x3cb65d32	0.022261236
40	0x3c94c7b5	0.018161634
41	0x3b301774	0.0026869448
42	0x3c92173b	0.017833343
43	0xbbdc09e2	-0.0067150453
44	0x3d333e8f	0.043760832
45	0x3d41d1df	0.04731929
46	0x3cc9f562	0.02465314
47	0x3c0d869d	0.008638051
48	0x3bb634fc	0.0055605154
49	0xbca25c90	-0.019819528
50	0x3c21a91a	0.009866977
51	0x3d03859c	0.03210984
52	0xbbd6acfa	-0.006551382
53	0xbca43209	-0.02004339
54	0xbc369ede	-0.011146275
55	0xbcbac468	-0.022798732
56	0x3d0c0d22	0.034192212
57	0xbcc93ed4	-0.024566092
58	0x3d097518	0.033558935
59	0x3d73828b	0.059450667
60	0xbd31f3b2	-0.043445297
61	0x3ce1fd96	0.02758674
62	0x3d3f22c2	0.046664007
63	0x3d23972f	0.0399391
64	0xbd0d0378	-0.034427136
65	0x3d0ce8f6	0.034401856
66	0x3c6ad242	0.014332356
67	0x3cbff74d	0.023433352
68	0x3c692fb0	0.014232561
69	0x3d4e0dba	0.05030606
70	0xbba6bd53	-0.005088487
71	0x3ce2a622	0.027667109
72	0xbc4ad0f2	-0.012378918
73	0xbb99a618	-0.0046889894
74	0x3ca09b3d	0.019605273
75	0x3cc1075e	0.023563083
76	0x3d583ed2	0.052794285
77	0x3d3a1222	0.04542745
78	0xbd3daee8	-0.04630938
79	0xbc8945ce	-0.016756918
80	0xbb877385	-0.004133644
81	0xbd0fddfa	-0.035123803
82	0x3c864634	0.016390897
83	0x3cf70cec	0.030157529
84	0x3d82fe0f	0.06396114
85	0x3c03ec38	0.008051924
86	0x3d36595c	0.044518813
87	0xba857cae	-0.0010184252
88	0xbc8aa807	-0.016925825
89	0x3c9a59df	0.018841682
90	0x3d721040	0.05909753
91	0x3d17e7e1	0.03708637
92	0x3c3589c9	0.011080214
93	0x3c6491cb	0.013950775
94	0x3d6aa7c5	0.057288904
95	0xbc171df8	-0.009223454
96	0x3c5a2606	0.01331473
97	0x3d584f9b	0.052810293
98	0x3d1ad360	0.03779924
99	0x3cf6d4fb	0.030130854
100	0x3d505219	0.050859544
101	0x3b7bdee1	0.0038432407
102	0xbd02550f	-0.0318194
103	0x3d3b93c9	0.045795236
104	0xbc2e9170	-0.010654792
105	0x3d345a3d	0.04403137
106	0xbc85f9fe	-0.016354557
107	0x3c3523ff	0.011055945
108	0x3d2d7b02	0.042353638
109	0x3c168479	0.009186857
110	0xbc1764a4	-0.009240303
111	0x3c5b5c0c	0.013388645
112	0xbc0dd5a7	-0.008656896
113	0x3cc288c2	0.023746852
114	0x3c7497a7	0.014928735
115	0xbcb14bb0	-0.021642536
116	0x3cb24676	0.021762114
117	0x3b59202e	0.0033130753
118	0x3c016e51	0.007899837
119	0xbb577dd0	-0.0032881387
120	0xbc8d9a90	-0.017285615
121	0xbc6769a4	-0.014124308
122	0x3bce252a	0.0062910514
123	0x3c9b2c67	0.018942071
124	0xbb85bbf5	-0.004081244
125	0x3c6a4760	0.014299244
126	0x3d25495a	0.040353157
127	0x3ccdf3fc	0.025140755

network_body._body_endoder.seq_layers.2.weight f4 [128, 128]
0	0xbdee8c0b	-0.11647805
1	0xbda207da	-0.07911654
2	0xbbee8653	-0.0072791963
3	0xbd644388	-0.055728465
4	0xbd7574b6	-0.059925757
5	0xbcd59bac	-0.026075207
6	0xbd536bd8	-0.05161652
7	0x3e1594f6	0.14607605
8	0x3ded80a5	0.115968026
9	0x3d909c2c	0.070610374
10	0x3cad3678	0.021144137
11	0xbd2fb000	-0.042892456
12	0xbd6c8dc4	-0.057752386
13	0xbc767849	-0.015043327
14	0xbe06a6ad	-0.1314952
15	0x3dcba6cb	0.099439226
16	0xbb27180b	-0.0025496508
17	0xbdc7a0e2	-0.09747483
18	0xbe105c70	-0.14097762
19	0x3d69e2b4	0.057100967
20	0x3d56d03e	0.05244469
21	0xbd68c752	-0.05683071
22	0x3b24f203	0.0025168664
23	0x3d62f46a	0.055408873
24	0xb81e1cdf	-3.7697024e-05
25	0x3b220b40	0.0024725944
26	0xbe45093e	-0.19241807
27	0x3d86547f	0.06559085
28	0x3e4030db	0.18768637
29	0x3cc53e26	0.024077486
30	0xbcdf62dd	-0.027268821
31	0xbd31ed8b	-0.04343943
32	0xbe0fc1c7	-0.14038764
33	0xbceeaba6	-0.029134583
34	0x3ca71983	0.020397907
35	0x3d788ca7	0.06068101
36	0x3d4a40cd	0.049378205
37	0x3de895ca	0.11356695
38	0xbcd6e403	-0.026231771
39	0xbd39c4f1	-0.045353834
40	0xbd3c6573	-0.045995187
41	0x3e19a2c6	0.150035
42	0x3c976de5	0.018485019
43	0x3de236e9	0.110456295
44	0x3d8765f4	0.06611243
45	0x3ad89552	0.0016523993
46	0xbdd2a6a7	-0.10285693
47	0xbe123f1a	-0.14281884
48	0xbd8e8f7d	-0.06960962
49	0x3c1a7aa3	0.009428653
50	0xbdea989b	-0.114548884
51	0x3d004bb2	0.03132219
52	0x3d2c60ff	0.04208469
53	0x3d450e87	0.048109557
54	0x3dabda69	0.08391268
55	0x3dcba4ac	0.09943518
56	0x3e0c4385	0.13697632
57	0xbe42a960	-0.19009924
58	0xbe0172b2	-0.12641409
59	0xbc657e7f	-0.01400721
60	0xbdcffca6	-0.10155611
61	0xbd11a3e0	-0.035556674
62	0x3d601b6f	0.054713663
63	0x3d3c107c	0.04591416
64	0x3d080647	0.03320911
65	0xbd451d18	-0.04812345
66	0xbe5f7a35	-0.21823962
67	0xbe6e15d8	-0.2325052
68	0x3cb3c3aa	0.021943886
69	0xbe04f13b	-0.12982647
70	0xbd9837e7	-0.074325375
71	0x3cc547f8	0.024082169
72	0xbc9324e1	-0.017961921
73	0xbe4dfb18	-0.20115316
74	0xb9be0fa9	-0.00036251292
75	0x3d4121fa	0.047151543
76	0xbcbe77b5	-0.02325044
77	0xbdc50efd	-0.096219994
78	0x3dc0dd3d	0.09417198
79	0xbe0589d7	-0.13040863
80	0xba92fc5b	-0.0011214124
81	0xbd1e2429	-0.038608704
82	0x3ccf1f03	0.025283342
83	0x3db18fe9	0.08670027
84	0xbd173892	-0.036919184
85	0x3b1faf1d	0.002436585
86	0x3d0f3032	0.034958072
87	0xba46984a	-0.00075757934
88	0xbd3bc9b3	-0.045846652
89	0x3dda59a2	0.10661627
90	0xbdc51ddc	-0.09624836
91	0xbe79a104	-0.24377829
92	0xbdec969a	-0.115521625
93	0x3d57de46	0.05270221
94	0xbe0e5224	-0.13898522
95	0xbdce47d8	-0.10072297
96	0x3dd5ca3b	0.10438963
97	0xbe2b7889	-0.167452
98	0xbcfd24a6	-0.030901264
99	0xbe6365d6	-0.22206816
100	0xbdd83e75	-0.10558788
101	0xbcef5e26	-0.029219698
102	0x3dbf0f58	0.093290985
103	0xbe10b65e	-0.14132068
104	0xbd8cc49d	-0.068734385
105	0xbda315cc	-0.07963142
106	0xbd8d2062	-0.06890942
107	0xbbf5f2de	-0.0075057587
108	0x3d94a301	0.07257653
109	0xbe03b98e	-0.12863752
110	0x3e1c90ad	0.15289564
111	0xbd9acdf9	-0.075588174
112	0xbd893193	-0.06698909
113	0xbc6b6350	-0.01436694
114	0x3dbc8613	0.0920526
115	0x3be714c1	0.0070520346
116	0xb96edd6c	-0.00022779935
117	0xbc675532	-0.014119433
118	0xbd8a5bd7	-0.06755798
119	0xbd1d607a	-0.038422085
120	0xbd41d38c	-0.047320887
121	0xbe391903	-0.18075947
122	0xbd9878a8	-0.07444888
123	0x3c488f6e	0.012241228
124	0xbd8f5105	-0.06997875
125	0xbd981b9f	-0.07427143
126	0x3cb2b3ae	0.021814194
127	0xbd606da9	-0.05479208
128	0xbdbcb8f9	-0.09214968
129	0xbd9e4b6e	-0.07729231
130	0xbd32b6ec	-0.04363148
131	0xbd6b15e9	-0.057393942
132	0x3b9ba90b	0.004750376
133	0xbdbb8889	-0.091569014
134	0x3db04b54	0.08608118
135	0x3dc09396	0.0940315
136	0x3dee40a5	0.11633424
137	0x3df2e27f	0.11859607
138	0x3db3e86f	0.087845676
139	0xbc1688c1	-0.009187878
140	0x3a9b4cc2	0.0011848437
141	0x3e105a40	0.14096928
142	0xbdc039cc	-0.09386024
143	0x3da76539	0.081736036
144	0x3dc6183b	0.0967259
145	0x3dc9f45d	0.09861062
146	0x3dc56383	0.09638121
147	0x3df14f6f	0.11782729
148	0xbe19869a	-0.14992753
149	0x3dfa7a42	0.1223035
150	0xbd5489b3	-0.051889133
151	0xbd8e973a	-0.06962438
152	0x3d502068	0.050812155
153	0xbd9ce154	-0.076601654
154	0x3de5c3c4	0.1121898
155	0x3d5aad34	0.053387836
156	0x3d021476	0.031757794
157	0x3d039113	0.032120775
158	0xbd9f0ba8	-0.07765895
159	0x3e1db640	0.15401554
160	0x3ca9cf96	0.020728868
161	0x3ce4f715	0.02794985
162	0x3c27502a	0.010211984
163	0xbd79fc97	-0.061031904
164	0xbd04a7a9	-0.032386456
165	0xbda3197c	-0.07963845
166	0x3ddd34e3	0.10801103
167	0x3e1eb1e8	0.15497553
168	0xbd410d56	-0.04713186
169	0xbd962c79	-0.07332701
170	0xbe01312a	-0.12616411
171	0xba9e3b47	-0.0012072109
172	0xbd26bb4c	-0.040705964
173	0xbdbfbfdb	-0.093627654
174	0xbdf8076d	-0.12110791
175	0x3db900f9	0.09033389
176	0x3d13ea69	0.036112223
177	0xbe31ea83	-0.17374615
178	0xbd6fb9f0	-0.058526933
179	0xbd232907	-0.03983405
180	0x3d7ee052	0.062225647
181	0x3d8e4c27	0.06948119
182	0x3c53dca6	0.012931025
183	0xbc7c7998	-0.01540985
184	0xbd112bec	-0.035442278
185	0x3c438c78	0.011935346
186	0x3da6e2d0	0.0814873
187	0xbdc8d844	-0.098068744
188	0x3c12412b	0.00892667
189	0x3b46e15e	0.0030346732
190	0x3da97609	0.082744665
191	0xbd0665cb	-0.03281192
192	0xbc066e9f	-0.008205085
193	0xbd8b51fb	-0.06802746
194	0xbdc35dfa	-0.09539409
195	0xbdb22029	-0.0869754
196	0xbd6bd57f	-0.057576653
197	0xbc767a5b	-0.01504382
198	0xbddcb5e6	-0.10776882
199	0xbdea2df1	-0.11434544
200	0xbd6eb848	-0.058281213
201	0xbdc75535	-0.09733049
202	0xbd72a54c	-0.05923967
203	0x3ca498bf	0.020092366
204	0xbbb63cfe	-0.00556147
205	0xbdd9b6b2	-0.106305495
206	0x3d43b629	0.047781143
207	0x3c8d415f	0.017243085
208	0x3d4ccb70	0.0499987
209	0x3cc4e216	0.024033587
210	0x3df98dbd	0.121852376
211	0x3e3e9626	0.18611965
212	0x3d362696	0.044470392
213	0x3cd03d0b	0.025419733
214	0x3afcaa76	0.0019276876
215	0xbce12dd9	-0.027487682
216	0xbd7e9667	-0.062155154
217	0x3db669cf	0.089069
218	0x3dca0c51	0.098656304
219	0xbdd3d4f6	-0.103433535
220	0xbe2704d3	-0.16310434
221	0xbd1f2363	-0.038852107
222	0xbe144252	-0.14478424
223	0xbde7394c	-0.112902254
224	0x3c05730e	0.008145107
225	0xbc1f8a6b	-0.009737591
226	0x3e25e706	0.1620141
227	0x3d2d97b1	0.042380992
228	0x3d785f18	0.060637563
229	0x3e591413	0.21199064
230	0x3d839d6e	0.06426512
231	0x3d015081	0.031570915
232	0xbb845eae	-0.004039607
233	0x3ca56f4f	0.020194678
234	0x3cd6d232	0.026223276
235	0xbdbb43b3	-0.09143772
236	0x3e072a53	0.13199739
237	0xbce29fa6	-0.027664017
238	0x3c192ce8	0.009349085
239	0x3d0ae808	0.03391269
240	0xbe3f477e	-0.18679616
241	0x3daa92e3	0.08328798
242	0x3d2bdf29	0.04196087
243	0xbd78e67a	-0.060766675
244	0x3e5eafc5	0.21746738
245	0xbea85ee1	-0.32884887
246	0xbd521867	-0.051292803
247	0xbde6e842	-0.112747684
248	0xbd73fbe5	-0.059566397
249	0xbe1f51fd	-0.1555862
250	0xbddcd40f	-0.107826345
251	0x3e801c74	0.25021708
252	0xbe51a1a3	-0.20471816
253	0x3e5b1773	0.21395664
254	0x3df1e2af	0.118108146
255	0xbdeed51d	-0.11661742

network_body._body_endoder.seq_layers.2.bias f4 [128]
0	0xbcae06e5	-0.021243522
1	0x3d019448	0.031635553
2	0xb977018c	-0.00023556332
3	0x3c8cf751	0.017207773
4	0x3c8a86cf	0.016909985
5	0xbb75cf13	-0.003750746
6	0x3c32a5a7	0.010903752
7	0x3ca61c51	0.020277174
8	0x3cb09fa1	0.021560492
9	0xbc2ae1a1	-0.010429771
10	0xbb1eed95	-0.0024250497
11	0xbb61e557	-0.0034468973
12	0x3d28b21b	0.04118548
13	0xbba722cb	-0.005100583
14	0x3cf5054e	0.029909756
15	0x3c2a57ac	0.010396879
16	0x3cd598ba	0.026073802
17	0x3bae9576	0.0053278757
18	0xba7344cf	-0.00092799676
19	0x3d11accc	0.035565183
20	0x3c95d33a	0.018289197
21	0xbbbc422f	-0.0057451944
22	0xbb9ba88b	-0.0047503165
23	0x3cd8aed1	0.026450546
24	0x3b43fcd1	0.002990533
25	0x3b148331	0.0022661204
26	0x3cd98401	0.026552202
27	0x3c62d92e	0.013845725
28	0x3cd1d1ca	0.02561273
29	0xbcfb74be	-0.030695315
30	0x3c8eb257	0.017419023
31	0x3d2633fd	0.040576924
32	0x3bf4af8e	0.007467217
33	0x3c14c0cc	0.0090791695
34	0x3ccddea9	0.025130587
35	0x3d5557e6	0.05208578
36	0x3c7b97e0	0.015356034
37	0xbbab75fa	-0.0052325698
38	0x3c27bbc3	0.010237637
39	0x3d07144d	0.032978345
40	0x3beaab9b	0.0071615702
41	0x3cd484f2	0.0259423
42	0x3bc28bde	0.0059370836
43	0x3d687fc0	0.056762457
44	0x3d66dd5f	0.05636346
45	0xbb26ed8f	-0.0025471186
46	0x3ca65d7f	0.020308254
47	0x3a422aa2	0.00074068655
48	0x3d35690a	0.044289626
49	0x3d08ab1d	0.03336631
50	0x3d12e7d0	0.035865605
51	0xbc3d82ed	-0.01156686
52	0x3c7df730	0.015500829
53	0xbadd00ae	-0.0016861164
54	0x3ced2a00	0.028950691
55	0xbaab0b27	-0.0013049588
56	0x3c6f16c9	0.014592835
57	0xba5282bc	-0.0008030345
58	0x3d288e77	0.04115149
59	0x3cb5ee18	0.022208259
60	0x3cc960a1	0.024582209
61	0x3ac70d81	0.001518652
62	0x3cb651dc	0.02225583
63	0x3cd05a69	0.025433736
64	0x3be9fc6e	0.0071406877
65	0x3b67fc49	0.0035398176
66	0x3c8c96ee	0.017161813
67	0x3c93a59b	0.018023303
68	0x3c8fb42f	0.017541973
69	0x3ca9e55e	0.020739254
70	0x3d24678e	0.04013782
71	0xbcabb558	-0.020960495
72	0x3c99aa98	0.018758103
73	0x3c91b8b8	0.017788276
74	0xbc13a22d	-0.009010834
75	0xbc932f47	-0.01796688
76	0x3d17ceb4	0.03706236
77	0x3c87ca58	0.016575977
78	0x3c216d0a	0.009852657
79	0x3cb5ac51	0.022176893
80	0x3d34ea6f	0.044168886
81	0x3d4a82f5	0.049441297
82	0x3d846ffc	0.06466672
83	0xbcb90bbc	-0.022588603
84	0x3cd91bb2	0.026502464
85	0x3c39d22d	0.011341614
86	0x3c57e0cf	0.013176157
87	0x3c7660c1	0.015037716
88	0x3d14c35a	0.036319114
89	0x3c2088db	0.009798254
90	0x3cf7b2d9	0.030236648
91	0xbc071008	-0.008243568
92	0x3d140483	0.036137115
93	0xbc81f741	-0.01586497
94	0x3d0dede8	0.034650713
95	0x3d2f0f06	0.042738937
96	0x3ccf9eed	0.025344336
97	0xbc5fba8c	-0.013655316
98	0x3c9b0093	0.018921172
99	0x3d12f797	0.03588065
100	0xbb1ec41d	-0.002422578
101	0x3d14acb6	0.036297522
102	0x3cacee83	0.021109825
103	0xbc3122e2	-0.010811539
104	0x3d1d36f8	0.0383825
105	0x3c56e8c9	0.013117024
106	0x3d1faea9	0.03898493
107	0xbcad89d7	-0.021183891
108	0x3c3434ee	0.010998948
109	0xbcc0b113	-0.023521936
110	0x3c9f61e9	0.019455867
111	0x3be82fdd	0.007085784
112	0x3c6aa538	0.014321618
113	0xbc954aa8	-0.018224075
114	0x3c99646f	0.018724648
115	0x3d1c0434	0.038089946
116	0x3c470592	0.012147324
117	0x3d08fcfd	0.033444393
118	0xbcc1c4a2	-0.023653332
119	0x3cbca54d	0.02302804
120	0xbce21fb1	-0.027603002
121	0xbc0c7c25	-0.00857452
122	0x3b777fe9	0.003776545
123	0x3a0d3006	0.0005385879
124	0xbcd33114	-0.025780238
125	0x3a406d76	0.00073405297
126	0x3c8bada4	0.017050572
127	0x3cbaf786	0.022823106

action_model._discrete_distribution.branches.0.weight f4 [7, 128]
0	0x3aa762ec	0.001277057
1	0xbd2cb3da	-0.042163707
2	0xbbb3afd1	-0.0054836054
3	0x3c4c671b	0.012475754
4	0x3c6524a9	0.013985791
5	0x3b2762a9	0.0025540984
6	0x3b670489	0.0035250506
7	0xbc9b916a	-0.018990237
8	0xbb335cab	-0.0027368467
9	0x3bf801a6	0.007568556
10	0xbd049354	-0.032367066
11	0xbcd1dca5	-0.025617907
12	0xbccee2ae	-0.025254574
13	0x3a9c31c8	0.0011916691
14	0xbd102e21	-0.035200242
15	0xbca452e5	-0.020059058
16	0xbc67297f	-0.0141090145
17	0xbc67051d	-0.01410034
18	0x3c913dde	0.017729696
19	0xbc19c6ca	-0.009385774
20	0x3c13b2b7	0.009014777
21	0x3b02f3b7	0.001998169
22	0x3b808d98	0.0039231293
23	0x3c321ce2	0.010871144
24	0x3b20ab99	0.0024516343
25	0xbca9f825	-0.020748207
26	0x3c6845f7	0.014176837
27	0xbd0c8cc6	-0.03431394
28	0x3d03bc82	0.032162197
29	0xbc282b4a	-0.010264227
30	0xbc7bad86	-0.015361195
31	0x3c2bf2a1	0.010494859
32	0xbcf6afe5	-0.03011317
33	0xbcc6d7a3	-0.024272745
34	0x3ce195b3	0.027537202
35	0x3c408e1c	0.0117526315
36	0x3b042b15	0.002016728
37	0xba309248	-0.0006735665
38	0xbc768c49	-0.015048095
39	0xbc4755cd	-0.012166453
40	0xbd3916d2	-0.04518778
41	0xbae900c2	-0.0017776715
42	0xbb8be30b	-0.004269009
43	0x3b95ab51	0.0045675416
44	0xbd13526e	-0.035967283
45	0x3d19fdbb	0.03759549
46	0xbc2adee9	-0.0104291225
47	0xbcf5eab0	-0.030019134
48	0xbc898226	-0.016785692
49	0x3b7e0de3	0.0038765601
50	0xbcddfe26	-0.027098726
51	0x3c5aefee	0.013362868
52	0xbbbe281d	-0.0058031217
53	0xbc326094	-0.010887284
54	0xbcd15411	-0.025552781
55	0x3b85151f	0.0040613557
56	0xbbd241c5	-0.0064165317
57	0x3b8ae938	0.0042392276
58	0xbc6133ec	-0.013745289
59	0xbb84f1b7	-0.004057135
60	0xbcf556cb	-0.029948613
61	0x3c0ffbb5	0.008788039
62	0xbd0ee091	-0.034882132
63	0xbcf91af3	-0.030408358
64	0xbcb746c0	-0.022372603
65	0xbcbbc36d	-0.022920335
66	0x3be66a02	0.00703168
67	0xbc7bc9f6	-0.015367975
68	0xbc152078	-0.009101979
69	0x3c302a7d	0.0107523175
70	0xbc96c5f6	-0.018404942
71	0xbb0eb9df	-0.0021778268
72	0xbd3ca089	-0.046051536
73	0x3cfa929f	0.030587493
74	0x3ca1c873	0.019748902
75	0x3aede2d6	0.0018149267
76	0xbc36e447	-0.011162824
77	0x3d7017db	0.0586165
78	0xbcbbecbc	-0.022940032
79	0xbcd9a78d	-0.026569152
80	0xbc6ee20c	-0.014580261
81	0x3cf8fe18	0.030394599
82	0xbbaee449	-0.0053372723
83	0x3ba3345f	0.0049806084
84	0xbc48784a	-0.01223571
85	0x3c8a1e4c	0.01686015
86	0xbd3b5400	-0.045734406
87	0xbc7e3481	-0.015515448
88	0xbb1f7802	-0.0024333005
89	0xbc5ffd78	-0.0136712715
90	0xbc3670be	-0.011135278
91	0x3cdbc7dc	0.026828699
92	0xbc76f04d	-0.015071941
93	0x3c5d7f5c	0.013519134
94	0xbcbb14ac	-0.022837006
95	0xbc3d47af	-0.011552735
96	0x3cb8b5f9	0.022547709
97	0xbc2c530f	-0.01051785
98	0xbc2d9834	-0.01059537
99	0x3d340c86	0.043957256
100	0x3b556db2	0.0032566604
101	0xbb854485	-0.004067006
102	0xbc59e137	-0.013298324
103	0xbb7d0b25	-0.003861138
104	0xbc47d221	-0.012196095
105	0xbcbd3db0	-0.023100704
106	0xbc88ceea	-0.016700227
107	0xbbe7422b	-0.0070574484
108	0x3be9cfa0	0.0071353465
109	0xbd0a54fd	-0.033772457
110	0x3d3291f4	0.043596223
111	0xbbecab41	-0.0072225635
112	0xbc79a241	-0.015236438
113	0xbc9f775c	-0.019466095
114	0xbcc73877	-0.024318917
115	0xbbb10a33	-0.005402827
116	0xbb8cf89a	-0.0043020966
117	0xbc035f18	-0.008018278
118	0xbbe1c85b	-0.0068903393
119	0x3b921169	0.004457642
120	0x3baa9792	0.005206057
121	0xbc781500	-0.015141726
122	0xbb9d7d23	-0.004806177
123	0xbcade7a8	-0.021228626
124	0xbcf99871	-0.030468198
125	0x3b933fa0	0.0044936687
126	0x3c9331ae	0.017968025
127	0x3c5b3ab5	0.013380696
128	0xbcb285c8	-0.021792307
129	0x3d12bccb	0.03582458
130	0xbccc4d59	-0.024939226
131	0x3c6b565d	0.014363852
132	0x3cc7eaa5	0.02440388
133	0xbcc7f694	-0.02440957
134	0xbcab5d9d	-0.020918662
135	0xbc045595	-0.008077045
136	0xbd8e1805	-0.06938175
137	0xbc818b4e	-0.015813496
138	0x3c308e50	0.010776117
139	0xbbe3bab8	-0.006949749
140	0x3dc4d2f4	0.096105486
141	0xbc74ebfd	-0.014948842
142	0x3cdc6eb4	0.026908256
143	0x3d4c78a1	0.04991973
144	0x3c9ac8d2	0.018894587
145	0xbd185238	-0.037187785
146	0xbbc6b45b	-0.0060639805
147	0x3d2b4356	0.041812263
148	0x3c278b07	0.010226018
149	0xbc5bf359	-0.013424718
150	0xbc0fdd1d	-0.008780745
151	0xbe073302	-0.13203052
152	0xbcd999df	-0.02656263
153	0xbca4f3c0	-0.02013576
154	0x3b08144f	0.0020764058
155	0x3d630395	0.055423338
156	0xbd188962	-0.037240393
157	0x3cd9a2ee	0.026566949
158	0xbb93fe12	-0.0045163715
159	0x3cbbbfe4	0.022918649
160	0xbd6cfee0	-0.057860255
161	0x3c6c84cd	0.014435959
162	0xbde5cc80	-0.11220646
163	0x3b79a231	0.0038091058
164	0x3d046558	0.03232321
165	0xbd0e34a2	-0.034718163
166	0xbc9e2b20	-0.019307673
167	0x3da402f0	0.08008373
168	0x3ca38adf	0.01996368
169	0xbcf35125	-0.029701779
170	0x3bcbba6d	0.006217292
171	0x3d33c106	0.043885253
172	0x3ba45acb	0.005015706
173	0xbb437e82	-0.0029830043
174	0x3d9f6262	0.07782437
175	0x3ac67d0d	0.0015143469
176	0x3daf2b17	0.085531406
177	0x3d49c66d	0.0492615
178	0xbc848bcc	-0.016179942
179	0xbc9594ed	-0.01825949
180	0x3cbe9d4d	0.023268366
181	0x3b7c0e15	0.0038460542
182	0x3cfbfd14	0.030760325
183	0xbace62eb	-0.0015746033
184	0xbb1b24a6	-0.0023672967
185	0xbc89a757	-0.016803427
186	0x3dc32c11	0.095298894
187	0xbc8cbcf7	-0.01717995
188	0x3cab1585	0.020884285
189	0x3c587b83	0.013213041
190	0x3abe52d1	0.0014520531
191	0x3d3586dc	0.044318065
192	0x3ca2aa83	0.019856697
193	0x3ce6744e	0.02813163
194	0x3d00a25f	0.03140485
195	0xbd3d25a2	-0.046178468
196	0xbc8b592f	-0.0170103
197	0x3d572880	0.05252886
198	0x3b593c37	0.0033147463
199	0xbcc2bfc9	-0.02377309
200	0x3c220c93	0.009890693
201	0xbd9a66dc	-0.0753915
202	0xbbcce41a	-0.0062527778
203	0x3bf75bb0	0.007548772
204	0x3d50a81b	0.050941568
205	0xbdbbef74	-0.091765314
206	0x3c3ac8b7	0.011400393
207	0x3c550d78	0.0130036995
208	0xbd783350	-0.06059581
209	0x3c062ce0	0.00818941
210	0x3d943ae9	0.07237799
211	0xbc9b0bf1	-0.018926593
212	0x3ca86bbd	0.020559186
213	0xbc8d37e9	-0.017238574
214	0x3c66294b	0.014047931
215	0x3cdfb35e	0.027307209
216	0xbd03dde7	-0.032194044
217	0xbd604e06	-0.05476191
218	0x3d91682d	0.07099948
219	0xbd625cc0	-0.055264235
220	0xbcc530c9	-0.024071114
221	0xbbaaf4bd	-0.0052171634
222	0xbceb88ee	-0.028751817
223	0x3d5e4891	0.054268423
224	0xbdacdd3b	-0.08440634
225	0xbd0c7441	-0.034290556
226	0xbcdf82e2	-0.02728409
227	0xbe05f604	-0.13082129
228	0xbc889329	-0.016671734
229	0x3a5098ff	0.00079573685
230	0xbc8cac97	-0.017172141
231	0xbcf5454c	-0.02994027
232	0x3d994289	0.07483394
233	0xbd2cbbb7	-0.042171206
234	0x3dc188eb	0.09449943
235	0xbcd52604	-0.026019104
236	0xbc9ee8ca	-0.019398112
237	0xbb4b089d	-0.0030980476
238	0xbc7505b6	-0.014954975
239	0xbd72e71d	-0.059302438
240	0xbc707cf1	-0.014678226
241	0xbc93e1de	-0.018052038
242	0x3c923bac	0.01785072
243	0x3d9090e2	0.07058884
244	0xbbc548e8	-0.006020654
245	0xbd5d3e78	-0.054014653
246	0x3c062dda	0.008189643
247	0x3da38481	0.079842575
248	0xbd171a00	-0.03689003
249	0xbc80a991	-0.015705856
250	0x3c86b7b2	0.016445015
251	0xbcc80000	-0.024414062
252	0xbc88fd6a	-0.0167224
253	0xbbf9e60d	-0.007626301
254	0xbd7eb0a2	-0.06218017
255	0xbc9390e8	-0.018013433

action_model._discrete_distribution.branches.0.bias f4 [7]
0	0xbb49b530	-0.0030778162
1	0x3c9cd89b	0.019146254
2	0xbca7cd0b	-0.020483514
3	0x3b91b294	0.004446337
4	0xbc59ba31	-0.01328902
5	0xbc36587a	-0.011129493
6	0x3c779206	0.015110498

exp_avg f4 [128, 163]
0	0xb7102122	-8.590783e-06
1	0xb69a11bf	-4.5916236e-06
2	0x364ca7e7	3.04961e-06
3	0xb71f3ab3	-9.4908055e-06
4	0xb77d042e	-1.5080948e-05
5	0x36b9b014	5.533928e-06
6	0xb727c4dd	-9.9998115e-06
7	0x354688f6	7.396005e-07
8	0xb7855b3c	-1.589732e-05
9	0xb795b432	-1.7846094e-05
10	0xb716cc63	-8.988284e-06
11	0xb70c15d1	-8.34973e-06
12	0x35ec4a5b	1.760501e-06
13	0xb687c39f	-4.046087e-06
14	0xb7363ea0	-1.0862626e-05
15	0x3637b358	2.7373517e-06
16	0xb71db59d	-9.400214e-06
17	0xb710c040	-8.6278305e-06
18	0xb6916367	-4.3329087e-06
19	0xb754bfd5	-1.2680849e-05
20	0xb743d781	-1.1673082e-05
21	0xb66fb19e	-3.5717162e-06
22	0x35f6f966	1.8401013e-06
23	0xb6d0abfd	-6.218905e-06
24	0xb72e1bd6	-1.0377689e-05
25	0x3651698a	3.1204859e-06
26	0xb6e4755d	-6.8085924e-06
27	0xb70a499d	-8.24258e-06
28	0xb70110d0	-7.692914e-06
29	0xb77b1481	-1.496554e-05
30	0xb7724c30	-1.4442063e-05
31	0xb6b551cf	-5.403744e-06
32	0x363d48f3	2.8205657e-06
33	0xb62e5f8f	-2.5983643e-06
34	0xb71bced3	-9.286875e-06
35	0x36104426	2.149734e-06
36	0xb6c5e58d	-5.8977807e-06
37	0xb6f4dc6a	-7.2974262e-06
38	0xb70feac9	-8.578129e-06
39	0xb763d3f2	-1.3579602e-05
40	0xb6be57a5	-5.6726444e-06
41	0xb63ea57a	-2.8408526e-06
42	0xb6126320	-2.1813394e-06
43	0xb715ccbd	-8.928761e-06
44	0xb75eefbb	-1.3288048e-05
45	0x3616efac	2.249125e-06
46	0xb689bd77	-4.104975e-06
47	0xb7168430	-8.971474e-06
48	0xb71393bc	-8.79628e-06
49	0xb76080a4	-1.3381392e-05
50	0xb6ced4e7	-6.1640635e-06
51	0xb6561d25	-3.190545e-06
52	0xb65a371f	-3.2516616e-06
53	0xb6eb766c	-7.017332e-06
54	0xb7618230	-1.3441357e-05
55	0xb629e544	-2.5316413e-06
56	0xb65d73ea	-3.2999037e-06
57	0xb6eb20b4	-7.007353e-06
58	0xb6e3a829	-6.7847036e-06
59	0xb742ff36	-1.1622722e-05
60	0xb68e9fdb	-4.2505394e-06
61	0xb64e8ef7	-3.0779609e-06
62	0xb65f169a	-3.3242745e-06
63	0xb7168169	-8.970827e-06
64	0xb7857692	-1.591005e-05
65	0xb6a43788	-4.8940456e-06
66	0xb5ad3f6e	-1.2907965e-06
67	0xb72910a4	-1.0077059e-05
68	0xb6619991	-3.3617e-06
69	0xb701b134	-7.7302575e-06
70	0xb710d1f9	-8.631957e-06
71	0xb597d688	-1.1312814e-06
72	0xb6feeaac	-7.5971093e-06
73	0xb617e264	-2.263253e-06
74	0xb75b1704	-1.3058776e-05
75	0xb725080e	-9.836642e-06
76	0xb58a0d85	-1.0285736e-06
77	0xb6cda3bc	-6.1285373e-06
78	0xb6307c76	-2.629849e-06
79	0xb6e94616	-6.9521e-06
80	0xb70b9d14	-8.321618e-06
81	0x362fafe4	2.6179414e-06
82	0xb70697fb	-8.022408e-06
83	0xb6c5e34a	-5.8975174e-06
84	0xb7437fca	-1.1652659e-05
85	0xb770e534	-1.435848e-05
86	0x345c8200	2.053639e-07
87	0xb620f496	-2.3984226e-06
88	0xb64e299c	-3.0720612e-06
89	0xb708f2d0	-8.162766e-06
90	0x3361f6c8	5.261134e-08
91	0xb51f6f6d	-5.939426e-07
92	0xb71689cc	-8.97278e-06
93	0xb7299bee	-1.010949e-05
94	0xb776dfb0	-1.4714824e-05
95	0xb6fb91ee	-7.4973714e-06
96	0xb5f8f9ea	-1.8550174e-06
97	0xb6e89460	-6.931412e-06
98	0xb6602159	-3.3398012e-06
99	0xb7544499	-1.2652156e-05
100	0xb620246c	-2.3863058e-06
101	0xb5790a1c	-9.277444e-07
102	0xb72aa915	-1.0172157e-05
103	0xb6cdefd1	-6.1373944e-06
104	0xb783c89a	-1.570983e-05
105	0xb6eea22c	-7.111832e-06
106	0x3592ea71	1.0946079e-06
107	0xb66f2184	-3.5633284e-06
108	0xb7287e90	-1.0043048e-05
109	0xb760b499	-1.3393489e-05
110	0xb6c9cfe1	-6.014467e-06
111	0xb6027ee9	-1.944538e-06
112	0xb72389f5	-9.747678e-06
113	0xb600a469	-1.9169186e-06
114	0xb7479d62	-1.1897968e-05
115	0xb6f67c4a	-7.3458405e-06
116	0xb6341d28	-2.6839061e-06
117	0x34f40cfc	4.545799e-07
118	0xb72895b1	-1.0048433e-05
119	0xb763beb8	-1.35746595e-05
120	0xb6d920d4	-6.4709257e-06
121	0xb52d8386	-6.4638914e-07
122	0xb6d044bd	-6.2068852e-06
123	0xb6d35f76	-6.299403e-06
124	0xb7646274	-1.3612782e-05
125	0xb74c0caf	-1.2162301e-05
126	0xb646545f	-2.955341e-06
127	0xb3d24930	-9.7922e-08
128	0xb693e8c2	-4.408038e-06
129	0xb74b6411	-1.2123041e-05
130	0xb7134575	-8.7780545e-06
131	0x3664e43c	3.4107497e-06
132	0xb4307739	-1.643465e-07
133	0xb76c6c75	-1.4091948e-05
134	0xb7971e63	-1.8014753e-05
135	0xb750ef54	-1.2453489e-05
136	0xb693ccd6	-4.4047874e-06
137	0xb4c68d5c	-3.6983226e-07
138	0xb620c23e	-2.3954922e-06
139	0xb7505e67	-1.2419746e-05
140	0xb782d68b	-1.5597112e-05
141	0xb51a248c	-5.7422653e-07
142	0x3416a1a8	1.4028649e-07
143	0xb671177e	-3.5925473e-06
144	0xb7417219	-1.1530262e-05
145	0xb734fe46	-1.0788039e-05
146	0xb55c8830	-8.2154565e-07
147	0xb574c832	-9.1188406e-07
148	0xb6ee4ed9	-7.102132e-06
149	0xb7410b00	-1.1506258e-05
150	0xb734fe46	-1.0788039e-05
151	0xb55c8830	-8.2154565e-07
152	0xb574c832	-9.1188406e-07
153	0xb6ee4ed9	-7.102132e-06
154	0xb7410b01	-1.15062585e-05
155	0x36101479	2.1469589e-06
156	0xb785a7ec	-1.593303e-05
157	0xb712be8c	-8.746643e-06
158	0xb9f413b8	-0.00046553998
159	0xb718d1ed	-9.108783e-06
160	0xb758b14e	-1.2915885e-05
161	0xb729a38a	-1.0111262e-05
162	0xb727b0b6	-9.995119e-06
163	0x393fe4b7	0.00018300382
164	0x39a0baac	0.0003065666
165	0xb8c9e917	-9.627843e-05
166	0x392b97d9	0.00016364398
167	0x39c4cde6	0.0003753744
168	0xb9178594	-0.00014450244
169	0x39e86596	0.00044326176
170	0x36df0de8	6.647537e-06
171	0x3983dfb0	0.00025152927
172	0x3a0cd0f0	0.000537171
173	0x39b32a54	0.00034173077
174	0x3947fae0	0.00019071577
175	0xb92e28ee	-0.0001660918
176	0x3947d6c0	0.0001905812
177	0x39a134ec	0.00030747743
178	0xb77d9e4c	-1.51168315e-05
179	0x396fdf39	0.00022875973
180	0x3948ff24	0.00019168534
181	0x391ef8e6	0.00015160776
182	0x39eef141	0.00045574646
183	0x399e947d	0.0003024674
184	0x38e308ff	0.00010825879
185	0xb8a0b9af	-7.663981e-05
186	0x3969acb8	0.00022284954
187	0x39a7e19a	0.00032020808
188	0xb8a37240	-7.7937264e-05
189	0x397f5f93	0.00024354299
190	0x38f4e7a9	0.00011677977
191	0x398ff189	0.00027455043
192	0x39fe2688	0.00048475363
193	0x3993c607	0.00028185567
194	0x39bcc68e	0.0003600609
195	0xb90d40ac	-0.000134709
196	0x38509380	4.9728435e-05
197	0x3989bfd4	0.000262736
198	0x38b9c665	8.858441e-05
199	0x3904d073	0.00012666154
200	0xb893546a	-7.0252296e-05
201	0x39d7f9f7	0.00041194234
202	0x39c3d616	0.00037352805
203	0xb7e4c449	-2.727112e-05
204	0x39a6b77f	0.00031798703
205	0x3890556d	6.882367e-05
206	0x394efc35	0.00019739645
207	0x39880696	0.00025944848
208	0x37b57afa	2.1634147e-05
209	0x38d2ca70	0.00010051287
210	0xb695e460	-4.4671324e-06
211	0x39e64bf4	0.00043925608
212	0x39eadbc8	0.00044795708
213	0x3981ef77	0.00024783213
214	0x398b289e	0.00026542408
215	0x3924f9c2	0.00015733301
216	0xb8ee5916	-0.00011365318
217	0x3956e990	0.00020495639
218	0x39813fa3	0.0002465221
219	0x391af85f	0.0001477911
220	0xb9213658	-0.00015374401
221	0x39a5de06	0.00031636673
222	0x3999e40c	0.00029352342
223	0x39a915c2	0.00032250403
224	0x38c8e521	9.579422e-05
225	0x3902938a	0.00012452729
226	0x376cbc48	1.4110534e-05
227	0x39734d41	0.00023203065
228	0x39ad343a	0.00033036043
229	0x39364194	0.00017381302
230	0xb8c37c68	-9.321497e-05
231	0x39191188	0.00014597748
232	0x3978d71c	0.00023731258
233	0x39b2aaf7	0.00034078184
234	0x38cb6574	9.6986914e-05
235	0xb8781455	-5.9146743e-05
236	0x393af9d2	0.00017831408
237	0x39ab1344	0.00032630016
238	0x3999464e	0.00029234815
239	0x393e2939	0.00018135169
240	0xb83de901	-4.5278113e-05
241	0x3906c1cc	0.00012851431
242	0x3936f244	0.00017447124
243	0x39b51f38	0.0003454627
244	0xb8e187b7	-0.00010754115
245	0xb84a05ac	-4.8165835e-05
246	0x39c0821c	0.00036718033
247	0x39a280d7	0.0003099504
248	0x38ab4bd9	8.168043e-05
249	0xb818e315	-3.645111e-05
250	0x39740e18	0.00023274904
251	0x39924111	0.00027895768
252	0x3a08032e	0.0005188462
253	0x39919035	0.00027763998
254	0x3884c71b	6.331337e-05
255	0xb712b34c	-8.744024e-06

exp_avg_sq f4 [128, 163]
0	0x300aae99	5.0452226e-10
1	0x2f439591	1.7788283e-10
2	0x2f4d5aad	1.8676856e-10
3	0x30463eb4	7.2121087e-10
4	0x3098ca54	1.1116961e-09
5	0x30250725	6.0036803e-10
6	0x2f52e410	1.9180413e-10
7	0x2f4a1b02	1.8381388e-10
8	0x303514d5	6.587702e-10
9	0x30962786	1.092517e-09
10	0x3004ea3f	4.8354204e-10
11	0x2f8597ab	2.4300326e-10
12	0x2f5c0f40	2.0014301e-10
13	0x302f2fcb	6.3732547e-10
14	0x30931186	1.0700638e-09
15	0x30091a19	4.9877397e-10
16	0x2f4e471d	1.8760855e-10
17	0x2f528857	1.9147826e-10
18	0x3043c975	7.1226874e-10
19	0x309410b3	1.0773163e-09
20	0x2fecd6cf	4.308078e-10
21	0x2f9171d0	2.6456215e-10
22	0x2f80a25d	2.339843e-10
23	0x302c2290	6.262235e-10
24	0x308daeee	1.0308818e-09
25	0x2ff85979	4.517451e-10
26	0x2f665e8a	2.0951965e-10
27	0x2f62c3d5	2.0624154e-10
28	0x304a7bde	7.36632e-10
29	0x309415b4	1.0774586e-09
30	0x2ff72ebf	4.4962253e-10
31	0x2f9d4f93	2.8614675e-10
32	0x2f8a499a	2.515435e-10
33	0x301bb411	5.664456e-10
34	0x308a3c12	1.0057895e-09
35	0x2ffa4bff	4.5528734e-10
36	0x2f72bb86	2.2076393e-10
37	0x2f773a83	2.2485307e-10
38	0x3038e97f	6.727063e-10
39	0x30906174	1.0505077e-09
40	0x2fddec24	4.0367454e-10
41	0x2f964ac0	2.7337954e-10
42	0x2f89067a	2.4924757e-10
43	0x3025bf4b	6.0298494e-10
44	0x308cfd8c	1.0258403e-09
45	0x2fd61244	3.8939352e-10
46	0x2fabfb7d	3.1283412e-10
47	0x2f93ca94	2.6883085e-10
48	0x30239eb9	5.9524613e-10
49	0x3091ffa4	1.0622796e-09
50	0x2fee0f35	4.3302753e-10
51	0x2f97de71	2.7624794e-10
52	0x2f856a3c	2.4268043e-10
53	0x30189ad1	5.5517285e-10
54	0x308ea7a2	1.0379504e-09
55	0x2fd1280b	3.804533e-10
56	0x2f844726	2.4061214e-10
57	0x2fc84725	3.643034e-10
58	0x301b620d	5.652801e-10
59	0x308c0909	1.0188909e-09
60	0x2fc506e8	3.5838998e-10
61	0x2f9f628d	2.8991956e-10
62	0x2f658a86	2.0876642e-10
63	0x30380e76	6.695936e-10
64	0x309562f1	1.0869298e-09
65	0x2fbbc14b	3.4152445e-10
66	0x2f76186a	2.2382243e-10
67	0x2fda2ffd	3.9688067e-10
68	0x3023ba2e	5.956363e-10
69	0x308e9853	1.0375153e-09
70	0x2fbbfb0f	3.419349e-10
71	0x2fb0540d	3.2073935e-10
72	0x2f49a900	1.8340884e-10
73	0x3044cb1b	7.1593015e-10
74	0x309af516	1.1274632e-09
75	0x2fb96bbf	3.3727862e-10
76	0x2f6d1d08	2.1565338e-10
77	0x2fddf5c0	4.0374282e-10
78	0x302775b1	6.0921496e-10
79	0x308ea46a	1.0378589e-09
80	0x2fc8acc4	3.6502545e-10
81	0x2fabe206	3.1265318e-10
82	0x2f563596	1.9482224e-10
83	0x303e368b	6.919911e-10
84	0x30965244	1.0937318e-09
85	0x2fd0031c	3.783719e-10
86	0x2f6c5288	2.1493396e-10
87	0x2fd88ace	3.9388798e-10
88	0x301d3846	5.7196237e-10
89	0x308eb3c6	1.0382954e-09
90	0x2fbf3484	3.4780012e-10
91	0x2fde231c	4.0406511e-10
92	0x2f562ea9	1.9479764e-10
93	0x302ca6d9	6.281034e-10
94	0x3098b078	1.1109611e-09
95	0x2fd2f48f	3.8372547e-10
96	0x2f52a09b	1.9156447e-10
97	0x2fc441c1	3.5698913e-10
98	0x302ffba3	6.4022226e-10
99	0x3092488d	1.0643518e-09
100	0x2fb8909e	3.3572162e-10
101	0x2fcaef46	3.69136e-10
102	0x2f824891	2.3698424e-10
103	0x302d080a	6.294846e-10
104	0x309a1c1b	1.1212963e-09
105	0x2fd5643e	3.88157e-10
106	0x2f38c3f3	1.6804318e-10
107	0x2fc5a091	3.594818e-10
108	0x30363c2e	6.6296735e-10
109	0x3097ff95	1.1059337e-09
110	0x2fccfdc1	3.7287687e-10
111	0x2fcbeb89	3.7092843e-10
112	0x2f835caf	2.3894617e-10
113	0x301ed3ef	5.778124e-10
114	0x3096423b	1.093276e-09
115	0x2fdbc7a1	3.9977713e-10
116	0x2f221a15	1.474308e-10
117	0x2fa67b71	3.0282934e-10
118	0x304f4536	7.5404516e-10
119	0x30a2a820	1.1834835e-09
120	0x2fdad165	3.9802753e-10
121	0x2f8525ad	2.421933e-10
122	0x2fa0acf6	2.9226727e-10
123	0x302fb436	6.3920724e-10
124	0x30990182	1.1132644e-09
125	0x2ffac5aa	4.5615184e-10
126	0x2f22ce6e	1.4807153e-10
127	0x2f6e8509	2.1693237e-10
128	0x305af6de	7.965876e-10
129	0x30a51cf0	1.2013555e-09
130	0x2ff8fb59	4.528953e-10
131	0x2f5dcf4b	2.0173478e-10
132	0x2f8af7b4	2.5278057e-10
133	0x304e40ca	7.5034434e-10
134	0x30a17595	1.1747711e-09
135	0x3009c554	5.012073e-10
136	0x2efd1ba1	1.1510016e-10
137	0x2f47ff15	1.8189568e-10
138	0x306aa2e0	8.5360163e-10
139	0x30a78442	1.2188439e-09
140	0x3002c801	4.7577947e-10
141	0x2f289b56	1.5334697e-10
142	0x2f67d3b7	2.1084544e-10
143	0x305aef2e	7.964783e-10
144	0x30a2b50d	1.1838509e-09
145	0x2ff8a7d9	4.52302e-10
146	0x2f1347dd	1.3395103e-10
147	0x2f544f46	1.9309451e-10
148	0x306348ee	8.268576e-10
149	0x30a70d59	1.2154643e-09
150	0x2ff8a7d9	4.52302e-10
151	0x2f1347dd	1.3395103e-10
152	0x2f544f46	1.9309451e-10
153	0x306348ee	8.268576e-10
154	0x30a70d58	1.2154642e-09
155	0x2e593d0f	4.939432e-11
156	0x30dd62bd	1.6107929e-09
157	0x2f9a273c	2.8040315e-10
158	0x360149e2	1.9265503e-06
159	0x302b4902	6.231319e-10
160	0x30945f65	1.079553e-09
161	0x2fd99c8f	3.9583312e-10
162	0x301d81bf	5.730065e-10
163	0x34e4e565	4.2635216e-07
164	0x3535b203	6.7686796e-07
165	0x34ca3fe6	3.7671924e-07
166	0x35924cd8	1.0900212e-06
167	0x36048c14	1.975107e-06
168	0x3533c1b9	6.69646e-07
169	0x34f949be	4.643352e-07
170	0x347394f3	2.2685326e-07
171	0x35a25259	1.2093907e-06
172	0x36080a37	2.0271525e-06
173	0x34de06cf	4.1355676e-07
174	0x3595e286	1.1167292e-06
175	0x3517d787	5.6565517e-07
176	0x35006f74	4.78459e-07
177	0x35cfda43	1.5486224e-06
178	0x353e6304	7.09246e-07
179	0x349dd413	2.9397833e-07
180	0x3413c4c1	1.376202e-07
181	0x35cf3da8	1.5440646e-06
182	0x3610cd9e	2.1577357e-06
183	0x34b28a98	3.3255924e-07
184	0x359cd884	1.168592e-06
185	0x351bde88	5.8065825e-07
186	0x34e97c9f	4.3490306e-07
187	0x35ba43e5	1.387784e-06
188	0x3525f6fb	6.1826694e-07
189	0x349280ab	2.7288237e-07
190	0x33f02501	1.1182602e-07
191	0x35e04bad	1.6711325e-06
192	0x361c60b6	2.3302105e-06
193	0x34c0bd0e	3.5900342e-07
194	0x358b1227	1.036159e-06
195	0x350f97cc	5.3492545e-07
196	0x3526489e	6.194549e-07
197	0x35ca32f2	1.5065e-06
198	0x3527b253	6.2471844e-07
199	0x34cb7916	3.7899798e-07
200	0x3443b080	1.8225e-07
201	0x35cf79b3	1.5458121e-06
202	0x3619f041	2.2938623e-06
203	0x34d6eab9	4.003139e-07
204	0x35682bf4	8.6490695e-07
205	0x350b9df5	5.2011393e-07
206	0x3541889b	7.209689e-07
207	0x35d58034	1.5907049e-06
208	0x351f2569	5.9286555e-07
209	0x34fcaafd	4.7063068e-07
210	0x347cf499	2.3558313e-07
211	0x35b20910	1.3264671e-06
212	0x3612bbce	2.1865012e-06
213	0x34f70a5c	4.6014873e-07
214	0x35428551	7.246463e-07
215	0x351a92fe	5.758337e-07
216	0x35541ca8	7.9017855e-07
217	0x35db3275	1.6331456e-06
218	0x3528fa2e	6.2948936e-07
219	0x351870ac	5.678837e-07
220	0x34ad0984	3.2230685e-07
221	0x358d7149	1.0538289e-06
222	0x360a0b75	2.0570271e-06
223	0x3504505a	4.929076e-07
224	0x35206185	5.9746554e-07
225	0x351a9cac	5.759746e-07
226	0x3569568d	8.692521e-07
227	0x35ec8230	1.762126e-06
228	0x351f15d4	5.926388e-07
229	0x3507abd2	5.054145e-07
230	0x34cec4bf	3.8513642e-07
231	0x3579a400	9.299838e-07
232	0x35fd79fa	1.8885469e-06
233	0x350e4d76	5.301184e-07
234	0x351f2480	5.928523e-07
235	0x3505af43	4.98014e-07
236	0x3571537b	8.9900976e-07
237	0x35ee6951	1.7763033e-06
238	0x3530e5ff	6.58998e-07
239	0x34cd1339	3.8198212e-07
240	0x34d5417c	3.9721988e-07
241	0x3595f2aa	1.117199e-06
242	0x36021ca5	1.9388183e-06
243	0x35205939	5.973448e-07
244	0x3511b011	5.427292e-07
245	0x3503c4c4	4.9087635e-07
246	0x35705684	8.9532864e-07
247	0x35ea8bb8	1.7475022e-06
248	0x3512f24e	5.474184e-07
249	0x34908293	2.6917095e-07
250	0x34c43c86	3.6551882e-07
251	0x35b17c0f	1.3223633e-06
252	0x360a155d	2.0576038e-06
253	0x351cfa9b	5.847921e-07
254	0x3509782f	5.121137e-07
255	0x34f303af	4.5264957e-07

exp_avg f4 [128]
0	0xb7a49d5e	-1.9623603e-05
1	0x3a11ff5a	0.00055693614
2	0x398bb937	0.00026650142
3	0xb750c419	-1.2443424e-05
4	0xb93e4b6b	-0.00018147907
5	0xb98ef993	-0.00027270298
6	0xb9f8c802	-0.00047451264
7	0xb82c4797	-4.107467e-05
8	0x3a3b96ee	0.0007155974
9	0xba02b608	-0.0004986231
10	0x399ac426	0.0002951931
11	0xba2d3349	-0.00066070684
12	0x38a6f2ce	7.960723e-05
13	0xbab2bde7	-0.0013636918
14	0x396aad5c	0.0002238056
15	0x3a8a8bba	0.0010570206
16	0xb6c6218b	-5.9047647e-06
17	0xb8460c32	-4.7218236e-05
18	0xb98aa06d	-0.00026440938
19	0xb97a4e5e	-0.00023871052
20	0x38e3cac7	0.00010861974
21	0xba229253	-0.00062016136
22	0xb88e31bc	-6.7803514e-05
23	0x3a4de7ad	0.0007854652
24	0xba4da940	-0.00078453496
25	0x39df8550	0.000426332
26	0x3943ccb7	0.00018672911
27	0x39134d7c	0.00014047878
28	0xbaa0afd3	-0.0012259431
29	0x39049658	0.00012644508
30	0xb7770b74	-1.4725014e-05
31	0x39026d18	0.00012438407
32	0x37c105e8	2.3010143e-05
33	0x3a0834b6	0.0005195843
34	0x3a7f5e0f	0.0009741494
35	0xba01accc	-0.0004946708
36	0xba18615d	-0.0005812848
37	0x377fd77e	1.5249358e-05
38	0xba46de12	-0.00075861916
39	0x383137e7	4.225215e-05
40	0x392d2389	0.00016511804
41	0xb8b5f2e4	-8.6759945e-05
42	0x3881d60c	6.191069e-05
43	0x353e7db8	7.096346e-07
44	0xb995eb98	-0.00028595026
45	0x36e228a8	6.740058e-06
46	0x3a59a26a	0.00083020946
47	0x3819b478	3.6646117e-05
48	0x38d765ca	0.000102709586
49	0x392a7027	0.00016254243
50	0x39963f78	0.00028657517
51	0x39a1ecb4	0.0003088467
52	0xb86e6cbd	-5.6844892e-05
53	0xb75c5b56	-1.3134288e-05
54	0xb7beae5a	-2.2730954e-05
55	0xb7c28162	-2.318685e-05
56	0xba5d9add	-0.00084535574
57	0x36d93c5c	6.4741307e-06
58	0xb93893ac	-0.0001760262
59	0xba7c1437	-0.00096160494
60	0xb6eb0f1e	-7.0053056e-06
61	0x3806e010	3.2156764e-05
62	0xba7464e7	-0.0009322897
63	0xba0cf140	-0.0005376525
64	0x3681a2e0	3.8634607e-06
65	0xb9cc4caf	-0.00038967046
66	0xb8e11c15	-0.00010734067
67	0x39b8a3e5	0.00035217326
68	0xb9c61a29	-0.00037784994
69	0x3a8211ac	0.000992348
70	0x393cafbe	0.00017994546
71	0xb94e9a91	-0.00019703271
72	0x39e569c4	0.00043757085
73	0x3986d43f	0.00025716607
74	0x398ecbc0	0.00027236156
75	0x39999a09	0.000292972
76	0x38ce3800	9.833276e-05
77	0xb952d19f	-0.0002010525
78	0x37bbc1af	2.2382328e-05
79	0x38c503c0	9.3943905e-05
80	0xb9df86e4	-0.00042634376
81	0xb6d9c54a	-6.4900714e-06
82	0x39ae550e	0.00033251237
83	0x37a4fd98	1.9668412e-05
84	0xba480b27	-0.00076310564
85	0x39323ff5	0.00016999229
86	0x39296925	0.00016156265
87	0x399f9846	0.00030440296
88	0xb8164939	-3.583098e-05
89	0x398fba48	0.00027413876
90	0x3872ca71	5.7885834e-05
91	0xb93eb982	-0.00018188919
92	0xb60b2e98	-2.0739735e-06
93	0x39ff1d53	0.00048659238
94	0x3930ada2	0.00016849351
95	0x39719cb8	0.00023041933
96	0xb9e52183	-0.00043703252
97	0xb9953777	-0.0002846082
98	0x36b6d2f0	5.448579e-06
99	0x3966463e	0.00021960677
100	0xba435daa	-0.00074526167
101	0xb8b261b1	-8.505898e-05
102	0xb61993fc	-2.2884915e-06
103	0x38891239	6.536063e-05
104	0x393e0138	0.00018120266
105	0x3a64efb0	0.0008733226
106	0x39edbe85	0.0004534611
107	0x390b1803	0.00013265018
108	0x3882000e	6.198893e-05
109	0xb7c78ece	-2.3789147e-05
110	0x39c5aa41	0.00037701617
111	0xb9f33f4d	-0.00046395735
112	0x391e48c5	0.00015095163
113	0xb9b3b2ed	-0.0003427485
114	0x3a02ea27	0.0004993998
115	0x38f3d9eb	0.00011627733
116	0xb8292800	-4.0329993e-05
117	0xb707014e	-8.046931e-06
118	0xb7ca2708	-2.4098452e-05
119	0x39b4ce78	0.00034486107
120	0x36000948	1.9078889e-06
121	0xb841723b	-4.612117e-05
122	0xb98f6d40	-0.00027356483
123	0x37d22166	2.5049503e-05
124	0xb9a4db43	-0.0003144388
125	0x39211ceb	0.0001536493
126	0xb9e3eaf5	-0.0004347187
127	0x3794c97a	1.7736795e-05

exp_avg_sq f4 [128]
0	0x31054b95	1.939701e-09
1	0x365f75fb	3.3298263e-06
2	0x35ee0ad6	1.7735535e-06
3	0x32fc0446	2.9338604e-08
4	0x34bb123a	3.4844726e-07
5	0x36a755ae	4.9869623e-06
6	0x360a10b5	2.0573327e-06
7	0x34dcccbf	4.1127166e-07
8	0x372d2988	1.0321273e-05
9	0x36098635	2.049271e-06
10	0x34f0817f	4.4797704e-07
11	0x35c1fcfa	1.4453246e-06
12	0x35aeaf4b	1.3015027e-06
13	0x3753bc15	1.2620371e-05
14	0x3453e4f4	1.9734199e-07
15	0x36e8953e	6.931513e-06
16	0x32dfeb1f	2.6067537e-08
17	0x3543d98d	7.295974e-07
18	0x360b6e8a	2.0776956e-06
19	0x34fa8f80	4.667054e-07
20	0x33a8aca8	7.8545156e-08
21	0x36299d3e	2.527449e-06
22	0x34acc7a1	3.2182746e-07
23	0x368c2c51	4.1774842e-06
24	0x36422676	2.893064e-06
25	0x36c2dd79	5.8074334e-06
26	0x34dd3bb7	4.1207906e-07
27	0x3687c5b6	4.04633e-06
28	0x370c9c91	8.381104e-06
29	0x3527587b	6.2341104e-07
30	0x323faa6c	1.1156413e-08
31	0x34c20e91	3.6145914e-07
32	0x35fd67ad	1.8880143e-06
33	0x365169eb	3.120508e-06
34	0x3700bda0	7.673545e-06
35	0x369a4610	4.597714e-06
36	0x35a9cd7f	1.2651288e-06
37	0x34adaaa6	3.2347924e-07
38	0x36a21b01	4.83112e-06
39	0x3573d39b	9.083248e-07
40	0x34d586e0	3.9772476e-07
41	0x3559f4f7	8.119527e-07
42	0x32893204	1.5971644e-08
43	0x3101712b	1.88363e-09
44	0x35c5aed2	1.4728523e-06
45	0x35948e2b	1.1068236e-06
46	0x36c309e1	5.812603e-06
47	0x34ebf772	4.39522e-07
48	0x3603910e	1.9604954e-06
49	0x3530e898	6.590358e-07
50	0x3529bbb5	6.3230556e-07
51	0x3697f5e5	4.5287766e-06
52	0x338c9c6b	6.54771e-08
53	0x312b5a72	2.4935187e-09
54	0x3543ceec	7.294427e-07
55	0x31840269	3.8419796e-09
56	0x36e117bf	6.708287e-06
57	0x31ba36c7	5.41954e-09
58	0x353514ea	6.745819e-07
59	0x3716c798	8.987168e-06
60	0x3433413f	1.669441e-07
61	0x35993ff6	1.1418003e-06
62	0x37188ed2	9.093159e-06
63	0x36aed200	5.2100513e-06
64	0x31bcf6a4	5.49956e-09
65	0x366fdcb9	3.5742253e-06
66	0x354d6bcf	7.6525333e-07
67	0x3596c890	1.1234242e-06
68	0x35d72bd2	1.6031502e-06
69	0x372e69ae	1.0395814e-05
70	0x34d764b7	4.012015e-07
71	0x3651390e	3.1176637e-06
72	0x36306f61	2.6290875e-06
73	0x357dce61	9.4550165e-07
74	0x360a4257	2.0602217e-06
75	0x36b64b3a	5.43278e-06
76	0x354960ea	7.5019364e-07
77	0x360defdf	2.115026e-06
78	0x33a38b74	7.6156454e-08
79	0x3493a939	2.750401e-07
80	0x35e72a85	1.7223216e-06
81	0x321a7dd6	8.992592e-09
82	0x36a5bc30	4.939291e-06
83	0x342da8f8	1.6173351e-07
84	0x365ca855	3.2880537e-06
85	0x3608132c	2.0276739e-06
86	0x3652667f	3.13521e-06
87	0x363b5a92	2.791789e-06
88	0x325460f7	1.2362071e-08
89	0x3632b30b	2.6628284e-06
90	0x360049ee	1.911652e-06
91	0x3590b861	1.0782497e-06
92	0x35a193d2	1.2038456e-06
93	0x3651b246	3.1247196e-06
94	0x35249de9	6.132455e-07
95	0x3561fdaf	8.418819e-07
96	0x35b0c4c1	1.3170285e-06
97	0x36677679	3.4490643e-06
98	0x34ffaa0b	4.7621174e-07
99	0x35cbc5a1	1.5182196e-06
100	0x36aea1f4	5.204458e-06
101	0x3522c3af	6.063446e-07
102	0x310b9431	2.03114e-09
103	0x35274b45	6.232188e-07
104	0x36156c43	2.2265747e-06
105	0x36d60161	6.3778575e-06
106	0x3641973d	2.8847273e-06
107	0x3496c413	2.808234e-07
108	0x35011330	4.8084166e-07
109	0x35692f37	8.686797e-07
110	0x35a730d9	1.2456686e-06
111	0x35c5015a	1.4678037e-06
112	0x35b84988	1.3730469e-06
113	0x361bf726	2.324066e-06
114	0x35f2e028	1.8095643e-06
115	0x34302743	1.640556e-07
116	0x35057210	4.9712344e-07
117	0x34dde428	4.1330463e-07
118	0x34d1dfc4	3.9092095e-07
119	0x369dea15	4.7062153e-06
120	0x31606404	3.2653142e-09
121	0x34567e07	1.9976152e-07
122	0x36188e72	2.273268e-06
123	0x34a98db1	3.1581797e-07
124	0x3588d46d	1.0194614e-06
125	0x368b8a3d	4.158616e-06
126	0x3608d128	2.0387324e-06
127	0x3477e4ab	2.3086857e-07
