CCP-main/results/test004/WeightAgent_Training/WeightAgent_Training-999941.onnx (onnx, 155824 bytes, 6 tensors)

network_body._body_endoder.seq_layers.0.weight f4 [128, 163]
000000 66 a0 87 bd c9 d2 88 bd 4f b5 27 3e 5e 6a 5a 3d
       -0.066223904 -0.06680829 0.16377757 0.053324096
000010 65 c6 bd 3d 36 b5 65 be 9c f1 e7 3d 93 82 bc bd
       0.092663564 -0.22432408 0.1132538 -0.092045926
000020 58 e9 2c be f8 87 a2 3c 90 db 09 bd dc 4f 82 bc
       -0.16885889 0.019840226 -0.033656657 -0.01590722
000030 96 b5 99 3d 5b 23 3b 3c 60 96 11 3e 14 50 57 bd
       0.07505338 0.011422004 0.1421752 -0.052566603
000040 8b 9d 5d 3c bf b8 a3 bc 1f d5 73 3d da f1 18 ba
       0.013526331 -0.019985555 0.05952942 -0.00058343785
000050 b1 87 4d 3d 6c 01 a0 bd a5 e3 71 bd 1b 53 42 bd
       0.050178234 -0.07812771 -0.05905499 -0.047442537
000060 b3 0f 02 bd 77 99 d6 3d 14 7c 23 3e 23 63 b7 bd
       -0.031753253 0.1047849 0.15965301 -0.08954456
000070 d4 0d 11 bd 5e 03 93 3b 62 b8 9b bd e7 ec d6 bc
       -0.03541358 0.0044864854 -0.076035276 -0.02623601
000080 f0 14 67 bd f7 3d 59 3b 9a b8 04 3d 10 69 71 bd
       -0.056416452 0.0033148506 0.032402612 -0.058938086
000090 46 8a 60 bc 8e 0e 8e 3d 3f f6 ba 3a 14 22 4a bd
       -0.013704842 0.0693637 0.0014264061 -0.049348906
0000a0 f2 d6 0e bd d8 8c 26 3d 2d eb 00 be 66 62 52 3e
       -0.034872957 0.040661663 -0.12589712 0.20545349
0000b0 af 44 d8 3b 35 8f c4 3c 9b d0 9d 3d 97 65 8f 3c
       0.0065999846 0.023994068 0.07705804 0.017504496
0000c0 d9 16 75 bd 19 77 1b bd 4d 48 63 bd 20 54 c4 bd
       -0.059836242 -0.037955377 -0.055488873 -0.09586358
0000d0 c8 e7 0d be 7a 06 f6 bd d4 9d 04 bb 1a da ec bd
       -0.13857949 -0.12012954 -0.0020235674 -0.11565037
0000e0 08 b1 f7 b9 4c 63 46 3c 04 f4 f0 bc 5c d6 a5 bc
       -0.0004724341 0.012108635 -0.02941323 -0.020243816
0000f0 8c 05 a4 bd 68 9e 24 3d d3 5a e8 bd cc 91 13 3b
       -0.080088705 0.04019013 -0.11345448 0.0022517322
000100 b8 4c ff 3d 20 a4 e6 bd eb ea f4 3a 62 b6 89 3c
       0.12465805 -0.11261773 0.0018685734 0.0168106
000110 84 d1 db bd 64 90 b2 3d b6 77 8c bd e3 6f 70 bd
       -0.10733321 0.087189466 -0.068587705 -0.058700453
000120 51 92 f3 bd 3c 1a 97 3d 16 1d c6 bc 58 3f 0d be
       -0.11893142 0.07378051 -0.024183791 -0.13793695
000130 f6 50 bf bd 52 6f ae bd 90 70 30 bc a9 cf 85 bd
       -0.09341614 -0.085173264 -0.0107690245 -0.06533749
000140 f0 64 c9 bc 06 98 f0 bd 50 06 a0 bb 43 64 2f be
       -0.024584264 -0.11747746 -0.004883565 -0.1712809
000150 b2 af 96 bd 1a be a6 bc ed 57 d1 bd 42 50 93 be
       -0.0735773 -0.02035432 -0.10221849 -0.2877217
000160 6f 34 6d 3d 1d ce 2a bd f2 5a 9d bd 88 3f 2f bd
       0.057911333 -0.04170047 -0.07683362 -0.042785197
000170 5d 1a ff 3c 78 36 45 bd c2 36 bf 3c 8d 66 e4 3d
       0.0311405 -0.04814765 0.02334154 0.111523725
000180 f6 24 fe bc 89 89 54 bd 01 c0 79 3c a6 22 25 3d
       -0.031023484 -0.051888976 0.015243531 0.040316246
000190 9d b7 35 bd 16 ca eb bc 13 06 ce 3d ee 45 56 bd
       -0.04436456 -0.028782886 0.10059752 -0.052312784
0001a0 38 98 81 bc 30 cd 88 3c e1 4a 4e bd 41 95 b0 bd
       -0.015819654 0.016699404 -0.05036438 -0.08622218
0001b0 b1 79 90 3d c9 8a be bc 5e b7 1f 3b 31 70 0f bd
       0.07054461 -0.023259537 0.002437077 -0.035019103
0001c0 99 66 1c bd 86 9c 1d bd de 1c 4a 3e 19 92 4d bd
       -0.038183782 -0.03847935 0.19737574 -0.050188158
0001d0 7a b6 67 bd 3f 60 c3 bd 7a fb be bd 6f 08 6d bd
       -0.056570508 -0.09539842 -0.09325309 -0.05786937
0001e0 37 7e 8e 3d 5f 04 b9 bc 86 58 fa 3d 9e 7e b5 bb
       0.06957667 -0.022585092 0.12223916 -0.0055387756
0001f0 93 1d 0c be a5 01 23 bd 6c 7e 1a bd 88 2a b7 bc
       -0.13683157 -0.03979649 -0.03771822 -0.022359148
000200 96 54 fe bc 09 a9 89 3b e2 e0 b4 3d 94 18 87 bc
       -0.031046193 0.0042010588 0.088319555 -0.016491212
000210 50 f6 2a be dd 36 ea bd 8e bf 3e be 4a 38 c6 3d
       -0.16695523 -0.114362456 -0.1862776 0.09678705
000220 65 45 01 bd fc 87 79 bd fa 4d c3 bc 18 95 68 bd
       -0.03156032 -0.0609207 -0.023840893 -0.056782812
000230 36 1c 66 bc 02 51 4b 3d c3 07 bc bb 93 f4 09 be
       -0.014044812 0.049637802 -0.00573823 -0.13472204
000240 af d5 2d be 0f b8 23 3d b9 79 14 3d 1d 8f 7d 3d
       -0.16976045 0.039970454 0.036248896 0.06190406
000250 12 87 15 3c f6 44 a5 bd 8a f8 f5 bc f2 3d af bd
       0.009126442 -0.08069794 -0.03002574 -0.08556737
000260 4c 1c 8a bd a1 77 9f ba 92 f2 0e 3e 44 5d 03 be
       -0.067436785 -0.001216639 0.1395972 -0.12828547
000270 08 63 0e bd 3c 0b 2e 3d 38 40 13 3d 76 c8 14 bc
       -0.034762412 0.042491183 0.035949916 -0.009080997
000280 c5 fe 24 3d cb 04 aa 3d 1d f6 60 bd ab 1c f0 bd
       0.04028203 0.083016954 -0.054922212 -0.11724218
000290 1b 44 b0 3d e9 f5 a1 3d 6a a4 74 be 13 95 e7 bc
       0.0860674 0.07908232 -0.23890844 -0.028269326
0002a0 6c 5c 95 bd b7 57 de 3d 77 59 f8 3d 1e b0 c2 3c
       -0.07293019 0.10856574 0.12126439 0.02376562
0002b0 b3 61 54 be a2 49 60 bc c6 65 8d 3d c4 4b cb 3c
       -0.20740394 -0.01368943 0.06904177 0.024816401
0002c0 88 51 57 3c 0b 10 31 bd f7 3a 43 bd 6d c3 d5 3d
       0.013141997 -0.04322819 -0.047663655 0.10437665
0002d0 a5 ad ad 3d b3 e9 be bb 6b c3 18 bd 13 91 08 3e
       0.08480386 -0.005826199 -0.03729574 0.13336591
0002e0 59 ec 6c 3d 4b 08 84 3d 1e 28 44 3d 8c fa 96 3c
       0.057842586 0.06446894 0.04788982 0.018430017
0002f0 e1 46 6b bb 86 01 2f 3c d1 3a c9 bd 9c 44 8c 3c
       -0.0035900401 0.010681516 -0.098256715 0.01712256
000300 e8 58 32 3d 65 b0 cb 3d 54 b0 36 3d ee 9b 99 bd
       0.04354182 0.09945754 0.044601753 -0.07500444
000310 03 8c af bd a3 22 11 bd 37 96 b1 3c cf e8 b4 ba
       -0.08571627 -0.035433423 0.021678073 -0.0013802293
000320 59 1d 19 bc 42 fe 06 3e 9c 30 c7 bc 82 67 70 3d
       -0.009345376 0.13182929 -0.024315171 0.058692463
000330 2a 25 5a bc 45 d1 28 bd 1a cb f5 3c 42 fa 66 3d
       -0.013314525 -0.0412152 0.030004073 0.05639101
000340 58 f4 5e bd e1 ac 2f 3e 0c 28 77 3d 43 35 1d 3e
       -0.054432243 0.17155792 0.060340926 0.15352349
000350 0b 4a f7 3c af 36 a1 3d 1d 79 ab bd 3d ba 94 bc
       0.030186674 0.07871758 -0.0837271 -0.018155212
000360 80 d6 08 3e 46 7f 8a 3d cd 0b d0 bb 25 b6 2e 3d
       0.13363075 0.06762557 -0.006349063 0.042654175
000370 f4 be da 3c c1 41 37 bd 46 df 77 bd 14 96 ba 3d
       0.026702382 -0.044740442 -0.060515665 0.091106564
000380 ab 36 e2 bc ce 2a 04 3c 76 a9 5f 3d 0b 8e ea bd
       -0.027613958 0.008066846 0.05460497 -0.11452874
000390 83 df 69 bc e7 39 bd bd e4 16 df bd 5a 88 43 bb
       -0.014274481 -0.092395596 -0.10893038 -0.002983591
0003a0 f2 75 ea bd 70 77 7c 3d 0c 05 98 bd 3b 34 6a 3b
       -0.114482775 0.061637342 -0.074228376 0.0035736698
0003b0 8b 3b 2d 3d 76 e6 fc 3d 50 03 3a bd dc 20 bd bd
       0.042293113 0.123486444 -0.045413315 -0.09234783
0003c0 4f 52 33 be 1b 54 d5 bd 22 43 38 3e f2 08 61 bb
       -0.17511867 -0.104164325 0.17994359 -0.0034337607
0003d0 f9 7e b6 bd 5f 08 0d be e4 38 9c bc df ac 3c 3d
       -0.08910937 -0.13772725 -0.019070096 0.0460633
0003e0 da b6 a0 bd b0 20 00 bd ab 1d 79 3d de 4c f8 bd
       -0.07847376 -0.031281173 0.06081931 -0.12124036
0003f0 2d 03 ef bd ee 39 b6 3d 6b e6 af 3d 7f e5 dc bd
       -0.116705276 0.08897768 0.085888706 -0.107859604

network_body._body_endoder.seq_layers.0.bias f4 [128]
000000 8b 90 25 bc da c0 f0 bb 43 78 43 3d ef ae 65 bb
       -0.0101052625 -0.0073472084 0.047722112 -0.0035046896
000010 d1 78 89 3c 16 7e 45 3d c1 62 18 3c 7e c3 42 3c
       0.016781243 0.048215948 0.0093008885 0.011887429
000020 a7 65 38 bb 4d 16 9c 3c 6e 68 47 3d 48 e3 44 3d
       -0.0028136761 0.019053603 0.048683576 0.048068315
000030 4a 9d 32 3c 60 6a 9f 3c 3d e4 39 bc cc da 37 3d
       0.010901758 0.019459903 -0.01134592 0.044886395
000040 c1 c5 3f 3d 5a 9d fe 3c 23 5d df bc 8d 09 10 bd
       0.046819452 0.03108089 -0.02726609 -0.03516536
000050 5a 20 dc 3c 88 33 11 3d 04 f8 1a 3d 63 e2 83 bb
       0.026870895 0.035449535 0.037834182 -0.00402479
000060 9d 32 bd bb fc c0 56 bc e4 00 32 3d a8 b5 d0 3c
       -0.005773856 -0.0131075345 0.04345788 0.025477245
000070 92 95 17 3d 4a 98 44 38 c9 be ce ba 9b 18 07 3c
       0.037007876 4.687187e-05 -0.0015773411 0.0082456125
000080 8c e2 b2 bc a2 95 c2 3c ae 2c a5 bc 38 0d 2b 3d
       -0.021836542 0.023752991 -0.020162906 0.041760653
000090 80 1a 3d 3a f4 cf 24 bc 81 e5 8e 3c b0 29 e7 3c
       0.00072137266 -0.0100593455 0.01744342 0.02821812
0000a0 14 a6 a2 3b a4 f0 ce 3b 7e f6 66 3c 51 34 ff 3c
       0.0049636457 0.0063153077 0.014096854 0.031152876
0000b0 37 cf cc 3c 60 53 2a b9 8a f4 0f 3d 44 cf 4b 3d
       0.025001151 -0.00016243523 0.03514532 0.04975821
0000c0 d3 00 45 3d d8 d2 3a 3b 98 a0 ad b7 93 8d 9a 3c
       0.04809649 0.002850702 -2.069799e-05 0.018866336
0000d0 bc 1a 9b 3c 91 50 ef 3b 63 ed 98 3c b6 57 86 bb
       0.018933646 0.0073033054 0.018667882 -0.0040998114
0000e0 6e 86 ad 3c b4 62 d5 3c 25 c4 1d 3d 46 a4 e5 bb
       0.021182265 0.026048042 0.038517136 -0.0070081083
0000f0 ea 9d 3a 3d 27 c3 d9 bc f1 67 cc 3b ca 2f 90 bb
       0.045560755 -0.026582314 0.0062379767 -0.004400228
000100 dd d6 5c bc dc 5c 52 3d 73 56 be 3c 7b 86 fe bb
       -0.013478962 0.05135809 0.023234582 -0.007767496
000110 be c2 fc 3b 97 ae 5c bb 58 f9 f9 3b 33 11 df bb
       0.0077136448 -0.00336734 0.007628601 -0.00680747
000120 aa 56 df 3c 5b 4a 59 3d d8 17 34 3d 25 73 ec 3b
       0.027263004 0.053049427 0.04396805 0.0072158747
000130 c5 a8 35 3d 53 22 eb 3c 9d f7 71 ba cd 93 c2 b7
       0.044350404 0.02870289 -0.00092303177 -2.3195427e-05
000140 9e 0c e9 bc 84 be c3 3c 53 0c 9b bc 3f 57 ae 3b
       -0.0284484 0.023894556 -0.018926775 0.005320459
000150 b1 34 a4 3c 9d 4f 08 bd d5 ab cb bc e4 99 d0 3b
       0.020044656 -0.03327905 -0.02486221 0.0063660014
000160 98 3e e0 bc c7 1c 8a 3c 9c de 50 3c 23 60 cc bb
       -0.027373597 0.016859425 0.012748387 -0.0062370463
000170 f2 05 28 bc ce 97 85 3c fd 5e 0b bc ee 93 79 bc
       -0.010255324 0.016307738 -0.008506534 -0.015233023
000180 1d 23 be 3c 3a cb 0a 3c 6a bf 3f 3c 5e 32 06 3d
       0.023210103 0.008471305 0.0117033515 0.032762878
000190 1d dc 37 bc 03 ab 1e 3d 69 aa b4 bb c6 a1 71 3c
       -0.011221913 0.03873731 -0.0055134785 0.014748042
0001a0 23 11 0d 3b f6 38 0c 3d a0 24 0d 3d 7a fe 74 bb
       0.0021525107 0.03423401 0.034458756 -0.0037383125
0001b0 bb de d4 3c e3 11 76 3c 31 69 94 3c ea 01 d2 3b
       0.025985112 0.015018913 0.018116565 0.0064089196
0001c0 f5 3f 0b 3b 4c bf b6 3c dd e8 c0 bc 91 a4 ca bb
       0.0021247838 0.022308014 -0.023548538 -0.0061841686
0001d0 c4 a2 61 bb 67 ec b8 bb 5f 10 8c bc 6e e1 b2 bc
       -0.0034429291 -0.0056434157 -0.01709765 -0.021836009
0001e0 68 e6 2f 3c 4d ae 4f 3c 52 5c 97 3c 59 86 06 3d
       0.0107360855 0.012675834 0.018476639 0.032842968
0001f0 ca d5 c8 39 16 cf 51 bc 4b 09 a8 3c 2b 62 3f 3c
       0.00038306258 -0.012805721 0.020512244 0.01168112

network_body._body_endoder.seq_layers.2.weight f4 [128, 128]
000000 15 6d 18 be 15 36 bc 3d 9e f0 b5 bd 76 db 31 bc
       -0.14885361 0.09190003 -0.08883785 -0.010855546
000010 2a a8 80 3c 48 46 5f be 62 72 aa bc d1 99 ed bd
       0.015705187 -0.21804154 -0.020806495 -0.11601604
000020 e2 f1 e2 bb ac d2 3a be 05 d3 5a 3d 7f b1 43 3e
       -0.0069258073 -0.18244427 0.0534239 0.19110678
000030 4d 22 46 3c 3a 91 91 bd 18 be 84 3c bb 30 05 3d
       0.012093139 -0.07107778 0.016203925 0.032517176
000040 ad e7 c6 bd 75 76 b8 3d 6f de 2d bd 0f 34 b5 3d
       -0.097121574 0.09006969 -0.042448457 0.0884782
000050 c0 bd 09 3e 72 bb 54 be c6 f0 d8 bd 1c ba d6 3a
       0.1345129 -0.2077463 -0.10592799 0.0016382369
000060 b3 02 a1 bd 89 a5 ed bd 2a cc 74 bd e2 c1 99 3c
       -0.07861843 -0.11603839 -0.05976502 0.018769208
000070 a6 40 85 bc da 0d 29 bc 3c 74 c7 3d 75 07 43 bd
       -0.016266178 -0.010318244 0.09738967 -0.047614533
000080 90 f5 3d 3d 55 4d 1a 3d e4 87 a9 3d 84 26 98 bd
       0.046376765 0.037671406 0.08277872 -0.07429221
000090 c1 75 26 3d a5 d2 18 3e 59 d9 55 3d 1f 19 5e 3d
       0.040639643 0.14924105 0.052209232 0.054223176
0000a0 1f 3d cd bd 97 e3 be bd 54 90 61 3b 5b 76 bc 3d
       -0.100214235 -0.09320753 0.0034418302 0.09202262
0000b0 89 32 29 bd 7c b1 bb 3d 38 cf c8 3b 83 93 44 bd
       -0.04130796 0.09164712 0.006128218 -0.04799224
0000c0 18 d8 21 be b2 0c 08 bd 7c ad 10 be b7 45 02 3e
       -0.1580509 -0.033215232 -0.14128679 0.12721907
0000d0 26 b8 a5 3c 95 fc bb bb e2 09 cc 3d b9 2b fb bd
       0.02022941 -0.0057368972 0.099628225 -0.12264199
0000e0 5f 08 80 bc 2b bd 5a bd 00 dc 56 bd 01 ca 7d 3c
       -0.015628992 -0.05340306 -0.052455902 0.015490056
0000f0 eb 0c 59 be 0e e5 15 bd 3a ee 50 3c 96 36 c5 3d
       -0.21196334 -0.036595397 0.01275211 0.09629552
000100 f0 8f 8a 3d fa 09 70 bd 48 49 47 bd 4a 41 3d 3d
       0.06765735 -0.058603264 -0.04865387 0.046204843
000110 3e 2e 17 3d 33 bf 38 3c 42 f9 1f bd 36 a8 9d bd
       0.036909334 0.011276054 -0.03905607 -0.07698099
000120 4e eb a0 bd 3e b6 f0 bb ba 9b 06 3e ab 8f 0f bb
       -0.07857381 -0.0073459437 0.13145342 -0.00219057
000130 d2 68 7d 3e a3 8c 54 bc 6b 37 a0 3c f1 8c 2c 3d
       0.24747017 -0.0129729835 0.019557675 0.0421266
000140 b3 d3 6e be b0 1e 2b 3d 9e fe 46 3d 62 18 78 bd
       -0.23322944 0.041777313 0.048582666 -0.06057013
000150 6d 09 d3 3d ab 70 4c 3d f9 fa a3 3d 62 97 a2 bd
       0.10304532 0.049912136 0.080068536 -0.0793903
000160 3f ac 80 bd 0a 33 b9 bd 70 b2 a9 bb 01 27 ea 3d
       -0.06282853 -0.09042938 -0.005178742 0.11433221
000170 31 61 c4 bd 2d 34 aa bd d9 20 81 bd 08 b2 24 3d
       -0.0958885 -0.08310733 -0.06305093 0.040208846
000180 07 7c 39 3d 51 0b 4b 3d 90 8d 8b bd 91 20 9f bc
       0.045284297 0.04957134 -0.0681411 -0.019424709
000190 b1 d1 f0 bc d0 1e a9 bd b7 a4 a6 bd 21 a1 4a 3d
       -0.029396864 -0.0825783 -0.081368856 0.04947007
0001a0 21 af d9 3c ae 4e 33 3e 5a 41 12 bd 89 c8 b8 3d
       0.026572766 0.17510483 -0.035706855 0.09022624
0001b0 91 0c 2c be 9f f7 3f bd 39 b3 d7 bd fb fb 0a be
       -0.16801669 -0.04686701 -0.10532231 -0.13572685
0001c0 ff 65 b1 bd e3 0e 19 3d a0 9b 28 bb fe 3a 5f 3d
       -0.08662032 0.037367713 -0.0025727525 0.05449962
0001d0 51 70 d6 3d d0 05 05 be ba 8a b9 3d a4 4b 84 3d
       0.104706414 -0.12990499 0.09059663 0.0645974
0001e0 7c 12 3e bd 00 fc 12 3e fb 32 17 bd d9 28 f6 bc
       -0.046404347 0.14353943 -0.036913853 -0.030048775
0001f0 fa 47 30 be 87 86 37 3e 96 d5 cc 3d 78 09 2f be
       -0.17214957 0.17922412 0.10001676 -0.17093456
000200 98 f2 1f 3d bb c9 68 bc 0e db 39 be 3c 42 60 3c
       0.039049715 -0.014208253 -0.18149969 0.0136876665
000210 91 a9 12 bc be 8f bb bd f2 12 22 bd ff c1 99 bd
       -0.008951561 -0.09158276 -0.03956885 -0.07507705
000220 6a e0 d5 3c 1b 5c bb 3b a0 40 40 be c7 de 8e bc
       0.026107986 0.005717767 -0.18774652 -0.017440213
000230 5c 5b cf bd 8d dd 44 bd e3 37 bd bc 45 0e 26 3e
       -0.10124847 -0.04806285 -0.023097938 0.16216381
000240 64 76 74 bd 2f 53 53 3e ad 8a 8e bc 5b 3e 27 3e
       -0.05968322 0.20637201 -0.01740011 0.1633238
000250 36 42 2e 3d 0b f7 12 3c 90 d6 06 be 86 44 4d 3d
       0.042543612 0.008970032 -0.13167787 0.050114177
000260 50 7c 1b 3d a2 40 28 3e 6f 2d 84 bc 5d 0d c9 bb
       0.03796035 0.16430905 -0.016134946 -0.006135626
000270 22 88 2d 3e 26 17 66 bd 88 02 f9 bd 82 66 4e be
       0.16946462 -0.05617442 -0.12158686 -0.20156291
000280 56 bd e4 3c 5b 0e 8f bd 74 5a 4d bd 3e 7b 1a bb
       0.027922314 -0.0698516 -0.05013509 -0.0023571993
000290 55 e5 c6 bc d1 d0 9d bd 5a c1 b3 3d 91 42 f0 bd
       -0.024279276 -0.07705844 0.08777113 -0.117314465
0002a0 cb 14 59 3e a8 d9 28 3d cf 2f fb bb ee 34 2f 3d
       0.21199338 0.0412232 -0.0076656113 0.042775087
0002b0 56 c1 0b 3e 5a a5 7a bd 9b d0 96 3d f3 c4 81 3c
       0.1364797 -0.061192848 0.07364007 0.015840983
0002c0 91 cb b1 3c 80 60 54 3d 9d 0e 87 bd af 43 12 be
       0.021703513 0.051849842 -0.06594584 -0.14283632
0002d0 69 5b 6c 3c 85 a7 8e bd b7 bf 0e 3e a4 66 16 3c
       0.014426091 -0.069655456 0.13940321 0.009179745
0002e0 7f ad 0a bd 8e 5d 02 3e 61 42 96 3a 7e ed a4 bc
       -0.033856865 0.12731001 0.0011463874 -0.020132776
0002f0 18 62 9e bd 62 0a 6b 3d 0b da 61 3d b8 65 e2 bd
       -0.07733554 0.05738295 0.055139583 -0.110545576
000300 6a d7 d3 bd 8a 44 72 3d e4 4e 45 bd 7d 35 20 bd
       -0.10343821 0.059147395 -0.04817094 -0.03911351
000310 03 7f 9a bb c5 69 f5 bd 13 e2 de bd b1 3a bb 3c
       -0.004714848 -0.119830646 -0.10882964 0.022855135
000320 da d7 c6 bd ce f5 99 bd 0b 55 4e 3d 13 a2 ce bc
       -0.09709139 -0.07517587 0.050374072 -0.025223767
000330 de c9 2d be 0a 89 1d 3e a9 91 33 be a3 e6 06 3d
       -0.16971537 0.15384308 -0.17536034 0.032934796
000340 b9 66 41 3e fc 21 9f bd 2e c5 88 3d 6d fc 44 bc
       0.18886842 -0.07770154 0.06678234 -0.012023074
000350 3c 4c 3b 3d f2 12 45 3d 1e 7f 09 bd 8d 1f b1 3d
       0.045727 0.04811377 -0.033568494 0.08648596
000360 70 67 2a 3d 27 96 ca 3d 9a 38 0d 3e ef 34 10 bc
       0.041602552 0.098919205 0.13791123 -0.008801683
000370 7e 69 6a 3e df bf b9 3d ab 80 ff bd b8 eb 17 3e
       0.22891805 0.090698 -0.12475713 0.14836013
000380 27 0f ab bc 91 c5 a7 bd 5c ba 7c 3d d3 d5 65 3c
       -0.020881249 -0.0819198 0.061701164 0.01402803
000390 34 df 83 3d 1e ba 2a be e2 d7 e6 3d 73 a9 d3 3d
       0.06439057 -0.1667256 0.11271645 0.10335054
0003a0 32 fb 9b 3d 41 79 ec bd 97 bd de 3d 36 b9 95 3c
       0.07616271 -0.11546565 0.10876005 0.018276792
0003b0 a9 a1 0b be 99 85 0e 3e 23 bf 11 3d ef 88 e0 3d
       -0.13635887 0.13918151 0.035582673 0.10963618
0003c0 88 8c e8 bc 05 21 b6 bd 5c 92 19 3e 0b 77 c0 bc
       -0.028387323 -0.08893017 0.14997238 -0.023494264
0003d0 72 48 58 bd 4d 09 57 3d ff d8 1e 3e c1 dd 04 3e
       -0.052803464 0.052499104 0.15512465 0.12975217
0003e0 47 fc 23 bd 02 e3 02 3d 1a 6e 75 be e6 40 56 3d
       -0.040035512 0.031954773 -0.23967782 0.052307986
0003f0 52 22 05 be 19 cc 02 3c ea 62 0f 3d af 93 95 bc
       -0.13001373 0.007983231 0.03500644 -0.018258898

network_body._body_endoder.seq_layers.2.bias f4 [128]
000000 40 51 5a bc b3 d7 1c bc e0 57 87 bc 52 f1 ea 3c
       -0.013325036 -0.009572911 -0.016521394 0.028679524
000010 2b c3 10 bb 91 e7 79 3b 9b 3d 1f 3c 00 51 a6 3c
       -0.0022088985 0.003813241 0.009719278 0.020302296
000020 c1 e2 81 bc 0d f9 be 3c 20 c7 54 3d 47 e4 82 3c
       -0.015855195 0.023312116 0.051947713 0.015977992
000030 5d d7 d4 3c 14 0f da 3a 85 f1 1c 3d 02 dd f6 3c
       0.0259816 0.0016636574 0.03831627 0.030134682
000040 85 41 0e bc 88 35 fd 3c f2 e2 ba 39 12 78 a4 3c
       -0.008682613 0.030909315 0.00035645772 0.020076785
000050 0e 93 b0 b7 2d 49 85 3b 6b 07 81 3c d7 7b cd 3b
       -2.1049313e-05 0.004067561 0.015750607 0.0062708664
000060 17 d9 00 3d ca d8 cd bb 59 5d 50 3c 86 9e d8 3c
       0.031457033 -0.006281947 0.012717568 0.026442777
000070 ab b6 0e 3d bc 24 6e 3b ff 7d 6b bc ed 9b 58 3c
       0.034842175 0.0036337813 -0.0143733015 0.013220769
000080 5b 29 13 3c 5d 78 d9 3c 7a d6 91 3c 57 20 37 bc
       0.008982028 0.026546651 0.017802466 -0.011177144
000090 f3 4d 0d 3d 6a 15 31 3c 9c b9 1b 3c 3b 12 80 3c
       0.034498166 0.010808328 0.009504702 0.015633693
0000a0 63 4f aa 3b 86 88 dd 3c 0d 83 48 3c 89 b8 9a 3c
       0.005197452 0.027042639 0.012238276 0.018886821
0000b0 d8 94 fc 3b b2 38 aa bc 08 5f c4 3c 9b 47 ba 3b
       0.0077081732 -0.020778988 0.023971096 0.0056848056
0000c0 ea b0 54 3c 69 29 9c bb 59 cb d6 3c 0c 29 05 3c
       0.012981633 -0.0047656787 0.02622001 0.008127462
0000d0 fd 60 b6 b9 c6 25 38 3c b7 d2 0d bb b3 93 e7 3c
       -0.00034786007 0.011239475 -0.0021640488 0.02826867
0000e0 38 f2 01 3c 81 c5 a1 bb 2d f5 3f 3c 94 aa de 3c
       0.007931285 -0.0049368744 0.011716169 0.027180947
0000f0 ca 4b 93 bc 41 89 95 3b 5f 7a 1c 3d 1e 48 8f 3b
       -0.017980475 0.004563481 0.03820264 0.0043726107
000100 02 35 bf 3c c7 10 35 3c cd 41 ca bb b0 66 76 3c
       0.023340706 0.011051363 -0.006172395 0.015039131
000110 95 a3 d0 bc 1a 9b 5b 3d 47 07 5e bc a5 b1 f6 3c
       -0.025468627 0.053614713 -0.01355154 0.030114004
000120 f2 2f 8f 3c 81 50 fb 3c 17 f8 89 bc f3 21 b2 ba
       0.017478917 0.030678036 -0.016841931 -0.001359044
000130 7e 1e 7f 3c f2 65 6f bc 6f 67 33 3c 76 88 86 bc
       0.015571235 -0.014611708 0.010949953 -0.016422492
000140 a9 d3 9b 3b 4c bf ba ba 7a 7a 8c 3c f1 46 83 bc
       0.0047554565 -0.0014247685 0.017148245 -0.016025038
000150 4e b7 34 3d 20 ee 68 3c 3f 82 3c bc 05 77 33 3c
       0.044120125 0.01421693 -0.011505662 0.010953669
000160 1b cf c0 3c ac 57 e0 3c cf dc e7 3a 04 d8 97 3c
       0.023536256 0.027385555 0.0017689707 0.018535621
000170 b9 4f 9d bb cc 19 3f bc 37 5c cd 3a d5 0c b2 3c
       -0.0048007634 -0.011663865 0.0015667741 0.021734634
000180 0a 02 ba 3c b8 01 70 3b 9c a7 2b 3c 74 5e 02 3d
       0.02270605 0.0036622118 0.010476973 0.03182836
000190 a8 e0 88 bc 68 38 0f 3c 0a 40 03 3d 48 ee 82 bb
       -0.016708687 0.008741476 0.032043494 -0.0039956905
0001a0 e7 8a cc 3c df c7 b2 3c e2 91 d0 3c 36 8f 60 3c
       0.024968578 0.021823822 0.025460187 0.013706019
0001b0 8c f5 9b 3b 54 7d 80 3c 10 3a 42 3b 2a 62 8a 3c
       0.004759496 0.015684761 0.0029636659 0.016892511
0001c0 1f 60 16 3c 79 4e a5 bc 5f 0a 08 3d 33 3d c5 3c
       0.0091781905 -0.02017902 0.033213016 0.024077034
0001d0 43 e8 d1 3c dd 43 9d 3c 0b 8d ee 3c 89 37 19 3d
       0.025623446 0.019197399 0.029119989 0.037406478
0001e0 57 85 16 3d 81 3e c2 3c b0 73 01 3c 60 67 cc 38
       0.036748257 0.023711445 0.007901117 9.746733e-05
0001f0 b5 3e 86 3b a2 28 80 3c e1 d1 90 3c b4 ae a7 3c
       0.0040968307 0.015644375 0.017678203 0.020469047

action_model._discrete_distribution.branches.0.weight f4 [7, 128]
000000 59 44 2d 3c 7f 99 de ba b2 14 f3 3b 83 17 c9 3b
       0.010575377 -0.0016983001 0.0074182386 0.006136836
000010 e3 38 c3 39 8d d6 06 3d ca ee 50 3c 97 a4 81 3c
       0.00037235682 0.032919455 0.012752244 0.015825553
000020 a3 89 39 3c 8d d4 c4 3c 09 c8 40 3c 56 01 8b 3c
       0.011324319 0.024027133 0.011766442 0.01696841
000030 b4 48 9c 3b 7a d7 82 bb e3 3f 29 3d 76 e8 c6 3b
       0.004769409 -0.003992972 0.041320693 0.006070192
000040 07 af 5f bc ba 63 18 3c 66 3a 21 bb 23 11 9e 3a
       -0.01365257 0.00930112 -0.0024601459 0.001205955
000050 10 0b 41 bc 43 ec 70 3a d0 c7 1e 3d 66 d6 86 bc
       -0.011782423 0.0009190479 0.038764775 -0.016459655
000060 39 9b aa bb a1 36 fd bb ef 88 c5 3b 63 44 69 3a
       -0.0052064923 -0.0077274595 0.0060282866 0.0008898435
000070 a8 f6 3f 3c fe 73 bc 3b 60 35 8e 3b 66 7d 91 3b
       0.011716522 0.005751132 0.004339859 0.0044399975
000080 72 ed 58 3c 13 d2 79 bb ae 6c af 3c e0 14 51 3c
       0.013240205 -0.0038119599 0.021414127 0.012761325
000090 36 ca 00 bc 8e 4c 3f bc b5 ce 6b bb e7 18 0a 3c
       -0.007860711 -0.011675967 -0.0035981361 0.008428789
0000a0 a7 ef 57 3b 8e 7b 83 39 80 05 48 3c 57 b2 b6 3c
       0.003294924 0.00025078323 0.012208343 0.022301836
0000b0 55 4c eb 3a d8 9b 20 3b 58 6b 63 3b 19 05 34 3a
       0.0017951826 0.0024506953 0.0034701433 0.00068672147
0000c0 7e 45 5e 3c eb c3 5a 3b 0c f8 1e 3c 58 73 3f bc
       0.013566373 0.0033380936 0.009702694 -0.011685215
0000d0 60 0a 0d bc 82 79 c3 3c 09 d7 97 3c b5 95 14 3c
       -0.008608431 0.02386165 0.018535154 0.009068896
0000e0 e7 aa 5c bc 6e 5f 3b bc b5 d7 67 bc a0 1b 27 bb
       -0.013468481 -0.011436326 -0.01415055 -0.0025498644
0000f0 58 89 82 3c 32 a4 59 bc db 7e 40 3c 8e f1 24 3b
       0.015934631 -0.013283776 0.011748995 0.0025168392
000100 01 8e 12 3b d4 9f 68 3c 5f 01 d1 bb 97 e6 3b 3d
       0.0022362473 0.014198262 -0.0063783373 0.045874204
000110 59 3c 9b 3b 1f 66 dd 3c 83 c1 40 3c 5b fd 8d 3b
       0.0047374186 0.027026234 0.011764887 0.004333181
000120 e7 68 8c bc 12 5b ec 3c 14 14 d6 3b 39 4b 9a 3c
       -0.017139865 0.02885202 0.006533155 0.018834697
000130 f7 2a 03 3c c7 3a 9d 3c 57 92 0f 3c 8e 30 f3 bb
       0.008005849 0.019193066 0.0087629175 -0.0074215597
000140 7e f9 8a bc ff 63 5c 3c 46 eb 18 3a 4b 7b ec 3b
       -0.01696467 0.013451575 0.00058333983 0.007216846
000150 cf 6b 57 3c 8d b9 e6 3c 6a 67 55 3c 13 8e 8c bc
       0.013148262 0.02816465 0.013025144 -0.01715759
000160 28 7f 96 3b 61 55 bc 3c 4d 30 cd ba c2 b4 22 3d
       0.004592795 0.02298993 -0.0015654654 0.039723165
000170 d9 b6 af bb 40 19 83 bb 04 58 56 bb 91 ad 88 3c
       -0.0053623733 -0.004000813 -0.003270627 0.016684325
000180 95 22 e8 3c 2c 87 83 3c d6 ec fb bb d6 f9 d2 3c
       0.028336802 0.016055666 -0.007688145 0.025753897
000190 8b 55 0a 3c d0 09 e1 3b ca 1e 11 bc dd 48 4f 3c
       0.008443247 0.006867625 -0.008857438 0.012651649
0001a0 ec f6 ed ba 55 1a a7 3c 52 19 96 3b f4 86 a8 3b
       -0.0018155253 0.020398298 0.004580655 0.005143041
0001b0 f9 e9 1a 3b ea c2 cc 3c 99 8c 91 bb c8 50 a9 3c
       0.0023637994 0.024995286 -0.0044418094 0.020668402
0001c0 55 fc 00 ba 0b 3b 08 bb e8 71 05 bc 15 43 18 3d
       -0.0004920413 -0.0020787145 -0.008144833 0.03717335
0001d0 7f e7 56 bc 64 70 db 3c 72 64 52 bb c9 4b d6 3a
       -0.013116716 0.02678699 -0.0032103327 0.001634949
0001e0 48 b8 3b 3c da 25 93 bc 9f 12 23 3c d7 5e 0a ba
       0.01145751 -0.017962385 0.00995317 -0.00052784145
0001f0 9c a8 a0 3b ed cb 6f bb e7 c4 7c 3b ad 14 c2 3c
       0.0049029123 -0.0036590055 0.0038569511 0.0236915
000200 13 b2 89 3b 98 39 43 bc 20 4d 80 bb 35 34 f7 3b
       0.0042021363 -0.011915587 -0.003915444 0.0075440654
000210 ce 97 02 3c 02 62 55 bb 93 84 50 bc 80 c6 8e 3d
       0.007970763 -0.0032559638 -0.012726921 0.069714546
000220 7e e8 30 bc 28 09 23 bd a7 cf 12 bd 25 8d 9c 3c
       -0.010797618 -0.039803654 -0.035842564 0.019110272
000230 e2 06 c9 3c 87 ae 69 bc 15 ce 07 3d 5d 8f 2c 3d
       0.024539415 -0.014262802 0.03315552 0.04212891
000240 c7 25 19 3c c4 fe 30 3c c9 fb 94 3c c7 ef 57 bb
       0.009347386 0.010802928 0.018186467 -0.0032949315
000250 e5 7f 88 3c a0 e6 87 3b 56 7d 84 3d cb c2 df bc
       0.016662547 0.0041473657 0.064692184 -0.027314564
000260 b0 35 ac 3c 65 13 a2 bc 8f e3 09 3d 5c 6f 48 bd
       0.021021694 -0.019784639 0.033664282 -0.048934326
000270 82 f8 28 3d f8 93 df 39 99 b4 10 bc 30 fb 4f 3d
       0.04125262 0.0004264412 -0.00883212 0.05077666
000280 c2 0c 51 bc 1a c9 2a 3d 55 29 09 bd 94 80 d5 ba
       -0.012759389 0.04169569 -0.033486683 -0.001628893
000290 23 e6 07 3d 35 3e 81 bc 0f 07 51 3d 29 cb e5 bc
       0.03317846 -0.015776733 0.051032122 -0.028050976
0002a0 e6 32 13 3b 54 90 2a 3d 8e e4 87 bc c8 45 25 bc
       0.0022460758 0.04164155 -0.016588476 -0.010087438
0002b0 78 52 7b bc ee 12 53 b9 1a fc 8b bc 86 8d 92 3a
       -0.015339486 -0.0002012958 -0.017087985 0.0011181093
0002c0 d7 8c f0 bc 21 c0 5c bc 38 44 47 3d d2 9d b4 3c
       -0.029364033 -0.0134735415 0.048649043 0.02204791
0002d0 c0 6a 01 3c 6f aa 67 bc b3 b3 a4 3c 3b c5 fb 3c
       0.007898986 -0.014139756 0.020105219 0.030733695
0002e0 31 58 10 bc a5 81 a2 bb b8 50 56 bb 18 d4 8b bc
       -0.008810089 -0.0049593025 -0.003270192 -0.017068908
0002f0 bc 55 dd bb b1 be 16 3d 4e 1a 77 3d 0e 8a 98 bc
       -0.006754605 0.03680295 0.06032782 -0.018620517
000300 a5 eb c1 3c 6a 12 dc bc 14 c7 c7 b9 69 30 df 3c
       0.023671934 -0.02686425 -0.00038104563 0.027244763
000310 90 cd 45 bb 9c a0 50 bd 25 82 27 3b eb 8e 2a 3d
       -0.003018234 -0.05093442 0.002555975 0.041640203
000320 22 9d a1 3c 15 91 f3 3c db 22 85 3c 62 97 18 3c
       0.019728247 0.029732266 0.016251972 0.009313436
000330 1c 94 63 3d b4 cb 4a 3c fc 24 a6 bb f4 c6 c9 39
       0.05556117 0.012377668 -0.005070327 0.0003848594
000340 35 ce 51 3d 82 93 38 3c fd a7 06 bd 31 f6 3b bc
       0.051222045 0.011265637 -0.03287505 -0.011472271
000350 83 51 a5 bd 83 fc 3d 3c 52 e0 04 3c 61 f3 28 bb
       -0.08072188 0.011595848 0.008110123 -0.002577983
000360 9a fd 1e b8 1f c1 4f 3d 33 cb e9 3c c4 6c 16 bd
       -3.790632e-05 0.050721284 0.028539276 -0.03672482
000370 10 94 60 ba 13 83 01 3c 1c 77 ec ba d8 ff 8b 3c
       -0.0008566985 0.007904786 -0.0018040868 0.01708977
000380 7a 70 a7 bc 62 50 6a 3c dd 7f 38 3c 00 10 74 ba
       -0.020439375 0.014301391 0.011260954 -0.00093102455
000390 f2 5e 35 3b 7f 9e 08 3d 37 97 26 bc 42 1c 40 3c
       0.0027675 0.03335428 -0.010167888 0.011725487
0003a0 dc 2a 30 3d 6f 0b 17 3d 54 4f 94 3c cb 88 09 3d
       0.043009624 0.03687614 0.018104233 0.03357772
0003b0 c6 db ee 3b 52 7f 75 3d c6 02 26 3d 12 17 57 bb
       0.0072893826 0.059935875 0.04052999 -0.0032820147
0003c0 eb 88 60 bc ad 04 5d bc 62 e4 7d 3d 28 85 45 3d
       -0.013704519 -0.013489884 0.06198538 0.04822269
0003d0 dc 2d 8a 3c 05 6d 2c 3a 0f 13 82 3d 6e b3 d7 3c
       0.01686757 0.00065775245 0.063512914 0.026330676
0003e0 03 20 1d bd 8e 70 4b 3d 04 ec 8c bc 0d 0a 29 bc
       -0.038360607 0.049667887 -0.017202385 -0.010317338
0003f0 bc 2d 33 bc 4f 87 48 3d 48 1f a9 bc bc 5b 81 3d
       -0.010936197 0.048957165 -0.020644799 0.06316325

action_model._discrete_distribution.branches.0.bias f4 [7]
000000 98 41 01 bc 8e 4e f1 ba b8 df a1 bb be 38 89 3c
       -0.007889174 -0.0018410252 -0.0049399994 0.01675069
000010 88 3f 01 3b 5a 88 c4 bb 90 2a 02 bc
       0.0019721705 -0.0059976997 -0.007944718
