CCP-main/results/test004/WeightAgent_Training/WeightAgent_Training-1499946.onnx (onnx, 155824 bytes, 6 tensors)

network_body._body_endoder.seq_layers.0.weight f4 [128, 163]
000000 08 6a b9 bd 07 ef 99 bd 72 40 40 3e 70 b8 8d 3d
       -0.09053427 -0.07516294 0.18774584 0.06919944
000010 1b e1 d2 3d 93 81 7c be 5e 9b f1 3d b4 79 a5 bd
       0.10296842 -0.24658804 0.11797212 -0.08079854
000020 ce 41 1e be be 6e 00 3d dd f8 2c bd 81 22 0a bd
       -0.1545479 0.031355612 -0.042229522 -0.03372431
000030 6b a3 d4 3d 7d 19 78 3c 49 93 15 3e 89 6f 8e bd
       0.10382732 0.015142796 0.14606966 -0.069548674
000040 55 73 39 3c ab 88 0b 3c 22 d7 86 3d 53 fe df 3b
       0.011319001 0.008516471 0.06584002 0.0068357377
000050 f0 47 e1 3c 03 17 a8 bd 2b bc 56 bd be df 03 bd
       0.027500123 -0.08207514 -0.052425545 -0.0321958
000060 8c c7 b7 bc 91 bc bc 3d ed c0 2e 3e dd 51 91 bd
       -0.022434019 0.09215654 0.17065783 -0.07095692
000070 ca d5 12 bd c9 67 d4 3b 09 24 b6 bd 57 4c 0c bd
       -0.035848416 0.0064820987 -0.08893592 -0.03425249
000080 c8 dc 34 bd 16 f1 2a 3c 90 9f 28 3d c5 53 46 bd
       -0.044155866 0.010433456 0.041167796 -0.048419733
000090 e7 29 ef ba e4 9d b4 3d ee a3 b7 bc 98 7a 7b bd
       -0.0018246741 0.08819178 -0.022417035 -0.06139621
0000a0 11 6a 11 bd 0b 28 22 3d 10 8d f9 bd 97 e5 4e 3e
       -0.035501543 0.03958897 -0.12185109 0.20204769
0000b0 44 81 ee 3b c5 2f 09 3d f4 ed 96 3d 5d 19 cb 3c
       0.0072785933 0.033492822 0.07369605 0.024792368
0000c0 b0 eb 95 bd 71 6b 4e bd 24 88 65 bd fc b0 c3 bd
       -0.073203444 -0.050395433 -0.056038037 -0.095552415
0000d0 70 6c 0b be 73 52 fd bd 44 4f 8d bb aa b9 f6 bd
       -0.13615584 -0.123692416 -0.0043124277 -0.12047131
0000e0 31 34 ae ba 5a d2 45 3c bb 94 e4 bc 19 34 cd bc
       -0.0013290701 0.0120740775 -0.027902951 -0.025049256
0000f0 38 8f c1 bd f5 0c df 3c e2 d1 0e be 2d 5d b7 3c
       -0.09451145 0.027227858 -0.13947251 0.022383297
000100 0f 7b 06 3e 10 6b cb bd df 67 ef bb b6 ed 38 bc
       0.1313288 -0.0993253 -0.0073060836 -0.011287143
000110 a0 f0 d7 bd c2 78 9e 3d 01 64 a0 bd f8 37 97 bd
       -0.105439425 0.077378765 -0.07831574 -0.07383722
000120 76 b5 ed bd af 69 aa 3d 5e 6c 7e bc 46 38 f9 bd
       -0.116068766 0.08320939 -0.015528766 -0.121689364
000130 98 a5 bd bd 23 ac 04 be 58 cb 0e bc 7c 86 98 bd
       -0.092601 -0.1295629 -0.008715473 -0.07447526
000140 95 ad 16 bd dc 1b ed bd e7 32 1a bd cc b8 1c be
       -0.036786634 -0.115775794 -0.0376462 -0.1530487
000150 f5 70 89 bd c3 7e 11 3b 6c 24 af bd 9b aa b4 be
       -0.06710998 0.00222008 -0.08551869 -0.35286412
000160 54 18 6e 3d a5 fd 5e bd 44 0f c2 bd 31 49 fb bc
       0.05812867 -0.054441113 -0.09475568 -0.030674549
000170 d2 8a c3 3c fc 5d 29 bd a4 85 02 3d d4 b2 07 3e
       0.023869906 -0.041349396 0.03186573 0.13251811
000180 04 e1 fe bb c6 83 c3 bd aa ad b5 3b 20 18 e6 3c
       -0.007778289 -0.09546618 0.005544384 0.028087676
000190 7d b8 4c bd ef 2f 40 3b cf 95 a1 3d 7a 84 66 bd
       -0.04998063 0.0029325446 0.07889902 -0.056278683
0001a0 b8 68 86 bc d8 a4 01 3d 0e c6 3e bc 20 e6 f1 bd
       -0.016407356 0.031651348 -0.0116439 -0.11811471
0001b0 3f ec 61 3d 13 b1 24 bd c8 b4 aa 39 65 73 29 3b
       0.055156942 -0.040207934 0.0003255962 0.0025856134
0001c0 a6 c4 ab bd 79 53 1d bd 31 af 47 3e 0e 46 16 bd
       -0.08387117 -0.038409684 0.19500424 -0.036687903
0001d0 da ee 35 bc 83 f2 e7 bd 38 b9 eb bd 4c 25 9d bd
       -0.01110431 -0.11325552 -0.11509937 -0.076731294
0001e0 bb 0a 78 3d b8 17 d5 3c bc 57 8a 3d cc ea 07 bb
       0.06055711 0.026012287 0.06755015 -0.0020739315
0001f0 f8 67 10 be d6 c1 00 bd d4 36 18 bc 12 f3 0c bd
       -0.14102161 -0.031434856 -0.009290416 -0.034411497
000200 4f ba 3b bd 18 e2 6f bc f4 93 c0 3d d3 e8 87 3c
       -0.045831975 -0.014641307 0.0940322 0.016590511
000210 42 08 4e be 1f 5e fd bd 35 c8 4c be a3 8f e0 3d
       -0.20120338 -0.12371468 -0.19998248 0.109648965
000220 ba 5b c3 3b bb be 9b bd 3b 8f 32 bd 59 1d 9a bd
       0.0059618624 -0.07604738 -0.043593626 -0.07525129
000230 17 34 70 3b 22 a8 95 3d 5b e9 c1 bc 0a 22 1e be
       0.0036652142 0.073074594 -0.023670843 -0.15442672
000240 cd 8f 43 be 06 1d 60 3d 86 10 78 3d af 8c 83 3d
       -0.19097824 0.05471518 0.060562633 0.06423318
000250 42 70 5a bc 31 4a cb bd e8 f0 7a bc 0c e5 7a bd
       -0.013332428 -0.0992626 -0.015316226 -0.061253592
000260 27 57 85 bd 60 c4 c1 bc 34 e5 f7 3d a4 a9 e6 bd
       -0.065107636 -0.02365321 0.12104264 -0.11262825
000270 04 5b 00 bb 55 6d e1 3c 17 fc ec 3c 70 23 a4 bc
       -0.00195855 0.027517954 0.0289288 -0.02003643
000280 1d 6a bc 3d 9c 57 35 3d d4 68 9f bd c4 9b e3 bd
       0.09199927 0.044273004 -0.07783666 -0.11113694
000290 2c 8f d7 3d 23 ee ac 3d 5e ed 7c be 3b a3 fe bc
       0.10525355 0.084438585 -0.24699923 -0.031083694
0002a0 07 9a 88 bd 10 c9 f5 3d 77 f1 07 3e 5f 01 83 3c
       -0.066700034 0.1200124 0.13275705 0.015991865
0002b0 ae 95 54 be fa 6b 76 3a c2 90 b8 3d 40 46 ee 3c
       -0.20760223 0.0009400245 0.09011985 0.029086232
0002c0 39 c5 cc ba 78 fa 4e bd d6 38 26 bd 41 71 f1 3d
       -0.0015622742 -0.050531834 -0.040581547 0.117891796
0002d0 87 64 a8 3d a4 23 42 bc 4a a4 1a bd a1 95 1d 3e
       0.08222299 -0.011849318 -0.037754335 0.1538911
0002e0 5c f3 93 3d d2 0f ae 3d c4 71 e5 3c 71 0a 2c 3c
       0.072241515 0.08499111 0.02800835 0.010500536
0002f0 b8 27 45 3b ae 3b 7f 3b b5 a4 e4 bd 6a cd 91 3c
       0.0030083489 0.0038945484 -0.11164228 0.017798144
000300 4a 5b 38 3d f0 b5 df 3d f0 80 52 3d f3 26 80 bd
       0.045008935 0.10923374 0.051392496 -0.06257429
000310 f5 26 c3 bd dd 00 24 bd cc ec 98 3c 6a 60 e8 3a
       -0.09528915 -0.040039886 0.018667601 0.0017728929
000320 a7 d4 46 bc 49 0a 0a 3e 2c ce a6 bc 5b a2 96 3d
       -0.012135661 0.13480486 -0.020361982 0.073551856
000330 c0 dd 93 bc d6 8b f5 bc e8 b4 b4 3c 59 c4 53 3d
       -0.018050075 -0.029973906 0.02205892 0.051700924
000340 0d e4 6c bd c3 4c 36 3e 5b 08 6a 3d 65 03 20 3e
       -0.057834674 0.1780272 0.057136875 0.15626295
000350 48 e0 06 3d f9 d1 a6 3d ca d6 a6 bd 8c a9 81 bc
       0.032928735 0.08145518 -0.081464365 -0.015827917
000360 2c 3f 07 3e 32 ac 88 3d 56 62 80 3a 81 5b 2d 3d
       0.13207692 0.06673469 0.0009794931 0.042323593
000370 08 85 85 3c 82 3f 3a bd 96 8f 7a bd c1 f4 da 3d
       0.016298786 -0.045470722 -0.06117209 0.10691214
000380 8e 4a e9 bc e0 aa 3e 3c 17 a9 39 3d fd 71 ec bd
       -0.028477933 0.011637419 0.045327272 -0.11545179
000390 58 cf d0 bb 56 a6 cb bd e3 8e dc bd 27 90 cc bb
       -0.0063723736 -0.099438354 -0.10769441 -0.0062427702
0003a0 d5 a4 ee bd fe 1c 73 3d d0 75 94 bd 5c d7 9d bb
       -0.11652533 0.05935382 -0.072490335 -0.0048169326
0003b0 3c 9e 3d 3d d7 1c 00 3e 88 73 1f bd c4 cf b6 bd
       0.046293482 0.12511002 -0.03892854 -0.08926347
0003c0 96 0c 31 be ae c0 df bd 18 5b 37 3e 75 3c 19 3c
       -0.17289957 -0.109254226 0.17905843 0.009352793
0003d0 78 d7 d2 bd ee 45 11 be ba 28 9b bc dd d8 2e 3d
       -0.10295004 -0.14186832 -0.018940318 0.042687286
0003e0 da 18 8c bd 4d 8e 00 bd 74 e2 83 3d e2 e0 02 be
       -0.068406776 -0.03138571 0.06439677 -0.12781098
0003f0 e9 cd f8 bd e4 f5 df 3d 4f f5 b1 3d 55 fb e1 bd
       -0.12148649 0.10935572 0.08689367 -0.11034266

network_body._body_endoder.seq_layers.0.bias f4 [128]
000000 27 f8 4b bc 18 61 d6 bb da 28 4c 3d b0 51 a3 bb
       -0.012449301 -0.006542336 0.049843647 -0.004984103
000010 8c f8 98 3c 9c 83 4b 3d bf b8 1f 3c 7b 95 61 3c
       0.018673204 0.04968606 0.009748637 0.013768549
000020 de d8 91 ba 33 bd ab 3c 2a d7 51 3d 61 58 3d 3d
       -0.0011127254 0.02096424 0.051230587 0.046226863
000030 45 36 8d 3c 59 24 bb 3c ee 0d 61 bc 85 a5 3b 3d
       0.017237792 0.02284448 -0.013736231 0.04581215
000040 7e 01 47 3d 36 71 f8 3c 9e aa 01 bd 98 db 20 bd
       0.048585407 0.03032742 -0.031656854 -0.03927192
000050 65 7d d9 3c 3e 9d 0e 3d 47 7c 25 3d 79 72 08 3c
       0.02654905 0.034817927 0.040401723 0.008328074
000060 20 f2 15 bc 7c 15 5d bc 8f c6 37 3d 3b 77 bf 3c
       -0.009151965 -0.013493892 0.044867095 0.023372283
000070 df ed 15 3d 1b 75 59 ba 3d fc 82 bb ae 1e cd 3b
       0.036603805 -0.0008295343 -0.0039973543 0.006259761
000080 e6 ce d4 bc 80 1b ca 3c 73 6f cc bc 75 6b 44 3d
       -0.025977563 0.024671316 -0.024955487 0.04795404
000090 7b 52 08 bb 23 46 39 bc 3a 9e aa 3c 27 2b c9 3c
       -0.0020801115 -0.011308226 0.020827401 0.02455671
0000a0 61 2d 95 3b 5f 0c 16 3c 22 84 62 3c 69 96 fd 3c
       0.0045525287 0.009158223 0.013825448 0.03095551
0000b0 b2 e4 d8 3c d1 8f 15 ba 83 74 0f 3d 6e f7 4c 3d
       0.026476238 -0.0005705329 0.035023224 0.050040655
0000c0 aa ad 55 3d e3 bc 9e 3a 34 2a 89 3c 77 89 90 3c
       0.052167572 0.0012110736 0.016743757 0.017643673
0000d0 32 40 c1 3c 8c d1 ba 3b f6 58 94 3c b6 21 85 bb
       0.023590181 0.0057012495 0.018108826 -0.0040628565
0000e0 e6 d4 c5 3c e5 9e f0 3c 74 8a 28 3d 96 6f 00 bc
       0.02414937 0.029372642 0.041147664 -0.007839104
0000f0 76 b4 42 3d 01 aa d2 bc b6 45 f7 3b 2f 66 b1 bb
       0.047535382 -0.02571583 0.007546152 -0.0054137926
000100 00 34 8d bc 64 fa 5b 3d 18 26 ca 3c 7b 87 2b bc
       -0.01723671 0.053705588 0.024676368 -0.010469313
000110 30 7b 17 3c 62 a5 07 bb 9a d2 be 3b 04 22 0f bc
       0.009245679 -0.002069794 0.0058234455 -0.008736137
000120 0c 11 f2 3c b0 84 50 3d ba e2 4f 3d dd dc 0d 3c
       0.029549144 0.05090779 0.050753333 0.008658615
000130 34 80 39 3d 07 a8 ec 3c f3 d4 04 3c 78 f2 2a 3b
       0.04528828 0.028888715 0.008107412 0.0026084464
000140 e1 48 f4 bc a1 c1 d7 3c f5 21 03 bb 0a b0 ad 3b
       -0.029819908 0.026337447 -0.0020009254 0.0053005265
000150 44 89 b3 3c 14 81 12 bd 4c 5f cf bc aa fd ea 3b
       0.02191604 -0.03576763 -0.025313996 0.0071713524
000160 ce c3 de bc 08 2b 82 3c 8e 0b a3 3c 74 ef 13 bc
       -0.027192976 0.01588966 0.01990297 -0.009029258
000170 ee ab 47 bc ff bc a4 3c 27 f3 24 bc 1b f7 88 bc
       -0.012186987 0.020109652 -0.010067738 -0.016719392
000180 19 a3 d6 3c a8 42 17 3c b4 f8 40 3c cb 6a 0e 3d
       0.026200818 0.009232201 0.011778045 0.034769814
000190 c6 71 88 bc e7 11 1f 3d ed 44 52 bc cd 17 55 3c
       -0.016655814 0.038835432 -0.012833816 0.013006163
0001a0 06 b3 33 3b a4 b5 14 3d 2b 1f 27 3d 80 80 90 bb
       0.0027419939 0.03630604 0.04080121 -0.0044098496
0001b0 f1 ea f7 3c 85 8c 81 3c b2 a6 98 3c c8 f0 f2 3b
       0.030263396 0.015814075 0.018634174 0.0074139573
0001c0 60 57 07 3c 98 09 bc 3c a1 fa d8 bc ed 8e 1f bc
       0.008260578 0.022953793 -0.026486697 -0.009738666
0001d0 57 61 fc b9 9f ee 71 3b f1 3e a3 bc 20 1a c1 bc
       -0.0004813771 0.003691591 -0.019927474 -0.023572028
0001e0 5b e4 05 3c 2b f5 a6 3c b6 a0 a2 3c 54 6e 00 3d
       0.00817212 0.020380577 0.019852024 0.031355217
0001f0 a7 64 fb b9 4e 93 e2 3b 41 da e3 3c 78 6f 1b 3c
       -0.00047949443 0.0069145327 0.027814033 0.009487025

network_body._body_endoder.seq_layers.2.weight f4 [128, 128]
000000 02 45 1a be d4 c8 b7 3d 94 93 c7 bd 56 79 58 bc
       -0.15065387 0.08973852 -0.09744945 -0.0132125225
000010 c1 bf 94 3c 24 df 63 be 4c 3f 86 bc a6 b6 ed bd
       0.018157842 -0.2225309 -0.016387604 -0.11607103
000020 df 15 ad ba 40 41 3e be 2e ab 53 3d a7 68 3c 3e
       -0.0013205371 -0.18579578 0.05167692 0.18399297
000030 e3 ff 8d 3c 96 05 5b bd 5f 22 6a 3c 8b e0 fe 3c
       0.01733393 -0.053472124 0.014290421 0.03111293
000040 e2 18 cb bd b2 dd ba 3d 28 64 36 bd 5f e6 b0 3d
       -0.099168554 0.09124316 -0.04452911 0.0863769
000050 ce 49 06 3e 11 02 52 be f6 46 e7 bd 1c fa 05 3c
       0.13114092 -0.20508601 -0.112928316 0.0081773065
000060 dd 80 a4 bd bf a5 e3 bd ce d2 80 bd ea df b2 3c
       -0.08032391 -0.11115598 -0.06290208 0.021835286
000070 02 29 c8 bc 08 18 43 bc 47 ba cb 3d fa f2 49 bd
       -0.024433617 -0.011907585 0.09947639 -0.049303986
000080 2c a0 3b 3d 39 6a 19 3d e3 ed a4 3d ea 6e 9b bd
       0.04580705 0.037454817 0.08053186 -0.075895146
000090 8b 02 1e 3d b1 ee 16 3e 7a 84 4d 3d 2a 2b 55 3d
       0.038576644 0.14739491 0.050175168 0.052043118
0000a0 da d4 cf bd ec 93 da bd 63 98 14 ba 1c 07 c4 3d
       -0.1014802 -0.10672745 -0.00056684593 0.095716685
0000b0 79 2e 45 bd ed 46 b9 3d ca dd 83 3c e8 e7 59 bd
       -0.048140023 0.09046731 0.016096968 -0.05319968
0000c0 36 da 23 be 5d 33 10 bd b6 04 0b be ed f4 0d 3e
       -0.1600121 -0.035205234 -0.13576016 0.13862963
0000d0 b3 d5 f8 3c 6d 06 af bb b5 89 c0 3d a7 f5 fe bd
       0.030375337 -0.005341342 0.094012655 -0.12449198
0000e0 af eb ee bb 1e 10 48 bd 36 81 8f bd 37 16 67 3c
       -0.0072912793 -0.048843496 -0.07007067 0.0141044175
0000f0 c6 2c 5c be 83 84 15 bd 8d d8 7d 3c 32 5b c0 3d
       -0.21501455 -0.036503326 0.015493524 0.09392394
000100 78 e0 86 3d 6c 19 80 bd 04 3b 4c bd 94 38 36 3d
       0.06585783 -0.06254849 -0.04986097 0.04448755
000110 8e 5f 0d 3d 04 25 32 3c 19 6f 28 bd 38 1f a6 bd
       0.034514956 0.010873083 -0.041121576 -0.08111423
000120 06 15 af bd 26 11 f8 3a 67 10 e6 3d 48 7f f7 bb
       -0.08548932 0.0018926009 0.11233597 -0.007553015
000130 44 bf 75 3e f9 be 88 bc 2d 3b c9 3c 39 9f 2c 3d
       0.23998743 -0.016692625 0.02456435 0.042144034
000140 4c 6e 70 be 65 e3 1f 3d 51 98 5e 3d 05 84 80 bd
       -0.23479575 0.03903522 0.05434448 -0.06275181
000150 86 3a ce 3d 41 e8 45 3d c9 22 a0 3d 0d 87 a1 bd
       0.10069756 0.048317198 0.07819135 -0.07887087
000160 c2 24 85 bd 0f e5 b7 bd b3 6d 17 3b ec e8 ee 3d
       -0.065011516 -0.08979236 0.0023106157 0.1166552
000170 20 62 c8 bd 61 c2 be bd 30 a2 81 bd fc c5 1b 3d
       -0.09784341 -0.093144186 -0.06329763 0.03803061
000180 a3 eb 56 3d 61 05 31 3d 58 68 88 bd ae bc 9f bc
       0.052470814 0.04321802 -0.06660527 -0.01949915
000190 3a c2 fd bc 73 a4 b4 bd 6d 4f 9b bd 3a 18 42 3d
       -0.030976404 -0.08820429 -0.07583509 0.047386386
0001a0 a0 a3 cb 3c 91 0f 37 3e 37 ec 42 bd 05 47 ca 3d
       0.024858296 0.17877032 -0.047588553 0.09876827
0001b0 27 05 34 be b2 c3 47 bd 79 e6 d9 bd a9 43 11 be
       -0.1758009 -0.048770614 -0.10639662 -0.14185967
0001c0 b3 9e a5 bd a0 0f 0e 3d 08 7e 97 bb b5 b9 53 3d
       -0.0808691 0.03468287 -0.0046231784 0.051690776
0001d0 84 d7 d5 3d d1 1a 00 be c9 24 b9 3d c1 8d 81 3d
       0.10441497 -0.1251023 0.09040219 0.063258655
0001e0 5f c5 28 bd cc d7 1a 3e d6 91 25 bd 90 5e 01 bd
       -0.041203853 0.15121382 -0.040422283 -0.031584322
0001f0 4f ef 30 be 31 6a 3a 3e 3c 04 d4 3d 96 14 28 be
       -0.17278789 0.18204571 0.1035237 -0.16414103
000200 8b f7 0e 3d c2 b3 69 bc 8f e7 2a be 2f 7b 50 3c
       0.034904044 -0.014264049 -0.16689895 0.012724682
000210 37 1e b3 b8 20 a9 92 bd 2e 02 24 bd ef 66 ad bd
       -8.541013e-05 -0.07161164 -0.04004114 -0.08466899
000220 54 3e 96 3c f5 c7 a9 3b 1c 09 3e be 91 d6 67 bc
       0.018340267 0.0051813074 -0.18558162 -0.014150278
000230 b9 63 d0 bd 6c d3 2c bd de 06 c3 bc 64 68 27 3e
       -0.101752706 -0.042193815 -0.023806985 0.16348416
000240 b1 9b 95 bd 6b 33 4a 3e 68 66 95 bc 52 96 27 3e
       -0.073050864 0.19746177 -0.018237308 0.16365936
000250 ac ef 17 3d c9 a8 68 bb 12 d5 fa bd a9 67 3b 3d
       0.037093803 -0.0035500994 -0.12247671 0.045753155
000260 8b df 1c 3d 3f b5 23 3e 1d f5 95 bc 44 b4 36 bc
       0.038299125 0.15987109 -0.018305356 -0.011151377
000270 1f c9 33 3e b6 2f 63 bd 9e 39 04 be b6 2f 4f be
       0.1755719 -0.055465423 -0.12912604 -0.20233044
000280 4f a2 f1 3c 86 ea b1 bd 39 26 4e bd e5 64 97 bc
       0.02949634 -0.0868731 -0.05032942 -0.018480727
000290 3a 76 c9 bc 31 b5 9f bd 3d cf b4 3d c7 66 ef bd
       -0.024592508 -0.077982314 0.0882859 -0.11689525
0002a0 66 28 54 3e a7 9f 86 3d eb a6 db bb 02 e8 cc 3c
       0.20718536 0.0657342 -0.006703248 0.025012974
0002b0 bb b6 0c 3e ae b4 7a bd 2a d9 96 3d ba 21 07 3c
       0.13741581 -0.061207466 0.073656395 0.008247787
0002c0 ab 77 0b 3d e8 b7 51 3d d5 96 94 bd 84 4f 0b be
       0.03404967 0.051200777 -0.072553314 -0.13604552
0002d0 4b 2a ae 3c 6e a3 8e bd b9 3b 07 3e a3 e0 16 3c
       0.021260401 -0.069647655 0.13206376 0.009208831
0002e0 fd a4 0b bd bb 9b f3 3d 95 bb 83 bc bd 77 ad bc
       -0.034092892 0.118949376 -0.016080657 -0.02117526
0002f0 3e 1b c4 bd cb d6 76 3d 3c 2c 47 3d eb a0 db bd
       -0.095755085 0.060263436 0.04862617 -0.10724052
000300 16 cb d3 bd b0 82 9c 3d 41 69 45 bd 57 fc 20 bd
       -0.1034147 0.07642114 -0.04819608 -0.03930315
000310 4a ba 40 bb e5 75 fa bd be 25 df bd 3a 8f b9 3c
       -0.0029407912 -0.12229518 -0.108958706 0.022651304
000320 ab d1 cb bd f1 f0 82 bd fe 00 9e 3d 9b 9c c6 bc
       -0.099521 -0.06393612 0.07715033 -0.024244597
000330 4a 4b 23 be 0e 4d 0c 3e 69 3b 3d be a0 a3 31 3d
       -0.15946689 0.13701269 -0.18479694 0.043368936
000340 9c 1d 41 3e e3 34 9b bd 24 99 81 3d 0e f2 78 bc
       0.18858951 -0.07578447 0.063280374 -0.015194429
000350 8c 15 56 3d d0 78 43 3d c9 02 0a bd 31 0d a2 3d
       0.052266642 0.047722638 -0.033694062 0.07912672
000360 ac 9c 26 3d 9d 66 c1 3d 14 4a 0d 3e 0c 31 c9 bb
       0.040676758 0.094434 0.1379779 -0.00613988
000370 5c d9 69 3e 34 60 8b 3d b5 8b 01 be 2c 49 18 3e
       0.22836822 0.06805459 -0.1265095 0.14871663
000380 58 b3 c4 bc 74 ee 90 bd de 9f 3e 3d 3c 19 db bb
       -0.024011299 -0.07076731 0.04653918 -0.006686358
000390 5b 1a 8a 3d 72 49 29 be 00 7a e0 3d 8a 71 d5 3d
       0.06743308 -0.16531923 0.1096077 0.104220465
0003a0 ce 7d 9b 3d 19 c3 0c be 61 29 02 3e f8 22 60 3c
       0.07592355 -0.13746299 0.12711097 0.013680212
0003b0 3e 87 01 be 43 94 0f 3e de 97 1b 3d 85 f6 f0 3d
       -0.12649247 0.14021401 0.03798663 0.1176577
0003c0 d5 cd 08 bd 5e 9b b4 bd e8 51 1a 3e 00 79 b5 bc
       -0.03339942 -0.088186964 0.15070307 -0.022152424
0003d0 97 a3 83 bd 6e 67 60 3d 5b ab 1b 3e f4 da 03 3e
       -0.06427687 0.05478614 0.15202086 0.12876493
0003e0 3c 24 0c bd 29 2b cb 3c 3e f8 6d be 43 b5 3a 3d
       -0.034214243 0.024800854 -0.23239228 0.04558302
0003f0 bb d7 0a be 26 98 e9 3b f1 2c 18 3d 48 18 6f bc
       -0.13558857 0.007128733 0.037152234 -0.014593191

network_body._body_endoder.seq_layers.2.bias f4 [128]
000000 c9 77 8d bc e3 78 d3 bb 25 7d 8e bc 5c f1 dd 3c
       -0.017269032 -0.00645362 -0.017393658 0.027092628
000010 7c 21 3d 3a 2b 76 b1 3b a8 a7 49 3c fa dc c8 3c
       0.00072147674 0.005415698 0.012308039 0.024519432
000020 f0 17 70 bc e4 b7 ac 3c ce 88 6b 3d 85 f9 97 3c
       -0.014654145 0.02108378 0.057503514 0.018551597
000030 de 50 c8 3c 58 24 ae 3b c1 38 17 3d 18 8a 0a 3d
       0.024452623 0.005314391 0.03691936 0.033823103
000040 91 a6 0e bc a5 e9 0e 3d 7c 23 54 3b 92 05 94 3c
       -0.008706705 0.03489079 0.0032369783 0.018069062
000050 e0 60 a7 ba 82 6d 3f 3c d1 1f 96 3c d2 67 26 3c
       -0.001276996 0.011683824 0.018325718 0.010156589
000060 85 94 fd 3c 93 65 46 bb 81 86 6c 3c a1 5b e6 3c
       0.030954609 -0.0030272945 0.014436365 0.028119864
000070 dc aa 1a 3d 30 65 b3 ba 0f 95 9a bc 89 25 6b 3c
       0.0377606 -0.0013686772 -0.018869905 0.014352211
000080 cc 44 8c 3b 1e d2 d2 3c 74 94 e7 3c c3 3b 0e bc
       0.004280662 0.025734957 0.02826903 -0.0086812405
000090 9d 33 12 3d dd 2f 37 3c 1e cf 45 3c 27 ce 92 3c
       0.035693754 0.011180845 0.012073306 0.017920567
0000a0 d6 45 94 3b be 0a fb 3c a1 96 8d 3c 5b 16 9b 3c
       0.0045249267 0.03064477 0.01728374 0.018931558
0000b0 44 91 93 3b 4f 33 c5 bc 40 7c d0 3c 1b 78 d0 b8
       0.004503401 -0.024072317 0.025449872 -9.940584e-05
0000c0 78 91 82 3c d3 66 03 bb 92 54 d5 3c cc 15 d8 3b
       0.015938506 -0.0020050302 0.026041303 0.0065943953
0000d0 05 18 c0 ba 09 55 fa 3b 4d 31 b0 bb dc b6 ee 3c
       -0.0014655596 0.0076395315 -0.005376971 0.029139929
0000e0 9c 4c ed 3b 3e 34 25 bb 79 77 4c 3c 63 3e e6 3c
       0.0072417986 -0.002520814 0.012479656 0.02810592
0000f0 ec c9 bc bc 92 3d bc 3b 6a 2b 26 3d 45 28 96 3b
       -0.023045503 0.0057446444 0.040568747 0.004582437
000100 34 d7 c8 3c 27 0a d1 3c 30 9a b0 bb 02 81 b2 3c
       0.02451668 0.025517536 -0.0053894743 0.021790031
000110 bc dc e1 bc 26 c3 7c 3d 4f b5 95 bc ef cd ff 3c
       -0.027571075 0.061709546 -0.018274931 0.031226126
000120 71 0d 8d 3c cf 16 12 3d 49 54 95 bc 36 58 f1 bb
       0.017218323 0.035666283 -0.018228667 -0.007365252
000130 3e 81 a6 3c b8 70 61 bc 36 33 1c 3c 2f e3 62 bc
       0.0203253 -0.013759784 0.009533694 -0.01384811
000140 79 7a fc 3b 59 9a a9 3a 7d ac c9 3c ba 57 40 bc
       0.0077050296 0.0012939676 0.024618382 -0.011739666
000150 d3 c7 3f 3d 0c 49 89 3c ea 3c e7 3a c7 1e 28 3c
       0.046821427 0.016758464 0.0017642055 0.010261244
000160 f1 93 ad 3c c4 d6 f3 3c 6b 22 68 3b 70 2d 8b 3c
       0.021188708 0.029765494 0.0035420905 0.01698944
000170 b2 b5 b6 bb f1 a8 71 bc 35 0d 05 3b 58 1e ce 3c
       -0.005575859 -0.014749751 0.0020302061 0.025160953
000180 91 04 b4 3c e8 ce 43 3b 98 78 85 3c ea 51 01 3d
       0.021974834 0.0029877964 0.016292855 0.03157226
000190 b9 4c 97 bc 6a a3 3a 3c 45 e3 0d 3d ff e3 f2 bb
       -0.018469201 0.0113915 0.03464057 -0.007412433
0001a0 f5 ee c7 3c 20 97 d1 3c 26 fb e4 3c 23 59 8d 3c
       0.024405936 0.025584757 0.027951788 0.017254418
0001b0 9d 67 84 3b b4 ba 97 3c 47 29 62 3b b3 45 93 3c
       0.004040672 0.018521644 0.0034509466 0.017977571
0001c0 5f ec 07 3c f4 b9 9b bc 65 3e 0b 3d 1d 36 f2 3c
       0.008296101 -0.019009568 0.03399505 0.029566819
0001d0 a5 56 da 3c 61 15 98 3c e7 be 01 3d 9b 40 18 3d
       0.026652643 0.018564882 0.0316762 0.037170988
0001e0 90 aa 17 3d bb e1 c0 3c e4 12 d5 3b 1e 27 2c 3b
       0.037027895 0.023545137 0.006502496 0.0026268433
0001f0 74 f6 03 3b ae 1d 98 3c 06 2d 75 3c 66 11 a8 3c
       0.0020135911 0.01856884 0.014964348 0.020516109

action_model._discrete_distribution.branches.0.weight f4 [7, 128]
000000 ac f7 1c 3c 94 1c 95 3a 95 b0 2e 3c 35 4a dd bb
       0.009580534 0.0011376315 0.010662218 -0.006753231
000010 89 9c a5 3b 8e 85 32 3d 7e fe 90 3c a8 97 7b 3c
       0.005054061 0.0435844 0.017699476 0.015355982
000020 57 1a 47 3c 9e e6 05 3d 79 59 ea 3c cc cc 93 3c
       0.012152276 0.032690637 0.028607117 0.01804199
000030 cc f4 43 3c 16 06 11 bb eb 50 1d 3d 36 0a 9d 3b
       0.01196022 -0.0022128872 0.038407248 0.004792477
000040 4f c1 16 bc 92 c1 07 3c 3e 3a f6 bb 38 b1 56 3a
       -0.009201362 0.008285897 -0.007514267 0.000818986
000050 50 86 31 bc 37 4a 0c 3c 68 8f 26 3d c3 5c 5b bc
       -0.010835245 0.008562616 0.040664107 -0.013388815
000060 b8 bb 70 bc 07 3c 33 bb 9b 40 8b 3a 28 7b 4e bb
       -0.014693193 -0.0027349012 0.0010624112 -0.0031506512
000070 af 52 8f 3c e6 a6 de 3b 2b 6d 09 3c e1 72 56 3a
       0.017495481 0.006794798 0.008387844 0.00081805704
000080 25 e6 61 3c 9c 4b 54 bc 06 eb e9 3c f3 d8 6c 3c
       0.013787781 -0.01295748 0.02855445 0.014456022
000090 1e cc 11 ba 16 39 34 bc 60 e8 de bb 6d 8c 1f 3c
       -0.0005561727 -0.0109999385 -0.0068026036 0.00973807
0000a0 64 ef 98 3a e2 8c 14 3b f4 f2 71 3c 47 ef da 3c
       0.0011668024 0.002266698 0.014767397 0.026725424
0000b0 ef d8 a1 3a 1c a7 7c 3a 1f a9 2e bb 73 41 f2 38
       0.0012347976 0.00096379383 -0.0026651097 0.0001155165
0000c0 76 20 9b 3c 67 ea 9f 3b 0c b9 99 3b ec fa 6d bc
       0.018936377 0.004880238 0.0046912488 -0.0145251565
0000d0 99 c3 2c bc 0b 24 dc 3c cb b6 8b 3c 3f 2b 37 3c
       -0.010544681 0.026872655 0.017054936 0.011179744
0000e0 37 78 7c bc 54 e3 78 bc 39 85 27 bc db fe f6 bb
       -0.015409521 -0.015190918 -0.010224634 -0.0075377054
0000f0 e6 4b 94 3c 9e d1 aa bc b7 26 35 3c 71 16 1a 3c
       0.018102597 -0.020851906 0.011056594 0.0094047645
000100 70 e3 96 3a dc 01 97 3c 79 b0 9a bb 08 58 5d 3d
       0.0011511873 0.018433504 -0.004720744 0.05403903
000110 c5 ca f6 3b 71 81 07 3d 0a e2 44 3c 38 50 61 3b
       0.007531496 0.03308243 0.012016783 0.003438009
000120 a2 f8 43 bc af 47 f4 3c 0b ee d7 3b ac 18 9b 3c
       -0.011961134 0.029819338 0.006589656 0.018932663
000130 cd c6 0b 3c e8 8e a1 3c c4 60 fb 3b ff ae cd ba
       0.0085312845 0.019721463 0.0076714475 -0.0015692412
000140 4d 47 d5 bc 2f 75 93 3c 96 9c 18 3c 97 9c 19 3c
       -0.026034975 0.018000213 0.009314677 0.009375713
000150 31 9e 75 3c f8 ee 25 3d 54 44 86 3c 01 f4 94 bc
       0.014991329 0.0405111 0.016390003 -0.018182756
000160 9b 35 57 ba 33 a0 99 3c e3 60 87 3b 9c 47 4a 3d
       -0.0008209587 0.018753147 0.004131423 0.0493847
000170 ed 68 8b bb 5a 8b c8 ba d6 fe 7f bb a0 ea 7e 3c
       -0.0042544515 -0.0015300319 -0.0039061806 0.015558869
000180 a2 41 1d 3d e3 53 9d 3c 9d b1 57 bc 17 64 b4 3c
       0.03839267 0.01920504 -0.013164905 0.022020383
000190 43 8c 23 3c 09 7a 00 3b 1e 6e 80 bc 00 b3 45 3c
       0.0099821715 0.0019603989 -0.015677508 0.012066603
0001a0 6d 0c 35 bc 70 8f 87 3c 3c a9 f5 3a 23 2a 4c 3b
       -0.011050326 0.016547889 0.0018742452 0.0031153045
0001b0 7c 88 82 bb e0 bc e4 3c e3 5b 2e bc 35 24 a1 3c
       -0.0039835554 0.027922094 -0.010642025 0.019670585
0001c0 ae 42 59 3a 20 b8 2e 3a 54 f4 79 bc c6 11 47 3d
       0.0008287829 0.000666501 -0.015256006 0.048600934
0001d0 6f 67 b4 bc e5 53 0c 3d 82 21 8b ba c8 48 f5 3b
       -0.022021977 0.034259696 -0.0010614845 0.007485483
0001e0 84 23 7e 3c 01 57 b6 bc d8 19 14 3c 2e 11 58 3a
       0.015511397 -0.022258284 0.009039365 0.0008242306
0001f0 48 92 14 3c 6b fc 2c bc e8 48 9d 3b 38 79 83 3c
       0.009068079 -0.010558228 0.004799951 0.016049013
000200 26 36 c0 3a 28 50 41 bc 09 e3 06 bc 75 b7 5c 3c
       0.0014664575 -0.011798896 -0.00823284 0.013471474
000210 c3 7c 0b 3b 29 6d 8b bb c1 1f 81 bc 58 f1 97 3d
       0.002128408 -0.0042549563 -0.015762212 0.074190795
000220 41 de 3b bc 56 0e 1e bd 6b 95 44 bd fb e0 d6 3c
       -0.011466564 -0.03858789 -0.04799406 0.026230326
000230 b0 da d8 3c a2 75 7c bc a0 7d 34 3d 33 f4 30 3d
       0.026471466 -0.015408905 0.044065118 0.043201637
000240 46 81 c7 3b d3 64 85 3c 8b 8e c0 3c f3 99 5f 3a
       0.0060884086 0.016283428 0.02350547 0.0008529715
000250 58 2a 71 3c f4 f9 3f 3c 7f a8 8b 3d 9b aa f7 bc
       0.014719568 0.011717308 0.068192475 -0.030232718
000260 fa eb e9 3c a7 f2 c4 bc 67 e6 13 3d 9c ab 84 bd
       0.028554905 -0.024041487 0.0361084 -0.064780444
000270 8c d4 36 3d 08 d3 a7 ba 5d 0b 46 bc 20 ea 62 3d
       0.044636294 -0.0012803981 -0.01208767 0.05539906
000280 b4 04 69 bc 8f c9 4a 3d 0a c6 51 bd cb 2f a2 bb
       -0.014222313 0.049508628 -0.051214255 -0.004949545
000290 24 f0 fc 3c 5f ec 71 bc c9 ce 67 3d fe e9 0b bd
       0.030876227 -0.014765828 0.05659369 -0.0341587
0002a0 89 c3 a2 3b 34 0f 2d 3d fc f3 90 bc 15 b3 66 bc
       0.0049671573 0.042250827 -0.017694466 -0.014080782
0002b0 f4 66 78 bc fa 41 85 38 ba 93 6c bc e9 8d c0 3b
       -0.015161265 6.354223e-05 -0.014439518 0.005876292
0002c0 15 db 14 bd 6b c7 80 bc ae 5a 59 3d 6f 53 fa 3c
       -0.036341745 -0.01572009 0.053064995 0.030557362
0002d0 84 2c 60 3c 04 a6 4d bc 37 a1 a9 3c de 3d 13 3d
       0.013682488 -0.012551788 0.020706756 0.035947673
0002e0 4c 8a cf bb ab 4a ca b9 12 87 f9 bb 6e 5f 30 bc
       -0.006333625 -0.00038584074 -0.0076149786 -0.01076494
0002f0 5b 2e f3 bb ee 59 36 3d 24 35 77 3d 3f 38 a1 bc
       -0.0074212975 0.044519357 0.060353413 -0.01968014
000300 cb f8 d3 3c f4 a3 6e bd b5 98 60 bb d7 46 e0 3c
       0.02587547 -0.058261827 -0.0034270708 0.02737753
000310 cc 21 a2 bb 58 58 ae bd 96 e3 2c 3b 99 37 3e 3d
       -0.0049478766 -0.08512944 0.002638077 0.04643974
000320 fd 5c 59 3c c1 f0 15 3d 93 d6 9d 3c df 98 44 3c
       0.013266799 0.036606554 0.019267356 0.011999338
000330 6a 04 75 3d fd e5 80 3c ba d5 87 ba aa ca bd ba
       0.059818663 0.015734667 -0.0010363378 -0.0014479954
000340 9a 6e 76 3d f8 d1 76 3c 88 74 4b bd f9 2e 4c bc
       0.06016407 0.015064709 -0.04967168 -0.012462371
000350 af a3 ca bd bc b6 15 3c 5c 9c f6 3b 6b 10 bc 3a
       -0.098945014 0.009137806 0.0075259637 0.0014348155
000360 e7 00 38 bb d9 92 81 3d bb 5a f7 3c c3 3d 24 bd
       -0.002807671 0.06326837 0.03019463 -0.040097963
000370 b7 14 c4 3a de 3a 0c 3c 89 94 48 3a b6 08 98 3c
       0.0014959787 0.008558957 0.0007651528 0.018558841
000380 d9 a4 a1 bc 42 c8 64 3c aa 06 0a 3c 40 39 43 3b
       -0.019731926 0.013963761 0.00842444 0.0029788762
000390 a5 31 a0 3b a3 b9 33 3d 1d a2 f2 bb 84 4e a6 3c
       0.0048887306 0.04387821 -0.0074045793 0.020301111
0003a0 63 7e 5b 3d ee 97 33 3d 83 2c a5 3c b2 8f 29 3d
       0.05358733 0.043846063 0.020162826 0.041396804
0003b0 92 a6 96 3c fd a7 81 3d bd 6b 40 3d 9f 68 9d bb
       0.018389974 0.06330869 0.046977747 -0.0048037316
0003c0 50 c8 4d bc ba 88 60 bc e9 10 90 3d b3 cf 39 3d
       -0.012559965 -0.013704473 0.07034475 0.045364093
0003d0 1b c2 d9 3c 98 1e b8 38 ec 67 82 3d 79 4f a6 3c
       0.026581815 8.779502e-05 0.06367478 0.020301567
0003e0 1e 8e 3c bd e0 a9 68 3d 0c 2e 5b bc 10 42 1f bc
       -0.04603397 0.05680263 -0.013377678 -0.00972034
0003f0 92 53 65 bc 57 7b 6b 3d c5 32 9b bc 46 d6 8d 3d
       -0.0139969755 0.057490673 -0.018945107 0.06925635

action_model._discrete_distribution.branches.0.bias f4 [7]
000000 b0 3e 1c bc 33 74 09 bb 63 ed 63 3a 0c ee 8e 3c
       -0.00953643 -0.00209738 0.0008694736 0.017447494
000010 c0 ed c0 39 d3 e5 b6 bb 40 e2 2a bc
       0.0003679823 -0.0055815964 -0.010429919
