CCP-main/results/test004/WeightAgent_Training/WeightAgent_Training-2490.onnx (onnx, 155824 bytes, 6 tensors)

network_body._body_endoder.seq_layers.0.weight f4 [128, 163]
000000 8f b8 6d bd 42 18 49 3c b5 94 22 3d 4d 5f 11 bd
       -0.058037337 0.01227385 0.0396926 -0.035491277
000010 a9 97 df 3d cb 43 27 3c 31 9e 2b be dc 51 66 3c
       0.10917599 0.010209034 -0.16759564 0.014057603
000020 11 f4 2a 3e 36 43 0a be 4e a4 f5 3d b2 15 9d 3d
       0.16694666 -0.13502201 0.11994229 0.07670154
000030 a1 75 c6 3d e0 58 25 3d dc cc 6e 3d 47 a4 12 bb
       0.09690405 0.04036796 0.058300838 -0.002237575
000040 34 d0 60 bd 37 c4 25 be c2 32 27 3d ec bf 19 bc
       -0.054886058 -0.16188131 0.04081989 -0.009384137
000050 10 2f 79 bd cb 02 db 3d a2 14 42 bc b2 c8 c7 bd
       -0.060835898 0.10693892 -0.01184574 -0.097550765
000060 f3 b2 8e 3d 55 81 2a bc eb ab 7f bd 35 a9 ef 3c
       0.069677256 -0.010406812 -0.062419813 0.029255489
000070 7f e6 5b bc bf a1 59 bd 36 35 b4 3d aa 60 59 bd
       -0.013421654 -0.05313277 0.08799212 -0.0530707
000080 33 69 01 3b d3 6e 46 bb 09 ca 45 3d 2d 51 89 3c
       0.0019746542 -0.0030278459 0.04828838 0.01676234
000090 88 74 90 bd b4 db af 3d 08 7b 2c bd 19 54 8e bd
       -0.070534766 0.08586827 -0.04210952 -0.06949634
0000a0 1d 9f a9 3c 1f fc 83 bc de 4c 06 be 92 cf 86 3b
       0.020705754 -0.016111432 -0.1311526 0.0041141
0000b0 2f f1 06 3e 39 b8 dd bd 9f 29 1b bd 42 94 78 3c
       0.13177942 -0.10826153 -0.03788149 0.015172066
0000c0 5d 25 72 be 8d 22 f0 3d 79 f7 fa bc 11 23 0c bd
       -0.23647065 0.1172534 -0.030635582 -0.03421313
0000d0 1c 8b 14 be 3d cb 53 bb 48 e4 b4 bc 0b e9 94 3d
       -0.14506191 -0.0032317184 -0.02208151 0.07271012
0000e0 3d 16 0b 3e 9c c7 13 3d 03 39 31 bd e1 c0 fc bc
       0.13582702 0.036079034 -0.04326726 -0.03085369
0000f0 e8 e6 e9 bc 61 dd 09 be a4 7f 3a 3d 9d 95 e0 3d
       -0.028552487 -0.13463356 0.045531884 0.109660365
000100 b6 76 dc bd d4 3e 1b bc a1 e7 a1 3d f3 0c db bd
       -0.1076483 -0.009475429 0.07905508 -0.10695829
000110 67 6a 96 3d 8a 16 d4 3d 42 69 62 3c 3d eb ad 3c
       0.073445134 0.103558615 0.013819041 0.021230334
000120 ac eb b2 3c 57 a5 b5 bc 87 d9 d0 bc eb 4c 9d 3b
       0.021840893 -0.022173567 -0.02549435 0.004800429
000130 11 57 84 3c c1 8a c6 3d 65 a5 61 3e 6d 7e dc bd
       0.016154798 0.09694434 0.2203575 -0.10766301
000140 91 7a f5 3c c8 cf 00 bd a4 7c 42 3c 9a 07 2c 3e
       0.02996567 -0.031448156 0.011870537 0.16799775
000150 40 49 74 bd 6f 3a bf bc b7 fa 29 bc a4 89 3d bd
       -0.05964017 -0.023343293 -0.0103747165 -0.046273842
000160 be e3 b3 3d 8e 78 aa 3d 5a c5 d5 bd 5f e2 18 3d
       0.08783673 0.08323775 -0.104380324 0.03732526
000170 6d 3e 18 be af ee 4a 3b a5 65 42 bd 26 bf 4e bc
       -0.14867564 0.003096502 -0.047460217 -0.0126188155
000180 18 ca 67 3c e7 32 5e 3c 72 70 82 3d 73 3c fb 3d
       0.014147304 0.013561941 0.063691035 0.12267389
000190 09 b8 83 3d fd 10 e8 bd f8 72 a0 bd ea 9d 21 3d
       0.06431586 -0.11331365 -0.078344285 0.03945724
0001a0 e1 70 cd bd ee a3 01 3d 28 0d f6 3c 33 9c cd bd
       -0.100312956 0.031650476 0.03003557 -0.10039558
0001b0 f1 f2 36 3d 26 10 26 3d e8 8f 38 bd e2 74 59 3d
       0.04466528 0.040542744 -0.045059115 0.053089984
0001c0 d1 b1 9c 3c 87 32 ab bd c7 6c 0a 3d 37 cd c1 3d
       0.019127758 -0.08359247 0.033795144 0.0946297
0001d0 7d 57 0b bd 86 48 5d bd 5f b9 57 3d 2a c8 11 bd
       -0.034018982 -0.054024242 0.052667018 -0.035591282
0001e0 f6 c9 f5 bc ea 60 1a 3c 06 51 d3 bd de 3f 06 3d
       -0.030003529 0.00942252 -0.10318188 0.032775752
0001f0 57 5e 14 3d 92 82 d8 3b 13 29 dc bd e9 7e 1b bd
       0.036222782 0.006607362 -0.10750022 -0.037962828
000200 af 35 86 3c 22 e5 dc bc f7 6b b0 bd 67 df 42 3d
       0.01638302 -0.026964728 -0.08614343 0.047576334
000210 20 95 ae 3c 0d 1f 08 3d b6 46 fb bc d7 d7 1e 3e
       0.021311343 0.033232737 -0.030673366 0.15512024
000220 37 ae ab 3d d3 ac b4 3d 1b ce 07 bd 9a 24 49 be
       0.08382838 0.08822026 -0.033155542 -0.19642869
000230 a3 4e 36 3c cd f5 ba 3c c1 75 3d 3e fd 41 dd bc
       0.011127147 0.022822285 0.18501951 -0.027009005
000240 43 27 66 bd bb 85 09 3d 78 b8 dd bd 8c aa f6 3b
       -0.056189787 0.0335748 -0.108262 0.007527655
000250 18 8b 82 3d 19 1a f1 3d a9 4f 11 3e 93 82 6a bb
       0.06374186 0.11772556 0.14190544 -0.0035783395
000260 79 25 da bb 47 5d f4 3d 17 ec 7a 3e c0 61 b3 bd
       -0.006657299 0.11931854 0.24504124 -0.08758879
000270 eb 77 af bc 2a 50 91 bd 3b d5 c0 bd cf a9 f8 bd
       -0.021419486 -0.07095368 -0.094156705 -0.121417634
000280 1c c9 d3 3d 37 78 09 bc 40 39 a1 3c 81 55 83 3c
       0.10341093 -0.008390478 0.01968062 0.016031982
000290 76 a9 05 3d d3 5e 05 3d a0 60 11 be cd 04 5a 3d
       0.032632314 0.032561135 -0.14197016 0.053227235
0002a0 2c a8 2f 3e f8 72 fb 3c 3a fb 48 3c 7d d8 6a 3d
       0.17153996 0.03069447 0.012266928 0.057335366
0002b0 c4 df 2a be 9d a8 c6 3d af f0 c4 bd 0b d3 5e 3c
       -0.16686922 0.09700129 -0.09616219 0.013600121
0002c0 c3 a2 bf bc be d6 39 3b b6 c6 0e be 81 4a 43 be
       -0.02339304 0.0028356756 -0.1394299 -0.1907139
0002d0 94 ec 82 bd 3e 28 55 bc d8 86 f3 3c 26 64 fc ba
       -0.0639278 -0.013010083 0.029727384 -0.0019255921
0002e0 be 7c 22 3e 90 f3 26 3e 0b 02 c7 3c b5 a8 bd 3d
       0.15867898 0.16303849 0.024292966 0.09260694
0002f0 ad 44 82 bb c0 85 37 3e 17 0b 65 bd 82 17 a2 3d
       -0.003975472 0.17922115 -0.05591878 0.0791464
000300 df c9 81 3c f5 44 d2 bd d1 a7 79 3b 45 ae 4f 3d
       0.01584333 -0.10267059 0.003809441 0.050703306
000310 bf e0 0f 3e 61 04 88 bd 9c e0 01 be 49 46 49 3e
       0.14050578 -0.0664146 -0.12683338 0.19655718
000320 06 0d ca 3d 3b eb ec bd 9b 21 31 3c 81 ed c2 3d
       0.09865765 -0.11568304 0.010811235 0.095179565
000330 b1 ad ed 3d 1d 14 8f bd 56 2c 4d bd 7e 29 a4 3d
       0.11605395 -0.06986258 -0.05009111 0.080157265
000340 46 2a 21 3d dc 4c b4 3b 47 db 5f bd fa fb 63 bb
       0.039346956 0.0055023264 -0.05465248 -0.003478764
000350 7d e2 b6 bc 9e a1 f3 bb d1 9b 9a bd be 6d c1 3d
       -0.022324795 -0.0074350378 -0.07549251 0.0944476
000360 b2 12 77 3d e6 65 ee 3d 7a ec a2 bd 70 30 5a bd
       0.060320564 0.11640529 -0.079552606 -0.05326885
000370 0f d5 b3 3d 9f 9f 40 3d aa 87 91 bd a8 17 c6 3d
       0.08780872 0.047027227 -0.07105954 0.09672481
000380 b8 31 e1 bd ba 1f 15 be f6 ba 28 bd 50 95 64 bc
       -0.10995811 -0.14562884 -0.041193925 -0.0139516145
000390 db 85 c6 bd 18 d9 83 3c f1 7e a5 3d a9 3e 13 3b
       -0.096935 0.01609473 0.08080853 0.0022467768
0003a0 30 ec b0 3d d9 e0 3f 3d 3b 00 80 3d 06 43 eb bd
       0.08638799 0.04684529 0.06250044 -0.11487393
0003b0 84 3b c3 bd d9 e3 fd bc 84 6f 7d bc 59 11 57 3d
       -0.09532836 -0.030992435 -0.015468482 0.05250678
0003c0 84 25 0c 3e 58 7c d4 3d b1 ed 37 3d 65 d7 81 bd
       0.13686186 0.10375279 0.044904415 -0.06339911
0003d0 d1 3d 62 3c 40 b1 24 3c dd 21 07 ba 02 de ad 3d
       0.0138086835 0.010052025 -0.00051548873 0.0848961
0003e0 8c 3a b1 bc ca c0 6e 3d 33 5b e6 bc 3d ee e9 3d
       -0.021634363 0.058289327 -0.028119659 0.114223935
0003f0 36 e7 a5 bc 93 83 94 bd 76 d2 7a 3c ce ae b3 bd
       -0.020251852 -0.07251658 0.015308967 -0.08773576

network_body._body_endoder.seq_layers.0.bias f4 [128]
000000 00 00 00 00 00 00 00 00 00 00 00 00 00 00 00 00
       0.0 0.0 0.0 0.0
000010 00 00 00 00 00 00 00 00 00 00 00 00 00 00 00 00
       0.0 0.0 0.0 0.0
000020 00 00 00 00 00 00 00 00 00 00 00 00 00 00 00 00
       0.0 0.0 0.0 0.0
000030 00 00 00 00 00 00 00 00 00 00 00 00 00 00 00 00
       0.0 0.0 0.0 0.0
000040 00 00 00 00 00 00 00 00 00 00 00 00 00 00 00 00
       0.0 0.0 0.0 0.0
000050 00 00 00 00 00 00 00 00 00 00 00 00 00 00 00 00
       0.0 0.0 0.0 0.0
000060 00 00 00 00 00 00 00 00 00 00 00 00 00 00 00 00
       0.0 0.0 0.0 0.0
000070 00 00 00 00 00 00 00 00 00 00 00 00 00 00 00 00
       0.0 0.0 0.0 0.0
000080 00 00 00 00 00 00 00 00 00 00 00 00 00 00 00 00
       0.0 0.0 0.0 0.0
000090 00 00 00 00 00 00 00 00 00 00 00 00 00 00 00 00
       0.0 0.0 0.0 0.0
0000a0 00 00 00 00 00 00 00 00 00 00 00 00 00 00 00 00
       0.0 0.0 0.0 0.0
0000b0 00 00 00 00 00 00 00 00 00 00 00 00 00 00 00 00
       0.0 0.0 0.0 0.0
0000c0 00 00 00 00 00 00 00 00 00 00 00 00 00 00 00 00
       0.0 0.0 0.0 0.0
0000d0 00 00 00 00 00 00 00 00 00 00 00 00 00 00 00 00
       0.0 0.0 0.0 0.0
0000e0 00 00 00 00 00 00 00 00 00 00 00 00 00 00 00 00
       0.0 0.0 0.0 0.0
0000f0 00 00 00 00 00 00 00 00 00 00 00 00 00 00 00 00
       0.0 0.0 0.0 0.0
000100 00 00 00 00 00 00 00 00 00 00 00 00 00 00 00 00
       0.0 0.0 0.0 0.0
000110 00 00 00 00 00 00 00 00 00 00 00 00 00 00 00 00
       0.0 0.0 0.0 0.0
000120 00 00 00 00 00 00 00 00 00 00 00 00 00 00 00 00
       0.0 0.0 0.0 0.0
000130 00 00 00 00 00 00 00 00 00 00 00 00 00 00 00 00
       0.0 0.0 0.0 0.0
000140 00 00 00 00 00 00 00 00 00 00 00 00 00 00 00 00
       0.0 0.0 0.0 0.0
000150 00 00 00 00 00 00 00 00 00 00 00 00 00 00 00 00
       0.0 0.0 0.0 0.0
000160 00 00 00 00 00 00 00 00 00 00 00 00 00 00 00 00
       0.0 0.0 0.0 0.0
000170 00 00 00 00 00 00 00 00 00 00 00 00 00 00 00 00
       0.0 0.0 0.0 0.0
000180 00 00 00 00 00 00 00 00 00 00 00 00 00 00 00 00
       0.0 0.0 0.0 0.0
000190 00 00 00 00 00 00 00 00 00 00 00 00 00 00 00 00
       0.0 0.0 0.0 0.0
0001a0 00 00 00 00 00 00 00 00 00 00 00 00 00 00 00 00
       0.0 0.0 0.0 0.0
0001b0 00 00 00 00 00 00 00 00 00 00 00 00 00 00 00 00
       0.0 0.0 0.0 0.0
0001c0 00 00 00 00 00 00 00 00 00 00 00 00 00 00 00 00
       0.0 0.0 0.0 0.0
0001d0 00 00 00 00 00 00 00 00 00 00 00 00 00 00 00 00
       0.0 0.0 0.0 0.0
0001e0 00 00 00 00 00 00 00 00 00 00 00 00 00 00 00 00
       0.0 0.0 0.0 0.0
0001f0 00 00 00 00 00 00 00 00 00 00 00 00 00 00 00 00
       0.0 0.0 0.0 0.0

network_body._body_endoder.seq_layers.2.weight f4 [128, 128]
000000 f0 a1 cb 3d 0a a3 24 be da 78 41 be e4 83 56 3e
       0.099429965 -0.1607782 -0.18893757 0.2094875
000010 90 dc 97 bd bc 8d 3f 3e 2e e3 28 be f5 51 b2 3d
       -0.07415116 0.18706411 -0.16492912 0.08707038
000020 40 0b c7 bd 59 a9 99 3c 92 1f 6a bd 9e f2 fe bc
       -0.09718943 0.018757509 -0.057159014 -0.031121548
000030 1e c8 e0 3d e3 b0 43 3d 05 4b 3d bd 6d df 30 3c
       0.10975669 0.047776114 -0.046214122 0.010795456
000040 be 60 17 be 11 92 c8 3c 2e 64 c6 3d 1e fe 50 3d
       -0.14782998 0.024483712 0.096870765 0.051023595
000050 79 af cc 3a 22 ad 94 3d 51 87 d0 bd f9 81 8c bd
       0.001561626 0.07259585 -0.101820596 -0.06860728
000060 e1 2e ca 3d bc bf 0d be 11 52 30 3c 93 10 05 3e
       0.09872223 -0.13842672 0.010761754 0.12994604
000070 4c 2c ec bc 3b 4e 54 3c 13 74 2d 3d f9 3d bb 3c
       -0.028829716 0.012958105 0.042347025 0.0228567
000080 20 36 da bd a8 6c 5d bd 40 d8 a4 bb c5 f6 fc bb
       -0.10654855 -0.0540587 -0.005030662 -0.007719847
000090 73 d6 18 3d 54 4a 05 bd 52 7b 93 3e f8 a2 8b bd
       0.03731389 -0.032541588 0.28805023 -0.06818193
0000a0 b8 23 0f 3d 05 f5 3f bd 01 5c d7 3d 42 14 4a bd
       0.034946173 -0.04686453 0.10515595 -0.049335726
0000b0 7a 92 99 3d dc 4a f3 3d 68 9a 1e 3e 80 65 47 3d
       0.07498641 0.11879513 0.15488589 0.048680782
0000c0 ef a8 a4 3c 16 ba 85 bd ef 9c 21 bd 20 8b 09 be
       0.020100085 -0.06529634 -0.039456304 -0.13431978
0000d0 19 aa d8 bd 80 99 bb bd f3 c7 ac b9 27 22 21 3c
       -0.105793186 -0.09160137 -0.0003295537 0.009834803
0000e0 4e ff df bd 67 dd f8 bd 4a 89 5c bd 49 3d 44 3d
       -0.109373674 -0.12151604 -0.053841867 0.04791001
0000f0 f7 d5 44 bd 9e e7 4c be 93 62 2e bd 65 b2 35 bd
       -0.048055615 -0.2001023 -0.042574476 -0.044359583
000100 fe 1a 00 be 88 b4 6e 3e 11 2a c1 bd b2 3d 64 bd
       -0.12510297 0.23311055 -0.09431852 -0.0557229
000110 38 40 2d 3d b8 71 6a bd 0f 29 a5 3d b0 8a 93 bc
       0.042297572 -0.057237357 0.08064472 -0.018010467
000120 08 f3 4c bc 70 98 10 3d 32 2d ae 3d a9 60 d7 3d
       -0.012509115 0.035301626 0.08504714 0.10516483
000130 65 dc 49 be 5b 68 4e 3d 9b 97 05 bd 59 aa cd bd
       -0.1971298 0.05039249 -0.032615285 -0.10042257
000140 58 0e 58 bd 4d 9f 3d bd 0a f7 a6 3d 3c c2 b9 3c
       -0.052748054 -0.0462945 0.08152588 0.022675626
000150 d0 4c d7 3d 40 ce af bd f2 36 c8 bc 3a da 5f bc
       0.10512698 -0.08584261 -0.024440262 -0.013662869
000160 a7 37 0b be 06 bd bc 3d e9 48 19 bd 2e 89 34 3d
       -0.13595448 0.09215741 -0.03742305 0.044076137
000170 cf 12 ca 3c fa 98 31 bd 36 51 d8 3b 37 e8 43 3d
       0.024667172 -0.04335878 0.006601478 0.04782888
000180 1b 49 a8 bd 0e d2 3b 3d 32 38 03 3e 89 7f 12 bd
       -0.08217069 0.04585462 0.12814406 -0.03576616
000190 65 ab 03 3c 28 bc 10 be f7 1b 01 be 0c bf be 3d
       0.008036469 -0.14134276 -0.12608324 0.09313783
0001a0 90 2e 9b bd 5c b9 0e be 83 cf d4 3d 5f 50 21 bd
       -0.075772405 -0.13937896 0.10391142 -0.03938329
0001b0 8f e0 2d be e4 a8 e9 bc 85 44 d1 bc 3e ca af 3c
       -0.16980194 -0.028522916 -0.025545368 0.021458741
0001c0 b4 32 76 bc c9 56 5e bd f8 4d 39 3d 47 46 b3 3c
       -0.015026737 -0.054281984 0.045240372 0.021884097
0001d0 a1 75 fc 3d 0b c5 8d bd 8a 28 f6 bc 4c 5b 6c 3e
       0.123271234 -0.069223486 -0.030048627 0.23081702
0001e0 db 1a 28 3d eb c5 47 3d fa 51 33 3e 07 a9 7a bd
       0.041041236 0.048772734 0.1751174 -0.061196353
0001f0 bd 2f da 3d 62 28 e1 bc f4 2a 9d bd a3 f9 ce 3d
       0.106536366 -0.027485076 -0.07674208 0.10106208
000200 fc d6 39 be ff 6f 65 3d 08 f2 7b bd 8a 51 4f bd
       -0.18148416 0.05601501 -0.061510116 -0.05061487
000210 82 f2 0d 3d 02 86 16 bd c9 d6 2f 3d 21 6f 4e 3e
       0.0346551 -0.036748894 0.042929444 0.2015958
000220 1b 23 45 bd af 53 24 be 82 56 3e 3d 35 b0 12 bd
       -0.048129182 -0.16047548 0.04646922 -0.035812575
000230 66 29 10 3d 7b 9d 9b bd 8b f6 d1 3c 0b ba 51 3d
       0.03519573 -0.075983964 0.025630256 0.051202815
000240 0b bd 95 3c 88 77 47 be 5e 13 0d 3e 0b 86 1b bd
       0.01827862 -0.19479191 0.13776919 -0.03796963
000250 9c 4b 06 3e b2 d7 39 bd 07 ec b3 3b f0 1d be 3c
       0.1311478 -0.04537172 0.005490783 0.023207635
000260 9f 49 08 3e 72 1e 0f 3d c1 47 24 3e 64 20 10 3d
       0.13309334 0.034941144 0.16042997 0.03518714
000270 58 9d 89 3d 7c 47 ae bd 1f 34 dd 3c 6f 80 75 3d
       0.06719464 -0.08509728 0.027002392 0.059936937
000280 17 89 a5 3d de e3 b9 3d 6e 30 1f 3e e3 45 ab 3c
       0.080827884 0.09076665 0.15545818 0.020907348
000290 e2 e8 9d 3c 36 76 ce bc 83 69 8f 3d bd 33 18 be
       0.019276086 -0.025202852 0.07002547 -0.14863487
0002a0 0f d5 dd bd 77 c3 ba bd c7 7d cd bd 2e 82 37 3d
       -0.10831653 -0.09119313 -0.10033756 0.044801883
0002b0 bb 5d 22 be 75 31 d5 bc bf 0b 9b bd 3e 6a ee bd
       -0.15856068 -0.02602456 -0.075706 -0.11641358
0002c0 43 78 86 3d 72 57 90 bc 3e 09 ef bc 78 44 17 bd
       0.06565907 -0.017619822 -0.029179212 -0.03693053
0002d0 36 8e 08 3c ce 64 0a bd 03 6e 62 3d da d6 d3 3c
       0.008334687 -0.03378754 0.055280697 0.025859285
0002e0 47 6c 3a 3e c8 3d 83 bd cf 49 26 bc bc 85 ef bc
       0.18205367 -0.06408268 -0.010149433 -0.029238574
0002f0 04 e3 53 3c e0 3a 8d 3d 50 a0 23 be d7 00 f8 bd
       0.012932543 0.06895995 -0.15979123 -0.12109535
000300 a4 e3 00 be e0 94 0d 3e 7d ac 57 bd 79 00 50 be
       -0.12586838 0.13826323 -0.052654732 -0.2031268
000310 0d b3 ea bc 47 d3 9a bd ce ba 2e 3e 15 b8 24 3e
       -0.028649831 -0.07559829 0.17063448 0.16085847
000320 33 bd 2a bd 13 67 91 3d fd f1 1f 3d 04 ad e8 3d
       -0.04168434 0.07099738 0.039049137 0.11361125
000330 cb 57 b8 bd eb a5 bb 3d 9b b3 02 be 2d 3c 81 bd
       -0.0900112 0.09162506 -0.12763827 -0.06310306
000340 c0 5c 01 be f1 97 3f bc de ba 5c 3d 08 26 44 bd
       -0.12633038 -0.0116939405 0.053889148 -0.047887832
000350 c1 a4 01 3d 72 f2 e5 bd 3f 31 8f 3c 78 0a c6 bd
       0.031651262 -0.112278834 0.017479537 -0.096699655
000360 c5 4a a7 bc 78 98 25 3e 85 10 d4 bc ea f1 e8 bb
       -0.020421395 0.16171443 -0.025886783 -0.0071089165
000370 86 42 16 bd d3 7a c7 bd 98 ff 8b bb 38 d2 47 3c
       -0.036684535 -0.09740224 -0.0042724125 0.012196116
000380 19 27 1e 3e f4 30 63 3a 8f c6 a7 bd 6c 8b 7c bd
       0.15444602 0.00086666574 -0.08192169 -0.0616564
000390 30 4b 8f 3d e7 e3 0b 3e a1 07 d9 bb 1e 7f 84 bd
       0.06996763 0.13661157 -0.006623224 -0.06469558
0003a0 bd 86 7b 3d d3 2c 80 3e d3 47 d2 bd a0 3d d6 bb
       0.061407793 0.25034198 -0.10267606 -0.006538108
0003b0 11 54 d6 bd 63 99 d9 3c 7c 76 73 bc 71 0d 0c 3d
       -0.10465253 0.026562398 -0.014859792 0.034192506
0003c0 0c af 10 3c e0 69 a4 bc 95 d3 81 b9 56 21 db bd
       0.008830797 -0.020070016 -0.00024762438 -0.10699718
0003d0 d1 58 07 be 1f 35 47 bc 54 66 1f 3e 70 47 2a bd
       -0.13217475 -0.012158661 0.15566379 -0.041572034
0003e0 84 b8 22 3e 82 ec d2 3d 46 42 02 3c 08 b1 32 bc
       0.158907 0.102990165 0.007950371 -0.010906465
0003f0 06 1d a0 bd b4 95 88 bc 53 4f 18 be 78 f0 c0 3b
       -0.07818036 -0.016672947 -0.1487401 0.005888041

network_body._body_endoder.seq_layers.2.bias f4 [128]
000000 00 00 00 00 00 00 00 00 00 00 00 00 00 00 00 00
       0.0 0.0 0.0 0.0
000010 00 00 00 00 00 00 00 00 00 00 00 00 00 00 00 00
       0.0 0.0 0.0 0.0
000020 00 00 00 00 00 00 00 00 00 00 00 00 00 00 00 00
       0.0 0.0 0.0 0.0
000030 00 00 00 00 00 00 00 00 00 00 00 00 00 00 00 00
       0.0 0.0 0.0 0.0
000040 00 00 00 00 00 00 00 00 00 00 00 00 00 00 00 00
       0.0 0.0 0.0 0.0
000050 00 00 00 00 00 00 00 00 00 00 00 00 00 00 00 00
       0.0 0.0 0.0 0.0
000060 00 00 00 00 00 00 00 00 00 00 00 00 00 00 00 00
       0.0 0.0 0.0 0.0
000070 00 00 00 00 00 00 00 00 00 00 00 00 00 00 00 00
       0.0 0.0 0.0 0.0
000080 00 00 00 00 00 00 00 00 00 00 00 00 00 00 00 00
       0.0 0.0 0.0 0.0
000090 00 00 00 00 00 00 00 00 00 00 00 00 00 00 00 00
       0.0 0.0 0.0 0.0
0000a0 00 00 00 00 00 00 00 00 00 00 00 00 00 00 00 00
       0.0 0.0 0.0 0.0
0000b0 00 00 00 00 00 00 00 00 00 00 00 00 00 00 00 00
       0.0 0.0 0.0 0.0
0000c0 00 00 00 00 00 00 00 00 00 00 00 00 00 00 00 00
       0.0 0.0 0.0 0.0
0000d0 00 00 00 00 00 00 00 00 00 00 00 00 00 00 00 00
       0.0 0.0 0.0 0.0
0000e0 00 00 00 00 00 00 00 00 00 00 00 00 00 00 00 00
       0.0 0.0 0.0 0.0
0000f0 00 00 00 00 00 00 00 00 00 00 00 00 00 00 00 00
       0.0 0.0 0.0 0.0
000100 00 00 00 00 00 00 00 00 00 00 00 00 00 00 00 00
       0.0 0.0 0.0 0.0
000110 00 00 00 00 00 00 00 00 00 00 00 00 00 00 00 00
       0.0 0.0 0.0 0.0
000120 00 00 00 00 00 00 00 00 00 00 00 00 00 00 00 00
       0.0 0.0 0.0 0.0
000130 00 00 00 00 00 00 00 00 00 00 00 00 00 00 00 00
       0.0 0.0 0.0 0.0
000140 00 00 00 00 00 00 00 00 00 00 00 00 00 00 00 00
       0.0 0.0 0.0 0.0
000150 00 00 00 00 00 00 00 00 00 00 00 00 00 00 00 00
       0.0 0.0 0.0 0.0
000160 00 00 00 00 00 00 00 00 00 00 00 00 00 00 00 00
       0.0 0.0 0.0 0.0
000170 00 00 00 00 00 00 00 00 00 00 00 00 00 00 00 00
       0.0 0.0 0.0 0.0
000180 00 00 00 00 00 00 00 00 00 00 00 00 00 00 00 00
       0.0 0.0 0.0 0.0
000190 00 00 00 00 00 00 00 00 00 00 00 00 00 00 00 00
       0.0 0.0 0.0 0.0
0001a0 00 00 00 00 00 00 00 00 00 00 00 00 00 00 00 00
       0.0 0.0 0.0 0.0
0001b0 00 00 00 00 00 00 00 00 00 00 00 00 00 00 00 00
       0.0 0.0 0.0 0.0
0001c0 00 00 00 00 00 00 00 00 00 00 00 00 00 00 00 00
       0.0 0.0 0.0 0.0
0001d0 00 00 00 00 00 00 00 00 00 00 00 00 00 00 00 00
       0.0 0.0 0.0 0.0
0001e0 00 00 00 00 00 00 00 00 00 00 00 00 00 00 00 00
       0.0 0.0 0.0 0.0
0001f0 00 00 00 00 00 00 00 00 00 00 00 00 00 00 00 00
       0.0 0.0 0.0 0.0

action_model._discrete_distribution.branches.0.weight f4 [7, 128]
000000 89 09 b7 bb fb cf 4b 3a 77 2b 29 bc 41 fd 1d bc
       -0.0055858535 0.0007774827 -0.010325304 -0.0096429
000010 7f f0 07 3c 3d 8d c2 b9 9f bf 20 bc e5 3a 50 bb
       0.008297085 -0.00037107794 -0.009811311 -0.0031773385
000020 30 95 49 3c b7 c0 a5 3b 28 f5 1b bc 69 84 30 bc
       0.0123036355 0.005058374 -0.009518899 -0.010773757
000030 1f b5 5f bb ff aa d8 3b 57 35 83 3b b9 22 0f 3c
       -0.0034135056 0.006612181 0.0040041613 0.008736306
000040 c3 1f a0 3b 8d 17 14 3a a5 49 87 3b 75 dd da 3b
       0.004886599 0.00056492613 0.004128652 0.0066792318
000050 32 1a 67 3a 6f f8 49 bc 13 7c a0 3b 00 6a 96 3b
       0.0008815854 -0.012327298 0.0048976033 0.004590273
000060 3e 1e 05 bb c1 03 c9 3b e8 b5 68 bb 0b e3 01 3b
       -0.0020312215 0.0061344807 -0.0035508815 0.0019819166
000070 96 72 47 bc ea a5 26 3c 0f 96 10 ba 7a 8c ea ba
       -0.0121733155 0.010171393 -0.00055155245 -0.0017894648
000080 43 1d 70 3c 17 e6 7c 3a a0 f9 62 bb 0c a4 0e 3a
       0.014655414 0.0009647323 -0.0034633651 0.0005441315
000090 3d 0e 25 3b 7d 2f 3e bb ee d6 ac bb 7b 81 03 3b
       0.0025185489 -0.0029020004 -0.005274645 0.002006619
0000a0 45 90 f4 bb 02 53 ff bb 3c a9 39 3c 2c 8f 19 bb
       -0.0074634873 -0.0077918777 0.0113318525 -0.0023431284
0000b0 4f f8 ae 3b 6f 7b 72 3c f4 72 20 3c e3 54 08 3c
       0.0053396593 0.014799937 0.009793032 0.00832102
0000c0 51 da 2f bb f8 0a 0e bc 0d 95 03 bc 30 eb 05 bb
       -0.0026833008 -0.008669607 -0.008031142 -0.0020434372
0000d0 e8 19 33 bb fb 91 08 b8 b1 11 89 3c bb 94 5f bc
       -0.0027328674 -3.256088e-05 0.016732069 -0.0136463
0000e0 8a 7e 09 bb ed 22 ca 3b 53 81 aa ba 62 8a eb ba
       -0.0020979964 0.0061687143 -0.0013008512 -0.0017970318
0000f0 41 ad 91 bb c0 96 72 3c 96 b0 19 3c c8 12 7e bb
       -0.0044457023 0.014806449 0.00938048 -0.0038768519
000100 62 2a 1c 3c fd de 65 bb b0 63 32 bc bd 37 89 bc
       0.009531589 -0.0035075538 -0.010888025 -0.01675021
000110 7f e9 85 3b 06 28 ca bb ad 3b 1b 3a cb 3f 52 3c
       0.004086673 -0.006169322 0.0005921673 0.012832592
000120 7b db 9a bb 1b 62 8d 3b 69 37 0a 3c ea c7 4e 3b
       -0.004725871 0.0043146736 0.008436062 0.0031552264
000130 14 30 82 3b 66 08 34 3b 65 dd 2a bc 73 fc ee 3b
       0.0039730165 0.0027470826 -0.010428761 0.007293278
000140 43 d4 70 bc 68 a2 cf bb aa 75 5c 3b ea 71 7a 3a
       -0.014699045 -0.006336499 0.003363947 0.00095537177
000150 05 32 0f bb 76 d5 3d ba a5 cb f7 3b 90 e0 c6 bc
       -0.0021849882 -0.0007241586 0.007562118 -0.024277002
000160 4d b8 4c bc 82 45 3c bc cb ba 83 bc 62 1c f9 3a
       -0.012495113 -0.011491181 -0.01608028 0.0019005651
000170 96 d4 21 bb 47 93 9f bb e8 ba 10 bc d7 5b 65 3c
       -0.0024693361 -0.0048698517 -0.008833624 0.013998947
000180 9b 37 a7 bc 0f 06 51 bb 98 46 c1 bb ca 3a 0d 3c
       -0.020412257 -0.003189448 -0.005898308 0.008619973
000190 5f 66 52 bc 49 17 20 3b 43 3e 7d 3c e3 ce 89 bb
       -0.01284179 0.0024427942 0.015456739 -0.004205571
0001a0 48 ee 96 3c df 2a f3 3a 1b b4 4f 3b 1b 8c d9 bb
       0.018424168 0.0018552205 0.0031693045 -0.0066390163
0001b0 83 be b0 b9 22 27 60 bc 24 36 16 3c 70 b2 65 bb
       -0.00033711278 -0.013681205 0.009168182 -0.0035048984
0001c0 c7 cf 2a 3b 1d 69 51 3a d0 c3 d0 3b 10 7a d2 3b
       0.0026063786 0.00079883804 0.006370999 0.0064232424
0001d0 6e 0b a0 3b 4a 85 cf 3a 25 c4 3f bc 05 d7 09 bc
       0.004884175 0.001583257 -0.011704479 -0.008413081
0001e0 f3 2f 5d bc ee 86 9f 3c cb 96 ca ba e0 e0 c8 3a
       -0.0135002015 0.01947352 -0.0015456317 0.0015325807
0001f0 ac 06 c7 b9 e7 9c 81 bb 1c 89 a2 bb 34 e2 a3 ba
       -0.0003796121 -0.003955472 -0.0049601924 -0.0012503327
000200 20 1d f2 3a 85 d4 91 b8 e9 2c 2b bb 7d ea 6f 3c
       0.0018471815 -6.953724e-05 -0.0026119298 0.014643309
000210 45 6c 58 3c 73 a3 6d bc dc 1a 0d 3c 00 17 aa 3c
       0.013209407 -0.014504301 0.008612361 0.02076292
000220 77 25 24 bc 4b 9a 6d ba bf fd 95 3c df 74 93 bb
       -0.010018698 -0.0009063824 0.018309472 -0.004500016
000230 23 6a 43 bb b9 f7 b8 bc 47 48 23 bc f3 ef b5 3b
       -0.00298179 -0.02257906 -0.009965963 0.005552286
000240 0a 52 d7 3c 2f 04 08 bc d3 5e 96 3a c1 36 29 ba
       0.026284236 -0.008301779 0.0011472352 -0.00064549973
000250 b8 63 47 3b 0d 1c 86 bb 08 b5 4e bb 82 a8 1c bb
       0.0030424427 -0.0040926994 -0.0031541009 -0.002390415
000260 98 49 ad bc 59 26 90 3b 9c ba 00 3b 2d 07 64 3c
       -0.021153256 0.0043991026 0.0019642478 0.013917726
000270 a0 56 66 bc 73 7f a1 3b c7 aa d1 b8 98 06 23 3c
       -0.014058739 0.004928523 -9.9977064e-05 0.009950303
000280 e2 be cb 3a d4 8f 38 3c c3 55 2f 3c 68 fd 18 3c
       0.0015544558 0.01126476 0.0107015995 0.0093377605
000290 37 e7 ed 3b 82 27 08 3b 3e 77 30 bc cf 26 dd bb
       0.007260229 0.0020775502 -0.010770617 -0.006749011
0002a0 12 5b 22 bc cf 04 54 3c 95 61 e1 3b dd 87 15 3b
       -0.009909408 0.0129406 0.0068780878 0.0022816577
0002b0 73 53 95 bb 6d c6 ea bb bb f9 58 3c 12 6b ec bb
       -0.004557067 -0.0071647675 0.013243134 -0.007214912
0002c0 92 55 2f 3b f0 7e a0 bb 5c e5 28 bb 87 e3 d8 bb
       0.0026753885 -0.0048979446 -0.0025771474 -0.0066189202
0002d0 3b 5f 8d 3b a2 27 fc 3b b3 7d 1a bc 53 3b d8 bb
       0.004314331 0.0076951543 -0.009429383 -0.006598869
0002e0 00 98 12 bb fd 29 f2 bb 8b cd 97 3b 07 00 67 b9
       -0.002236843 -0.0073902593 0.004632657 -0.00022029887
0002f0 13 e4 82 3b 1b 1f 1b 3c af c1 24 3c 4f b8 ba bb
       0.0039944737 0.009467865 0.010055943 -0.005698241
000300 20 88 57 bc bc fa 20 bc 77 bd 55 bb ff 45 65 3b
       -0.013155013 -0.009825405 -0.003261415 0.0034984348
000310 aa 0a 63 bc 8b 80 21 bc db 0d 34 3b da 3b f3 bb
       -0.013857523 -0.009857307 0.0027474079 -0.0074229063
000320 95 10 6d bb e0 ec 5f 3c 33 b8 9a bc 7b 0d c0 3c
       -0.0036173214 0.013667315 -0.018886661 0.023443928
000330 a5 10 60 3c d0 05 fa 3b c5 10 97 bb de cb c7 39
       0.013675843 0.0076300874 -0.0046101534 0.0003810813
000340 42 fb 7a 3b 80 a5 14 3c 47 60 67 3a a1 6d 1f bc
       0.0038296734 0.009072661 0.0008826297 -0.009730727
000350 67 22 34 bc 03 0d 6c bc 74 22 c0 3b 4b 4a eb bb
       -0.01099453 -0.014407399 0.005863482 -0.0071804873
000360 4b 79 1c 3a 6a f3 96 3b ec 81 23 bb f0 fc a7 3a
       0.0005969002 0.004606654 -0.0024949266 0.001281647
000370 f1 90 a7 ba 61 72 26 ba c0 83 eb 3b c8 b2 8a bc
       -0.0012784285 -0.0006349441 0.0071873367 -0.016930953
000380 92 e7 c9 3b e7 97 b6 bc e5 0e 1a bc 7b 1c 30 3b
       0.0061616385 -0.02228923 -0.009402965 0.0026872444
000390 6d 55 91 3b 13 7d 84 3c d7 40 96 3b 3a a8 1a 3b
       0.0044352324 0.016172921 0.004585366 0.0023598806
0003a0 b8 93 ae bb 3f 59 6a bc c3 51 d4 3b 48 90 68 3a
       -0.005327668 -0.0143035045 0.0064794733 0.0008871597
0003b0 23 f0 1e bc 59 ce 80 3b 5a 70 5d bc 4b b8 af 3b
       -0.009700808 0.0039308486 -0.013515556 0.0053625456
0003c0 8d e5 d1 3a f5 e4 3b 3c b8 3a 12 3c 08 db 2f bb
       0.0016013846 0.011468162 0.008925132 -0.0026833434
0003d0 47 e6 61 bc 0b 9c fe 3b f7 59 80 3c f8 98 54 3b
       -0.013787813 0.0077700666 0.015667899 0.003243981
0003e0 3d e7 a5 bb 57 ce f7 bb 27 03 9c bc 32 e8 1e 3c
       -0.005062966 -0.0075624394 -0.019044472 0.009698914
0003f0 90 3e 7d bc 00 de d5 bb d3 90 35 bc d0 2c 3b bc
       -0.015456811 -0.0065267086 -0.011081892 -0.011424258

action_model._discrete_distribution.branches.0.bias f4 [7]
000000 00 00 00 00 00 00 00 00 00 00 00 00 00 00 00 00
       0.0 0.0 0.0 0.0
000010 00 00 00 00 00 00 00 00 00 00 00 00
       0.0 0.0 0.0
