CCP-main/results/test002/WeightAgent_Training/checkpoint.pt (torch, 926564 bytes, 33 tensors)

network_body._body_endoder.seq_layers.0.weight f4 [128, 163]
00000000: dbb7 a2bb 1097 173d dfab 79bb c155 0abd
00000010: 7fa1 0ebd d99e 8e3d ea3f 1a3d 419e 773d
00000020: 1ab1 42be d25a 323b eb83 61bb 4524 e93d
00000030: 8bb2 32bc 37cb 2e3d 1d9b 6cbd 035f c13c
00000040: ab07 f53c 9333 45bd 8e35 c3bd f44c ab3d
00000050: bf07 84bc 19a0 ecbd 292f 6dbd ae4c 333c
00000060: 46d3 273d 6d69 3b3d d7b9 d23d 9573 04bd
00000070: 4b77 8e3c ba28 3b3c 6808 5a3d 3248 9cbd
00000080: c588 edbd ea11 0dbd ed16 81bd f655 293d
00000090: e07a 26bd 95ed 4ebd 048a 7ebd 7575 1cbc
000000a0: daf4 a13c d717 b8bc 016c 213c 8d4f 0bbd
000000b0: e276 373c 17e7 16bd 9c50 83bc 0a4d 6b3d
000000c0: 5c2e 6abd dac3 d7bc a757 4dbd 7ad0 2f3d
000000d0: 072b 3d3d b9bd 15be ea4d cfbd 794c ae3d
000000e0: 3899 45bd eecf ebbc f9dc 173e f931 8ebc
000000f0: f04f 92bd 9e75 cb3c 62bb 8e3c 74f2 84bd
00000100: 22fa e3bd 60ea 14bc b9f2 e6bd 937e 64bb
00000110: b100 7abd 0023 edbd c716 f73c 6eb4 e63d
00000120: 8035 a3bd 076c bcbd 093f 163d 1e90 d33d
00000130: 2335 853c 60a6 a83d 573f 8bbd 55ec 45bc
00000140: 917d 2d3d fb8c 01bd e06a 2e3c 0280 81bc
00000150: 1c34 efbd a724 b039 f676 20be 9cb3 f33c
00000160: d48a cfbd a647 92bd 12fa 80bd b22f 87bc
00000170: 67b5 f2bc 0cad c7bc c7b5 adbc c077 4ebd
00000180: b409 18be 585b e63c 848f 803d 18be b63d
00000190: 1b56 023d 9c9f 423e d50c 163d 979e c4bd
000001a0: 88c8 6f3b 68e5 1cbb 0e5e 51bc 6c55 ecbc
000001b0: 2158 a3bd 02a5 dbbd 7164 b23d 45f1 0ebd
000001c0: 58d5 4c3c 2417 d73c 4b78 393d 1461 8cbc
000001d0: 41f2 02bd 43f8 3a3d 4d5c acbd a3dc 22be
000001e0: b221 143e a529 bd3d 722b cd3d 36e8 48bd
000001f0: 1d3f e2bd b6bc 20bd 6bba 85bd 2f87 20bd
00000200: 0803 203c e527 12bd 6975 8c3d 3d15 7b3d
00000210: 83ce 8cbd 9b2a 7d3d b77a 59bc 72ba b13c
00000220: 8661 4b3d 14ad 5cbd 9daf 5fbd ed6c c7bd
00000230: 6d86 d3bc 9bb9 293d c211 8b3d 0a94 593d
00000240: 8da0 16be 21bc ad3d 268f b4bd b4fa 373c
00000250: 7b57 56bc 1114 3c3d 20ed 3dbd 1b35 153d
00000260: 0852 4cbd ff1d e6bd a128 853d 710b 9c3d
00000270: e2f8 1cbd fcfd 9b3d 89d5 293d 4d01 a4bd
00000280: b68a cdbd 32ca 8ebe c387 99bd f66e 88bb
00000290: 10dd 003e 1160 d43d 9432 f23c b031 66bc
000002a0: 5751 09bd 15b8 ccbc 4449 49bb 6d21 80bd
000002b0: 0bcd 9cbb a7b3 cd3b 6737 02be ffdf cb3d
000002c0: e1f8 223d c162 11bd 645f 9a3d 1ef0 14be
000002d0: dbe5 e6bd 859b f53a 5825 293d e5a2 153d
000002e0: c3df 1cbc 4155 cabc 76f8 023d a7bd 053d
000002f0: 8fa0 eebd 4076 ccbd 3e88 bf3d 2318 1ebc
00000300: 7d98 823d 7302 6d3d f7ac 8bbc ff9f 1b3c
00000310: ecba 09be c97b 01be 6925 b3bd f27e 99bd
00000320: fafe a03d d52a 07bd 29c8 cb3c 8455 073c
00000330: 5621 153b 494c c4bd 5d3f aebd a65a 01bb
00000340: 95f2 8cbd 4b58 ecbb 20aa 093e d1a2 fe3c
00000350: 25ba b4bd 3c32 6a3d dfd0 06be 2aaa 1abd
00000360: cec9 fb3c 8682 ee3d 0d07 5cbd 92a5 f13c
00000370: 20aa d5bc 3d05 e9b8 3c2b a7bd e5bd 063d
00000380: 8cae aabd bf82 303c f71d 273e 2143 46bd
00000390: 86fb babd 614e 8bbd c0bd 56bb e525 213d
000003a0: ef96 b53d 4a6f 1dbd f8bb 13be 003a d8bd
000003b0: 2a54 c8bd 06af ba3c 3af6 18be 5066 1ebb
000003c0: fb73 f0bd 0c58 febb 3ee3 07bd caf1 af3d
000003d0: fe9a 69bd 99e1 1cbd d5d8 2e3d edef cb3d
000003e0: f392 72bd fa87 e33b 40bd b6ba 0755 13be
000003f0: 402e 28bd 84e5 a63c ac44 31bd f173 65bd
-0.004965765 0.0370093 -0.0038096828 -0.033773188 -0.034821983 0.069638915 0.03765861 0.060453657
-0.19012871 0.0027214778 -0.0034410905 0.11383871 -0.010906826 0.04267427 -0.057765115 0.023604875
0.029910883 -0.048144888 -0.09531699 0.08364287 -0.016116975 -0.11553974 -0.057906304 0.010943575
0.04097297 0.04575484 0.102893524 -0.03233679 0.017390868 0.011423284 0.053230673 -0.07630958
-0.11598352 -0.034440912 -0.06303201 0.041341744 -0.040644526 -0.050519545 -0.06214334 -0.009549488
0.019770075 -0.022472305 0.00985241 -0.034011412 0.011197777 -0.03684148 -0.016029648 0.057446517
-0.057173118 -0.026338506 -0.05013242 0.042923428 0.046183612 -0.14623155 -0.10122283 0.0851068
-0.048241824 -0.028785672 0.14830388 -0.017357813 -0.07144153 0.024836358 0.017423335 -0.06491557
-0.111316934 -0.0090890825 -0.112767644 -0.0034865483 -0.061035816 -0.11578941 0.030162228 0.11264883
-0.07969189 -0.09200292 0.03668121 0.103302225 0.01626069 0.082348585 -0.067991905 -0.012080272
0.042356078 -0.03162859 0.010645598 -0.01580811 -0.11679861 0.00033596644 -0.1567038 0.02974873
-0.10133901 -0.07142572 -0.06297697 -0.016502235 -0.029627515 -0.024374507 -0.021204842 -0.05040717
-0.14847451 0.028119728 0.062773734 0.08922976 0.031820398 0.19006199 0.03663333 -0.09600561
0.0036588032 -0.0023940448 -0.012778772 -0.028849326 -0.07975794 -0.10724832 0.08710564 -0.03489806
0.012502037 0.026256151 0.045280736 -0.017136134 -0.031969313 0.045646917 -0.084160425 -0.15904479
0.14465979 0.09236459 0.10018052 -0.04904958 -0.11047194 -0.03924247 -0.06529697 -0.03919142
0.009766348 -0.035682578 0.06858332 0.06129955 -0.068753265 0.06180821 -0.013273886 0.02169535
0.049653552 -0.053875998 -0.054610837 -0.09737573 -0.025820935 0.041436773 0.067904964 0.053119697
-0.14709683 0.08483148 -0.08816366 0.011229206 -0.01308238 0.045917574 -0.04636872 0.0364276
-0.04988292 -0.1123619 0.0650189 0.0761937 -0.03832329 0.07616803 0.04146341 -0.080080606
-0.10036223 -0.27888638 -0.074965976 -0.004163618 0.12584329 0.10369886 0.029565133 -0.014049932
-0.033524837 -0.02499012 -0.0030713836 -0.062563755 -0.004785185 0.0062775197 -0.12716447 0.09954833
0.03978813 -0.03549457 0.075377256 -0.14544722 -0.1127431 0.0018738365 0.04129538 0.0365323
-0.009574833 -0.024698855 0.031975232 0.03265157 -0.11651718 -0.09983492 0.09352158 -0.009649309
0.06376741 0.057863664 -0.01705025 0.009498595 -0.13450211 -0.12644877 -0.0874737 -0.07494916
0.07861133 -0.032999832 0.024875717 0.008260135 0.0022755465 -0.09584863 -0.08508179 -0.0019737869
-0.06882206 -0.007212674 0.13443804 0.031083496 -0.08824567 0.057176813 -0.13165615 -0.037759937
0.030735876 0.11645989 -0.05371766 0.029497895 -0.026082098 -0.000111112815 -0.08162543 0.03289594
-0.083340734 0.01077336 0.16320024 -0.048403863 -0.091300055 -0.06802059 -0.0032766908 0.03934278
0.08866679 -0.03843621 -0.14427173 -0.105579376 -0.09781678 0.022788536 -0.14937678 -0.002416987
-0.117408715 -0.007761961 -0.0331757 0.085910395 -0.057032578 -0.038301084 0.042687256 0.099578716
-0.059222173 0.0069437 -0.0013941899 -0.14387904 -0.041059732 0.020373113 -0.04327838 -0.056018773

network_body._body_endoder.seq_layers.0.bias f4 [128]
00000000: 3226 55bc 9b7f ef3b 1d41 6a3c 7d0a d8ba
00000010: 4150 be3c a453 9cbb 7f58 973c 3e05 2fbc
00000020: 4d2c cc3a 4c91 78bc ddca a4bb 5ce6 9abb
00000030: 4016 b73a 660b ed3c 50d7 0a3c 507a a93c
00000040: d383 88bc 128d 123c bd42 a3bb d104 8e3c
00000050: 744b 4d3b 46a7 86bc beb7 fa3c cf86 283c
00000060: 36ab 053d 9dc4 5abb 1703 97bb dacf 613c
00000070: bea6 003d 3392 debb 74a3 5bbc 2f09 c83b
00000080: 9f1f 2d3c b8fb 6e3c da91 40bc b38b 6fbc
00000090: a706 b4ba 81a1 5d3b 79d3 f7bb 5b7d 5b3a
000000a0: d495 de3c 7e84 173c 2956 1dbb cb74 45bc
000000b0: 5935 94bc c0c7 273c 0d53 babc 7d09 2d3c
000000c0: 28e1 bb3a 5754 6f3c cf70 92bc 52dd 96bb
000000d0: a55b 943b f416 3dbc edcd 84bc 3845 b23c
000000e0: e317 ba3c 9c18 9bbc 34f1 413b b072 2c3b
000000f0: 10de 4cbb 5d5a da3c b24d 923c 94b2 50bb
00000100: 0673 b13b 2ef0 a6b9 f436 c538 ac99 503c
00000110: 3c07 e73b 8cdb 5fbb b98f 2cbb f16f a33c
00000120: 375f 943c 9a51 c1bb ab0a 2abb 45ba b4bb
00000130: 5b32 46bb 53bb 4c3b dbb0 0c3c ea03 4fbc
00000140: 1009 e7bb ff47 16bc 2f8c 7fbc ac18 9e3b
00000150: 6913 64bb 5203 713c 1fee 83bb 2e83 e339
00000160: 2e2f e53b bdb8 3cbc addc ee3b c768 3fbc
00000170: 9bc8 a9ba 5f51 953b c881 203c adee cb3c
00000180: a779 12bc da41 fdbb c763 593b 30a4 57bc
00000190: ca83 1b3d 50e9 ac3c 76e7 82bc 029b 5e3c
000001a0: 584f 793b b8c5 273b 6e95 733a e4e3 abbb
000001b0: e769 823c c8d5 db3b 7bb0 513c c612 e13b
000001c0: af35 8fbb e6ef 9e3b 844a 25bc ebf9 acbc
000001d0: 7c86 afbc 42d0 fdba 77f0 c1bb d7b5 203b
000001e0: a92a ecbb ceaf 4f3b 9362 00bc e235 d93a
000001f0: e10e 85bb 3183 38bc 24af a2bc 9924 adbc
-0.013009595 0.007308913 0.014297751 -0.0016482618 0.023231627 -0.004770713 0.018474815 -0.010682402
0.0015577168 -0.01517136 -0.005029066 -0.004727168 0.0013968423 0.0289361 0.008474186 0.020688206
-0.016664421 0.008944767 -0.004982321 0.017336281 0.003132549 -0.016437184 0.030605193 0.010286047
0.032633983 -0.003338135 -0.0046085226 0.013782466 0.031409018 -0.0067923306 -0.0134056695 0.0061046104
0.010566621 0.014586382 -0.011753524 -0.014620709 -0.0013734893 0.0033818188 -0.0075630513 0.00083728664
0.027171053 0.009247897 -0.0024007654 -0.012051771 -0.018091844 0.010240495 -0.02274468 0.010561344
0.001433407 0.0146075105 -0.017876057 -0.00460402 0.0045275264 -0.011541117 -0.016211474 0.021761522
0.022716468 -0.018932633 0.002959323 0.0026313476 -0.003126029 0.026654417 0.017859314 -0.0031844722
0.005415323 -0.00031840935 9.403928e-05 0.012731951 0.007050423 -0.003415796 -0.0026330783 0.019950839
0.018111808 -0.0058996202 -0.00259463 -0.005515369 -0.0030242417 0.0031239584 0.0085870875 -0.0126352105
-0.007050641 -0.009172439 -0.015597387 0.0048247185 -0.0034801608 0.014710264 -0.004026189 0.0004339455
0.0069941496 -0.011518654 0.00728949 -0.011682696 -0.0012953462 0.0045568193 0.009796567 0.024894083
-0.008940137 -0.0077287974 0.0033171044 -0.013161704 0.03796748 0.021107346 -0.01597951 0.013586761
0.0038041677 0.0025600027 0.0009291981 -0.0052456725 0.015919639 0.0067088343 0.012798424 0.006868693
-0.0043704133 0.0048503755 -0.010088567 -0.021115264 -0.021426432 -0.0019364434 -0.005918558 0.0024522447
-0.007207234 0.003169048 -0.007836002 0.0016571844 -0.0040606116 -0.011261747 -0.019858904 -0.021135615

network_body._body_endoder.seq_layers.2.weight f4 [128, 128]
00000000: 02a1 d539 b31f adbd 5343 6a3d 2194 493c
00000010: 2b04 76bd 3f03 fd3d e731 6cbd c95e 96bd
00000020: 5429 9abc aff7 473d cb3d 4dbd 6013 d8bc
00000030: 92a2 683d 84bd 7cbd 5d71 c63d 9c1c 393d
00000040: 687f 573e 314a 93bc 9741 80bd a45c 1c3d
00000050: 42b3 b2bd 15f8 d33c 2037 803d 0aa2 43bd
00000060: 2d88 193d d1ab 273d 7f68 f3bc c57d 43bd
00000070: 20dc c63d e5f3 72bd b805 2d3d 72ca a3bc
00000080: 367d 9ebd 5e1f ca3d 7951 cabd 2e6d c9bd
00000090: bb08 7a3d 4a79 57be b226 ba3d 8d12 ab3d
000000a0: 9f40 aa3d ec9e e43d c3e9 ae3c c239 70bd
000000b0: 43d6 063d d7d6 96bd e99a dbbd 7007 3bbe
000000c0: 4efe 1b3a c2e1 153c d2c7 62bc e41e 513d
000000d0: 1a98 2e3e 069b 07be 5036 283c bcc4 2d3e
000000e0: 4681 b5bc 44c3 25be e3c6 6d3d 4fbf f43c
000000f0: 2588 cb3d fc78 2a3c ec58 3d3d 5fcf d1bd
00000100: f44a 2c3e 80dd 29bd 4a9a 713d bac7 d13b
00000110: 402c c0bd 1e17 a4bd 5994 f03c eb7b 143e
00000120: 3cd0 283d a79a 9c3d d194 7dbd f296 603d
00000130: d200 4d3e 4256 cd3d c561 1cbe 9bf6 313d
00000140: 3e2c c4bb 9494 e2bd 62a7 a5bb 7aab ac3d
00000150: cd85 9b3c e48f 353d ef93 b43d 45e7 adbb
00000160: 4bb8 7f3d 2fbb e2bd ab99 41bc d783 fabc
00000170: 1c8f efbd e1af 27bc de81 a83d f652 05be
00000180: 84a9 16bc 4d34 0dbd 4eb0 b9bc 2ac1 803d
00000190: 3594 0e3e 565b 3cbd ff18 acbd b578 2b3e
000001a0: 1ac0 f43d 1239 b2bc 7139 45bd 4d70 583c
000001b0: c4d0 20bd ec3c 073e c0f9 f43c 248f 16bd
000001c0: d53c fabb 4041 08be 11bc 6dbd bd73 4b3d
000001d0: ee98 73bb 2e8d 2b3d c278 a2bd d5af a0bd
000001e0: 63ff 84bd b120 2d3a 8b6f a8bd a0c8 413c
000001f0: a457 cbbc 3358 58bd b918 273d 092a b7bd
00000200: 84f2 ab3c 4975 573e d816 7f3e 4eff 5dbd
00000210: 16df 163b dd30 373c c2c0 1a3d 861a 9abd
00000220: c442 81bd 87f2 2bbe a603 a5bc 9854 25be
00000230: 7593 b8bd 69cb 103e 72bc 1abe 04dd 29bd
00000240: 9d64 07bd c04c 0e3e d676 3bbd 8a6a d83d
00000250: f3b7 b43c 273e 7c3a ed3e 073e 1ce9 d63d
00000260: b474 8dbd 6325 51bd dd8d 95bd 5d5d 58bc
00000270: edde e23c 5676 94bd aeb3 553d 562e a53e
00000280: e85a c3ba d895 b43d 69d6 c9bd db82 363c
00000290: 95a3 babd bdec 7e3d 0c24 49bc a17c bd3b
000002a0: 4558 9fbd 47a5 72bd 0d86 de3d 36b9 b93d
000002b0: 303a 38be c6a0 c3bd 63f8 7abd 9b4b ca3d
000002c0: e1fb b7bd c049 b73d f5ef debd 5655 fabd
000002d0: cc20 a23d 3b14 fcbd 37ab 2ebd 842a e7bd
000002e0: 3755 a9bd f915 dd3d c1ea dc3d a25f debc
000002f0: d708 50be 21d5 e93c ee25 883e 1003 0c3e
00000300: bce9 64bd fa67 c7bd fd2d 3abd 6b93 f3bd
00000310: d328 28bc cb28 01bc 8712 93bd 9c14 a83d
00000320: 25f4 f8bb 0d43 d1bb 0ec2 ea3d ab1c 87bd
00000330: 9296 cbbc 1694 20bc b7ca 15be 8b48 03be
00000340: 19e3 ec3c e6a1 a03d c9d6 84bd 95a0 21be
00000350: 9b12 17bd debb 3c3e 5ee4 3fbe 18a4 1abd
00000360: 1a71 4ebd 8add 89bc fe90 18be a0f7 9dbd
00000370: 198d b7bc 7be2 20bd 6d81 ae3d 284c b73d
00000380: 499c 15be e671 f6bc 5d80 8bbe 377d fe3c
00000390: 0366 463e 8774 9a3c df2a 383c 03fd aebd
000003a0: 6e6f d5bb e352 5d3d 36ae 3f3c 0895 b13d
000003b0: 5311 dc3d d9f5 e0bc 0227 683e 21a9 a8bd
000003c0: 11cf 8dbc 6f58 bebd dde3 4dbd 5b31 a63d
000003d0: 72f5 0a3e f5f9 ce3d 88b2 f83d 5e6b b73d
000003e0: 9865 a63d 71fa 35bd 7a52 98bc cedb a8bd
000003f0: d9db adbb a969 82bd a452 81bc 83c9 d0bd
0.00040746486 -0.08453312 0.05719311 0.012303383 -0.06006257 0.12354135 -0.057664778 -0.073422976
-0.018818535 0.048820194 -0.05010776 -0.026376426 0.056795664 -0.061704174 0.09689591 0.0451933
0.21044695 -0.017979713 -0.0626251 0.038174286 -0.08725597 0.02587513 0.06260514 -0.047761954
0.037483383 0.04093534 -0.029712914 -0.047727365 0.09709954 -0.059314627 0.042241782 -0.019993994
-0.07738726 0.09869264 -0.09878821 -0.098352775 0.061043482 -0.21042362 0.09089412 0.08353148
0.08313107 0.111631244 0.0213517 -0.058648832 0.03291918 -0.07365196 -0.10722906 -0.18264556
0.0005950675 0.009148063 -0.013841586 0.05105485 0.1705021 -0.1324273 0.010266855 0.1696958
-0.022156369 -0.16187769 0.058051 0.02987638 0.09938077 0.0104048215 0.04622738 -0.10244631
0.16825467 -0.041471004 0.058985032 0.006401983 -0.0938344 -0.08012222 0.029367613 0.14500396
0.041214213 0.07646685 -0.0619095 0.054831453 0.20019844 0.10026218 -0.15271671 0.043448072
-0.0059867194 -0.11063495 -0.005055354 0.08431144 0.0189847 0.044326678 0.088172786 -0.0053071105
0.062431615 -0.11070859 -0.011816422 -0.030580444 -0.11697218 -0.010234804 0.08227895 -0.13019928
-0.009195689 -0.034473706 -0.022667076 0.06286843 0.13923724 -0.045985542 -0.08403205 0.16745265
0.11950703 -0.021755729 -0.048150484 0.013210368 -0.039261594 0.13206834 0.029904246 -0.036757603
-0.0076366463 -0.13306141 -0.058040682 0.049670924 -0.003717001 0.041882686 -0.07933189 -0.07846037
-0.06494024 0.00066042977 -0.082244 0.011827618 -0.024822064 -0.05281849 0.04079506 -0.089435644
0.020989664 0.21040834 0.24911058 -0.054198556 0.0023021153 0.0111810835 0.037781484 -0.0752459
-0.06311563 -0.16791736 -0.020143341 -0.16145551 -0.090125 0.14140095 -0.15110949 -0.041470543
-0.033054937 0.13896465 -0.045767628 0.10567196 0.02206037 0.00096222985 0.13207598 0.10493681
-0.06907025 -0.051061045 -0.07302449 -0.013205853 0.02769419 -0.07249133 0.05217331 0.32261914
-0.0014904412 0.08817643 -0.098553486 0.011139597 -0.09113232 0.06223749 -0.012276661 0.005782679
-0.07780508 -0.059239652 0.10865412 0.09068529 -0.17990947 -0.095521495 -0.061272036 0.09877702
-0.08983589 0.089496136 -0.10885612 -0.12223308 0.07916412 -0.12308546 -0.042643752 -0.11287406
-0.082682066 0.107952066 0.10786963 -0.02714521 -0.20315872 0.02854401 0.26591438 0.13673043
-0.05588697 -0.09736629 -0.045454014 -0.11893352 -0.0102636395 -0.007883261 -0.07181268 0.08207056
-0.0075974637 -0.006386167 0.11462794 -0.06597265 -0.024852071 -0.009800931 -0.14628111 -0.12820642
0.028916882 0.0784338 -0.064862795 -0.15783913 -0.036882978 0.1843104 -0.18739459 -0.03775415
-0.05040083 -0.01682927 -0.1489906 -0.07713246 -0.022406148 -0.03927849 0.0852078 0.089500725
-0.146104 -0.030083608 -0.2724637 0.031065566 0.19374852 0.018854393 0.01124069 -0.08544352
-0.0065135276 0.054034125 0.01169925 0.086710036 0.10745492 -0.02746098 0.2267113 -0.08235384
-0.017310651 -0.09294211 -0.050266135 0.081148826 0.13570192 0.10106269 0.12143427 0.089560255
0.08124846 -0.044428293 -0.018594015 -0.082450494 -0.005305749 -0.06367809 -0.015786476 -0.10194685

network_body._body_endoder.seq_layers.2.bias f4 [128]
00000000: 3a12 2a3c 6f2c b13a 543e 01bb 2de9 8f3c
00000010: c83d 7abc d432 c1bb 826f 7839 f5ce dabb
00000020: e3d6 fbbb 6ad2 423b bd56 bfba a11a 23bc
00000030: 27a9 59bc 978e 1bbc b963 023d 89d7 aa3c
00000040: 8afe dcbb 8747 b33b 96d4 5fbb b8a1 5ebb
00000050: b273 633c 402d d93a dda6 e4bb e195 2d3b
00000060: dc73 663b 68ce fc3c 59b7 c6ba c0d9 bd3b
00000070: 92fa 66bc e203 e13b 1788 6bbc fc90 38bc
00000080: a708 1238 9a13 b2bc d68d ad3b ee6f 4bbb
00000090: c98b 323a 8115 093c e611 27bb 72ab e83c
000000a0: 2264 053c bb7d e2bb 99fb 06bb e5f5 773c
000000b0: a7ba cabc b3f1 c13b 8145 97bc 5ed8 033d
000000c0: 7c48 dc3a 3dd0 aebb b116 093b ae15 ae3b
000000d0: 0992 e23b 759b ad3b bd9d 4ebc 8cb7 49ba
000000e0: bb7b f03b 3acd 763c d282 023c f812 d3bb
000000f0: c0ae 403b 4667 8b3b eddd 6f3b 79df 07ba
00000100: 07b9 913b 28d1 03bc b284 c63c 890b c63b
00000110: 5584 2dbc ffa6 03bc 785d c8bb 5c8d 333d
00000120: df89 a33c 4fa8 13bc c4de ffbb 8ba0 783c
00000130: d2fb 063a c391 10bc 722f 99bc 6012 01bb
00000140: 2c4a 703b e210 db3c 81b0 3cbc 37cd 523b
00000150: 249a 37ba 3f09 45bb 224e d33c 8946 373a
00000160: a240 55bc 3098 a339 bebf febb 3be7 283c
00000170: 69e5 803c 103c c03c 5e09 553b a13d 10bb
00000180: 87f9 bb3a 6ac0 b1bc e74d 0dbc df9d 43bc
00000190: 2b11 8bbc c9cd a5b9 0b66 b73b 700b b33b
000001a0: 65ba 743c 05c6 823c 19fc 08bb 7531 60bc
000001b0: d6f3 1f3c 2dcb 55bc 59ed 54bb 5557 ca3b
000001c0: b1d9 44bc 38d3 ff3c cfbd 0dbb be2d 31bc
000001d0: a4b2 103d b5fb 7bbc 63ee 6a3c 4ea8 523b
000001e0: 8f27 80bc a5d7 0c3b 702d 563c 0a43 f43b
000001f0: 9fe9 cd3b 2785 ca3b 9d10 07bc 9dd4 093d
0.010380322 0.001351727 -0.0019720988 0.017567242 -0.015273519 -0.0058959518 0.00023692663 -0.006677503
-0.0076855286 0.0029727467 -0.0014597994 -0.009955079 -0.013284958 -0.009494445 0.031833384 0.020854728
-0.0067442106 0.005471173 -0.003415381 -0.0033970904 0.013882564 0.0016569272 -0.0069778995 0.002648704
0.0035164272 0.03086014 -0.0015160843 0.00579378 -0.014097827 0.006866918 -0.014375708 -0.011265036
3.481717e-05 -0.021737862 0.005296449 -0.0031042057 0.0006810991 0.008366943 -0.0025492846 0.028402064
0.008141549 -0.006911961 -0.0020596741 0.015134309 -0.024747206 0.0059187054 -0.01846576 0.032188766
0.001680627 -0.0053348825 0.0020918066 0.005312643 0.0069143814 0.005298073 -0.01261085 -0.0007694892
0.0073389686 0.015063578 0.00796576 -0.0064414702 0.0029401034 0.0042542545 0.0036600784 -0.00051831413
0.004447106 -0.008045472 0.024233196 0.0060438556 -0.010590632 -0.00803542 -0.006114658 0.043835983
0.019963203 -0.009012296 -0.007808538 0.015174995 0.00051492185 -0.008823815 -0.018699382 -0.001969479
0.0036665304 0.026741449 -0.011516691 0.0032165775 -0.0007003865 -0.0030065326 0.025794093 0.00069914066
-0.013015898 0.0003120317 -0.0077743223 0.010309036 0.015734391 0.02346614 0.0032506804 -0.002200939
0.0014341333 -0.021698195 -0.00862453 -0.011939495 -0.01697596 -0.00031624574 0.0055968813 0.00546401
0.014937018 0.015963564 -0.0020902215 -0.0136836665 0.009762725 -0.013048929 -0.0032490103 0.0061749616
-0.012014792 0.031228647 -0.0021628027 -0.010814128 0.035326615 -0.015379836 0.014339062 0.0032143774
-0.015643863 0.002149084 0.013072357 0.0074542807 0.0062839533 0.006180424 -0.008243707 0.03365003

action_model._discrete_distribution.branches.0.weight f4 [7, 128]
00000000: 7f37 75ba d5d2 1fbc 4cf6 353c 099e 083c
00000010: 69ef d3ba bb57 fcbc 6e49 13bc cb45 35ba
00000020: a63e 44bc 0450 4bbb be70 1abb bf36 933a
00000030: b5ea 63bb 8c74 5abc 50cd d33c 39cc 743c
00000040: d1a3 6dbc a9c0 6c3b b31a cebc 0901 05bb
00000050: 5ded 413c a222 243c 8227 c8bc a059 ee3b
00000060: ac67 c7bb f43b 2e3c 22ae cbbb 85dd b53b
00000070: 41fe 34bb d304 b13c 0c4e dfbb 27bc 8cbc
00000080: 1e9b d1bb 7a7d e5bc 8c10 b3bb cede 33bc
00000090: 833f a5ba cf1b 3eba 1e8f 263c 649c 2a3b
000000a0: 381c c0bb bf65 9239 5f1d 03bd f98f 2e3b
000000b0: 2384 c3bc c74b aebb 0e24 9bbc 7373 0e3d
000000c0: 4b58 8d3c 05db 083c 469c f1bb 3478 9bbc
000000d0: 27e9 3d3c ae85 a8bb c3bb a6b9 72cd b23b
000000e0: dd9b 733b 042a 983b c000 f539 ddc0 b3bc
000000f0: bd79 1cbc 4c5e 1b3c 4a8f 35bc 4849 14bd
00000100: 1f2c 293c 341c a1ba 49d6 f43c 5114 88bb
00000110: 5045 ebbb 1dde 83bb eeed 9cba 355a f83c
00000120: b33c 503c fcae c3bc 44e7 a5bb a83a a9bc
00000130: 89ec 0bbc c345 87bc 10a5 04bd 1f5e 0abc
00000140: edaf e4ba 4f7b 063b 8a16 abbc 07d1 8d3b
00000150: b215 473b f07e 253b 6997 e83c 9ba4 f73a
00000160: ae85 1fbc 5de2 0d3c 2543 28bc a73c cfbb
00000170: 767e d43c b13c ad3c 3469 06bd de4a 283c
00000180: 6515 8e3a 31d8 02bd 13ea 00bb a5bc fcbc
00000190: 0130 69bc fca7 7cbc d9b5 b2ba 02ca 873b
000001a0: d75e 2c3b 06c4 9e3c ae53 19bc fa14 55b9
000001b0: b78b dfbb 82b4 cbbc cdab 30bc 7deb 29bc
000001c0: a3f8 f9bb 9da9 823b b160 203c 88a0 11bd
000001d0: a18d b83c 5faa e3bc e011 8cba 4fc7 e8bc
000001e0: 1c45 053b 6002 64bb 0f83 9ebb 820c 54bb
000001f0: 87c2 87bc 47c6 313c eaac cfbb 4f01 f53c
00000200: c93f 953c 367a 073c 8f31 f8bc 24fb 873c
00000210: 1aa9 adbc fe50 d1bc d92d 96bb d5df 94bb
00000220: 8a35 76bc ff7e b3bc 552a 3cbc 0969 c73b
00000230: b068 66bb f045 c5bc 59cb 3e3c 2d6b 453c
00000240: 5a21 87bc f0f0 5a3c 8025 d7bc 9baa 56bc
00000250: a947 7e3b 8b13 5abc 863f 04bc 924c 29bc
00000260: 026e 83bc 5d23 c23c fb03 20bc 1ca4 c7bc
00000270: 597b b83a 0183 7a3c 8414 f4bb 3b37 7bbc
00000280: cdae 013b 82e7 bbbb 6978 473c cfac 1dbc
00000290: e1ce abba 6923 8bbb 0f63 cf3b ce38 afbb
000002a0: bae6 64bc f8be df3a 055c 75bc 1a6e 3fbc
000002b0: 7989 7bbc 5c42 1b3c c69a a8bb e1f1 a83a
000002c0: 0433 753b 6cd0 72bc 07a5 db38 cc89 51bc
000002d0: 5612 0b3c 124f 933b beb7 1bbc dc7c bdbb
000002e0: aa10 1f3c f8cc 25bb b707 a5bc cebd dabc
000002f0: a57b 08bc dd13 98bb 1163 8dba 2a06 3bbc
00000300: 78d6 16bd 66a0 27bc e576 18bc 4759 b3bb
00000310: f23d 53bc 7b58 8fbb 5bb3 42bc f8aa db3c
00000320: 5100 8c3c 15f2 b7bb fc67 aebc ee1a 04bc
00000330: 9862 983c 1926 29bc c5af 10bd 20fc 4f3c
00000340: 544c 17bb 59d3 cf3c 4076 1ebd 7e18 ba3a
00000350: c9f7 fcbb 4f79 b1bc 5f08 533c 6259 71ba
00000360: fcd0 2abc d3aa e2bc da5f 95bc 77b4 893c
00000370: 9415 93ba f457 35bc d6e6 5dbb 8a41 7bbc
00000380: ca95 26bb 1614 9bbc 525c f2bb 2e02 9bbc
00000390: 6510 d1bc 7d3a debc c9d4 f339 d867 333c
000003a0: 23d1 9ebc e632 4b3d 2a0e 26bc 89f6 28bc
000003b0: d5f1 24bb a3fc d5bc 07fe 97bb 5b07 d8bb
000003c0: 5123 98bc ad24 8bbb 3eb7 90bc 1916 29bc
000003d0: eb97 173c 536f 6fbc 488e 173d 4e19 fbbc
000003e0: 1845 68bc 763b 0fba 7e5f b3bb b7ce d1bc
000003f0: 5f4d e1bc 46b8 cfba 1f7c cbbc 0260 093b
-0.0009354278 -0.009754856 0.011106085 0.00833846 -0.0016169372 -0.030803552 -0.008989675 -0.0006915002
-0.011977827 -0.0031023035 -0.0023565735 0.0011231526 -0.0034777347 -0.013333451 0.025854737 0.014941269
-0.014504389 0.0036125577 -0.025159216 -0.0020294806 0.011836377 0.010018023 -0.024432901 0.0072738677
-0.0060853567 0.010634411 -0.0062158266 0.005550089 -0.0027617367 0.021608746 -0.006814724 -0.017179562
-0.0063966652 -0.028013933 -0.005464619 -0.010978414 -0.0012607429 -0.00072520686 0.010165958 0.0026033157
-0.005862739 0.00027923097 -0.032010432 0.0026636107 -0.023866719 -0.005319092 -0.01893809 0.03477807
0.017254015 0.008353 -0.0073733656 -0.018978216 0.011591232 -0.005142889 -0.0003180188 0.00545662
0.003717176 0.0046436805 0.000467306 -0.02194255 -0.009550509 0.009482931 -0.011081526 -0.0362027
0.010325461 -0.001229173 0.029887335 -0.0041528125 -0.0071798936 -0.0040242807 -0.0011972764 0.030316452
0.012709784 -0.02388715 -0.0050629694 -0.020657852 -0.008540281 -0.016512757 -0.03238398 -0.008445292
-0.001744745 0.0020520275 -0.02088477 0.0043278965 0.0030377922 0.0025252663 0.02839251 0.0018893661
-0.009736462 0.008659926 -0.010269915 -0.006324369 0.025939208 0.021147104 -0.032815173 0.010271756
0.0010840116 -0.031944457 -0.001967077 -0.030851671 -0.014232636 -0.01542091 -0.0013634517 0.0041439543
0.0026301646 0.01938058 -0.00935833 -0.00020321077 -0.006822075 -0.024866346 -0.010783148 -0.010371086
-0.0076285168 0.0039875046 0.009788678 -0.035553485 0.022528471 -0.0277912 -0.001068648 -0.02841535
0.0020335382 -0.0034791455 -0.0048374007 -0.0032356088 -0.01657225 0.010850496 -0.0063377516 0.02990785
0.018218892 0.008268883 -0.030297069 0.016599245 -0.021198798 -0.025551315 -0.004583102 -0.0045432844
-0.015027413 -0.021911142 -0.011484702 0.006085519 -0.0035157613 -0.0240812 0.011645162 0.0120494785
-0.016495395 0.013363108 -0.026262999 -0.013102199 0.0038800037 -0.0133103235 -0.008071786 -0.010333197
-0.016043667 0.023698503 -0.009766574 -0.024370246 0.0014074846 0.015290023 -0.0074487347 -0.015332992
0.0019788027 -0.005734385 0.012174704 -0.00962372 -0.0013107919 -0.0042461646 0.0063289474 -0.005347348
-0.013971025 0.0017070463 -0.014975552 -0.011683965 -0.0153526 0.0094762705 -0.0051454036 0.0012889468
0.003741444 -0.014820199 0.000104734725 -0.012789201 0.008488258 0.00449551 -0.009504257 -0.0057827067
0.009708563 -0.0025299173 -0.02014528 -0.026701834 -0.00833026 -0.0046410398 -0.001078697 -0.011415044
-0.036825627 -0.010231113 -0.00930569 -0.005473289 -0.012893187 -0.0043745614 -0.011883582 0.026814923
0.017089995 -0.005613575 -0.021289818 -0.008063061 0.0186017 -0.010324025 -0.035323877 0.012694389
-0.0023086267 0.025369333 -0.03868699 0.0014197973 -0.007719968 -0.02166429 0.012880414 -0.00092067395
-0.010425802 -0.027669346 -0.018234182 0.016809685 -0.0011221641 -0.011068333 -0.0033859513 -0.01533545
-0.002541887 -0.018930476 -0.0073962593 -0.018921938 -0.025520513 -0.027127499 0.0004650711 0.010950051
-0.019386834 0.049609087 -0.010135213 -0.010312685 -0.0025168557 -0.026121443 -0.0046384367 -0.0065926737
-0.018571528 -0.0042463155 -0.017665502 -0.01032021 0.009252529 -0.014613944 0.037000924 -0.030651715
-0.0141766295 -0.00054638775 -0.00547403 -0.025611265 -0.027502714 -0.0015847764 -0.024839459 0.0020961766

action_model._discrete_distribution.branches.0.bias f4 [7]
00000000: 1fa3 0e3c 4af3 4e3c 5d8b f7ba 3527 a9bc
00000010: b3c3 adba b9f8 573a 9854 46ba
0.008705883 0.012631247 -0.0018886138 -0.020648578 -0.0013257175 0.00082386617 -0.0007565706

exp_avg f4 [128, 163]
00000000: e906 fb37 1c35 1c37 93e7 75b8 f342 eb38
00000010: 80c5 0339 671e 3838 9626 1e37 b260 76b8
00000020: ddf3 cd38 e3e4 e338 48b0 0e37 4124 0137
00000030: 58f5 61b8 d2cb 0839 54de 1639 39a1 7b38
00000040: 9860 7037 534b 3cb8 83e0 8438 d76e d138
00000050: 67c7 4238 b038 1837 fea4 6bb8 41ff c338
00000060: a00f f038 7ab5 fb37 c4c1 9837 2c86 52b8
00000070: d4bc c638 fbef f538 5717 8d38 2c83 0635
00000080: b621 5db8 0904 a338 1c7c d638 c4d5 3c38
00000090: 3c18 a637 2ebb 03b8 6008 7938 4096 b238
000000a0: f222 3938 c7fe a236 fcf7 3db8 26d2 ba38
000000b0: 8a09 d438 8a01 3338 8f8e d137 8b04 b7b7
000000c0: 8ce8 4438 5482 5638 8ab9 6038 ad85 a936
000000d0: 7a9d 37b7 352c 3d38 7dcc a138 1862 9238
000000e0: cbc7 d137 902e 8cb6 28cd 1036 8e07 1e38
000000f0: b506 a438 c333 8eb6 728d d1b6 a633 d237
00000100: 1406 8138 cd00 1e38 7b2e b137 a9bb 2f37
00000110: 3e50 c537 20fb 4638 087d b138 0d53 6bb6
00000120: 4215 f1b5 89cb 6137 a41f 5f38 5c70 c037
00000130: 1846 a537 f7bb 9837 dcf5 0538 fb8e 4c38
00000140: 1709 ad37 5605 8bb6 e9ab f436 dbba 9038
00000150: 80a8 8b38 64d7 2c38 29a9 8936 7fd0 7937
00000160: 6aae 0838 611f 5e38 fcfd e837 c771 4db7
00000170: aba1 bc37 b2bb 6538 82f8 9438 6823 8538
00000180: 9259 45b6 aa4b 2a37 e255 b937 c3f8 4238
00000190: 7c93 de37 0229 0bb6 5d61 b237 3467 4538
000001a0: 382d 8c38 40b2 7938 a00a 7fb6 8a4b 8e37
000001b0: 768f a837 12d4 3d38 e658 0f38 6f80 a7b6
000001c0: 43ed c737 97cf 2638 a9f5 9238 2819 9d37
000001d0: 76b2 7e36 c0dd 0738 97d9 1e38 bb62 6638
000001e0: 46e0 4e38 90dd f334 a625 2037 a85d 0c38
000001f0: 59df 8838 02a5 1d38 47ef 7636 5a14 4138
00000200: 0e36 b836 5e09 5e38 0c9b 4938 d07b dd36
00000210: a9ca 4f37 cae3 d737 bd76 8a38 3ec9 4037
00000220: bea7 0a37 70a6 1d38 66ac 1438 5451 9538
00000230: 3e02 1238 16e1 ff36 72c3 8b37 014f 0d38
00000240: a5e9 8738 3df7 8137 08b0 1137 86e3 0d38
00000250: f1e3 1138 a265 8738 3df7 8137 08b0 1137
00000260: 86e3 0d38 f1e3 1138 a065 8738 78f7 58b6
00000270: 65dd 1b37 5261 8837 9d2f bc3b f733 8438
00000280: 736a af38 198e ed37 94d9 a938 c0c0 12b6
00000290: 1c65 6cb6 78ad e2b7 e492 0137 1661 d036
000002a0: db1a c3b5 36c7 a3b6 6d9d eeb7 4ff0 2337
000002b0: 3bf1 f036 fe5b 1bb7 c6e8 a8b6 350d 02b8
000002c0: db39 aa37 aa0d 5b37 cd71 ee35 6ec8 efb6
000002d0: df0b e3b7 6e38 f936 2841 a836 545e 04b7
000002e0: fe34 abb6 e3db ddb7 181f 7237 fbe8 0037
000002f0: a404 9036 ba03 17b7 b691 d1b7 a226 9d36
00000300: ccc3 4936 61b6 7f36 aa91 c1b6 6996 a2b7
00000310: d325 76b6 1398 90b6 1c4e 6136 ff36 92b6
00000320: a5e8 f8b7 840f be36 0cf6 8935 33e4 c0b6
00000330: ac54 83b6 4d28 57b7 1033 29b6 08e5 8cb6
00000340: dcb0 b8b4 90d8 12b6 2be8 d5b7 ffe9 4a36
00000350: c0aa cdb5 335d 0ab7 4690 22b6 cabb c4b6
00000360: 5c32 0eb7 e545 57b7 1edb a6b5 9b2f 66b6
00000370: ed38 a1b7 f4c2 95b5 70f8 edb6 1d99 31b7
00000380: 3b48 d4b5 36f7 06b6 8eb1 35b7 0a91 87b7
00000390: 57d6 8635 4e12 26b6 32ae 59b7 8239 31b7
000003a0: c8f8 66b7 b949 62b7 8326 9fb5 c841 20b6
000003b0: 8552 05b7 7de9 8cb7 c811 83b6 89f9 ceb5
000003c0: 331a 0fb7 3a0f 39b7 24d1 8eb7 340d 82b7
000003d0: 2773 a8b5 9b2b e8b5 89c6 dab6 0b46 a5b7
000003e0: 3a3f 18b7 50e5 6db4 7e92 c9b6 74d1 22b7
000003f0: f209 74b7 82c3 fcb6 98ce bcb4 1733 8fb4
2.992475e-05 9.31069e-06 -5.8628222e-05 0.000112181435 0.00012566708 4.3897333e-05 9.426518e-06 -5.8741025e-05
9.820585e-05 0.00010866837 8.504903e-06 7.69744e-06 -5.3872674e-05 0.000130459 0.00014387938 5.9993214e-05
1.4327605e-05 -4.4892844e-05 6.336069e-05 9.986542e-05 4.6438912e-05 9.073105e-06 -5.6182027e-05 9.345869e-05
0.00011447002 3.0006038e-05 1.8210041e-05 -5.019286e-05 9.476548e-05 0.0001172721 6.727751e-05 5.010977e-07
-5.27219e-05 7.773197e-05 0.00010227432 4.5021778e-05 1.9800027e-05 -3.140716e-05 5.9374026e-05 8.515688e-05
4.4139982e-05 4.857636e-06 -4.5292065e-05 8.908314e-05 0.000101107245 4.267836e-05 2.4981126e-05 -2.1817415e-05
4.6946618e-05 5.1142953e-05 5.357856e-05 5.0521544e-06 -1.0944315e-05 4.5102282e-05 7.715167e-05 6.980094e-05
2.5007777e-05 -4.1777457e-06 2.1577089e-06 3.767717e-05 7.821379e-05 -4.2379556e-06 -6.245152e-06 2.5058001e-05
6.1523315e-05 3.767088e-05 2.1121688e-05 1.0474506e-05 2.3521596e-05 4.7440757e-05 8.4633066e-05 -3.506607e-06
-1.7962086e-06 1.3458434e-05 5.319681e-05 2.2940505e-05 1.9702173e-05 1.820734e-05 3.1938645e-05 4.877055e-05
2.062744e-05 -4.143144e-06 7.2917796e-06 6.9012596e-05 6.659422e-05 4.1208594e-05 4.102611e-06 1.4890101e-05
3.2587363e-05 5.295815e-05 2.7774826e-05 -1.2245443e-05 2.2486629e-05 5.477266e-05 7.103478e-05 6.348529e-05
-2.9407424e-06 1.01504065e-05 2.209371e-05 4.648488e-05 2.653314e-05 -2.0736484e-06 2.1264592e-05 4.7064575e-05
6.684143e-05 5.9532234e-05 -3.8004146e-06 1.6962895e-05 2.0093965e-05 4.5258617e-05 3.417665e-05 -4.9919395e-06
2.3833132e-05 3.9770817e-05 7.00758e-05 1.8727573e-05 3.7952827e-06 3.239303e-05 3.7872782e-05 5.4928223e-05
4.93231e-05 4.5423485e-07 9.545509e-06 3.3465825e-05 6.526587e-05 3.7585392e-05 3.6796134e-06 4.603374e-05
5.48992e-06 5.293765e-05 4.8066533e-05 6.600727e-06 1.2385347e-05 2.573607e-05 6.6024695e-05 1.1490947e-05
8.2644965e-06 3.7586724e-05 3.544651e-05 7.120022e-05 3.48112e-05 7.6257957e-06 1.6661103e-05 3.3690598e-05
6.480821e-05 1.5493128e-05 8.683659e-06 3.3828917e-05 3.478298e-05 6.456232e-05 1.5493128e-05 8.683659e-06
3.3828917e-05 3.478298e-05 6.456231e-05 -3.2330554e-06 9.290267e-06 1.6257782e-05 0.0057429806 6.30393e-05
8.364478e-05 2.8318771e-05 8.099075e-05 -2.186789e-06 -3.5225594e-06 -2.7022077e-05 7.7232e-06 6.2101853e-06
-1.4536448e-06 -4.8809698e-06 -2.8445118e-05 9.771508e-06 7.1806403e-06 -9.2601385e-06 -5.0338886e-06 -3.1006715e-05
2.029252e-05 1.3056599e-05 1.7765502e-06 -7.146088e-06 -2.7066037e-05 7.4273476e-06 5.0143753e-06 -7.889776e-06
-5.1023662e-06 -2.6447646e-05 1.4431564e-05 7.6836395e-06 4.2920747e-06 -9.001169e-06 -2.4982593e-05 4.683462e-06
3.0065303e-06 3.810412e-06 -5.7688057e-06 -1.9381945e-05 -3.6678873e-06 -4.309238e-06 3.3573078e-06 -4.3575415e-06
-2.9672237e-05 5.6642475e-06 1.0278904e-06 -5.748612e-06 -3.9139613e-06 -1.2824382e-05 -2.5212685e-06 -4.198988e-06
-3.4401353e-07 -2.1881751e-06 -2.549969e-05 3.023655e-06 -1.5323385e-06 -8.247141e-06 -2.422386e-06 -5.8631167e-06
-8.475585e-06 -1.2831272e-05 -1.2431735e-06 -3.430038e-06 -1.9219204e-05 -1.1158104e-06 -7.0920723e-06 -1.0585672e-05
-1.5816253e-06 -2.0111452e-06 -1.0829781e-05 -1.6160793e-05 1.0046159e-06 -2.4746582e-06 -1.2974766e-05 -1.0563412e-05
-1.3766992e-05 -1.3487815e-05 -1.1857632e-06 -2.3880148e-06 -7.946631e-06 -1.6798027e-05 -3.9061742e-06 -1.542082e-06
-8.529564e-06 -1.10304045e-05 -1.7025108e-05 -1.5503356e-05 -1.2550489e-06 -1.7298038e-06 -6.520019e-06 -1.9702149e-05
-9.074627e-06 -2.2155768e-07 -6.0073207e-06 -9.70472e-06 -1.4545849e-05 -7.5329453e-06 -3.5168046e-07 -2.6672998e-07

exp_avg_sq f4 [128, 163]
00000000: bd42 0731 cb09 0531 314d f62f 6cff 3932
00000010: 2870 8132 9c37 1031 739a 0831 f075 e42f
00000020: 0628 4e32 aa40 8532 746a 5c31 d1a0 ea30
00000030: 5d08 0930 8d8c 2132 8ba0 7332 cbd8 5831
00000040: dd20 0031 63ce 982f d8f2 2232 cef9 7232
00000050: 1290 2331 edf4 e230 d3b0 1130 3012 2832
00000060: 99a1 7932 73b0 2631 7c14 fa30 d657 972f
00000070: 4755 4732 3891 8032 0da0 1b31 88d8 e530
00000080: 2809 0330 6778 3332 84b6 7c32 8fc2 8b31
00000090: e7aa dd30 cbbf 622f 08c7 1132 a043 5c32
000000a0: c03b 4331 8e7b f630 449f 1a30 ad4c 1d32
000000b0: 2bdb 6d32 8e78 5031 250f d830 62f8 322f
000000c0: ca71 1632 3c27 5832 5ad9 6a31 8144 fc30
000000d0: f1c8 1830 7313 0132 2934 5b32 6baf 5731
000000e0: 84de e930 8403 362f cdb7 1232 7629 5232
000000f0: 148b 4531 2c0e fb30 d480 2930 2308 1832
00000100: 596b 6332 600d 2631 4d35 e330 4a97 562f
00000110: 86fd 2a32 086b 6132 ca46 5b31 cfe0 1631
00000120: 74a0 0630 796f 2532 2f08 6332 ce48 1531
00000130: 5182 f230 e95c 432f 08c3 3332 30db 6a32
00000140: dd1e 5031 c717 2231 adc0 df2f 579a 2d32
00000150: 7959 6532 26aa 1931 eb4d ff30 a067 0f2f
00000160: 8784 2832 a8f9 6632 7d08 6031 1633 0731
00000170: c4cc a62f 18a3 2032 e992 6332 f17a 3d31
00000180: 3ecc ec30 ffdb 2e2f 2bc7 1932 1fec 5e32
00000190: 0eda 4331 6116 0431 c62c 8c2f effc 3132
000001a0: dbce 7432 d965 3f31 3f4d d630 c930 3a2f
000001b0: 153d 2a32 4a9f 6932 969b 1131 a56b d730
000001c0: ef3b 682f 85ee 6132 cd0a 8b32 f816 2531
000001d0: 4b90 bc30 f02a 3e2f 8be9 4732 8877 7332
000001e0: 87e6 3a31 dcad ad30 bc5b 1b2f 0ae1 6a32
000001f0: 74c9 8e32 4953 3431 0191 b830 fa1e 542f
00000200: b7e1 3432 e20f 7032 9d0d 3831 b070 9330
00000210: a76a 0f2f d254 4032 b6f3 8532 bdbe 2331
00000220: c789 aa30 7ea4 4d2f 97b9 5332 3343 8432
00000230: 9902 1731 ea68 9e30 7521 172f 15fe 4c32
00000240: 4d4a 8832 a22a 3831 1692 9b30 7583 3c2f
00000250: 5592 5232 ec18 8832 a22a 3831 1692 9b30
00000260: 7583 3c2f 5592 5232 ed18 8832 cf92 402e
00000270: 4a6a 0130 376c cb31 b709 a439 54e9 2032
00000280: 10a6 8d32 76e2 0131 41cd 8432 ba1b ba2d
00000290: 2a56 132d 40cf 3c2e 7ac3 582e 442f 8d2e
000002a0: fad1 a52d f22d 312d bf85 4d2e dbee 782e
000002b0: 8530 8d2e aa6a c72d a11d e22c d65d 462e
000002c0: 1975 8e2e 5edf 9d2e fae8 d32d f3ae 5c2d
000002d0: 40f7 282e 8955 512e 6399 882e a225 d32d
000002e0: ac8e e92c 07b4 322e b852 872e 5084 9a2e
000002f0: e031 812d 6c99 852d 9981 2e2e 31b5 722e
00000300: a90b 902e 240a e12d 091b f92c 7326 d42d
00000310: aea9 6a2e 9ddc a22e b93c 7d2d b190 ab2d
00000320: 5a25 562e d43e 4c2e 879e 862e 7947 022e
00000330: 7dbe a92c 3e62 7a2d 66b8 882e 62bb ae2e
00000340: 8552 3f2d d25b b62d d3ff 452e ae93 422e
00000350: 5153 802e 492e fe2d 495a 912c 812c fa2c
00000360: fe78 842e 9774 c62e 0340 372d 1af9 da2d
00000370: 112e 1a2e c045 4d2e 67a5 8c2e 216f 022e
00000380: ce86 5b2c bf7a 932c df27 b42e f48d e22e
00000390: 0452 5d2d e875 e22d 4c7b 9a2d 6d69 852e
000003a0: c7e8 a72e e809 272e be32 6a2c 06ee 302c
000003b0: 2e7e 9e2e 5882 d42e 7d4f aa2d da78 e72d
000003c0: c627 572d d0f2 852e 44b9 af2e 72c3 1e2e
000003d0: 4601 6a2c 1e6d f42b 8818 922e e378 e52e
000003e0: 0958 c62d 8a72 df2d 83d1 1e2d f93d 602e
000003f0: 99ee a12e 0d70 012e 535e 882c ccd7 f02b
1.9683022e-09 1.9359614e-09 4.4801987e-10 1.08264935e-08 1.506858e-08 2.0986368e-09 1.98784e-09 4.1556758e-10
1.1999878e-08 1.5512644e-08 3.2074725e-09 1.7071448e-09 4.9852195e-10 9.403391e-09 1.4180965e-08 3.155537e-09
1.8645132e-09 2.7795286e-10 9.484857e-09 1.4143053e-08 2.3801516e-09 1.6513276e-09 5.3001975e-10 9.783022e-09
1.4530451e-08 2.425648e-09 1.8195716e-09 2.752915e-10 1.1602714e-08 1.4967199e-08 2.2646447e-09 1.6723485e-09
4.7670534e-10 1.0446548e-08 1.470983e-08 4.067551e-09 1.612844e-09 2.0622719e-10 8.485365e-09 1.28210615e-08
2.8410199e-09 1.7933972e-09 5.6251204e-10 9.156037e-09 1.3845049e-08 3.033651e-09 1.5720373e-09 1.6277249e-10
8.757022e-09 1.2581776e-08 3.4175032e-09 1.8354883e-09 5.5582833e-10 7.5132105e-09 1.2759338e-08 3.1386331e-09
1.7016224e-09 1.6554053e-10 8.54011e-09 1.2233036e-08 2.874633e-09 1.8266682e-09 6.166492e-10 8.8494145e-09
1.3237547e-08 2.4163782e-09 1.6531573e-09 1.9516935e-10 9.952947e-09 1.312106e-08 3.1908933e-09 2.1955662e-09
4.8976934e-10 9.62961e-09 1.3215e-08 2.1723738e-09 1.7644856e-09 1.7768155e-10 1.0463516e-08 1.367043e-08
3.0285527e-09 2.3587619e-09 4.0700368e-10 1.0105018e-08 1.3349898e-08 2.2361148e-09 1.8575838e-09 1.3042589e-10
9.80902e-09 1.3444527e-08 3.2601115e-09 1.9674125e-09 3.034072e-10 9.350309e-09 1.32465425e-08 2.7573004e-09
1.7229309e-09 1.5903366e-10 8.951058e-09 1.2975788e-08 2.8500184e-09 1.922125e-09 2.5497665e-10 1.0360266e-08
1.4249703e-08 2.7852052e-09 1.5592504e-09 1.6933933e-10 9.909191e-09 1.3598603e-08 2.1188717e-09 1.5673903e-09
2.112157e-10 1.3150957e-08 1.6186641e-08 2.4023716e-09 1.3719811e-09 1.7295654e-10 1.1636426e-08 1.417164e-08
2.7197602e-09 1.263682e-09 1.4129758e-10 1.3671761e-08 1.6622586e-08 2.624079e-09 1.3428975e-09 1.9292293e-10
1.0528701e-08 1.397345e-08 2.6783262e-09 1.0727685e-09 1.3043665e-10 1.1195157e-08 1.5594065e-08 2.3828044e-09
1.2408287e-09 1.8703081e-10 1.2324015e-08 1.5397381e-08 2.1974869e-09 1.1525831e-09 1.3745256e-10 1.1932134e-08
1.5866272e-08 2.6799758e-09 1.1319254e-09 1.7145203e-10 1.2256881e-08 1.5843817e-08 2.6799758e-09 1.1319254e-09
1.7145203e-10 1.2256881e-08 1.5843819e-08 4.3786138e-11 4.708097e-10 5.92038e-09 0.00031287756 9.366278e-09
1.6490077e-08 1.8900699e-09 1.5460161e-08 2.1158065e-11 8.375115e-12 4.2930326e-11 4.9286332e-11 6.420334e-11
1.8851577e-11 1.0071487e-11 4.6730394e-11 5.6600818e-11 6.4205564e-11 2.2671049e-11 6.426596e-12 4.510333e-11
6.478213e-11 7.1792114e-11 2.4091385e-11 1.2544399e-11 3.841838e-11 4.759707e-11 6.211811e-11 2.4004635e-11
6.638098e-12 4.063241e-11 6.153783e-11 7.0266126e-11 1.4687751e-11 1.5188482e-11 3.9678125e-11 5.518536e-11
6.550433e-11 2.5584042e-11 7.080007e-12 2.4118684e-11 5.3356146e-11 7.406096e-11 1.4394868e-11 1.9504705e-11
4.869114e-11 4.6440032e-11 6.1217746e-11 2.962206e-11 4.8244173e-12 1.4232669e-11 6.21732e-11 7.94589e-11
1.0875416e-11 2.0731781e-11 4.501983e-11 4.424166e-11 5.835566e-11 2.8897012e-11 4.1311715e-12 7.1103683e-12
6.0241576e-11 9.024708e-11 1.0416559e-11 2.4894354e-11 3.505646e-11 4.6673554e-11 6.395844e-11 2.965728e-11
3.1196603e-12 4.191619e-12 8.192535e-11 1.0302506e-10 1.2580607e-11 2.5745586e-11 1.7562528e-11 6.066867e-11
7.63563e-11 3.7980202e-11 3.3281568e-12 2.5143234e-12 7.207422e-11 9.6637975e-11 1.9362062e-11 2.6315328e-11
1.22301665e-11 6.091272e-11 7.9909884e-11 3.609863e-11 3.3254107e-12 1.7367529e-12 6.643669e-11 1.0435188e-10
2.254909e-11 2.540303e-11 9.027781e-12 5.0986746e-11 7.363816e-11 2.9430725e-11 3.8758246e-12 1.7112921e-12

exp_avg f4 [128]
00000000: 8a97 c238 c0c8 d1b7 5dfd 0a38 ada3 25b7
00000010: 3a2e 73b8 a8fd a035 a6e0 df37 f587 aeb6
00000020: ff28 c7b6 7d9b 93b6 8989 05b7 4642 7fb7
00000030: 3c28 24b8 5477 a336 0af1 a8b6 0213 a2b7
00000040: f00c bd34 9ae9 d1b6 bb4c 3db7 aebd 6b36
00000050: 6c89 8d37 9ffb 0738 293b 0db8 c7df 5db7
00000060: c184 04b8 fa8c 81b6 c2cf 46b6 4aff c836
00000070: 52c7 86b8 f07d fab5 895e 7c36 8f21 9ab7
00000080: 362b 0f38 a00b 84b8 2399 06b7 e55e 87b6
00000090: e002 01b8 e66e 75b8 4da2 5137 c23f c1b7
000000a0: 6add 1eb8 2bdd beb8 64e9 b4b6 b7f0 ce34
000000b0: 518e 8036 5474 d4b7 082c 7936 3874 c435
000000c0: a9a3 b4b6 e085 e735 6809 9835 64ad c1b6
000000d0: f64e 26b7 9ad7 89b8 e24f 3db6 1ded f4b6
000000e0: ac4a 77b8 01eb cc35 7994 b138 59a1 95b6
000000f0: aed2 ffb7 6816 6f37 8f0e 0838 9499 d4b6
00000100: 5273 b537 157b d5b6 c05a a0b7 ce53 91b7
00000110: c163 ce36 56e7 dbb6 2b6e a737 4cce 3e37
00000120: cf7b dd36 5a7f fa34 0439 1638 481b 8a36
00000130: 2e88 f037 7454 bd38 34f8 9eb8 e040 e334
00000140: 8bbe 9ab6 777e 7038 f47c d135 b4c3 0f38
00000150: 7477 9fb7 6e87 7eb7 dfca 20b7 79d3 c837
00000160: 10ca ca36 b0fa a836 0a36 29b7 0c2a 1cb6
00000170: c461 87b6 0a7d 3cb7 5639 8237 d1c2 3a36
00000180: 32f6 7e36 ad1c 5238 281a 1138 6299 b437
00000190: 2cf5 6eb8 d1e2 e0b7 1082 eeb6 f637 f0b6
000001a0: b696 9fb7 e187 e835 484c ceb4 2471 6538
000001b0: ceba 28b8 287a f237 60b2 6cb7 5487 eab7
000001c0: 901e 9737 2a8d e8b6 319c a836 1703 3638
000001d0: 64f1 e836 f0a5 0db7 e2e0 02b8 7d91 a4b7
000001e0: ddaf 00b7 24a6 fcb7 b6ba 3138 b5f2 adb6
000001f0: 4b7e ffb5 8987 d137 88aa 5638 bc18 ab38
9.278867e-05 -2.5008223e-05 3.3137727e-05 -9.872875e-06 -5.7978767e-05 1.1994753e-06 2.6688282e-05 -5.2014316e-06
-5.9354347e-06 -4.3990426e-06 -7.95944e-06 -1.5214615e-05 -3.9138118e-05 4.87167e-06 -5.034851e-06 -1.9320756e-05
3.5213407e-07 -6.25588e-06 -1.1283143e-05 3.5128137e-06 1.6872502e-05 3.242085e-05 -3.3672117e-05 -1.3224729e-05
-3.159489e-05 -3.8609114e-06 -2.962523e-06 5.990184e-06 -6.426744e-05 -1.8663104e-06 3.7605953e-06 -1.8373858e-05
3.41341e-05 -6.296416e-05 -8.022677e-06 -4.0343607e-06 -3.0758674e-05 -5.8515834e-05 1.2495159e-05 -2.3037082e-05
-3.7876343e-05 -9.101102e-05 -5.3915883e-06 3.8545633e-07 3.831265e-06 -2.5326539e-05 3.712952e-06 1.4636962e-06
-5.3834706e-06 1.7249804e-06 1.132762e-06 -5.7720335e-06 -9.912756e-06 -6.572828e-05 -2.8209693e-06 -7.2993703e-06
-5.8958933e-05 1.526758e-06 8.467673e-05 -4.4593294e-06 -3.0496474e-05 1.4250727e-05 3.2438486e-05 -6.335971e-06
2.1630582e-05 -6.3622233e-06 -1.9115745e-05 -1.7324372e-05 6.1508913e-06 -6.5536397e-06 1.9959252e-05 1.1372915e-05
6.6007265e-06 4.665879e-07 3.5815887e-05 4.1158964e-06 2.8673643e-05 9.027953e-05 -7.5802585e-05 4.2329248e-07
-4.6117398e-06 5.733824e-05 1.560808e-06 3.427612e-05 -1.9009902e-05 -1.5171112e-05 -9.583978e-06 2.3940333e-05
6.0435923e-06 5.035974e-06 -1.0085767e-05 -2.3270286e-06 -4.034695e-06 -1.1234786e-05 1.5523907e-05 2.7829558e-06
3.7992254e-06 5.0094608e-05 3.4595054e-05 2.1529097e-05 -5.6971956e-05 -2.68085e-05 -7.108094e-06 -7.159072e-06
-1.9024457e-05 1.7324893e-06 -3.8425992e-07 5.4703225e-05 -4.0228297e-05 2.8905532e-05 -1.4108227e-05 -2.795799e-05
1.8014834e-05 -6.9305725e-06 5.0249732e-06 4.339506e-05 6.9422404e-06 -8.44289e-06 -3.1203854e-05 -1.9618072e-05
-7.670341e-06 -3.0118106e-05 4.2373977e-05 -5.1840566e-06 -1.9035737e-06 2.4977855e-05 5.1180396e-05 8.1585225e-05

exp_avg_sq f4 [128]
00000000: 2d4f ae32 fd91 182f 21e5 2431 3b17 122e
00000010: ce5a 3031 f826 7131 3101 5431 8e6d a82e
00000020: b277 c82d f678 312e 991b 1e2e a53e 0331
00000030: 1a80 3b31 e510 b531 b8d9 ad2d 98f5 0332
00000040: 79b9 ed2d df37 c12e 22b6 8931 3597 2d2e
00000050: 74a6 4330 98a2 3231 d6ec ed31 95aa 7f2e
00000060: b511 752f 2bd5 bc2d 5579 032e 3f07 f22e
00000070: 0f14 de30 2c33 8b2f 12c9 8b30 db30 c831
00000080: 37b5 9a31 9632 1832 7261 a131 9804 1d31
00000090: bcdb 4431 366a 0830 49ba 3131 4d74 4031
000000a0: cc94 5931 8311 8431 312f 2c2e d6da 252c
000000b0: 85ab 602e f5bf ff30 3e76 2f2e 85d7 1331
000000c0: 8ff4 af31 941a aa31 5545 1e2e f6c8 3f32
000000d0: b60b 3531 3279 c731 8499 1e2d cffb d231
000000e0: ebca 1532 9ee3 ef2d f7ee 8931 7f85 d22d
000000f0: 0534 112f a9da d631 e281 1832 571a 792d
00000100: 7422 8331 51c3 e62d 7c48 2d31 8731 e52e
00000110: df71 fd30 18a2 2e2e 9673 8e30 f769 7f31
00000120: 40bc c42e 36d9 c02d 5606 5532 6bfd 9e30
00000130: 4cdf 8331 7640 7231 af27 0032 858e 0d31
00000140: 8c42 0c2e 2146 ef30 b8d9 102e a2d0 0932
00000150: 0074 012f 8d09 992e 90cc 242e 50e3 8c31
00000160: 3b30 1a31 7992 432e e74b 002e 7815 852d
00000170: 0494 a02e 5dd1 7b2d 67e9 a130 d803 8231
00000180: 4922 962f 8da2 5931 e200 3531 8bde e930
00000190: 7e67 ae31 789a 2431 2971 282e c24e 4531
000001a0: c18d 7d30 f16a d82d 2dd4 a031 63c5 0631
000001b0: 1055 3b31 83d7 3831 e520 2632 3d4f 8a2f
000001c0: e197 0731 b9d1 b02d 948f 422e 0267 4031
000001d0: d56e be2e 3ddb 5f2e fb49 5431 15ad 742f
000001e0: d2df b62d 7f5d 4031 4cdc bb31 2318 b92d
000001f0: 9725 952e db10 af2f dcf9 f030 b69b 6031
2.0292271e-08 1.3876185e-10 2.3995386e-09 3.321719e-11 2.5662987e-09 3.5092267e-09 3.0850738e-09 7.659216e-11
2.2790523e-11 4.0352575e-11 3.5949552e-11 1.9098618e-09 2.7284899e-09 5.269714e-09 1.976451e-11 7.681045e-09
2.7026147e-11 8.7865486e-11 4.007931e-09 3.9469945e-11 7.117713e-10 2.5994833e-09 6.924533e-09 5.8131795e-11
2.2288911e-10 2.1467791e-11 2.9893716e-11 1.1006173e-10 1.6158327e-09 2.5320313e-10 1.0170729e-09 5.8263203e-09
4.5025916e-09 8.859066e-09 4.696795e-09 2.2849118e-09 2.8646658e-09 4.9627447e-10 2.586278e-09 2.8005787e-09
3.1662237e-09 3.8436965e-09 3.9150187e-11 2.3569389e-12 5.1084043e-11 1.8608249e-09 3.9895413e-11 2.1513824e-09
5.1209734e-09 4.9506728e-09 3.598662e-11 1.11633565e-08 2.6345623e-09 5.8054406e-09 9.0153475e-12 6.1404317e-09
8.71908e-09 2.7272237e-11 4.014392e-09 2.393352e-11 1.3206154e-10 6.2530785e-09 8.877096e-09 1.415986e-11
3.8165187e-09 2.623471e-11 2.5216016e-09 1.0422512e-10 1.8440537e-09 3.9706988e-11 1.0364711e-09 3.7167618e-09
8.946488e-11 2.1924334e-11 1.2399672e-08 1.1568039e-09 3.8379877e-09 3.5252277e-09 7.459604e-09 2.0599213e-09
3.189142e-11 1.740947e-09 3.2935182e-11 8.021887e-09 1.1773693e-10 6.959331e-11 3.747097e-11 4.1003787e-09
2.2437365e-09 4.446796e-11 2.9171245e-11 1.5129883e-11 7.3022505e-11 1.4314186e-11 1.1780629e-09 3.783935e-09
2.7309202e-10 3.1670055e-09 2.6339468e-09 1.7016232e-09 5.075832e-09 2.3952946e-09 3.8299284e-11 2.8712042e-09
9.224231e-10 2.4603848e-11 4.6807345e-09 1.9611768e-09 2.7260434e-09 2.6898028e-09 9.669951e-09 2.5158356e-10
1.9731419e-09 2.0102019e-11 4.4238016e-11 2.799823e-09 8.6598874e-11 5.0899052e-11 3.0892113e-09 2.2253162e-10
2.07904e-11 2.7992824e-09 5.467461e-09 2.1042784e-11 6.782413e-11 3.184429e-10 1.7533313e-09 3.2684802e-09
